grasp_placement/models/run_seed_5110/stability_net.pth (torch, 42504 bytes, 7 tensors)

fc1.weight f4 [64, 21]
-0.09361859 -0.09562172 0.21901582 -0.20237443 -0.15129617 -0.2272568 0.15361516 -0.026042605
-0.09070134 -0.07638485 0.14450057 0.09225584 -0.07344726 0.23402956 -0.12379953 0.1626046
0.23914239 -0.07186349 0.19492844 0.20145594 -0.06374505 0.20351607 0.051602203 -0.059729278
-0.26189902 -0.007588324 0.14298014 0.06643211 -0.12967676 -0.036661938 -0.033743 -0.051850412
0.0107898805 0.031008344 0.08549628 0.14333826 0.1641706 0.031949632 -0.04809252 0.10307267
0.032682955 0.15577506 -0.1767579 0.006575368 0.043013047 0.29941314 -0.060559686 -0.044554472
0.07490902 -0.07596948 0.18409166 0.013531751 -0.107661076 0.03173348 -0.27885622 -0.19609869
-0.11716213 0.06586702 -0.11283539 -0.1087115 -0.1908694 0.14395216 0.12669677 0.13035122
0.24643168 0.18504491 0.23998825 0.13128997 -0.058762606 0.16128968 0.18005745 0.14070342
-0.20245497 -0.10987684 -0.06539163 0.054310832 0.18499969 -0.16297448 0.0682368 -0.13736877
0.1646832 -0.0058421837 -0.21269612 0.02728403 -0.16846108 -0.119729064 -0.15452982 -0.24163309
-0.009895701 0.23833488 -0.11892574 0.15417862 0.07751568 0.05235931 -0.09048652 -0.05818326
-0.04907208 0.080204315 -0.19014457 -0.069742955 0.08514092 0.08415699 0.17428838 0.010360034
-0.16744669 0.15134317 0.23058714 -0.089083 0.09615903 0.077831216 0.113868915 -0.24869835
0.012759945 0.055414457 -0.024977798 -0.062832944 -0.09194984 0.14434224 0.115444906 0.09061387
0.040615406 0.065055 -0.12047242 -0.05604945 -0.1490666 0.2554339 -0.0396707 -0.042410024
0.1931068 -0.006767531 0.113650024 0.09174793 0.24650575 -0.19622406 0.042472713 0.123974934
-0.07436603 -0.20935373 -0.23074175 -0.10313415 -0.110112876 -0.017160358 -0.14394131 0.033971556
-0.2777779 0.12732443 0.1963162 0.031356312 -0.19271983 -0.039919972 -0.25928488 -0.06305538
0.005443973 0.101937614 0.16924936 -0.07571173 -0.094865054 -0.16564047 -0.050994415 0.093001135
0.2199465 -0.24294153 0.034420736 -0.1359753 0.06928436 0.057559583 -0.054959647 -0.116362475
-0.15545964 -0.023222914 -0.024138007 0.051912256 0.037920672 0.13445899 0.00894116 -0.15777807
-0.043230996 0.1588891 0.22375125 0.11589752 -0.10521265 -0.21750787 -0.05061841 -0.0015830814
-0.10032875 -0.11982534 -0.19664563 0.21930286 0.0025051788 0.06484526 0.26344088 -0.12379756
-0.07752725 -0.052308057 -0.13855742 -0.047491755 -0.14715625 0.17074138 -0.03174382 -0.058906164
0.14895836 0.21451347 -0.08817554 -0.1451033 -0.044447206 -0.16140224 0.13662586 -0.205703
-0.18818492 0.2871605 -0.14283192 -0.0060371417 0.024534268 -0.068597704 0.107236296 -0.14456467
-0.09233839 -0.1443482 0.038921192 -0.12550148 0.16048336 0.04076959 -0.15016252 0.13048735
-0.14307788 -0.10137926 0.14829423 0.26167482 0.08037154 -0.20045625 0.1777243 0.047060836
-0.16664974 0.14657688 0.13741072 0.02815988 -0.09572533 -0.23464164 -0.17225486 -0.13068183
-0.11050656 -0.19507706 0.18595088 -0.18012181 0.19621238 -0.088018544 -0.099066675 -0.14531776
-0.14110966 -0.07146668 -0.039834972 0.15499303 0.14091547 -0.18052775 -0.11417119 -0.049597684
00000000: 1abb bfbd 52d5 c3bd af45 603e 3e3b 4fbe
00000010: 62ed 1abe 02b6 68be 4b4d 1d3e 4d57 d5bc
00000020: a0c1 b9bd a96f 9cbd f5f7 133e a1f0 bc3d
00000030: 846b 96bd 72a5 6f3e 9c8a fdbd d281 263e
00000040: bee1 743e 2a2d 93bd 529b 473e 774a 4e3e
00000050: c48c 82bd 8466 503e d55c 533d b0a6 74bd
00000060: a117 86be 7aa7 f8bb 6369 123e 8f0d 883d
00000070: fcc9 04be d42a 16bd 1a36 0abd 1961 54bd
00000080: 0ac8 303c 3605 fe3c ac18 af3d 44c7 123e
00000090: 561c 283e 9edd 023d aafc 44bd c417 d33d
000000a0: 90de 053d 7f83 1f3e 0600 35be 2f76 d73b
000000b0: 732e 303d ae4c 993e 6f0d 78bd c07e 36bd
000000c0: e669 993d e395 9bbd 8682 3c3e 47b4 5d3c
000000d0: 697d dcbd f7fa 013d 3ec6 8ebe 18ce 48be
000000e0: b3f2 efbd 4ae5 863d 3e16 e7bd 23a4 debd
000000f0: 4573 43be 3268 133e ccbc 013e ca7a 053e
00000100: 9658 7c3e 6a7c 3d3e 7bbf 753e e170 063e
00000110: 0fb1 70bd 1f29 253e fb60 383e 8f14 103e
00000120: 5b50 4fbe 1c07 e1bd 0cec 85bd 0975 5e3d
00000130: 8f70 3d3e c8e2 26be bcbf 8b3d 66aa 0cbe
00000140: b6a2 283e ca6f bfbb 03cd 59be c282 df3c
00000150: 1081 2cbe 8334 f5bd 113d 1ebe aa6e 77be
00000160: 9421 22bc 0f0e 743e 578f f3bd 00e1 1d3e
00000170: 8ac0 9e3d b776 563d ff50 b9bd 9251 6ebd
00000180: ceff 48bd 2942 a43d 42b5 42be 65d5 8ebd
00000190: 5d5e ae3d 805a ac3d a778 323e 22bd 293c
000001a0: 2577 2bbe b4f9 1a3e 091f 6c3e 2671 b6bd
000001b0: 07ef c43d f965 9f3d 1b34 e93d c8aa 7ebe
000001c0: 170f 513c 45fa 623d 3d9e ccbc 8fae 80bd
000001d0: 3350 bcbd 74ce 133e 616e ec3d c493 b93d
000001e0: 575c 263d 8e3b 853d 3eba f6bd 1c94 65bd
000001f0: eaa4 18be 3bc8 823e be7d 22bd 22b6 2dbd
00000200: cabd 453e 2ac2 ddbb 58c1 e83d 57e6 bb3d
00000210: 016c 7c3e f6ee 48be def7 2d3d 92e6 fd3d
00000220: 384d 98bd d360 56be 9147 6cbe ff37 d3bd
00000230: dc82 e1bd e193 8cbc 5a65 13be c225 0b3d
00000240: e838 8ebe 5661 023e 1d07 493e 7a6f 003d
00000250: 5958 45be 2083 23bd fdc0 84be 2e23 81bd
00000260: 5b63 b23b abc4 d03d b44f 2d3e c00e 9bbd
00000270: 9c48 c2bd a89d 29be 85df 50bd 6177 be3d
00000280: a839 613e aac5 78be c2fc 0c3d 1c3d 0bbe
00000290: f5e4 8d3d 99c3 6b3d 5e1d 61bd 734f eebd
000002a0: d030 1fbe fb3d bebc 12bd c5bc f2a1 543d
000002b0: b552 1b3d 9eaf 093e f17d 123c 9390 21be
000002c0: fc12 31bd d3b3 223e 0c1f 653e ae5b ed3d
000002d0: bb79 d7bd 62ba 5ebe 4055 4fbd 667f cfba
000002e0: 2979 cdbd fd66 f5bd 795d 49be ee90 603e
000002f0: ed2d 243b 97cd 843d b9e1 863e 9389 fdbd
00000300: 9bc6 9ebd f940 56bd ffe1 0dbe b786 42bd
00000310: 21b0 16be d4d6 2e3e cf05 02bd 9747 71bd
00000320: 8a88 183e 6ba9 5b3e 6195 b4bd f695 14be
00000330: 460e 36bd a146 25be a6e7 0b3e cfa3 52be
00000340: 8cb3 40be b306 933e 8842 12be 37d3 c5bb
00000350: 17fc c83c f47c 8cbd b49e db3d c308 14be
00000360: e91b bdbd 04d0 13be d46b 1f3d 7683 00be
00000370: c055 243e 03fe 263d 34c4 19be 7a9e 053e
00000380: 0283 12be ee9f cfbd 71da 173e 3efa 853e
00000390: d599 a43d 6744 4dbe 5cfd 353e ddc2 403d
000003a0: 3ba6 2abe 4018 163e 65b5 0c3e 8caf e63c
000003b0: a40b c4bd e645 70be 9463 30be 75d1 05be
000003c0: 4351 e2bd 48c2 47be e869 3e3e da71 38be
000003d0: e6eb 483e 1143 b4bd 78e3 cabd 2ece 14be
000003e0: 0d7f 10be 1f5d 92bd ff29 23bd 7eb6 1e3e
000003f0: 254c 103e 44dc 38be 96d2 e9bd f126 4bbd

fc1.bias f4 [64]
-0.011999086 -0.038087063 0.074508995 -0.080122076 -0.05580709 -0.15247731 0.15654886 0.1507847
-0.030473018 0.13812502 0.16904593 0.18721077 -0.10128056 0.1551982 -0.015634714 -0.15940282
-0.21609113 0.1532426 -0.16814043 -0.13386154 0.12113769 -0.09003968 0.021182545 0.20453244
0.20138519 -0.19691704 0.0567959 0.045590445 0.17590961 0.13920079 0.07021899 0.10834363
0.22575574 0.13465837 0.0149258785 -0.07864458 -0.19974318 -0.03597215 0.2195503 0.21146156
-0.15102346 0.19492964 -0.18616258 0.13413878 -0.13721038 0.012480222 0.08301656 0.024413023
-0.12265813 0.01465183 0.1312609 0.16466744 0.18153495 0.18804479 0.12661141 0.17355157
-0.19433744 -0.06897789 -0.0944667 -0.019246316 -0.116599955 -0.0038443203 -0.034471862 0.035883058
00000000: d097 44bc 2e01 1cbd 2c98 983d 0b17 a4bd
00000010: fa95 64bd 0323 1cbe 584e 203e 4e67 1a3e
00000020: 8da2 f9bc a570 0d3e 601a 2d3e 2eb4 3f3e
00000030: 2f6c cfbd 47ec 1e3e 5f14 80bc 7e3a 23be
00000040: fe46 5dbe a1eb 1c3e 012d 2cbe 0013 09be
00000050: 0a17 f83d b966 b8bd 0487 ad3c f470 513e
00000060: eb37 4e3e 9fa4 49be d1a2 683d 0cbd 3a3d
00000070: a621 343e a78a 0e3e f9ce 8f3d 44e3 dd3d
00000080: 832c 673e e2e3 093e ac8b 743c 6910 a1bd
00000090: 7a89 4cbe 8857 13bd cbd1 603e 6189 583e
000000a0: e5a5 1abe a39b 473e 67a1 3ebe ad5b 093e
000000b0: e180 0cbe d879 4c3c 9604 aa3d d2fd c73c
000000c0: 3034 fbbd 3b0e 703c 4269 063e 959e 283e
000000d0: 4ce4 393e d08e 403e 6ca6 013e 81b7 313e
000000e0: 6500 47be 4844 8dbd c277 c1bd 73aa 9dbc
000000f0: f5cb eebd fef0 7bbb 5e32 0dbd 1dfa 123d

fc2.weight f4 [64, 64]
0.046424307 -0.016351907 -0.11233382 -0.02363 -0.044986576 0.1091888 0.100701034 -0.0008630434
-0.1396236 -0.02129295 0.12457439 -0.07839531 0.058368713 -0.012027766 0.010545056 0.13132118
0.05900496 0.0323469 0.0945005 -0.029217565 0.0668293 0.10890624 -0.105318144 0.114923134
0.101098254 -0.03604092 0.06255092 0.040997043 -0.04873127 -0.07781074 -0.094997816 0.07900044
-0.040007405 -0.0049965614 -0.093676336 0.06489714 0.050393753 0.109392814 0.041660476 0.13167997
-0.04387122 0.04397893 -0.012585171 -0.02293101 -0.01854386 -0.05287242 -0.00025225602 0.046945862
-0.07930175 0.0078652855 -0.052524384 0.023932042 -0.03602124 -0.08016408 0.007109358 -0.048444744
-0.05870947 0.103702106 -0.09996111 -0.15074126 -0.030799085 -0.0107593 0.06889918 -0.022914775
-0.06320261 0.03508845 0.09741435 0.10627414 0.03188211 -0.1661948 0.11816775 -0.09171186
-0.111079544 0.016375642 0.076896235 0.026240733 0.10695264 -0.057856563 -0.11493807 0.10466948
-0.023320002 0.015598864 -0.004735468 0.011066489 0.106531195 0.12216498 0.019476652 -0.08405782
0.117034055 0.073213324 0.0027449923 -0.09770311 0.04087991 0.13399851 0.13866146 -0.073214635
0.060708784 -0.014413985 -0.06782221 0.09028035 -0.13518928 -0.030961122 -0.075202316 -0.07787791
-0.06938461 -0.08459425 0.09035608 0.15237339 -0.22613735 0.09051154 -0.10515126 0.021141378
-0.11609474 0.029328298 0.1041596 0.021188524 -0.019739721 -0.0040494874 -0.10103553 0.08357329
0.024936011 0.056302987 -0.028969524 -0.085804395 0.032967385 -0.057899266 0.029025704 0.06874575
0.070392646 0.14352626 0.053031 0.060218643 0.07258504 0.0021305648 0.0061552264 0.02200542
-0.07386756 0.059495177 0.014420155 -0.045234375 0.08951927 0.046297673 -0.13947627 0.07895574
0.034652717 0.09388203 0.10540968 0.194394 -0.05526883 0.22221987 0.051530827 -0.021424295
0.058592983 0.011227818 -0.07021943 -0.101833455 0.02051801 -0.09039463 0.076982506 0.10181481
0.04551913 -0.02573774 0.12861124 0.044910267 -0.03622468 -0.012386695 -0.05960774 -0.095651075
0.017530816 -0.1320748 0.090553954 0.017427098 -0.13437068 0.12683599 0.040822834 0.05990217
-0.16687103 -0.12116661 -0.023689983 -0.04605714 -0.029674396 0.10671064 -0.015284449 0.10698192
-0.103831105 -0.18173106 0.16134909 0.06451034 0.14522874 0.0761391 -0.024897449 -0.028312108
-0.15437369 -0.028125243 -0.06450921 0.037130974 0.07743122 -0.16971041 -0.087452635 -0.11357309
0.09958778 -0.10532237 0.03713192 0.05778078 -0.076150365 -0.11009566 0.08853509 0.067362964
-0.05271388 -0.104139216 0.11748417 0.1418353 0.03411151 0.19145934 -0.010774991 0.1443454
0.09522969 -0.11117084 -0.096370116 0.11270962 0.04848557 -0.0056098714 -0.03575319 -0.0744174
-0.11957452 -0.022959435 -0.07687578 0.09038849 -0.07596724 0.075789236 -0.009762557 0.06670568
0.023090314 -0.095310785 -0.03173092 0.09956811 -0.13467316 -0.028562527 -0.13321093 0.033182465
-0.06859123 -0.08559967 0.1467673 0.09035488 0.032287918 -0.050266802 -0.13731067 0.041501638
0.026512867 0.0248968 0.10152911 -0.12107332 -0.0064246277 0.042045813 -0.10548811 -0.027350476
00000000: 6a27 3e3d 6ff4 85bc 460f e6bd b493 c1bc
00000010: d843 38bd 619e df3d 583c ce3d dd3d 62ba
00000020: 7df9 0ebe 8d6e aebc dc20 ff3d b88d a0bd
00000030: 0814 6f3d 1b10 45bc 2cc5 2c3c 0f79 063e
00000040: 2faf 713d 2f7e 043d 7a89 c13d ad59 efbc
00000050: cddd 883d 3c0a df3d 0ab1 d7bd d25c eb3d
00000060: 9a0c cf3d a59f 13bd b21a 803d 84ec 273d
00000070: 719a 47bd 3d5b 9fbd 378e c2bd fcca a13d
00000080: cede 23bd 32ba a3bb 61d9 bfbd cbe8 843d
00000090: ae69 4e3d 5709 e03d 2da4 2a3d 1dd7 063e
000000a0: 4fb2 33bd 4023 343d 0832 4ebc d0d9 bbbc
000000b0: 4be9 97bc c090 58bd 3b41 84b9 4e4a 403d
000000c0: f568 a2bd 66dd 003c cf23 57bd 210d c43c
000000d0: 028b 13bd 112d a4bd 9ef5 e83b ff6d 46bd
000000e0: 5779 70bd c561 d43d 69b8 ccbd eb5b 1abe
000000f0: 5d4e fcbc c647 30bc 031b 8d3d c4b7 bbbc
00000100: 5f70 81bd e8b8 0f3d 2d81 c73d 42a6 d93d
00000110: d196 023d f82e 2abe ef01 f23d 6dd3 bbbd
00000120: ac7d e3bd 3626 863c c67b 9d3d cef6 d63c
00000130: fc09 db3d 01fb 6cbd a764 ebbd f45c d63d
00000140: 9709 bfbc 6192 7f3c fc2b 9bbb 3850 353c
00000150: 072d da3d a231 fa3d 808d 9f3c 8226 acbd
00000160: 8daf ef3d def0 953d 54e5 333b 9118 c8bd
00000170: b171 273d e836 093e 45fd 0d3e 8ef1 95bd
00000180: c6a9 783d a328 6cbc 5fe6 8abd e7e4 b83d
00000190: 0f6f 0abe 2ea2 fdbc ac03 9abd 747e 9fbd
000001a0: 8519 8ebd c03f adbd 9c0c b93d c507 1c3e
000001b0: 8d90 67be 1d5e b93d 8b59 d7bd af30 ad3c
000001c0: 14c3 edbd e641 f03c a151 d53d 8e93 ad3c
000001d0: 32b5 a1bc 90b1 84bb b7eb cebd 7928 ab3d
000001e0: 9b46 cc3c f69d 663d 7f51 edbc 37ba afbd
000001f0: cf08 073d c827 6dbd 50c7 ed3c 92ca 8c3d
00000200: 052a 903d 8cf8 123e 0937 593d d3a7 763d
00000210: 77a7 943d f2a0 0b3b c8b1 c93b b644 b43c
00000220: e047 97bd 37b1 733d 8442 6c3c ae47 39bd
00000230: e155 b73d a1a2 3d3d ded2 0ebe 8cb3 a13d
00000240: 02f0 0d3d 3945 c03d 08e1 d73d 390f 473e
00000250: 9261 62bd 9b8d 633e fd11 533d 0182 afbc
00000260: 32ff 6f3d e2f4 373c 34cf 8fbd 0f8e d0bd
00000270: 6315 a83c d220 b9bd 01a9 9d3d 4884 d03d
00000280: 4472 3a3d f4d7 d2bc aab2 033e d4f3 373d
00000290: 5460 14bd 90f1 4abc 3f27 74bd b6e4 c3bd
000002a0: c99c 8f3c 9e3e 07be 5a74 b93d 46c3 8e3c
000002b0: 7898 09be 4be1 013e d835 273d fa5b 753d
000002c0: 3de0 2abe 3326 f8bd 7f11 c2bc 69a6 3cbd
000002d0: b817 f3bc 1c8b da3d a06b 7abc 5619 db3d
000002e0: 67a5 d4bd b517 3abe b238 253e ff1d 843d
000002f0: d8b6 143e d1ee 9b3d bcf5 cbbc cbee e7bc
00000300: 2314 1ebe e966 e6bc 681d 84bd a616 183d
00000310: 4294 9e3d 91c8 2dbe 5e1a b3bd 0299 e8bd
00000320: aef4 cb3d 41b3 d7bd a417 183d 8aab 6c3d
00000330: b9f4 9bbd d579 e1bd e351 b53d 98f5 893d
00000340: 82ea 57bd f146 d5bd 8a9b f03d 463d 113e
00000350: 83b8 0b3d eb0d 443e 9689 30bc 48cf 133e
00000360: c907 c33d 8aad e3bd b25d c5bd 4dd4 e63d
00000370: ce98 463d 03d3 b7bb f071 12bd 2668 98bd
00000380: 7ce3 f4bd 6d15 bcbc 0d71 9dbd 9a1d b93d
00000390: b694 9bbd 6337 9b3d 22f3 1fbc fd9c 883d
000003a0: e627 bd3c 4d32 c3bd 48f8 01bd 5eea cb3d
000003b0: c3e7 09be f6fb e9bc 7268 08be 56ea 073d
000003c0: 8f79 8cbd e14e afbd 2b4a 163e fb0b b93d
000003d0: 5640 043d 90e4 4dbd 2b9b 0cbe 9ffd 293d
000003e0: 8331 d93c 60f4 cb3c 7eee cf3d 4af5 f7bd
000003f0: af85 d2bb 3b38 2c3d 260a d8bd 1b0e e0bc

fc2.bias f4 [64]
0.074568294 0.09519312 -0.0044590854 -0.0040897783 0.07704825 0.022053132 -7.189171e-05 -0.09466897
0.047757212 0.07570689 0.02105291 -0.030220343 0.009827477 -0.066532716 0.088110745 -0.05426986
0.04016045 0.104717076 0.039895352 0.037433088 0.11555475 0.02103578 -0.05336928 -0.04808407
-0.029212043 -0.09650905 0.10952584 -0.052162737 0.08330144 0.011077067 0.011294898 0.03286338
-0.011105694 -0.095525175 -0.023438461 0.09089584 -0.07806875 0.10391297 -0.0030837709 0.07659462
-0.10196038 0.02080539 -0.094808996 0.014887106 0.12326877 0.11732926 0.037347972 -0.07229839
0.03815465 0.022100119 -0.012435929 -0.11179313 -0.11187803 0.131658 0.10338875 -0.011643087
-0.061449412 0.11147203 0.070589736 -0.09188267 -0.009740477 0.021153606 -0.07604809 -0.03335923
00000000: 43b7 983d 9cf4 c23d 851d 92bb 8c03 86bb
00000010: 79cb 9d3d c5a8 b43c 91c4 96b8 cee1 c1bd
00000020: 119d 433d 370c 9b3d 2777 ac3c a790 f7bc
00000030: 6d03 213c 4e42 88bd 6873 b43d 134a 5ebd
00000040: 497f 243d e875 d63d 4f69 233d 7053 193d
00000050: f8a7 ec3d 3a53 ac3c bf99 5abd cdf3 44bd
00000060: 184e efbc 89a6 c5bd 154f e03d 98a8 55bd
00000070: f299 aa3d 967c 353c 3c0e 393c c09b 063d
00000080: a8f4 35bc b4a2 c3bd 0402 c0bc 9927 ba3d
00000090: 82e2 9fbd 53d0 d43d 1719 4abb a4dd 9c3d
000000a0: 9bd0 d0bd 1170 aa3c 382b c2bd 0ce9 733c
000000b0: 5674 fc3d 534a f03d 30fa 183d 2e11 94bd
000000c0: 0d48 1c3d 4f0b b53c 11c0 4bbc ccf3 e4bd
000000d0: 4f20 e5bd 5bd1 063e 7bbd d33d a5c2 3ebc
000000e0: 61b2 7bbd 734b e43d 5a91 903d fb2c bcbd
000000f0: 8696 1fbc 544a ad3c 1abf 9bbd b0a3 08bd

fc3.weight f4 [64, 64]
0.105045296 -0.030673653 -0.12109878 -0.0058321413 0.059945382 -0.061689366 -0.08368436 0.021488175
0.01985557 0.18803203 -0.08432437 0.039862484 0.0702022 0.11781388 0.06705947 0.0048975414
-0.14744352 0.08704428 -0.22760224 -0.022353586 -0.0148114115 -0.07412331 -0.07863339 0.20313838
-0.03159581 -0.11097658 -0.27306572 0.103309095 0.01800662 -0.0064114463 -0.19040687 0.032237377
0.22955373 -0.060232945 0.077964716 -0.0059147477 -0.06450071 0.07462354 0.057047512 0.117639355
-0.16750793 0.1154267 -0.01842632 -0.0923748 0.11909213 -0.014898113 -0.016578723 0.053963352
0.11228769 -0.028119486 -0.06761868 0.0114070205 0.023810167 0.021106081 0.098592095 0.15235344
-0.01637525 0.07592667 -0.10753844 0.07039656 0.09424944 -0.04711752 -0.041959416 -0.01441855
0.13756631 0.021051329 0.091926835 0.08397257 -0.017783968 -0.03037933 -0.025814172 -0.08467351
0.11845624 0.017596707 0.06423468 0.116976656 0.022896579 -0.14385626 -0.022642974 0.12368534
0.06551968 0.13650264 0.13411155 -0.040541414 -0.06487994 0.00070058496 0.09164534 -0.08550647
0.07750988 0.14852571 0.032192852 -0.040291093 0.14615886 -0.06559316 -0.03157477 0.19901475
-0.1708343 -0.034540083 -0.042648338 0.13030636 0.11433041 -0.028318489 -0.005561362 -0.083725736
-0.0037264447 0.0940467 0.1320748 -0.039054424 0.11460253 0.16618527 -0.09031851 -0.037327923
-0.11055315 0.14311153 -0.05871101 -0.009171409 0.09234296 0.1011973 -0.031241609 -0.106937855
0.036239136 -0.08980459 0.008549668 0.08161092 -0.22728515 -0.042902987 0.12133336 0.063028626
0.01226866 0.124452636 0.040648013 0.10018137 -0.03233383 0.09336067 -0.06745862 -0.01788202
-0.019333743 -0.22450145 0.13097873 0.090554796 0.13534054 -0.036153108 0.07397257 0.034802146
0.04283666 0.13248037 0.0390672 0.010876521 -0.07541095 0.029377341 0.17937964 -0.069075815
-0.024274454 0.03793422 0.109352954 -0.0973785 0.014799353 -0.07173586 0.16481164 -0.014468331
-0.029943066 -0.10197608 0.040301807 0.13882902 0.20447862 0.037393603 0.13810125 0.0055493624
-0.029671162 -0.101742685 0.13559362 0.047353975 0.08882082 0.0050003445 -0.077621184 -0.06929728
-0.08801508 0.030984743 0.03130918 -0.098597996 -0.077783905 8.821929e-05 0.08903326 0.03979581
0.031665184 0.04006005 0.08341771 0.09973027 -0.16590193 0.153848 0.099886306 -0.0136857815
-0.10198729 0.152795 0.1726158 0.0012846843 -0.01914478 -0.13296467 -0.09157852 0.123227745
-0.10095713 0.03544797 0.09214488 -0.09867515 0.038635094 0.019394724 -0.051472925 0.016951816
0.0038003493 0.045560226 -0.115395255 -0.065085694 -0.047248 0.11964854 0.19672216 -0.0068445154
-0.12225443 -0.0139443055 0.14369874 -0.13681503 0.10915156 0.018601084 0.027963376 0.10932638
0.01396192 0.0037183277 0.0069106594 0.015571626 0.1577295 0.031160994 0.059022583 -0.06877839
-0.06474643 0.13302025 -0.019928176 0.08294759 -0.09392096 -0.099479266 -0.13114238 0.055287585
-0.02527136 -0.04662355 0.009324279 -0.09400248 -0.08278748 -0.0060145487 -0.01016115 -0.11198042
0.07165611 -0.022359699 0.11630601 -0.00023611326 0.021659087 -0.05261973 -0.16132593 -0.04092071
00000000: fd21 d73d 5047 fbbc a302 f8bd 8c1b bfbb
00000010: 4a89 753d fdad 7cbd b562 abbd f807 b03c
00000020: 26a8 a23c 788b 403e 41b2 acbd d846 233d
00000030: 2cc6 8f3d 6748 f13d 7a56 893d 8e7b a03b
00000040: 6ffb 16be 4544 b23d 9010 69be de1e b7bc
00000050: 90ab 72bc f6cd 97bd 8b0a a1bd 8203 503e
00000060: 9c6a 01bd b047 e3bd 45cf 8bbe b893 d33d
00000070: 9f82 933c 1c17 d2bb 05fa 42be 570b 043d
00000080: 2210 6b3e d2b6 76bd f7ab 9f3d 80d0 c1bb
00000090: f318 84bd 3ad4 983d a7aa 693d e7ec f03d
000000a0: 3387 2bbe d564 ec3d cbf2 96bc 002f bdbd
000000b0: 93e6 f33d 3717 74bc 1ad0 87bc ad08 5d3d
000000c0: 17f7 e53d d65a e6bc aa7b 8abd 83e4 3a3c
000000d0: 8a0d c33c a9e6 ac3c a7ea c93d 8a02 1c3e
000000e0: 6325 86bc 717f 9b3d 1d3d dcbd 122c 903d
000000f0: da05 c13d 4dfe 40bd a3dd 2bbd c83b 6cbc
00000100: 2fde 0c3e d673 ac3c 2344 bc3d d0f9 ab3d
00000110: afaf 91bc 13de f8bc 3e78 d3bc 4e69 adbd
00000120: 2f99 f23d f826 903c 798d 833d 7591 ef3d
00000130: 9b91 bb3c 0e4f 13be c27d b9bc bd4e fd3d
00000140: 2f2f 863d 59c7 0b3e 8a54 093e c10e 26bd
00000150: c6df 84bd 76a7 373a 8db0 bb3d 041e afbd
00000160: 80bd 9e3d 2017 183e a7dc 033d 4608 25bd
00000170: abaa 153e b555 86bd 8c54 01bd 86ca 4b3e
00000180: 30ef 2ebe e779 0dbd 06b0 2ebd 086f 053e
00000190: 1026 ea3d 2dfc e7bc 163c b6bb 6678 abbd
000001a0: 5e37 74bb 8e9b c03d 9e3e 073e 88f7 1fbd
000001b0: bbb4 ea3d 792c 2a3e e9f8 b8bd 2ae5 18bd
000001c0: b169 e2bd d48b 123e f57a 70bd ad43 16bc
000001d0: 4e1e bd3d 8840 cf3d 67ee ffbc 3c02 dbbd
000001e0: 7d6f 143d 78eb b7bd e813 0c3c a023 a73d
000001f0: 70bd 68be 0bbb 2fbd a07d f83d 2715 813d
00000200: 7d02 493c 06e1 fe3d 887e 263d e42b cd3d
00000210: 7a70 04bd e133 bf3d bf27 8abd 507d 92bc
00000220: cc61 9ebc b5e3 65be 4a1f 063e cb74 b93d
00000230: b696 0a3e 4815 14bd ee7e 973d b28c 0e3d
00000240: 7e75 2f3d efa8 073e ee04 203d 6f33 323c
00000250: 0e71 9abd c0a8 f03c 4caf 373e 9f77 8dbd
00000260: 38db c6bc ea60 1b3d 71f4 df3d 616e c7bd
00000270: fc78 723c 40ea 92bd 62c4 283e 940c 6dbc
00000280: 294b f5bc d6d8 d0bd 8213 253d 3229 0e3e
00000290: d862 513e 092a 193d 6a6a 0d3e 6dd7 b53b
000002a0: f010 f3bc 785e d0bd 0ed9 0a3e 3ef6 413d
000002b0: b1e7 b53d eed9 a33b dbf7 9ebd bbeb 8dbd
000002c0: 4041 b4bd b7d3 fd3c 0e3e 003d bfed c9bd
000002d0: 2b4d 9fbd 5f02 b938 1257 b63d ee00 233d
000002e0: 5ab3 013d 0216 243d e8d6 aa3d 623f cc3d
000002f0: 32e2 29be 558a 1d3e 3191 cc3d 543a 60bc
00000300: b6de d0bd 4b76 1c3e 32c2 303e da62 a83a
00000310: 83d5 9cbc e427 08be 858d bbbd d45e fc3d
00000320: 9dc2 cebd e431 113d 74b6 bc3d 3216 cabd
00000330: d53f 1e3d afe1 9e3c 46d5 52bd 89de 8a3c
00000340: 480f 793b 5c9d 3a3d 5954 ecbd a64b 85bd
00000350: 1e87 41bd 4b0a f53d 8971 493e f547 e0bb
00000360: 8860 fabd a876 64bc c325 133e 3d19 0cbe
00000370: da8a df3d 4d61 983c 7313 e53c 82e6 df3d
00000380: 89c0 643c 30af 733b d072 e23b 2220 7f3c
00000390: d883 213e 5745 ff3c aac1 713d afdb 8cbd
000003a0: c799 84bd 7636 083e 6a40 a3bc 6de0 a93d
000003b0: a259 c0bd c9bb cbbd 304a 06be 3c75 623d
000003c0: e205 cfbc 56f8 3ebd dcc4 183c 5f84 c0bd
000003d0: 7b8c a9bd b115 c5bb f47a 26bc fe55 e5bd
000003e0: 70c0 923d b02b b7bc d831 ee3d 2c95 77b9
000003f0: 666e b13c c987 57bd a032 25be 799c 27bd

fc3.bias f4 [64]
-0.014497517 -0.014595706 0.040607218 -0.012732464 -0.113076694 -0.09449911 0.02019303 -0.090861365
0.10482137 0.024156088 0.002960649 -0.012248147 0.08094515 0.11109792 0.05922236 -0.041034445
0.10783916 -0.06729978 -0.018434033 0.038813118 -0.0865017 -0.08013083 -0.035617188 -0.019092865
0.015826384 0.08613738 0.115251735 0.12668931 0.0090809455 0.0150582045 0.022097358 0.060504284
0.08843796 -0.002564347 -0.11633043 0.019416459 -0.030473068 0.023496535 -0.0033727158 0.0006627028
0.008913154 -0.06709178 -0.009098753 0.017046398 0.01658141 0.00043488416 -0.046062477 0.020455064
0.031201962 0.07986663 -0.07680941 -0.10326353 0.014372498 0.12888786 -0.028897882 -0.09220691
0.011477812 0.087142974 0.05213429 -0.031826686 -0.058397774 -0.021193502 -0.07027908 0.09957547
00000000: fe86 6dbc d422 6fbc c153 263d d39b 50bc
00000010: c194 e7bd c088 c1bd da6b a53c 8615 babd
00000020: 96ac d63d fde2 c53c 7307 423b 74ac 48bc
00000030: 92c6 a53d 4e87 e33d 2593 723d bc13 28bd
00000040: c7da dc3d 78d4 89bd f802 97bc 81fa 1e3d
00000050: ce27 b1bd a21b a4bd 54e3 11bd a468 9cbc
00000060: 55a6 813c cb68 b03d 1a09 ec3d d8ba 013e
00000070: 3fc8 143c b0b6 763c 8505 b53c 57d3 773d
00000080: f61e b53d 9b0e 28bb a63e eebd 440f 9f3c
00000090: a8a2 f9bc ce7b c03c c808 5dbb 3bb9 2d3a
000000a0: 7a08 123c 6a67 89bd f012 15bc e3a4 8b3c
000000b0: bdd5 873c 2a01 e439 02ac 3cbd 6191 a73c
000000c0: 429b ff3c 1e91 a33d 404e 9dbd d47b d3bd
000000d0: a07a 6b3c 2efb 033e 40bb ecbc fad6 bcbd
000000e0: 6f0d 3c3c 0478 b23d c48a 553d b35c 02bd
000000f0: 8132 6fbd ff9d adbc 7aee 8fbd 39ee cb3d

reg_head.weight f4 [1, 64]
-0.24840374 0.05136689 0.046806555 0.2996067 0.20670861 -0.23125012 0.12372341 -0.018833317
0.12529413 -0.1769885 -0.03139564 0.08283386 0.15052384 -0.14711961 0.036323354 0.08442633
-0.024743732 0.05190438 0.12111888 -0.04341634 0.20359224 0.14058505 0.27385092 0.12366174
0.08498255 -0.16784886 0.113247044 -0.14265133 0.12870589 0.09272297 0.088299565 0.08066703
-0.21003334 -0.154505 0.23230809 -0.19398715 -0.052823648 -0.117617875 0.14978942 -0.27975535
-0.21415615 -0.0568337 0.011546031 -0.17143552 0.15745872 -0.10804112 0.131948 0.14638385
0.044308886 -0.21897155 -0.14204217 -0.12270215 0.23323788 0.11335074 -0.06228514 -0.028708518
0.08447028 -0.1536476 0.07238389 0.111688495 0.103490986 0.044882342 -0.11157003 -0.21817371
00000000: 8d5d 7ebe 1766 523d 3bb8 3f3d 0d66 993e
00000010: 6cab 533e d5cc 6cbe b362 fd3d 5448 9abc
00000020: 1b4d 003e 793c 35be b798 00bd cca4 a93d
00000030: ec22 1a3e 86a6 16be ccc7 143d b6e7 ac3d
00000040: 5eb3 cabc b099 543d 2d0d f83d 55d5 31bd
00000050: 7c7a 503e 87f5 0f3e 3036 8c3e 5e42 fd3d
00000060: 550b ae3d 92e0 2bbe 11ee e73d 3113 12be
00000070: 7acb 033e 8ae5 bd3d 67d6 b43d c134 a53d
00000080: fb12 57be 8f36 1ebe 2ce2 6d3e 91a4 46be
00000090: 9c5d 58bd a4e1 f0bd 6662 193e 183c 8fbe
000000a0: c04b 5bbe 74ca 68bd 902b 3d3c cb8c 2fbe
000000b0: dc3c 213e aa44 ddbd 601d 073e a6e5 153e
000000c0: 3c7d 353d 143a 60be 8173 11be 444b fbbd
000000d0: e9d5 6e3e 6f24 e83d b41e 7fbd 202e ebbc
000000e0: c1fe ac3d cc55 1dbe 013e 943d f0bc e43d
000000f0: 15f3 d33d 8cd6 373d d47e e4bd ee68 5fbe
