grasp_placement/models/run_seed_8292/stability_net.pth (torch, 816972 bytes, 9 tensors)

fc1.weight f4 [256, 21]
000000 1e 10 6d 3e 8a 5f 22 3e b7 46 6d be cd cf 51 3e
       0.2315068 0.15856758 -0.23171507 0.20489426
000010 4a 02 59 3e c9 3a 2a 3d 80 03 1f be c3 30 29 bd
       0.2119228 0.04155997 -0.15528679 -0.04130627
000020 d5 33 63 3e 63 23 15 be 5e e7 57 be fa fa 4b be
       0.22187741 -0.1456428 -0.21084353 -0.19919959
000030 f8 00 e9 3c 1a b9 e0 bd d4 24 e8 bd 25 40 7d be
       0.028442845 -0.10972805 -0.113351494 -0.247315
000040 f6 46 14 3e 9b d4 2c 3e 9c 67 93 3e 34 41 60 3e
       0.14480194 0.16877978 0.28789985 0.21899873
000050 44 77 90 bb 14 3e d6 bd 69 98 df 3d 70 89 92 bd
       -0.004408749 -0.10461059 0.10917742 -0.071551204
000060 7f 02 24 be 57 e0 32 3e 61 a3 73 3e 05 c4 8d bc
       -0.16016577 0.17468391 0.23792793 -0.017305383
000070 fd da 6d 3d 80 73 87 3d d8 98 8e bd 7f 39 f2 bc
       0.05807017 0.06613827 -0.069627464 -0.029568432
000080 27 c7 11 3e 33 bd ed bc 8e 5d dd be 77 13 8f 3e
       0.14236127 -0.029020881 -0.4323544 0.27944538
000090 b5 41 2d 3e 51 f6 83 be 7d 38 c4 bd 3e a7 61 3d
       0.16919596 -0.25773862 -0.09581087 0.055091135
0000a0 ec b3 83 3d 3d 56 3b 3e 8c 9e bb bd ef dd 15 be
       0.06430802 0.18294616 -0.091611 -0.14635442
0000b0 ec e1 1b 3e f3 d9 dd 3d d9 b0 17 be 0b 18 3e 3d
       0.15222901 0.10832586 -0.14813556 0.046409648
0000c0 31 76 5b be 4d d7 5e 3d 6a 62 5b 3e a8 93 e9 3b
       -0.21431805 0.054404546 0.2142426 0.0071281977
0000d0 35 89 b7 3d 48 e3 1f bd f5 d7 57 3b 99 4f 87 be
       0.08961717 -0.03903511 0.0032935117 -0.26427916
0000e0 3e ed 31 3e 2c 5e 80 bd 53 96 25 be 13 1d bc be
       0.17375657 -0.06267962 -0.16170625 -0.36740932
0000f0 f3 ba ff 3d 0c 67 05 bc 12 c0 35 3e 7c 4d fe bc
       0.124868296 -0.008142244 0.1774905 -0.031042807
000100 67 77 b4 3d 42 be 3a bd 34 bd 8b bd f9 27 a5 3d
       0.08811837 -0.0455916 -0.06823197 0.08064265
000110 ab f0 91 3b 06 d3 8a bd 8d d3 d0 3d d8 e2 77 be
       0.0044537387 -0.06778531 0.101966 -0.24207628
000120 1b ff 7b be 5c 9a 4f bd 99 46 98 3e 86 1d bf bd
       -0.24609034 -0.050684318 0.29741362 -0.09331803
000130 38 8a 9a 3e 75 53 11 be 08 5c 99 3d d9 12 d4 bc
       0.30183578 -0.14191993 0.07488257 -0.025887894
000140 50 b1 ce 3d 40 ba 13 3c ac 0b ef bd 7a b1 bb 3d
       0.100924134 0.009016573 -0.11672148 0.0916471
000150 85 69 3f be 0e 51 75 3d 51 41 6f 3d 80 7b 9b 3e
       -0.18692596 0.059891753 0.0584119 0.3036766
000160 82 8c 29 be 6d d8 37 bd f7 45 7e bd a8 47 02 be
       -0.16557506 -0.044884134 -0.062078442 -0.12722647
000170 a1 b2 10 bd 57 32 cf bd be d1 7c bd ed de 06 3f
       -0.035326604 -0.101170234 -0.061723463 0.5268391
000180 10 de 7c 3d 64 9a 7f 3e 0f e7 8c 3e f7 f6 09 3e
       0.061735213 0.24961239 0.27520034 0.13473116
000190 91 88 c4 3d 68 e9 4f be 71 4f c3 3d 45 5c 88 3e
       0.095963605 -0.20303881 0.095366366 0.26632896
0001a0 e6 ca 10 be 0c 3f a7 3d 23 48 3f 3e a8 6f 1b 3e
       -0.141399 0.08166322 0.18679862 0.15179312
0001b0 ff 54 62 3e 3a f3 07 bd 1f b6 2c be fa f3 67 be
       0.22102736 -0.033190943 -0.16866349 -0.22651663
0001c0 f6 17 23 3e c6 96 8a 3d 66 40 aa 3d 57 3e 1e be
       0.15927109 0.06767039 0.08313064 -0.15453468
0001d0 39 a1 7c 3d e2 af a7 bd 09 58 bf 3d b8 fe c2 3d
       0.06167719 -0.08187844 0.09342963 0.0952124
0001e0 1c a1 f6 bd 4a d1 82 3d 3a ac 60 be 4b 8e 22 3c
       -0.12042448 0.06387575 -0.21940699 0.009921621
0001f0 f5 95 f3 bb 76 ba c6 bd a4 c5 16 3e 6f 6e d1 3d
       -0.0074336478 -0.09703533 0.14723831 0.10226142
000200 b6 41 8b be 5a 7c fe 3b 51 5f 7a be 45 12 3c 3e
       -0.2719857 0.0077662887 -0.24450423 0.18366344
000210 76 bc ba bb c6 ce 0c be 36 46 d8 bd 24 e7 c5 3c
       -0.005698736 -0.13750753 -0.10560267 0.024158068
000220 a5 78 f8 3d da 2b 49 3e f0 cc e7 3d 29 ca 82 bc
       0.12132386 0.19645634 0.113183856 -0.015965538
000230 02 b4 96 3b fe 19 d0 be ff cb 00 3e b4 18 10 3e
       0.0045990953 -0.4064483 0.12577818 0.14071923
000240 5e fe 9e 3c 84 13 00 bd aa 23 7b 3e 08 7d 9a 3c
       0.019408401 -0.03126861 0.24525324 0.018858448
000250 62 0c f4 3c 41 aa 02 3c 79 58 34 3e 85 c0 a5 bd
       0.02979106 0.007975162 0.17611875 -0.08093361
000260 7c 40 0d 3e ed fd 87 3d 83 39 e2 3d 9f 4b bb bd
       0.1379413 0.066402294 0.11046126 -0.09145283
000270 96 99 88 bd 4e 9e 5a be 5c 0a 35 be a1 63 05 be
       -0.06669919 -0.21349451 -0.17679733 -0.13026287
000280 27 4c 58 bd 60 b3 0a be f0 3c 40 bd 68 36 d2 3d
       -0.052807 -0.13544989 -0.046933115 0.102642834
000290 65 c9 ab 3d 61 1a 20 bd 22 a9 bb 3c 8d 81 2a bc
       0.08388022 -0.039087657 0.022907797 -0.010406864
0002a0 7c 78 ba bd 0d ec 91 3c f9 bc 0d 3e 89 4f 4a 3d
       -0.09105012 0.017812753 0.13841619 0.049392257
0002b0 ec 2e cf be 06 1c a7 3d 6c bc 89 be 4f 2a 30 3e
       -0.40465486 0.08159642 -0.26901567 0.1720364
0002c0 0e 8c be bd 14 76 93 bd e8 51 10 3e 00 b5 ce 3e
       -0.09304057 -0.07200256 0.14093745 0.40372467
0002d0 94 d8 0b 3e fd d9 c4 3d 5c 3f 2a 3e 9f ef 24 3d
       0.13656837 0.096118905 0.16625732 0.040267583
0002e0 04 54 52 bd f4 d7 0a 3b b4 1e e1 3d d9 d8 64 be
       -0.051349655 0.0021185847 0.10992184 -0.22348346
0002f0 8c f5 8e bd d9 dc a1 3d a0 02 e1 3d 88 a6 ac be
       -0.06980428 0.079034515 0.10986829 -0.33720803
000300 23 e9 6b bd 6a ff 3c be ee c3 c6 bd a1 6f 60 3d
       -0.057595383 -0.18456808 -0.09705339 0.054793958
000310 bc cf fd bd 83 f9 7d 3d 26 70 ad bd 0e 3b 59 3b
       -0.12393138 0.06200553 -0.08468656 0.0033146772
000320 26 56 6f 3e b1 35 3e bd 7d 20 0d be 06 e8 14 bd
       0.23372707 -0.046437923 -0.13781925 -0.036354087
000330 47 47 95 be 0f f8 ae be 5c 0b 92 3b 3b 48 ca 3d
       -0.29155943 -0.3417363 0.0044569205 0.09877058
000340 6a 5c 34 3e 2f 53 f1 bd 7f 5d 82 be 20 9a 38 bb
       0.17613378 -0.11783444 -0.25461957 -0.0028168038
000350 36 6c 2c be d6 27 95 be 2e f2 0f 3e 6f be 48 bc
       -0.16838154 -0.29131955 0.14057228 -0.012252434
000360 7c 1a 81 3c f2 e8 14 be 8b 00 00 be 63 d6 0e bc
       0.015759699 -0.14541987 -0.12500207 -0.008718106
000370 34 e4 80 be a1 99 ad be af 7c 5a 3e 8f 5a bf be
       -0.25174105 -0.33906272 0.21336626 -0.37373778
000380 13 e6 a3 bd a1 b5 f6 bd cb 3b 44 be e8 a7 19 3e
       -0.080028675 -0.12046362 -0.19163434 0.15005457
000390 b7 12 85 3e c6 b3 81 be 8f 42 59 bd 14 02 2f 3e
       0.2599084 -0.2533247 -0.05304199 0.17090636
0003a0 34 72 d8 3d e0 05 6a be 30 2b 7b 3d 5c 3e 59 3d
       0.105686575 -0.22853804 0.061320484 0.053037986
0003b0 04 5a 82 be 9c e8 86 be 69 46 06 bd 78 39 84 be
       -0.254593 -0.26349342 -0.032781992 -0.25825095
0003c0 fe e0 ef bb 18 37 e8 bd a1 66 b2 3d c8 8b 55 bd
       -0.0073205223 -0.11338633 0.08710981 -0.05213526
0003d0 c0 29 5b 3e ce 3a 2b 3e 2b eb ac bd f2 5b 6c bb
       0.21402645 0.16721651 -0.08443292 -0.0036065546
0003e0 77 e2 1f 3e 92 fc 7f bd 9b ec 84 be 97 08 2d 3e
       0.15613733 -0.06249673 -0.25961766 0.16897808
0003f0 45 46 0c 3e c0 6e c2 bd 47 07 89 be 3e 7a 8a be
       0.1369868 -0.0949378 -0.26763365 -0.27046388

fc1.bias f4 [256]
000000 fa 55 3d be bd ba 65 be 88 e9 d1 3d 9c e5 9c bc
       -0.18489829 -0.22434516 0.10249621 -0.019152455
000010 8b cd 34 3e b0 52 a8 3d 19 e2 e1 bd 56 27 de bd
       0.17656533 0.082188964 -0.11029453 -0.108473465
000020 a0 12 25 be f0 c2 05 bd 1b 39 75 be dc a7 78 be
       -0.16120386 -0.03265661 -0.23947565 -0.24282783
000030 fa 6a bd 3c 5a 3d 18 bd 2a ed e6 3d ac 6d 4f bc
       0.0231223 -0.037167884 0.11275704 -0.012660425
000040 06 9d 6e bd a0 de 0f bd 13 4d 17 3d 12 32 e3 bd
       -0.058255218 -0.03512442 0.036938738 -0.110935345
000050 57 fc 8a bc a1 c7 79 3d 07 a7 63 be d9 7b 57 bd
       -0.016966028 0.060981397 -0.22231685 -0.052608345
000060 c2 d0 14 3d c5 bd 5c bd 6a a3 38 3d e7 b6 dc 3d
       0.0363319 -0.053891916 0.04507772 0.10777073
000070 7d 51 b3 bd a2 0e e5 3d 00 3f 89 bd 11 c4 a6 bd
       -0.08755777 0.111844316 -0.067014694 -0.081428654
000080 43 f3 04 bd 15 31 87 3d 5f 7f 4e be 44 08 24 bd
       -0.032458555 0.066011585 -0.20165776 -0.040046945
000090 23 80 af 3d 1f 0c 0d 3e 77 13 51 3d 18 c8 04 bd
       0.08569362 0.13774155 0.051043954 -0.032417387
0000a0 06 7a 31 bd 50 76 21 be ee 13 76 3d 71 4d 6a be
       -0.04332926 -0.15767789 0.0600776 -0.22881104
0000b0 68 a3 1c 3d d2 ac d0 bd e1 d9 47 be 16 7a bd bd
       0.038241774 -0.10189213 -0.19516708 -0.09251802
0000c0 eb b8 28 be 3d 3f ae 3d ea e0 ea 3d cd 53 a7 bd
       -0.1647679 0.085081555 0.1146868 -0.081702806
0000d0 a5 c3 6b bd dc e3 5e be 36 7e c1 3c a6 4b d0 3b
       -0.057559628 -0.21766609 0.023619752 0.0063566742
0000e0 ec cf 9f bd e3 aa 44 be 95 7f 30 bd 58 55 4c 3d
       -0.0780333 -0.19205813 -0.04309042 0.049886078
0000f0 3c 4e d5 3c ba fb f2 bd 1c fd 04 bc 6f 5f 9b bd
       0.026038282 -0.11864419 -0.008116987 -0.07586562
000100 39 f9 91 bd 19 32 7f bd 43 98 d4 bd 18 89 0a 3d
       -0.071276136 -0.062303636 -0.10380604 0.03382215
000110 17 8f 1f 3c 8f e2 aa 3c 24 89 1d be f1 ed e6 3c
       0.009738705 0.020859985 -0.15384346 0.028189631
000120 99 9f 5a 3d ac 00 a0 bb 78 7e f5 b9 40 4a 53 be
       0.05337486 -0.0048828926 -0.00046824268 -0.20633793
000130 ad ac 37 be 5a 0c 30 be 88 96 ea bd 98 ac ad bd
       -0.17936964 -0.17192212 -0.11454493 -0.08480185
000140 53 2a 11 3e ea 36 55 be 16 ec e0 bd b0 ff 3d be
       0.14176302 -0.2082173 -0.1098253 -0.18554568
000150 78 35 a0 bd 23 18 a6 bd 3e 8a 00 be 33 19 ba 3c
       -0.07822698 -0.081100725 -0.12552735 0.022717094
000160 f9 a4 13 3e 44 76 9f bd 68 c9 a9 3d 4a d0 00 3e
       0.14418401 -0.07786229 0.08290368 0.12579456
000170 93 06 66 bd b9 ce 48 bd 81 ce d1 bc dc ef a1 bc
       -0.056158613 -0.04902527 -0.025611164 -0.019767694
000180 7b 57 35 bd 22 10 02 be 3b a4 99 3d b4 07 86 bc
       -0.04427288 -0.12701467 0.075020276 -0.016361095
000190 44 5e 01 be eb 72 09 3d 12 99 91 bc 5d 8f 1e be
       -0.12633616 0.03355686 -0.017773185 -0.15484376
0001a0 3a 36 f8 3d 26 ac 9a bd fb c7 d8 bd a2 df f9 bd
       0.12119718 -0.07552366 -0.10585018 -0.12200858
0001b0 b2 76 7c 3c 33 79 3a be a2 c8 68 be 2a 71 33 be
       0.015409159 -0.18210296 -0.22732785 -0.17523637
0001c0 d1 dd 2d be 72 5f 3a 3e 8b 87 2f be 5e 2b b2 bd
       -0.16979147 0.18200472 -0.1714155 -0.08699678
0001d0 33 bf 52 be b5 a7 f0 bd f5 7f 1d be 64 7a 4a be
       -0.20580749 -0.117507376 -0.15380843 -0.19773251
0001e0 20 d0 41 be 91 ab 7e 3c e4 d2 83 bd cf 15 98 bd
       -0.1892705 0.015543834 -0.064367086 -0.07426035
0001f0 16 a6 16 bd 45 1b 7a 3d e6 be 72 be 60 73 56 bd
       -0.036779486 0.061061163 -0.23705634 -0.052356124
000200 ec 0f 65 be 6e 4e 87 3c 47 b0 13 bd 34 d1 e3 3d
       -0.22369355 0.01651689 -0.036056783 0.11123887
000210 89 60 52 3d fe cc 2b 3d 38 62 1a be b4 47 23 be
       0.051361594 0.041943543 -0.1507653 -0.15945321
000220 f0 ff 8a 3d eb 30 5d 3d 8d 4c 4d 3d 2e eb 86 3d
       0.067870975 0.05400173 0.050121833 0.06587826
000230 b6 94 2d 3c 9d 13 f6 bd a0 af 61 be 40 dc 2a be
       0.0105945375 -0.1201546 -0.22039652 -0.16685581
000240 27 03 10 be f6 02 35 bd 19 6a 2c 3d eb 29 c5 bd
       -0.14063703 -0.044192277 0.04209337 -0.09627136
000250 c7 9c fd bd 13 6b b8 3d 0e ab 2a bc 5e e3 84 3b
       -0.123834185 0.09004798 -0.010416759 0.0040554246
000260 75 3d 92 bd f9 ee 3d be 8b 47 f3 3b 94 71 61 be
       -0.07140628 -0.18548192 0.0074243 -0.22015983
000270 23 1c ce 3d dc b7 96 bd 3f 75 25 be e1 9c 43 be
       0.100639604 -0.07359287 -0.16158007 -0.19102813
000280 5e 0d a4 bc 86 13 51 be 32 0d 18 be 2d 77 e7 bd
       -0.020025905 -0.20417604 -0.14848784 -0.11302028
000290 cf 80 d6 3b 99 db a4 3d 37 56 b4 bc c4 2a d8 bd
       0.006546117 0.080496974 -0.022013767 -0.10555032
0002a0 bd 94 6e bb 4d f3 a6 bd 7a 45 29 be 8f 05 0e be
       -0.0036404573 -0.08151875 -0.1653041 -0.13869308
0002b0 d2 e9 f9 bd 04 8c 50 be ff 1e 52 be 57 62 19 bd
       -0.12202801 -0.20365912 -0.20519637 -0.0374473
0002c0 86 cc 10 bd c9 58 2c be b9 47 31 be 07 c0 91 3d
       -0.0353513 -0.16830744 -0.17312516 0.071167044
0002d0 a5 ef 54 be 6e 19 71 be 80 7e 41 bd d3 59 d7 bd
       -0.20794542 -0.23544857 -0.04723978 -0.105151795
0002e0 b9 d8 2e be 0f 89 7a bd 39 4c d3 bd 33 50 08 3e
       -0.1707486 -0.061165866 -0.10317273 0.13311844
0002f0 8d 5e a2 3d 4f c4 28 3d 07 ab 0c be 6e f8 f6 bd
       0.079281904 0.04120284 -0.13737117 -0.12059103
000300 13 70 6c be 19 bc 88 bd fb ee 04 bd 52 4e 51 3d
       -0.23089628 -0.06676502 -0.032454472 0.051100083
000310 28 c9 2a be 60 5b bd bd a2 d7 80 bd 28 93 67 be
       -0.16678298 -0.09245944 -0.06291129 -0.2261473
000320 1b ea b0 3d fc a6 77 be 11 24 3f be ef df cb 3d
       0.08638402 -0.24184793 -0.18666102 0.09954821
000330 e3 05 70 3d 09 c7 1e be 77 22 4d be 09 33 ad bd
       0.058599364 -0.15505613 -0.20032679 -0.08457
000340 f8 3f 28 bc e3 a1 ad bc 57 59 70 3d 84 76 e6 bc
       -0.010269158 -0.021195358 0.05867895 -0.028132685
000350 8e be 17 be 68 1e 93 be 43 6b 3c 3d 99 98 8e bc
       -0.14818785 -0.28734136 0.04600073 -0.017406749
000360 64 59 57 bd 17 74 15 be de cb 8f 3c 0a c0 a6 bd
       -0.052575484 -0.14595066 0.017553266 -0.08142097
000370 82 b1 fd bc 89 3a af bd b4 4d 8d 3d 61 f3 69 be
       -0.030968431 -0.085560866 0.06899586 -0.22846748
000380 ed a8 02 bd 8c a8 ea 3d 60 0f 23 be 59 0a a9 bd
       -0.03189938 0.11457929 -0.15923834 -0.08253927
000390 9d 98 28 bd 30 e5 30 be e2 8c 7c 3c 60 13 bd bc
       -0.04116117 -0.17274928 0.015414448 -0.023080528
0003a0 88 fa bf bd 46 27 82 3b 99 fc c6 3d 99 2f 43 be
       -0.09373957 0.003971967 0.09716148 -0.19061126
0003b0 46 df 56 be af 26 0b 3e fc 41 fd bd ad 7d cc 3c
       -0.2098361 0.13588975 -0.12366101 0.02496227
0003c0 2e 48 81 bb 1b f8 df bd 6f 80 98 bc c9 02 80 be
       -0.003945372 -0.10935994 -0.01861593 -0.25002125
0003d0 4d 8c 12 bd 89 cc 26 be 63 47 93 bd c4 4f fb 3d
       -0.035778333 -0.16288961 -0.0719135 0.122710735
0003e0 5a c2 2c bd bd a5 17 be 05 64 f6 3d e8 85 08 3c
       -0.042177536 -0.14809318 0.12030796 0.008332707
0003f0 1b d7 8b 3d 9c 90 5b 3c 18 43 b6 3d 7d 7a f4 bd
       0.068281375 0.013401177 0.08899516 -0.11937425

fc2.weight f4 [256, 256]
000000 ac 08 b2 3c 64 b8 02 bd b2 55 06 3d 4f 48 2e bb
       0.02173265 -0.03191413 0.03279657 -0.0026593392
000010 c7 2b 2c 3d 50 90 0d 3c 61 ff f1 3b f1 3c 0d bd
       0.042033937 0.008640364 0.00738518 -0.034481946
000020 8d c2 54 3d e3 df d2 bb 71 8d 2f bd 24 d4 b1 bc
       0.05194335 -0.006435381 -0.0428595 -0.021707602
000030 71 6c 60 3d 6e ed bc 3c af 26 54 bd 74 9e 9d bc
       0.054790918 0.023062434 -0.051794704 -0.019240595
000040 b8 53 c6 bb 31 02 1a 3c bb 64 85 bd de 09 f2 bc
       -0.0060524605 0.009399937 -0.065133534 -0.02954572
000050 60 cb 2e bd b3 5e aa 3a 09 33 93 3b b0 44 47 3d
       -0.042674422 0.0012998193 0.004492168 0.04864949
000060 65 7d 8b bb ff ff 2b bd 90 0e 22 bd 77 b9 36 3d
       -0.0042568916 -0.041992184 -0.03956467 0.044610467
000070 4c ea 48 bd 73 68 fe bc d2 d7 87 bb 1a e1 85 bb
       -0.049051568 -0.031055665 -0.004145601 -0.004085672
000080 34 c2 5d 3c 6a eb d8 3c d7 df 84 3c 21 d1 59 3c
       0.013535071 0.026479442 0.016220016 0.013294489
000090 8c c2 4b 3d 22 16 00 bd de 66 22 bc eb 0f 16 3d
       0.04974608 -0.031271107 -0.009912221 0.036636274
0000a0 00 38 19 bd 3d 3a 68 3c 73 2a 71 bd 5a da 2d bd
       -0.03740692 0.014174041 -0.058878373 -0.042444564
0000b0 be a7 26 bd ba af 2f bd 27 01 1b bd 31 c2 e3 3c
       -0.040687315 -0.042892195 -0.037842896 0.027802559
0000c0 7e 17 aa bd 73 41 91 bc 6e e6 27 3d 8e 08 ee bc
       -0.08305262 -0.017731404 0.04099124 -0.029056814
0000d0 e9 ed 08 3d 5c 7a 2b 3d 6b 01 38 bd 1a 95 59 bd
       0.033430014 0.041864738 -0.044923227 -0.05312071
0000e0 e4 c0 6e 3c ea 8a 7e bc 7c 7a 50 3d 92 42 ef bc
       0.014572356 -0.015536049 0.05089806 -0.029206548
0000f0 e8 17 70 bd ca 3f 3c 3c d7 09 9e bb 7c f3 b9 bd
       -0.05861655 0.011489818 -0.0048229503 -0.09079644
000100 ec 1a 8b bd 8a 97 05 3d cb 01 2b bd 77 3a 37 bb
       -0.06792244 0.032615222 -0.041749757 -0.0027958432
000110 83 b7 81 bb ce 06 3c bd e7 d3 95 bd 1d 32 f1 3c
       -0.003958644 -0.045904927 -0.07315808 0.029442841
000120 6a 11 6c bd 0c b5 35 bc 60 6d 78 3c fc 49 2c 3d
       -0.057633795 -0.011090528 0.015162796 0.042062744
000130 e6 2c 3f bd 79 a8 5a 3d 08 76 9c 3c a5 fc 73 bd
       -0.046673678 0.053383324 0.01909925 -0.059567112
000140 d2 e9 5a 3d 70 8e 4d 3d 56 40 41 3d 1e cb 58 3d
       0.053445645 0.050184667 0.047180496 0.052928083
000150 64 90 83 3d be 2c 04 3d f0 41 53 ba a8 b6 4f bd
       0.06424025 0.032269232 -0.00080588367 -0.050711304
000160 ca 27 24 bd 1b 79 1d bc d0 82 8c bc 5d 1a 3d 3d
       -0.04007701 -0.009611393 -0.01715222 0.04616772
000170 72 68 73 bd b4 47 21 3d 1a 95 ea bc fd 4b 30 bc
       -0.05942578 0.039375022 -0.02863555 -0.0107603045
000180 3f 9f 23 3d b7 d6 1b bd 21 46 04 bc dd 4e 4f bc
       0.03994679 -0.038046565 -0.008073361 -0.01265308
000190 de 41 a0 3c 61 09 89 ba 78 56 4b 3d 56 a3 00 bd
       0.019562658 -0.0010455066 0.04964301 -0.03140577
0001a0 18 6e 8c bd ea ff c2 ba 9b c0 23 bd ea 91 17 bd
       -0.06856936 -0.0014877294 -0.039978605 -0.03700439
0001b0 d6 8f 10 bd fb 75 0c 3d b9 e7 8c 3c 38 0d 5c 3c
       -0.035293423 0.034292202 0.017200338 0.013430886
0001c0 e1 34 c0 bc 50 c3 a4 3c df 0a fc b9 3e 32 4e bc
       -0.023462715 0.020112664 -0.00048073285 -0.012585221
0001d0 c8 2f 9b bd 24 a1 a6 3c cc d7 8f bc fb fd 0d bd
       -0.07577473 0.02034051 -0.017558955 -0.034666043
0001e0 45 f2 30 bd f6 5b 95 bd 06 70 b5 3b d9 46 05 bd
       -0.043199796 -0.07292931 0.005537036 -0.03253827
0001f0 fc f0 08 bd b4 69 20 bd 43 5d b3 3c df 3f 4d bc
       -0.033432946 -0.039163306 0.021895057 -0.012527435
000200 1e d5 0b 3d 30 fb 7a bd 69 1a 6f bd 18 29 4d bd
       0.03413879 -0.061274707 -0.058374796 -0.05008802
000210 8e 8e 64 bd 89 3e 14 3c 73 f2 fc 3c 85 24 d5 bb
       -0.055800013 0.009048113 0.030877328 -0.0065045976
000220 fb 2e c7 3c cf e8 0c bd 53 6d 81 bd 62 8c 1a bd
       0.024314394 -0.03440171 -0.0631968 -0.037731536
000230 6d 05 9c bd 7e b4 0a bd f5 f0 1e bc 53 8a 30 bd
       -0.076182224 -0.033863537 -0.009701003 -0.043100666
000240 cf 19 82 39 72 91 37 3d d3 fe b5 3c 8f 4b fe bc
       0.0002481476 0.04481644 0.022216236 -0.031041889
000250 b8 a9 05 bd f4 87 b9 bc a1 bd 87 bd ee 17 f6 bc
       -0.03263256 -0.022647835 -0.06627966 -0.030040707
000260 2a c3 db 3c fe d4 5e 3c 00 b3 9e bc 14 f5 41 bd
       0.02682646 0.013600586 -0.019372463 -0.047352865
000270 07 2e 2d bd 6f 1e 89 3c 9c 78 49 3d d1 e7 6c bc
       -0.042280223 0.016738145 0.049187288 -0.014459566
000280 56 e0 6c bd 7a a5 45 bd f2 ea 07 3d 41 c6 36 bd
       -0.05783113 -0.048253514 0.033183046 -0.044622663
000290 71 ed 55 3c ce d1 12 3d 2c ca 54 bd e8 c7 34 3c
       0.013057099 0.035844617 -0.05195062 0.0110339895
0002a0 f1 0e 8f 3c e1 2b d3 bc 37 09 5e 3d 54 78 08 3d
       0.01746318 -0.025777759 0.054208007 0.03331788
0002b0 bc 54 37 bc ae 3d c8 bc 5d d4 0e 3d 2e 28 a8 bc
       -0.011189636 -0.024443474 0.034870494 -0.020526972
0002c0 c5 df 69 3c 11 83 89 bc 06 88 75 bd 5d 0e 2d 3d
       0.014274542 -0.01678613 -0.059944175 0.042250026
0002d0 7d 9e b9 3b 27 65 23 3c 76 75 30 bd 8e 27 c8 3b
       0.005664645 0.009972847 -0.04308077 0.006108231
0002e0 46 c6 df 3b bc 63 ce bc f1 22 6a 3d ba ba 0a 3c
       0.006829056 -0.025194041 0.05716223 0.008467371
0002f0 31 a3 fb 3b 86 45 3e bd 89 93 5d 3d 29 e5 d5 3c
       0.007679366 -0.04645302 0.05409578 0.026110249
000300 8e 51 92 3d 5d b3 28 bd 9a e1 d1 3c de 49 45 bd
       0.071444616 -0.04118668 0.02562027 -0.04816615
000310 66 90 b2 bb 47 1d 6d bd 14 e3 34 3c 7f 82 32 bd
       -0.0054493425 -0.05788925 0.011040468 -0.043581482
000320 21 6c 24 bc a9 82 74 3d 76 8a 09 3d c8 8e 3d 3d
       -0.010035546 0.05969492 0.033579312 0.046278745
000330 02 0e 18 3d 2c 7d ca bc e7 21 18 3d 8d c2 b8 3c
       0.037122734 -0.02471789 0.037141707 0.022553707
000340 d1 18 47 3d a5 13 34 3d 2f ee 5a bd 24 f3 ee bc
       0.04860765 0.043964047 -0.053449806 -0.029168673
000350 2a d8 58 bc 18 3b 76 bd 9e aa a4 bc 34 57 db 3c
       -0.013235131 -0.06011495 -0.020100888 0.02677498
000360 c1 24 3a 3d 3a cd 65 3c 5d d0 59 3d e0 44 85 3c
       0.045445208 0.014025981 0.053177226 0.016268194
000370 40 b1 e3 3c 1d af b0 3b d7 2e 99 3b 15 5c 07 bd
       0.02779448 0.005391969 0.004674773 -0.0330468
000380 26 0a a8 bc 0d a7 c9 bb 0e 9a 40 bd a0 a9 bc 3c
       -0.020512652 -0.006153947 -0.047021918 0.023030102
000390 c6 b6 8a bd 1d 8d 02 bd 69 cc f4 bc 99 5a 81 bd
       -0.067731425 -0.031872857 -0.029882627 -0.06316108
0003a0 bf 14 23 3d c6 47 41 bd df 59 0c 3c 27 18 6f bd
       0.039814707 -0.04718759 0.008566349 -0.058372643
0003b0 3a 6f 8b 3c 9c e0 2d 3c 33 7e 05 bd 16 d5 39 bb
       0.01702081 0.010612633 -0.032591056 -0.002835577
0003c0 9d 65 d3 bc 2a 49 80 3d aa ad 87 bd f1 ba 46 bc
       -0.025805289 0.06263955 -0.06624921 -0.012129531
0003d0 6a c4 6b bd b2 e8 38 bc d5 b8 d1 bc ee 64 6b bd
       -0.057560362 -0.011285948 -0.02560083 -0.0574693
0003e0 a1 51 0c bd 15 33 ca bb 96 0f 1a 3b df 74 1d bd
       -0.034257535 -0.0061706402 0.0023507825 -0.038441535
0003f0 a1 4b 84 bd f3 03 42 bc c9 81 75 3d db 44 6d bd
       -0.064597376 -0.011841762 0.059938226 -0.057926994

fc2.bias f4 [256]
000000 7f 1b 4a bd bc d7 9c bd 69 df 97 bd 60 de 8f bd
       -0.04934263 -0.076583356 -0.07415659 -0.070248365
000010 c1 34 42 bd 98 93 96 bd 03 cf 9a bc e1 a8 92 bd
       -0.04741359 -0.0735237 -0.018897539 -0.07161117
000020 3e 47 bf bc 5d 71 59 bd c9 a0 d3 3b 51 f7 da bc
       -0.0233494 -0.053086627 0.006458376 -0.026729258
000030 b0 38 cc bc 90 42 63 bd cc 8b b9 bd 43 b7 84 3c
       -0.024929374 -0.0554834 -0.09059867 0.016200667
000040 fe 51 34 bd f7 e5 80 3c 83 ba a7 bd 8b 3a 62 bd
       -0.044023506 0.015734656 -0.08189871 -0.055231612
000050 d6 2a 91 3a 53 48 cb bb ef 37 c1 bc b1 83 16 3d
       0.0011075388 -0.00620369 -0.023586242 0.036746684
000060 24 b2 15 bd 76 27 8c bd d1 0a 33 3d b5 3e 5b bd
       -0.03654684 -0.06843464 0.043711487 -0.0535266
000070 78 67 92 bd 7e 27 a9 bd 6c 44 4e 3d 4d e9 aa bc
       -0.07148641 -0.08259486 0.05035822 -0.0208632
000080 cf 5b 0b bd 53 4a 9d bd 19 f3 6a bd 01 a9 a4 bd
       -0.034023102 -0.07680192 -0.057360742 -0.080400474
000090 e4 08 93 bd 60 68 fc bc 69 f8 b4 3b 31 43 71 bd
       -0.0717943 -0.030811489 0.005522777 -0.05890197
0000a0 3a 1f 13 bd 3f 4b 76 bd 03 71 71 bd dd 52 52 bc
       -0.03591845 -0.060130354 -0.058945667 -0.012837139
0000b0 8b ca 5a bb f3 18 78 bd 80 4c ba 3c 58 3b db bc
       -0.0033384885 -0.06057067 0.022741556 -0.026761696
0000c0 24 a0 61 3d 9e 36 ac bd 99 25 95 bc d7 b2 7e bc
       0.055084363 -0.08408855 -0.018206405 -0.015545568
0000d0 a7 e1 7e bc c8 54 0d ba d7 eb 21 bd 68 b6 7d 3c
       -0.015556729 -0.00053913565 -0.039531555 0.015485384
0000e0 45 6b 55 bb ed 7e 97 bd 09 86 4c bd de 26 82 bd
       -0.0032565158 -0.07397256 -0.049932513 -0.063550696
0000f0 9a 21 87 bd c7 2f a5 bc 06 1d 0d bd 98 a6 5f bd
       -0.06598206 -0.020164384 -0.034451507 -0.054602236
000100 d6 d3 44 bd 83 61 68 bc 23 65 82 bd ce 37 84 3d
       -0.048053585 -0.014183405 -0.063669465 0.064559564
000110 5d 09 ed bd 93 26 8b bd 9e 09 62 bc 41 f7 5d 3c
       -0.115740515 -0.06794467 -0.013796238 0.013547719
000120 43 8f 73 bd 6c 61 b6 bd fb a2 bb bb 5b dc bc bc
       -0.059462797 -0.089053005 -0.005726216 -0.023054292
000130 73 e2 90 3d 44 6b 04 be 24 61 b7 bd 2c 95 80 3c
       0.07074442 -0.12931544 -0.08954075 0.01569613
000140 6f 8f 7e bd b0 2e 03 bd 67 c9 a5 bc ad a9 3e bc
       -0.062148508 -0.032026947 -0.020237638 -0.011637134
000150 91 a1 0f bd 84 b8 fb bb de c1 a4 bd e0 61 29 bd
       -0.03506619 -0.007681908 -0.0804479 -0.041353106
000160 c5 e6 a3 bd 65 4d 1e bd 22 73 7b bb 02 88 c3 3c
       -0.08003 -0.038648028 -0.0038368185 0.023868565
000170 d1 77 7d bd 63 60 63 bd 4f 9d c0 bd f9 17 1a bd
       -0.061881844 -0.055511843 -0.09405004 -0.03762052
000180 55 3d a6 bd 33 0f 8e 3d 1d 02 2a bd 22 0b a7 bd
       -0.08117167 0.06936493 -0.04150592 -0.0815642
000190 01 7c 81 bd b6 20 4a 3c b0 61 04 bd 56 c5 54 bd
       -0.0632248 0.0123369 -0.032319725 -0.051946007
0001a0 05 72 f2 bb b8 bc ae bd eb 50 34 bb b4 e9 0a bd
       -0.007398846 -0.08532089 -0.0027514051 -0.033914283
0001b0 da 12 43 bc 6a b7 81 bd d2 b8 c5 3d f6 aa b5 bc
       -0.01190635 -0.063338116 0.09654392 -0.022176247
0001c0 43 ef 84 bc 82 64 a2 bd 1e 7e 2b bd 6f 6f 04 3c
       -0.01622737 -0.079293266 -0.04186832 0.008083208
0001d0 72 0c 30 bc 6d 4e ec bc 84 7c 03 3d 9b f2 9b bb
       -0.010745155 -0.02884599 0.03210117 -0.0047591454
0001e0 83 3b f3 bd 4c d1 55 bc 31 35 80 bd a9 7a 73 bc
       -0.11876585 -0.013050389 -0.062601455 -0.014860787
0001f0 c2 de b2 3d c5 f6 92 bd 3c 6b ae bd 55 63 8e bd
       0.08733894 -0.07175974 -0.08516547 -0.0695254
000200 65 a1 a2 bc 35 45 8b bd d4 9f 1b bc 8a be 4c bd
       -0.01985235 -0.068003096 -0.009498555 -0.0499864
000210 1f ff 95 bd bc c4 ef 3c 90 4a a9 bd 46 fc 11 bc
       -0.07324051 0.029268615 -0.08266175 -0.008910244
000220 e8 f2 a8 3c a1 21 ad bd 6e b0 a2 bd c6 c7 6b bd
       0.02062364 -0.0845368 -0.079438075 -0.057563566
000230 ae 92 5f bd 76 13 55 3d 50 88 d3 bd 3a 98 e6 bc
       -0.054583244 0.052020513 -0.10328734 -0.02814876
000240 03 cc 2d bd 1b 76 03 bd 1d 57 33 bd 92 ec 73 bd
       -0.04243089 -0.032095056 -0.04378425 -0.059551783
000250 2d 2b 9d bd 23 29 0c bd 4e 3f 4c bd cf af ce bc
       -0.07674251 -0.03421892 -0.04986506 -0.025230316
000260 c9 6a 36 bd 03 3c 87 bd 08 d0 93 bb 64 45 8f bb
       -0.044535432 -0.06603243 -0.0045108832 -0.0043722857
000270 8b f2 27 bd ea f0 49 bc 8e 87 77 bc a2 57 4d 3c
       -0.04100279 -0.012325505 -0.015108002 0.0125331
000280 27 5f 31 bd 05 63 75 bb d6 ad c8 3c 6d 5c 0e bd
       -0.043303635 -0.0037443053 0.024496954 -0.034756113
000290 c3 3c 71 bd 49 0a 1a bd 14 39 b2 bd ba 5b 60 3c
       -0.058895838 -0.037607465 -0.08702293 0.013693744
0002a0 c4 35 ea bd 5c e8 67 bd 3a 52 80 bd 01 c4 9a bd
       -0.11436036 -0.05661808 -0.062656835 -0.07556916
0002b0 8d 2d 42 bd b8 93 11 be 44 88 e3 bd 49 2c 0e bd
       -0.04740672 -0.14216506 -0.11109975 -0.034710202
0002c0 97 41 cc bc 94 17 6c bd 9c 93 8e bd 31 16 d8 3c
       -0.02493362 -0.057639673 -0.06961748 0.02637777
0002d0 0e 9c 37 bc 5c a7 8a bd 71 4c 74 bd 02 ad 9f 3c
       -0.01120664 -0.067702025 -0.059643213 0.019491676
0002e0 81 8a 58 bd df 07 b1 bd f4 f9 c9 3b ae d5 49 bc
       -0.052866463 -0.086440794 0.00616383 -0.012319012
0002f0 7d 42 08 3d b0 50 84 bd 18 34 8f bc 62 7c 6b bc
       0.033266533 -0.064607024 -0.017480895 -0.014372917
000300 39 fa 05 ba 4f a3 56 3c a4 4b 2b 3d 0d e4 ce 3c
       -0.00051108334 0.013100459 0.041820183 0.025255227
000310 33 6c d4 bc d1 46 06 bd cf 5b a7 bc c6 59 34 bd
       -0.0259305 -0.03278238 -0.02042952 -0.044030927
000320 60 07 b2 3b ce f8 2e bd d9 db 1d bd b7 31 45 bd
       0.005433008 -0.042717747 -0.03853974 -0.048143115
000330 61 de c8 bd 5f 2a 8a 3c 00 68 39 bd fb b9 1b bb
       -0.098080404 0.016865907 -0.045265198 -0.0023761976
000340 e5 c0 a6 bd 33 b6 a6 bd 3d 53 8a bc 43 94 9d bd
       -0.081422605 -0.081402205 -0.016885394 -0.07694294
000350 6c 2c 93 bd 4e 7d 85 bd 99 aa 82 bd d0 b8 a5 3b
       -0.07186207 -0.065180406 -0.06380195 0.0050574318
000360 c5 f6 be bc c5 9e ee bc ab 8d 8a bd db 4b 8d bd
       -0.023311028 -0.029128442 -0.06765302 -0.06899234
000370 29 10 c8 3c 75 7c a9 3c 3f bf 81 bc 3f 6e f2 3c
       0.024421768 0.020689229 -0.015838264 0.029593585
000380 14 ac b3 bd 87 73 fb bc 94 7e d4 bd 92 80 e8 3c
       -0.08773056 -0.030694736 -0.10375705 0.02838162
000390 54 91 4d bd 58 d3 a6 bd fd fa 8a bd 3b 24 6d bd
       -0.050187424 -0.08145779 -0.067861535 -0.05789588
0003a0 a9 10 80 bd 7c ff 26 bc 2e 14 14 3c 68 37 53 bd
       -0.06253178 -0.010192748 0.009038014 -0.05156651
0003b0 e4 96 ac bd 88 5d 51 bd 9a cf 73 bd 71 63 7d bd
       -0.084272176 -0.05111459 -0.059524156 -0.061862413
0003c0 b0 d7 1f bc 20 12 84 bc 3f 0f 62 bd e1 9f 14 bd
       -0.009756014 -0.016121924 -0.05519032 -0.036285285
0003d0 ec c9 df 3c ce 89 7a bc a5 26 42 bd 5f 8b 62 bd
       0.027317964 -0.015291644 -0.047400136 -0.055308696
0003e0 51 e8 ea bc 49 a0 34 3c 6d 79 10 bd 3f a9 de 3a
       -0.02867523 0.011024543 -0.03527205 0.0016987695
0003f0 11 b1 a6 bd 1b c2 61 bd 1a 48 95 bc b9 e0 89 3d
       -0.081392415 -0.055116754 -0.018222857 0.067323156

fc3.weight f4 [256, 256]
000000 22 2c 95 bd 50 e2 95 3d 72 a2 6b ba a8 03 59 bd
       -0.07283808 0.07318556 -0.0008988745 -0.052982002
000010 a2 92 51 bd da 90 54 3d ac 85 61 3d d7 50 3f bd
       -0.05116523 0.051895954 0.05505912 -0.046707954
000020 9e ab 13 bd 48 be 53 3d 40 24 68 3c bf f0 af bb
       -0.03605234 0.05169514 0.014168799 -0.0053692753
000030 b0 8e fd 3c 63 14 18 3d 95 c3 8e 3c 34 e2 53 3d
       0.030951828 0.037128817 0.017427245 0.051729396
000040 1e e0 2a bd ea d1 41 bd a8 93 d5 bc 75 45 ed 3c
       -0.04171764 -0.04731933 -0.026071385 0.028963784
000050 1b 9b 84 3a 5e 25 b0 3c a9 a4 22 bd a1 4e 16 bd
       0.0010117026 0.021502193 -0.039707813 -0.03669608
000060 4c b3 62 3d f3 4e 99 bc d2 78 84 3c 00 dc 72 3d
       0.055346772 -0.018714404 0.016170893 0.05929184
000070 5d 3c 0d bd fb dd 3c bd ce ea d2 b9 cb 59 a3 bd
       -0.034481395 -0.046110135 -0.00040229264 -0.07976111
000080 04 c4 88 3c dc 39 b7 3c eb 9f 8b ba f5 35 02 bd
       0.01669503 0.022366457 -0.0010652518 -0.03178974
000090 89 a4 d2 3c a0 a8 56 3d a4 24 c1 bd 56 4b 7d bd
       0.025713222 0.052406907 -0.09430817 -0.061839424
0000a0 5a 50 21 3d ae 15 86 3c f2 5c 3d bd 88 7c 25 3d
       0.03938327 0.01636776 -0.046231218 0.040401965
0000b0 f7 f2 91 bd d6 26 27 3d 70 24 1d bc 24 9a 61 bd
       -0.0712642 0.04080852 -0.009591207 -0.05507864
0000c0 3d ea 80 bd 21 00 50 bd 37 c6 7f bd cf f9 a6 bd
       -0.062946774 -0.050781373 -0.06244489 -0.08153116
0000d0 83 c6 e5 3c 14 85 ce 3c c8 33 c3 bc 6c 62 80 bc
       0.02804876 0.025209941 -0.023828402 -0.015671931
0000e0 d8 d9 1c bc fd 98 4d bc d1 e1 47 3d 6c d6 45 bd
       -0.009573422 -0.012548682 0.04879934 -0.04830019
0000f0 4c f0 a1 3c cf 9b 76 3d 2c 93 a0 3c e0 b2 0e 3c
       0.019767903 0.060207184 0.019601427 0.008709639
000100 74 e7 ad 3a 91 1b 3b bd 01 16 7b 3c d1 a2 7f 3c
       0.0013267831 -0.045680586 0.01532507 0.015602783
000110 ec 88 33 3d 76 3e 56 bd 32 7d 3c bd f2 ac 57 bd
       0.04383175 -0.05230566 -0.046017833 -0.052655168
000120 4f 24 9e bd 58 57 44 3d b4 19 ea 3b fd 6f 23 3d
       -0.07721769 0.04793486 0.0071441773 0.039901722
000130 59 ff 42 3c cb bd c5 3b 90 ad 0b bd 40 b6 9a bc
       0.0119017 0.006034588 -0.03410107 -0.018885732
000140 53 c6 fc 3c 49 9a 8e ba 82 fb 28 3d 6a 06 70 3d
       0.030856287 -0.0010879721 0.04125548 0.058599867
000150 6f ea 67 bd 06 2a 35 bd 1f 21 6d bd c5 28 5b 3c
       -0.056620058 -0.04422953 -0.057892915 0.013376419
000160 d8 f4 31 bd 12 a0 92 bd fd e9 68 bd da f0 8f bd
       -0.04344639 -0.07159437 -0.056863774 -0.07028361
000170 89 12 00 bd 00 52 a1 3c de a9 19 bd 5c f8 fc 3c
       -0.031267677 0.019692421 -0.037515514 0.030880146
000180 a9 e5 c0 3c e9 d3 f4 3b f9 67 0e bd f0 83 63 bc
       0.02354701 0.0074715507 -0.034767125 -0.013886437
000190 bc 34 b3 ba 75 46 a9 bc 3d 8f 90 bd ba bc 60 bd
       -0.0013672332 -0.02066348 -0.070585705 -0.054867484
0001a0 50 ba ae 3b d8 81 52 3d 3b 5f 0d bd 0a fd a0 bd
       0.005332269 0.05139336 -0.034514647 -0.07860763
0001b0 ea a3 02 3b 94 f5 ff bc a2 2e b5 3b d7 85 5e 3d
       0.0019934126 -0.03124503 0.0055292407 0.05432686
0001c0 91 2f 92 bd 08 40 8c bd 03 24 48 3d 9d 40 ea bc
       -0.07137979 -0.068481505 0.04886247 -0.028595263
0001d0 c3 22 b0 bc 20 5e 9f bc 84 2c ac bd bd be 5c bd
       -0.02150095 -0.019454062 -0.08406928 -0.05389284
0001e0 d7 fe 99 bc 9d cf 52 bd 30 cb bd 3c 1e 73 23 bd
       -0.018798275 -0.051467527 0.023168176 -0.039904706
0001f0 6c 4c 46 3d 50 16 ce 3b 68 77 73 bc 9b b9 6e bd
       0.048412725 0.006289281 -0.014860012 -0.058282476
000200 62 39 fd bc ec 4f 0a bc 3e d5 88 bd 06 95 28 3d
       -0.030911151 -0.008441906 -0.06681298 0.041157745
000210 aa 6b b0 bc e0 10 47 bc 63 bc c5 bc ba a5 6b 3a
       -0.021535713 -0.012150019 -0.024137681 0.0008989234
000220 40 bd 41 3b a4 56 47 3d 70 c6 91 bd ad e1 7b bd
       0.0029562265 0.04866661 -0.07117927 -0.061494518
000230 ec 42 51 bd 80 de 22 bd 36 65 b7 3c 34 aa b6 bd
       -0.051089212 -0.039762974 0.022387128 -0.089191824
000240 8f 64 0b 3d 80 54 d5 bc 2e c2 4a bd e8 20 3b bd
       0.034031447 -0.02604127 -0.04950159 -0.04568568
000250 00 f0 5f bc d0 ed b8 bc 1b f4 e6 3c be d3 53 bc
       -0.01366806 -0.022574335 0.02819257 -0.012928901
000260 01 90 97 bd b2 1b 5d 3d 28 8e a4 bd 91 79 32 38
       -0.074005134 0.05398149 -0.08034927 4.2551725e-05
000270 f6 33 62 3d 31 21 bc 3c ad bd 64 bd 76 0d 2a bd
       0.055225335 0.022965046 -0.05584495 -0.041516744
000280 b5 67 23 bd 5c 1b 85 bc 64 85 f0 3b ef 8d 89 bc
       -0.039893825 -0.016248398 0.00734012 -0.016791312
000290 ac f3 82 3c 6d 25 50 bd 0c 13 7d 3d 44 c4 10 3d
       0.015985332 -0.050816942 0.061785743 0.035343423
0002a0 42 81 21 3d 99 b0 0a bd b5 a8 c8 3b c8 68 30 bd
       0.03942991 -0.033859823 0.006123627 -0.043068677
0002b0 2f 7b 16 3c 4b e1 66 bc f8 f8 df bc 3f 41 d8 bc
       0.009184643 -0.0140918 -0.027340397 -0.0263983
0002c0 f1 87 a6 bd 6e 7b 9d 3c 00 1c a2 bc 60 0d 07 3b
       -0.081313975 0.019223895 -0.019788742 0.0020607337
0002d0 27 88 9a 3c 56 cf 2f 3c 30 5b 28 bc 0e a5 35 bd
       0.01886375 0.010730585 -0.010275647 -0.04434686
0002e0 cc 8a d9 bb 85 17 d2 bc d7 42 47 bd db 1e 15 3d
       -0.0066388603 -0.02564598 -0.048647728 0.03640638
0002f0 10 fa 71 bd ee 82 5d 3d bf c9 ca 3c 71 06 99 bc
       -0.05907637 0.054079942 0.024754403 -0.01867983
000300 bb 8d a1 3c 42 2b 26 bc 94 86 59 3d c4 8d 9f 3c
       0.019720903 -0.010142149 0.05310686 0.019476779
000310 a3 b2 15 bd 4c 5f 26 3d cc 9e 3b bb 2f 09 fc 3b
       -0.036547314 0.040618226 -0.0028628586 0.0076915245
000320 b0 88 f4 bc e3 70 54 bc cc 4d 7f 3c f6 23 bd 3c
       -0.029850334 -0.012966367 0.015582513 0.023088437
000330 e8 e0 4f bd 96 12 4c 3c d2 43 13 bd ce 2c 60 bd
       -0.050751597 0.012455603 -0.03595335 -0.05473023
000340 10 b6 a8 3c 7b fd 6a 3c 5f 19 e9 ba 3c a5 22 bc
       0.020594627 0.014342661 -0.001778405 -0.00992709
000350 d0 ea 03 3d 2e 33 09 bd 9a b7 32 3d 80 9b 87 ba
       0.032206357 -0.033496074 0.043632127 -0.0010346025
000360 ab 68 cf 3c b4 76 df 3c 50 2a f1 3b b4 69 6e bd
       0.025318464 0.027278282 0.0073597804 -0.058206275
000370 e5 6a 00 bd 7c 68 03 3d 4d 49 03 3d 22 51 d0 bc
       -0.031351943 0.032082066 0.032052327 -0.025429312
000380 bb a6 4d bd 20 cb 18 bd 61 61 00 3d 3b 47 2a bb
       -0.050207835 -0.03730309 0.031342868 -0.0025982398
000390 ff 32 52 3c c4 48 34 3d 60 9f 2f bb c2 4c 73 bd
       0.012829541 0.044014707 -0.0026797876 -0.059399374
0003a0 4e e0 14 bd b1 eb 85 bd 30 6a eb bc 5c 8c 84 bc
       -0.036346726 -0.06539095 -0.028737158 -0.01618021
0003b0 c0 9c be 3c d5 8d 85 bc 06 72 5c 3d bb 1e 81 bd
       0.023268104 -0.016302982 0.05381968 -0.063046895
0003c0 32 78 3e 3c 78 49 82 bc 2f ba 44 bd 81 02 9f 3c
       0.0116253365 -0.015904173 -0.04802912 0.019410374
0003d0 cc 60 b7 bc 0b b2 3d 3d 71 c3 a4 bc 67 3e 7e bc
       -0.022385024 0.046312373 -0.020112725 -0.015517808
0003e0 fe 40 82 3d be 79 37 bd a2 5d 87 bc 38 cc 15 bc
       0.063600525 -0.044793837 -0.01652414 -0.009142928
0003f0 b9 35 30 bd 07 cc 1c bc 57 49 e7 bc 2f 2a fe 3c
       -0.043019984 -0.009570128 -0.028233213 0.031025974

fc3.bias f4 [256]
000000 55 cc b0 bd a3 4b 80 bd f8 a6 5a bd 1e 0a b5 3c
       -0.08632723 -0.062644266 -0.05338189 0.02209955
000010 d7 c3 0f bd 19 00 85 bd 22 01 ac bd e7 48 78 3d
       -0.035098877 -0.06494159 -0.083986536 0.0606164
000020 24 68 26 bd d6 d2 39 bd 95 11 b3 bd 98 50 8a bd
       -0.04062666 -0.045367084 -0.08743588 -0.06753653
000030 09 41 3c bd 5c 1f 72 bd 20 08 ea 3c 6d 25 7f bd
       -0.04596046 -0.059111938 0.028568327 -0.06229155
000040 da 1b e6 bd e5 bd 89 bd 1c 68 98 bd 58 77 a3 bb
       -0.11235781 -0.06725673 -0.07441732 -0.004988592
000050 5c e7 a7 bc 64 0b 89 bd 43 3c 22 bd 89 44 e3 bc
       -0.020496063 -0.06691626 -0.03960825 -0.027742641
000060 a4 6f cb bd 08 08 15 bd ec b0 49 3d 6e db b7 bd
       -0.09933403 -0.036384612 0.04924099 -0.089774
000070 68 69 15 bd 28 79 b3 bc 1f fb 82 bd 40 9c 3e 3d
       -0.036477476 -0.021908358 -0.06395554 0.04653573
000080 26 9f 80 bd 3a 45 77 bd 70 d6 d2 bd f1 77 86 bd
       -0.06280355 -0.060368754 -0.10294807 -0.06565846
000090 db f3 8c bd 5a ba 7c bd 52 41 87 3d db 13 32 bd
       -0.06882449 -0.061701156 0.06604256 -0.043475967
0000a0 55 81 e3 bc 73 99 9b bd c0 ee 83 bd c9 fe 4c bc
       -0.027771631 -0.075976275 -0.06442022 -0.012511917
0000b0 75 9f 65 bd b8 3c 43 bd e1 47 8c 3c 3a 3b a1 bd
       -0.056060273 -0.047665328 0.017124118 -0.07872625
0000c0 ee 95 93 bd 1a 32 bb bd b7 fc ec bc a8 9b 17 bd
       -0.07206331 -0.091404155 -0.028929098 -0.03701368
0000d0 6e 1d f3 bc ae ed 9d 3c 7e 09 94 bd ca ef 36 3e
       -0.02967712 0.019278374 -0.07228373 0.1786491
0000e0 92 03 4e bd 9f 0a 8e bd 1f 4c 26 bd cb b6 40 bc
       -0.050296374 -0.069356196 -0.04059994 -0.011762331
0000f0 29 21 70 bd d9 e8 76 bd f9 bb a8 3c e2 11 3b bd
       -0.058625374 -0.060280655 0.020597445 -0.04567135
000100 22 4a 18 bd 8e 03 23 bd 39 9c 55 bb ce eb 65 bd
       -0.037180074 -0.039798312 -0.0032594337 -0.056133084
000110 a4 3b 48 bd 3f a1 b4 bd 47 ca 9e bd 33 f6 25 bd
       -0.048885003 -0.08819818 -0.07753425 -0.040517997
000120 a2 3d 5e bd f5 4f 45 bb fb ac 22 bd a9 df 03 bd
       -0.054257996 -0.0030107473 -0.03971575 -0.03219572
000130 73 54 53 bb 32 f4 26 bd c5 41 fc bc 1a f1 0d bd
       -0.003224638 -0.040760227 -0.03079308 -0.03465376
000140 73 0b 65 bd 08 9a ed ba 97 41 c1 bd d3 b3 00 3d
       -0.055919122 -0.001812757 -0.094363384 0.031421494
000150 79 be 41 3d 80 c0 8e bd d0 8b 13 bb 03 f4 13 bd
       0.04730079 -0.0697031 -0.0022513755 -0.03612138
000160 57 a9 92 bd ba 5e b7 3c bf 5a 43 bb 86 73 86 bd
       -0.07161205 0.022384036 -0.0029808728 -0.06565003
000170 aa 0c 8b bd 2d 90 3f bd 2d b6 9a bd 12 4c ba bd
       -0.06789525 -0.046768356 -0.075542785 -0.090965405
000180 36 b8 85 bd 48 24 64 bd 33 5b e8 3d 5f e3 a5 bd
       -0.06529276 -0.055698663 0.1134552 -0.08100008
000190 c1 15 2d bd 02 90 cd bd e6 09 3e bd 0e f8 9e bd
       -0.042257074 -0.10037233 -0.04639616 -0.077621564
0001a0 52 50 0c bd f8 2a 57 bd eb e9 64 bd 7b b9 3e bd
       -0.034256287 -0.052531213 -0.055887144 -0.046563607
0001b0 db 87 e3 bc 8f dd 3d bd c8 4f 2b bd 4c 3a 65 bd
       -0.027774742 -0.046353873 -0.041824132 -0.0559638
0001c0 b7 ec f9 3b c0 49 2a bd 9f b3 8c bd d9 0d 75 bd
       0.0076270956 -0.04157424 -0.068701975 -0.05982766
0001d0 99 9c 9f bd 2e 61 d4 bd c7 ea 50 bd 5c ab b1 3d
       -0.077935405 -0.10370098 -0.05100515 0.08675262
0001e0 5b 18 45 3d b8 4e 08 be 80 7c 9b bd b5 80 de bd
       0.04811893 -0.13311279 -0.07592106 -0.10864393
0001f0 cb ab 8e bd 81 29 16 bd c0 3b cc bc 23 8f 94 bd
       -0.06966361 -0.036660675 -0.024930835 -0.07253864
000200 94 65 f2 bc ce 17 0a bd 9b 63 20 bd 38 73 8b bd
       -0.029589452 -0.03371411 -0.03915749 -0.068090856
000210 91 53 28 bd 77 28 6b bd 69 37 18 bd 58 36 63 bd
       -0.04109532 -0.057411637 -0.03716222 -0.055471748
000220 80 7e a0 bd 8e a0 88 bd 31 1f 09 bd fe cc 3c bd
       -0.07836628 -0.066712484 -0.033477012 -0.046093933
000230 87 e0 02 3d 49 da 8e bd ce c1 c8 bd 7e 61 25 bd
       0.031952407 -0.06975228 -0.0980259 -0.04037618
000240 d4 7b f2 bb 41 03 b4 bd 75 75 93 bc ae 22 61 bd
       -0.0074000154 -0.08789683 -0.018000344 -0.054964714
000250 65 bf 06 bd 68 4f c4 bd 77 bb 82 bd 40 b1 d3 bc
       -0.03289737 -0.09585458 -0.06383412 -0.025841355
000260 02 30 4e bd 95 57 20 bd c4 24 0d bd 49 a1 1e bd
       -0.050338753 -0.039146025 -0.03445889 -0.038728032
000270 9c 8d 1b bd bf 45 94 bd 42 37 5f bd 72 00 42 bd
       -0.037976846 -0.072398655 -0.054496057 -0.047363706
000280 37 b1 00 bd 1e 6e 7d bd 9d 97 4f bd 6f 58 58 bd
       -0.031419005 -0.061872594 -0.0506817 -0.05281871
000290 a1 0a 54 bd bd 6d 38 bd be ff 93 3d 94 61 04 3e
       -0.05176795 -0.04502653 0.07226513 0.12927848
0002a0 3f 1c ee bc a7 02 4b bd ad 64 4c bd ad 65 81 bd
       -0.029066203 -0.049563076 -0.0499007 -0.06318221
0002b0 a8 f2 9e bd aa 7c 5d bc 17 b7 26 bd a6 d0 35 bd
       -0.07761127 -0.013518492 -0.04070195 -0.044388436
0002c0 26 55 02 bd be 9d 33 bd 53 69 a1 bc 96 ec 9f bd
       -0.031819485 -0.043851607 -0.019703543 -0.07808797
0002d0 20 d8 a0 bd d5 bb 3d bd f8 f5 95 bd 7c 57 90 bd
       -0.078537226 -0.04632171 -0.073223054 -0.07047936
0002e0 4a 72 93 bd 56 32 85 bd 10 71 a8 bd 75 bb 15 bd
       -0.07199533 -0.065037414 -0.0822469 -0.036555726
0002f0 0a d7 ae bb c2 93 1c bd 36 35 85 bd 52 7c 95 bd
       -0.0053356932 -0.03822685 -0.0650429 -0.07299103
000300 21 9a f8 bc 0e 69 2f bd 78 8d 5b bd 06 4f 7c bd
       -0.030346932 -0.042824797 -0.053601712 -0.0615988
000310 33 6d f7 bc a8 3c 8d bd cd 7d 46 bd 67 62 7f bd
       -0.030203437 -0.06896335 -0.048459817 -0.062349703
000320 c6 6e 89 bd 28 38 39 bb 5a 2f a7 bd 3b ae 4e bd
       -0.067105815 -0.0028262231 -0.081633285 -0.050459128
000330 6d 70 68 bd 45 3d 4c bd 06 69 b1 bd 92 0a dc 3c
       -0.056747843 -0.04986312 -0.0866261 0.026860509
000340 a8 c6 8d bb 4b f7 80 3c 4c 36 b0 bd 00 47 65 bd
       -0.00432666 0.015742918 -0.08604106 -0.055975914
000350 68 3a 4f 3d c5 b5 3f bd a5 9a 97 3d 11 f4 7f bd
       0.05059281 -0.04680421 0.07402543 -0.06248862
000360 10 5e 1f bd cb 71 5e bd 67 1e 96 bd c6 94 5f bd
       -0.038908064 -0.05430774 -0.073300175 -0.05458524
000370 ec ba 12 3e 7d 23 0a be d3 f9 ac bd 34 8f 06 bd
       0.14329118 -0.134901 -0.08446088 -0.032851413
000380 ae d6 54 bd 96 55 93 3d e1 f1 9c bd 0e 7c a1 bd
       -0.051962547 0.071940586 -0.07663322 -0.0788499
000390 a3 5b 70 bd e6 b1 8f bd 9f 71 7c bd b1 cd 20 bd
       -0.05868114 -0.07016353 -0.061631795 -0.039258663
0003a0 70 29 5d bd 24 d4 5a bd 93 d2 8a bd 67 3b 2e bd
       -0.053994596 -0.05342497 -0.06778445 -0.04253712
0003b0 9f ff d1 bb 8b ff f7 3c ce 33 c1 bd 4d b4 8d bd
       -0.0064086462 0.03027322 -0.09433709 -0.06919155
0003c0 4e c5 fb bd 6b 15 33 3b f6 56 88 bd 1c 20 89 bd
       -0.12293492 0.0027325999 -0.066572115 -0.066955775
0003d0 8c a1 85 3d 40 2f fe bc 8a 07 17 bd 7c 2a 00 3d
       0.06524953 -0.03102839 -0.036872424 0.031290516
0003e0 b8 83 b7 bd 30 27 ae bd e2 5a 34 bd 88 22 4a bd
       -0.0896067 -0.08503568 -0.044031985 -0.049349338
0003f0 14 a7 40 bd be 19 ad bc 44 34 6f bd bd aa 78 bd
       -0.047034338 -0.021130439 -0.058399454 -0.060709704

fc4.weight f4 [256, 256]
000000 2c 2c 93 bc 6c 65 5f 3d 79 e3 5c bd 40 c6 16 3d
       -0.017965399 0.054540083 -0.053927872 0.03681016
000010 9b 4a 4e 3d a3 e8 7c bd 55 be b1 3b 27 f3 92 3c
       0.050364118 -0.061745297 0.0054243007 0.01793821
000020 30 e5 1a bd 1f 9c e2 3c 24 a0 85 bd 14 d1 b4 bc
       -0.037816226 0.027662335 -0.06524685 -0.022072352
000030 c8 2a 81 bc 67 46 15 3d 4e a6 be 3c 14 f2 94 3c
       -0.01576747 0.036444094 0.02327266 0.018181838
000040 c3 48 2a 3d 20 09 91 3c 3e 5c 82 bd 29 26 3d bd
       0.041573297 0.017704546 -0.0636525 -0.04617897
000050 2d e4 24 bd e4 8b 04 3d d5 68 c9 3c fe 74 ac bc
       -0.040256668 0.032359973 0.02458612 -0.02105188
000060 5b fa 4a 3c 81 4a df bc 43 a5 19 3d d8 81 1f 3d
       0.012388791 -0.027257206 0.03751112 0.038942188
000070 16 00 4b bd 46 44 87 3c 8e d1 b0 ba 03 64 30 bc
       -0.04956063 0.016512047 -0.0013490187 -0.010766032
000080 51 cb d2 bc c4 bb 13 bd fc 3d 60 bd 8c d8 95 3c
       -0.025731714 -0.03606774 -0.054746613 0.018291734
000090 67 df 10 bc 12 45 76 bb b4 e8 81 bc 58 a7 7b 3c
       -0.008842326 -0.003757779 -0.015858032 0.015359722
0000a0 50 7c 7d bd 5e 4e 67 3d ec dd 55 bd a3 52 9a 3c
       -0.06188613 0.05647122 -0.052213594 0.018838232
0000b0 dd 26 ae 3c 56 e8 6e bd b4 46 02 3d fa 8c 63 3d
       0.021258766 -0.05832704 0.03180571 0.055554368
0000c0 8d b7 9e bc 48 e3 b5 bc cc 72 b3 3c 84 56 29 3c
       -0.019374633 -0.022203103 0.021905325 0.010335568
0000d0 9c d5 c8 bc b1 87 7e bd b8 bb 59 bd a0 34 e3 3b
       -0.02451592 -0.062141124 -0.05315754 0.0069337636
0000e0 87 fb 61 bd d8 8b 0f 3c ea 03 91 bd 72 b7 f9 3c
       -0.055171516 0.008761369 -0.07080825 0.030482981
0000f0 62 87 46 bd 6d 5e 38 3d 1e 1a 42 3c 40 fb e6 bc
       -0.048468955 0.045011926 0.011847047 -0.028195977
000100 05 7f 41 3b 26 c8 83 bd 32 37 0e bb 89 41 5a 3d
       0.0029525172 -0.0643466 -0.002170038 0.053285155
000110 c2 1c ec bc f2 8d 11 3d 7d 49 db bc ef 09 b4 bc
       -0.028822307 0.03553576 -0.02676844 -0.021977393
000120 07 32 2b bc 23 87 18 3d 58 cc cd 3b 5b 82 19 3d
       -0.010448939 0.03723825 0.006280463 0.037477832
000130 01 75 54 bd e7 d8 83 bc e5 f6 d8 bc ef 74 18 3d
       -0.051869396 -0.016094638 -0.026484916 0.03722089
000140 3b 16 5a 3d f6 3a 10 bc b0 ad 8c 3c 3b 57 0a 3b
       0.053243857 -0.00880312 0.017172664 0.0021109122
000150 a0 be 03 3d 68 88 f3 3c 54 ba af bc fa 1b ba bc
       0.032164216 0.02972813 -0.021451153 -0.022718418
000160 a0 e0 45 bc cb 79 98 3c 3a c5 1b 3d 84 7c 22 bd
       -0.012077481 0.018612763 0.038029887 -0.03966953
000170 28 38 c2 3c 0f e6 fd bc bd b8 92 3c 02 a1 4e 3c
       0.023708418 -0.03099349 0.017910356 0.012611629
000180 c0 5c ab 3a 9a a9 35 39 0b aa 9d bc 04 89 27 3d
       0.0013073906 0.00017324687 -0.019246122 0.040902153
000190 e9 cc 8a bc 2a 1a 35 bd 2a d1 81 bd 34 db 78 bd
       -0.016943412 -0.044214405 -0.06338723 -0.060755923
0001a0 a0 dc 85 3b 7a 1b a8 3c 94 db 1a 3d f0 a2 8e bc
       0.0040851384 0.020520914 0.037807062 -0.017411679
0001b0 25 18 2c bd e4 a2 42 3d cf 65 7b bc d6 6e 96 3c
       -0.042015214 0.047518626 -0.015344097 0.018363398
0001c0 20 a2 8a bc b4 2e 23 bd b2 bf 17 bd f3 92 36 3d
       -0.01692301 -0.03983946 -0.03704805 0.044573735
0001d0 e2 34 b5 3c b2 2f 30 3d 70 f2 58 bc 9e fc 18 bd
       0.022119943 0.043014236 -0.013241395 -0.03735029
0001e0 8a 11 59 bd 68 5e d9 bc 08 5f ab 3c 00 c5 d4 3c
       -0.052995242 -0.026534274 0.020919338 0.025972843
0001f0 10 c4 9a bb e7 84 fb 3c 7e 24 c1 3c 52 1e 21 bd
       -0.0047230795 0.030703021 0.023576971 -0.039335556
000200 26 2d e7 3c 56 f4 dd bc 24 37 5e 3c d3 a6 4a bd
       0.02821977 -0.027094048 0.013562951 -0.049475502
000210 37 0f 81 bd cc e9 aa 3c 4e 60 84 bd a7 3e bc 3c
       -0.0630173 0.020863436 -0.06463681 0.022979094
000220 9b 7b 40 3a ca 35 05 bd 4b a5 81 bd 91 ae 6b bd
       0.00073426374 -0.032522 -0.06330355 -0.057539526
000230 a2 5e ac bc a5 34 81 3c 55 be a7 3c 6c fe f5 bc
       -0.021041218 0.015772173 0.0204765 -0.030028544
000240 ff be dc bc af f2 5d bd 13 9f 45 bb ef bc 0c bb
       -0.026946543 -0.05418652 -0.003015463 -0.0021474918
000250 5f 5f 6a bd 54 a0 81 3c ac 97 76 3d b4 d1 ab bc
       -0.05721986 0.01582352 0.06020324 -0.020974018
000260 fe 3e 9b 3c 8d d7 37 bd 6e 65 73 3b c7 e7 34 bd
       0.018950935 -0.0448833 0.0037139314 -0.044166353
000270 a0 ba 08 3c 2c bb 53 3d 5f 28 91 3c 46 b9 6f bd
       0.008345276 0.051692173 0.017719446 -0.0585263
000280 29 07 8f bc df a3 0a bd bc cb 11 3c 10 bd 1c bd
       -0.017459469 -0.033847686 0.008898672 -0.03826624
000290 fe fa 7c bc eb d1 3a 3d 3b a9 8c bc f2 98 34 3d
       -0.015440701 0.04561035 -0.01717054 0.044091173
0002a0 6f bf 78 bd b9 17 99 3a c7 c2 a2 bc e0 69 3d bb
       -0.06072944 0.0011680044 -0.019868268 -0.0028902218
0002b0 90 e7 93 bc ac 4e e2 3c 51 2b 60 3d a1 61 ce bc
       -0.018054754 0.027625404 0.05472881 -0.025193037
0002c0 c7 5f 4b 3d 62 70 0a 3d ec 06 f5 3c 9c 9b 77 3d
       0.049651887 0.033798583 0.029910527 0.060451135
0002d0 58 c0 ad 3c a3 58 16 3d 54 42 09 bc 95 c4 a4 bc
       0.02120988 0.036705624 -0.00837763 -0.020113269
0002e0 ef 4c 62 bd bc b6 3a 3d a6 52 4f 3d 9c 28 0f 3d
       -0.05524915 0.045584425 0.05061593 0.034950837
0002f0 de 51 3e 3d 10 61 46 3d 43 44 97 3c ca 49 53 bc
       0.046464793 0.04843241 0.018465167 -0.012896011
000300 8b ed b8 3b 51 1e 2b 3d 38 10 0c 3c ac 41 19 3d
       0.0056435517 0.04177696 0.008548789 0.037416145
000310 5f 68 86 bc d0 8d 43 3c 6a ff 2d bd de c6 6f bd
       -0.01640719 0.011935666 -0.04247991 -0.058539264
000320 22 42 5e bd cd ac 94 3c b8 4d 55 bc f6 2c 03 3d
       -0.054262288 0.018148804 -0.013019018 0.0320253
000330 c0 9d e9 bb 30 f6 ca bc 3d 9d 53 bd ac fe 92 3c
       -0.007129401 -0.024775594 -0.051663626 0.017943703
000340 c7 da cb bb 8c 30 b2 3c 10 6e a7 bc 29 19 ab bb
       -0.0062211487 0.021751665 -0.020438224 -0.005221505
000350 d4 c9 40 bd 7b f8 e7 3c e8 a2 7c ba 7e 3f 4a 3d
       -0.04706748 0.028316727 -0.0009637312 0.049376957
000360 83 46 cf 3c 6a 56 ed bc c8 c4 44 3d b9 96 01 bc
       0.025302177 -0.02897187 0.048039228 -0.00790947
000370 4b 4c 5d 3c 79 b2 19 ba 80 41 8b 3b 26 12 64 bd
       0.013506959 -0.00058630813 0.0042497516 -0.05568137
000380 00 c9 09 bd b5 60 2c 3d 47 00 54 3d 08 f2 57 bd
       -0.033638954 0.042084415 0.051758077 -0.052721053
000390 a8 d3 0a 3c 51 fd 29 3c ef 14 85 bd 53 69 e1 bc
       0.008473314 0.010375337 -0.064981334 -0.027516043
0003a0 cd 02 04 3d 88 e5 42 3d 5c 31 cd 3c a2 9d 78 bd
       0.032229234 0.04758218 0.02504795 -0.060697205
0003b0 d4 be 6b 3d ea a1 64 bd ba a4 70 3d 9a d2 63 3d
       0.057555035 -0.055818476 0.058750845 0.055620767
0003c0 39 96 17 3d cb e3 89 bd a0 ae 7b bb b4 df 40 3d
       0.037008498 -0.06732901 -0.0038403645 0.04708834
0003d0 a8 a7 40 3d d4 e2 a8 bc bc 08 8d bd ed 4d d2 bc
       0.04703489 -0.020615973 -0.068864316 -0.025671924
0003e0 88 46 b4 bc 00 f8 21 bd ae 09 fd 3c e4 00 a3 bc
       -0.022006288 -0.03954315 0.030888405 -0.019897886
0003f0 67 03 67 3c a9 1c 5f bd 77 83 8a bc 36 37 51 bd
       0.014099932 -0.05447069 -0.01690839 -0.051078044
