grasp_placement/models/run_seed_6090/stability_net.pth (torch, 42504 bytes, 7 tensors)

fc1.weight f4 [64, 21]
00000000: 97d2 8abd c69f c1bc e543 f5bd bb32 723e
00000010: 9874 263c 893e b0bd 7edc a23d 210d 44be
00000020: c75e 903b 786e 0f3e ecf7 8b3d 4b43 243e
00000030: e7e4 dfbd a0c3 9c3c 7f6d 643e 9256 07be
00000040: 76bd 2d3e 0b03 edbc 8867 01bc 9253 0fbe
00000050: e7e8 9c3e ee0f 32be 4d8b 2fbe adfa fcbd
00000060: 83ae ca3b 41dc f33d f706 073e 63fd 993e
00000070: 62d3 283e 232a 28be 6d76 d2bd 0bfd 4ebe
00000080: 9c08 94bd 1009 e53d 1dc6 63ba b02e 143e
00000090: 91bd f4ba db4c a13d c037 1bbc ea85 8a3d
000000a0: a290 ad3e 69a8 ddbd ed6f 753e 9fd1 423e
000000b0: 796d 36bd 2b6a 2f3e 802a bd3d 9aa5 413e
000000c0: be0b 9bbe 0f0e 50bd 1b09 03be cee1 e9bc
000000d0: 5269 f33d a53c d13d de87 1a3e b7ac 05bf
000000e0: 6eee a23d ea3c fabc 00ee 65bc 5a17 14be
000000f0: fe81 77be 32aa ef3d bd03 443e ce78 96bc
00000100: 3cd1 bebd 7093 db3d 8576 6b3e 18a4 28be
00000110: 9a02 c3bc edb0 5dbe bbf3 80be 4692 e13c
00000120: c8b5 603e 9e48 f23d d262 7c3d 6053 f93c
00000130: bbe7 a9bd 1e09 cabc df95 f83d 0587 8a3e
00000140: 875d 2fbe b824 04bd e092 663e 4327 5ebd
00000150: ccd6 13bd 1d28 3d3d d8eb e7bd cf86 2bbe
00000160: 9186 24be 102b c4bd fcf2 c1bd 1230 99bd
00000170: 23fc 6a3e 3db1 343e afec ea3b 77c7 c8bd
00000180: a77b 313e e185 853e 3dad e53c 90b6 d5bd
00000190: 473e a43d bebe 93bd e295 89bd 7495 e33d
000001a0: 8eb4 71be 021a fb3d 5f1b 0dbd 5a2f 40bc
000001b0: 81a0 2abe 4db9 013e 5908 a53d f4da 4dbe
000001c0: d713 133e bb35 93bd 949d 77bd cbe7 1b3e
000001d0: 2aa4 33be 20b3 d93d 2816 d9bd 4744 b1bc
000001e0: 26f6 c33d 294f 2f3e 5c83 89be 37ac 5a3e
000001f0: 95c3 653e 9117 9c3c 1e52 ed3c 63ba 06be
00000200: 1cc0 2bbe 1b53 f63d 6d32 85bd 845f 19bb
00000210: 71c2 1cbc 8e80 583d 50e2 03bc aa09 f3bd
00000220: 8792 b9bd 5863 25be ea21 b63e 1965 193e
00000230: 43ba 3c3e 3ac3 11bd 5fe6 27bd cdf4 a53e
00000240: e787 873d 5512 b4bd 8619 733e 6112 71bd
00000250: 3786 60bd e1fc 4ebe c7c0 eebd 74b7 97bd
00000260: c304 353e c827 15be 0d5a 4abe 9e40 343d
00000270: 2225 b13d 77ef d0b9 2dbf 093d 082b aabe
00000280: 0601 18be 55cc 863d 1db0 bcbd 820f 14bd
00000290: cec0 353e 5d46 3dbe fc8e 333d af60 313d
000002a0: 4c87 ecbd d25c c53d 7cdb dbbc 9af2 29be
000002b0: 5d34 3ebe cd1e 3a3e 929b cabb fc19 81be
000002c0: 16da 8e3c 4587 d63d d3bc 843d a681 1fbe
000002d0: b43f 3a3e 0df3 adbe 3424 2cbe 2979 1f3d
000002e0: fc63 173e ad9c e33d f503 a9bd 5065 0c3d
000002f0: a051 87bc 2e88 2ebe b1b4 f43d e788 29be
00000300: 502c 33be c341 68bd 2c12 183e 68d2 1ebe
00000310: bca4 293e 8eb1 3d3e f6c5 36be ee12 42be
00000320: 5717 fdbc e668 173e 024b 8a3d 53ba 103e
00000330: 0ff9 72bd 1e99 803d b392 abbe 8967 f83d
00000340: 7b87 5d3e 6998 06be cf81 34be a313 1dbe
00000350: 4f78 093e 6ddd 30be b436 f13d 4ce6 4ebe
00000360: 71fb 3a3e 8f62 69bd bf07 61bd fd9f 11be
00000370: 828d efbd 4dfc 2f3e d911 55be 004a d3bd
00000380: d456 a7be 2c78 73be 23de 3abe be27 3eba
00000390: cadd 4fbd a703 c23d 24bc 303e 3b65 fbbd
000003a0: b74d 03be 4f29 5f3e 88f9 c1bd a491 433e
000003b0: 27fe 483d 6342 ec3d e224 b8bc 8843 61bc
000003c0: a9a2 96bc c134 adbd 83a4 b2bd b6d3 5bbe
000003d0: c18f 4fbe 431f dd3d 977d 88bc ac02 99bd
000003e0: b512 093e 56ab 793e 8f0e 243e bf41 75bc
000003f0: ee90 4dbe e91b 00bd dfd0 8abd e455 20be
-0.06778448 -0.023635756 -0.119758405 0.23652165 0.010159634 -0.08605678 0.07952212 -0.19145633
0.0044058296 0.14006984 0.06834397 0.16041295 -0.109323315 0.01913625 0.22307394 -0.13216618
0.16966805 -0.028932115 -0.007898219 -0.13996723 0.3064644 -0.17388889 -0.17142983 -0.123525
0.006185354 0.119072445 0.1318625 0.3007613 0.16486886 -0.16422324 -0.10276494 -0.20213716
-0.072282046 0.11183369 -0.0008688884 0.14470935 -0.0018672218 0.07875987 -0.009473741 0.06763823
0.3389941 -0.10823137 0.23968478 0.19025277 -0.044537995 0.17130344 0.09236622 0.18910828
-0.30282396 -0.050794657 -0.12796442 -0.028550055 0.11885323 0.10216645 0.15090892 -0.52216667
0.07955633 -0.030546624 -0.014033794 -0.14462033 -0.24170682 0.11702384 0.19142051 -0.018368151
-0.09317252 0.10721481 0.2299443 -0.16468847 -0.023804951 -0.21649523 -0.25185952 0.027535569
0.21944344 0.11830257 0.06161768 0.030435264 -0.08296152 -0.02466255 0.12137961 0.27056137
-0.17125522 -0.03226158 0.22516966 -0.05423666 -0.03609352 0.046180833 -0.113242805 -0.16750644
-0.16066958 -0.09578526 -0.09470174 -0.07479872 0.22947745 0.17645736 0.007169328 -0.0980367
0.17332326 0.26078704 0.028036708 -0.10435212 0.08019691 -0.072141156 -0.06718041 0.1111249
-0.23604032 0.1226082 -0.03444993 -0.0117300395 -0.1666279 0.12668343 0.08058233 -0.20103055
0.14363037 -0.07187983 -0.060453013 0.15225141 -0.17543092 0.106298685 -0.10599929 -0.021639002
0.095684335 0.17120041 -0.26858032 0.21354757 0.2243789 0.019054206 0.02896982 -0.13157038
-0.16772503 0.1202757 -0.065037586 -0.002340288 -0.009567843 0.052856974 -0.008049563 -0.11867078
-0.09061151 -0.16151178 0.3557275 0.14979972 0.18430428 -0.035586573 -0.040991183 0.3241333
0.06617718 -0.08792559 0.23740205 -0.058855418 -0.054815497 -0.20213653 -0.11657863 -0.07408038
0.17677598 -0.14565957 -0.19760914 0.044006936 0.08649661 -0.00039851267 0.033629585 -0.33235955
-0.1484414 0.06581942 -0.092132784 -0.036147602 0.1774933 -0.18483873 0.043837532 0.043305095
-0.11549243 0.09636845 -0.026838057 -0.16596451 -0.18574663 0.18175812 -0.006183096 -0.25215137
0.017437976 0.10475019 0.06481328 -0.155768 0.18188363 -0.33974496 -0.16810685 0.038933907
0.14784235 0.11113868 -0.08252708 0.034276307 -0.016518414 -0.17044136 0.11948527 -0.1655613
-0.17497373 -0.05670334 0.14850682 -0.15509951 0.16566747 0.18524763 -0.17848954 -0.18952534
-0.030894918 0.1478611 0.06752588 0.14133577 -0.059319552 0.06279205 -0.3351036 0.12129123
0.21633713 -0.13144077 -0.17627643 -0.15339522 0.134248 -0.17271967 0.11778012 -0.20205039
0.1825998 -0.05697876 -0.054939028 -0.14221187 -0.11696912 0.17186089 -0.2080759 -0.10316849
-0.32683432 -0.2377631 -0.18248801 -0.0007253847 -0.050748624 0.09473353 0.1725927 -0.122751676
-0.12822615 0.21793102 -0.094714224 0.19098526 0.049070504 0.115361 -0.022478525 -0.013749011
-0.01838811 -0.08457328 -0.08722784 -0.2146748 -0.20269682 0.10796978 -0.016661448 -0.07471213
0.13386042 0.24381766 0.16021179 -0.014969288 -0.20074818 -0.031276617 -0.0677812 -0.15657765

fc1.bias f4 [64]
00000000: b3a2 0abe c47a 123e 99ea 1dbe 3e13 47bd
00000010: 6c8e fabc f955 2c3e 79dd 1ebd 2f49 443e
00000020: af9f 383c 0371 b5bd 74c9 c4bd 90aa e53d
00000030: 7187 283d e220 053e 0720 c43d 9e66 42be
00000040: d30a 62bd ea8b 1cbe 80b3 07be a078 a8bd
00000050: fb3f 093e 9088 c9bd 9c61 e1bc 87ed 963b
00000060: d3c0 b33d 108a 0abe 7f72 f6bd e0fa 22be
00000070: 51df 033e 7fbb 2fbe cbdd cb3d a62f 1d3e
00000080: 0556 b5bb 405a 3dbe c289 dd3d 3f03 af3d
00000090: 28fb c63d 4454 1a3e c05e 08be 462b 503e
000000a0: e024 a2bd 3168 163e e4e7 843d bfb4 793c
000000b0: 20eb b6bd 1265 333e 8ca0 bfbd 2fe8 0e3e
000000c0: 7c70 0e3e 9252 50be 34fa b3bc 7de7 29be
000000d0: b614 e6bd 1db4 b0ba cb60 ef3d 9ec4 143e
000000e0: 7b79 563e fba1 df3d faf8 97bb 579c 53be
000000f0: 7a4e 153e 7182 04be e361 5c3e 1a5d 2c3d
-0.13538627 0.14304644 -0.15421523 -0.048602335 -0.03058549 0.16829671 -0.03878543 0.19168542
0.01126854 -0.08859446 -0.09608737 0.11214173 0.041144792 0.13000825 0.09576421 -0.18984458
-0.055186104 -0.15287748 -0.13252068 -0.082261324 0.13403313 -0.098405 -0.027512364 0.004605952
0.08777013 -0.13529229 -0.12033557 -0.15916014 0.12878157 -0.17161368 0.09954413 0.15350208
-0.005533936 -0.18491459 0.10817291 0.08545541 0.09715873 0.15071207 -0.13317394 0.20329008
-0.079171896 0.14688183 0.06489542 0.015240847 -0.08931565 0.17519024 -0.09356794 0.13955759
0.13910097 -0.20343998 -0.021969892 -0.16592212 -0.11234419 -0.0013481412 0.11688384 0.14528129
0.20944779 0.10919567 -0.0046378346 -0.20665108 0.14580718 -0.12940384 0.21521716 0.042080976

fc2.weight f4 [64, 64]
00000000: b2e9 22be ebe0 55be 4445 08be d4bd eabd
00000010: 15da 2d3e f028 40be c85f 2a3e 35f6 723c
00000020: fbf4 92bd cf79 bdbd a8a4 313e 2b8b a53d
00000030: 786f 2dbd 9eec 953d 1ae4 74bd 4cbe 07bd
00000040: 5889 d5bd af77 413e a0dc dabd 2e8b cabd
00000050: 440b 1cbd f27a cdbb 07a3 1e3e 2e8b 0ebe
00000060: 87c6 403c cbcb 1cbe 4d95 523d 6e02 9abd
00000070: 4833 17bd 020c 16bd 4951 e43d 913d c6bc
00000080: b9a0 4d3e 9ae3 ac3d 7378 283d 4aa1 c7bd
00000090: 8d29 9f3e 968a d9bc f15b 41be ac92 8a3d
000000a0: c4a4 cfbd cb5f 02bd b7c8 68bd 3b8a 8e3d
000000b0: e9ed 983c 1a9a 29be 9ba8 a93d 44a1 d2bd
000000c0: da49 cb3d 45c8 4c3e ffb7 713b 4c9c 6abe
000000d0: 3479 60bd 1b15 51be dc72 2a3e 8829 7e3c
000000e0: 9863 91bd 3590 2bbe c5df d33d b6c0 c23d
000000f0: 0ba0 98bd fe03 9a3d 187a 8ebd 880d 4ebe
00000100: dc5a b4bc cbf7 8a3d 946c 483d b622 d43b
00000110: 5187 92be 3673 febd b49e 3cbd e6aa ad3d
00000120: 0e4c 623e c859 46bd 725f 073d d5fc d0bd
00000130: 1952 4f3d 166f a8bd 30fe 76be d0f9 3cbd
00000140: f0f2 a2bd 2fac a3bd 8df9 3dbe 9282 fb3d
00000150: c111 21bd 85d9 23bd 3f81 1abe 061e d73d
00000160: d362 e33d cddf 7a3d 3e45 06be 06eb 153e
00000170: 93d4 673d 43ee 033e be16 80bd 8022 023e
00000180: 67a5 053e a1b1 fdbd 2681 6cbd 36b2 ee3d
00000190: 5715 2ebe 5ff0 c4bd 61e6 d83d 7d62 13be
000001a0: 989c c33d 255a 98bd a08a 98bd cc8c ebbd
000001b0: 9abd 2a3e ee57 7f3d 2847 0f3d 1f4c 53be
000001c0: 9f0d a2bd 6d22 943c 13f7 6a3b 1cda 17be
000001d0: d269 ea3d 4aff 013c 65d1 bebb af5c 04be
000001e0: 77ea 87be 745d f63d 0fd2 953c e51d cc3d
000001f0: 8f49 9e3d 4566 72bc e4fc 923c ddef 9dbd
00000200: 9fdd 803d 1ee2 d4bd e84b 56bd 21d4 07bd
00000210: 4353 07be dcff 103c 67f7 2f3d 0456 9cbd
00000220: 8e1a 893d 6b37 ae3d 7284 973d 3eea 0cbd
00000230: 943e cc3d 1ebe 07be 6775 5d3d 1273 e2bd
00000240: 501b 09bd a347 d9bc 08db 7c3c f20e 0cbc
00000250: 2462 65bc 75e9 473d f2f5 a33d cd1d cc3d
00000260: b2bc e7bd 2072 5f3d 2062 e4bc 11d8 26bd
00000270: 1a41 2c3c 3afc edbd 593b d4bb a283 043d
00000280: 4f45 283d d97d 0e3d af14 21bd 077f b93d
00000290: 67ae 2fbd 696d a23d 3dc9 d23d dff3 a7bd
000002a0: d0c1 7d3c 30e7 473a 5310 8a3c dbe7 f6bd
000002b0: 44c4 bf3d 2ece 05be 3638 c4bd a70b dfbc
000002c0: d9e6 c8bd bcd8 0fbd a6fb f8bd 2dca fdbd
000002d0: acb3 f2bd 9021 cf3d 87d5 4b3d ae13 c8bc
000002e0: 96fe 03bd 3eaf c0bd ac3a b6bd 7bec e6bd
000002f0: eb84 10be f1b0 94bd 35e0 82bc f62c ab3d
00000300: 195e 13bd a474 f1bc 2abc 403d 0368 ed3d
00000310: 4252 5c3d bb0c 45bc 4aac a7bd 462e d8bd
00000320: 67b0 bcbd 476f 6fbd f951 51bc 733a f73c
00000330: a680 d1bd d411 323e 71a1 203d 04d1 5d3d
00000340: ef7e 77bd f378 81bd a42e e1bd b5b1 91bc
00000350: 396b 5abd d4bd 193e 0436 3abe e8d5 993d
00000360: 4126 093d acea 4fbe 4d2b ca3c 7d17 2a3e
00000370: 3880 2ebe b17f cb3a cf67 b7bd 4460 e93d
00000380: fee1 aabb a9cb 0a3e 6ce9 fd3d c436 143e
00000390: b28e d03b 92fd 663c c6e8 3dbe 2533 c13d
000003a0: 1464 2a3d 6b51 b6bd 8d95 2a3d 2175 703d
000003b0: 061f 293d 7444 aabd daaa 36bc f22d e53c
000003c0: 201e 50bd f09e a0bd 45bc 6fbe c63e 8bbe
000003d0: 4805 8dbd 3fd2 293e e681 9f3d 077f 793d
000003e0: 8894 a5bc c145 153e 6af6 813e 5d6d 003e
000003f0: 1cdf 4c3d 9907 603e 1730 44bc 2b91 4ebc
-0.1590946 -0.2088658 -0.13307673 -0.11461988 0.16977723 -0.18765616 0.166381 0.014829208
-0.071756326 -0.09251749 0.17347968 0.08083185 -0.042342633 0.07320522 -0.059787847 -0.033140466
-0.10426587 0.18893312 -0.10686612 -0.09889828 -0.03809668 -0.0062707597 0.15491877 -0.1392028
0.011766083 -0.15312116 0.051411916 -0.07519995 -0.03691414 -0.036632545 0.111483164 -0.024199279
0.20080842 0.08441849 0.041130494 -0.0974756 0.31086388 -0.02655534 -0.18882729 0.06766257
-0.101388484 -0.031829637 -0.05683204 0.06959959 0.018668132 -0.16562691 0.08284112 -0.10284665
0.099261954 0.19998272 0.0036883352 -0.22911185 -0.05480309 -0.20418207 0.16645378 0.0155128315
-0.07099074 -0.1675423 0.10345415 0.09509413 -0.07452401 0.07520293 -0.06956881 -0.2012235
-0.022015981 0.06785544 0.048931673 0.0064738644 -0.28618863 -0.124243185 -0.04604979 0.08479862
0.22099325 -0.048425466 0.033050008 -0.10204474 0.050615404 -0.08224313 -0.24120402 -0.046136677
-0.07956493 -0.07991826 -0.18552227 0.12280764 -0.039323572 -0.040002365 -0.15088366 0.105037734
0.111028336 0.06124859 -0.13112351 0.14640436 0.05659921 0.12883858 -0.06254338 0.12708473
0.13051377 -0.12387396 -0.057740353 0.11655085 -0.17000328 -0.0961616 0.10590816 -0.14393039
0.09551352 -0.07439069 -0.074483156 -0.11501464 0.1667389 0.062339716 0.03497997 -0.20634507
-0.07912754 0.018082822 0.0035852834 -0.14829296 0.11445965 0.007934401 -0.0058233016 -0.12925981
-0.2654607 0.120295435 0.01828864 0.099666394 0.07728874 -0.014794891 0.017942853 -0.07711766
0.06292271 -0.10394691 -0.052318484 -0.033161286 -0.13215356 0.008850064 0.04296055 -0.07633594
0.06694518 0.08506664 0.07398309 -0.03440308 0.09972873 -0.13256118 0.05406704 -0.11057104
-0.033473313 -0.026523417 0.0154330805 -0.008548485 -0.014000449 0.048806626 0.08005895 0.099666215
-0.11315288 0.054552197 -0.02787882 -0.0407334 0.010513568 -0.11620374 -0.0064768014 0.032352097
0.041081723 0.034787986 -0.039326366 0.09057432 -0.042890932 0.079310246 0.102922894 -0.082008116
0.015488103 0.0007625697 0.016853487 -0.12055942 0.093636066 -0.13066933 -0.09581034 -0.027227236
-0.09809656 -0.035118803 -0.12157373 -0.123920776 -0.11850676 0.101138234 0.049764182 -0.024423447
-0.032225214 -0.09408425 -0.088979095 -0.11275574 -0.14113204 -0.072603114 -0.01597605 0.08358185
-0.03597841 -0.029474564 0.047054447 0.11592104 0.053789385 -0.012026961 -0.081871584 -0.10555701
-0.092133336 -0.05845573 -0.012775891 0.030179238 -0.10229616 0.17389613 0.039216463 0.05415441
-0.060423788 -0.06321897 -0.10995224 -0.017784933 -0.05332491 0.1501382 -0.18184668 0.075115025
0.033483747 -0.20304364 0.02467885 0.16610523 -0.17041099 0.0015525726 -0.08955347 0.11395314
-0.0052149286 0.13554253 0.12398037 0.14474016 0.006364667 0.014098542 -0.18545827 0.09433583
0.04159935 -0.08902248 0.04164653 0.058705453 0.041289352 -0.08313838 -0.011149133 0.02797601
-0.05080998 -0.07842815 -0.23411663 -0.2719633 -0.06885773 0.16584109 0.07788448 0.06091216
-0.020212427 0.1457739 0.25383312 0.12541719 0.05001746 0.21877898 -0.011974356 -0.012607853

fc2.bias f4 [64]
00000000: 5a69 443d c51f 573d 3d8a 903a 5f9e ef3b
00000010: 64b7 8d3d 85ab 8a3d 807d c7bc a6b9 a13d
00000020: 71bc 06bc 1d69 8b3d a8c6 a93c b830 a1bd
00000030: b1b3 f0bd f1dc 7fbd dd03 27bd b205 483c
00000040: 2f39 aa3c 370b d5bd 71c4 9abd 95d4 a93d
00000050: d71c ae3d a5f3 dfbc 6ea5 79bb 23d8 813d
00000060: d9cc 9dbd 985c ebba ead2 a9bc c7de 04be
00000070: 556a 75bd 656f 54bc a30c 953d 9fec 513c
00000080: 706a 1d3d 37a0 513d 9fae 853d b551 5ebb
00000090: 0163 563d da91 6e3d 41b8 123d d1be 883d
000000a0: e5e9 703c e4f3 41bd bf9b 54bd d25f 223b
000000b0: 4400 c2bd a405 8e3d 5775 ab3d 9fe8 f33c
000000c0: 96bb 9c3d 1e74 91b8 b1bb ef3d d75c bc3b
000000d0: 9dd2 e83d 3443 21bd 1e2a c43d 29be b8bc
000000e0: 4d6b 183d 8bb3 8cbd 43bc d93d 7655 d83c
000000f0: 6300 ae3d fbee 35ba c64e 263b 9aad f03c
0.047952034 0.052520532 0.0011027526 0.0073125805 0.069197446 0.06770996 -0.024351835 0.07896738
-0.008223639 0.06807158 0.02072461 -0.078706205 -0.117530234 -0.062466566 -0.04077517 0.012208389
0.02077922 -0.1040253 -0.075569995 0.082925 0.085015945 -0.027337858 -0.0038092989 0.06340053
-0.07705087 -0.0017956672 -0.020730454 -0.12975608 -0.05991586 -0.012966012 0.07277801 0.0128127625
0.038431585 0.051178183 0.06527447 -0.0033923213 0.05234051 0.058244564 0.03582025 0.0667702
0.014704202 -0.047351733 -0.051906344 0.0024776352 -0.09472707 0.069346696 0.0837199 0.029774008
0.07652967 -6.935767e-05 0.11705721 0.005748372 0.11368296 -0.03937073 0.09578346 -0.022551613
0.037211705 -0.068701826 0.10631611 0.026407938 0.084961675 -0.0006940213 0.0025376542 0.029379655

fc3.weight f4 [64, 64]
00000000: ccf0 01bd 3874 f4bd 34eb 18bb 60f5 96bb
00000010: ca53 7c3d 675b 6c3d 589a 7e3d 5326 7b3c
00000020: 5f60 533d 3683 14bc 8cbb aabc 9bb7 c13d
00000030: 2492 72bd b025 4b3d c362 3c3e 5842 ea3d
00000040: 5ac7 3fbe 95f5 38bd a06c 91bb a4f1 a3b7
00000050: 08a7 7d3d 54ac 2bbd c3e4 bd3c 34d2 95bd
00000060: e9b4 8e3b 2453 fdbd a170 d2bd 0a6f ef3d
00000070: a588 f03d 5c98 e13d 80a3 3fbd bad8 853d
00000080: ee2f 943d fe9e bebd 3cda fabd c440 30be
00000090: 2264 04bc c921 e9bd 7d28 e2bd 00a4 063e
000000a0: 5cd6 b3bb 0137 173d 08a8 1c3d f4b4 873d
000000b0: 6422 edbd a4cb 69bd 4772 10be 7331 dc3d
000000c0: 80e3 8d3d ef2b 16be fd7e cebd 67d1 c43b
000000d0: 0e1d 823d 9c69 56be 5074 ec3d 3525 95bd
000000e0: 00d6 cc3c 5b20 013e 7aee 16bc 9ee8 9c3d
000000f0: 7fa6 a73c 9c72 463e 9f70 10bb bc14 5abc
00000100: 6f94 74be 05b0 f0be 4889 1a3d 4ba9 64be
00000110: 7656 073e c391 cabc 2500 683d 76a1 01be
00000120: 09d3 3f3c f7b6 a4bd 5d36 36bc 7d92 473d
00000130: 781b c1bd 15d3 c4ba 6549 29be 8143 853d
00000140: 419a edbd b5df dfbd f4fe f33d ae40 c3bd
00000150: ea5d a1bc d737 8c3d b97d a33c a687 f73c
00000160: 741b 98bd dd0e d33c 0cb5 b2bd a779 59bd
00000170: 1dae acbd 9ead 05be 5e1b 41be 754c 4bbe
00000180: d0ba afbd b672 56bd 4343 d13d c708 893d
00000190: 2b98 febd c343 a43d 820f edbd f1ba 833d
000001a0: 5fbf de3d de6c b3bd 3061 9bbd 6d92 893e
000001b0: 6c1c 98bd 2180 87bb 1ae2 d93d ad89 c03d
000001c0: 2ccf 06bd cfed 493c e003 ec3d 1cbe abbd
000001d0: 46fe 393d 30a3 1ebe 31c1 d23c c386 0abe
000001e0: 829a e8bd dc07 9f3d e434 aabd 5c2e 20be
000001f0: 5618 1fbe a499 e13d 032a 2f3d 4d97 683e
00000200: c604 973d 33d0 973e 05aa 29bc 78fd f53c
00000210: e3f4 e4bb 77cc e63b 3876 a03d 0e62 853d
00000220: 2cbe 463d 984c 493d 1c77 6f3d f2e8 58bd
00000230: 8eee ac3d 3485 82bc cf3f 843d 2938 7cbd
00000240: 7558 c53d 7ca2 3fbd 46b7 80b9 6d50 fb3b
00000250: cb5d 8f3c 1762 a8bd 0176 c23d 1b52 31b8
00000260: 5845 003e 7b1c b33c 224a bb3c a6ee 6abd
00000270: 4ac6 ad3c 1946 213c cffa bc3d 6ac3 273c
00000280: 95ab 89bb 769b 96bc 04fc 443b 6f6f 9a3d
00000290: 9644 fc3d 063e bb3d 21d7 873e 3f4b bb3d
000002a0: 01d2 35be 2d98 093e c67a 013e dca5 c03c
000002b0: 2a07 90bd 5786 543d 8154 51bd ad90 553d
000002c0: 8a87 a4bc cc63 21bb fa59 1e3d af36 3c3d
000002d0: 8845 0b3c 322b 703e 2203 8bbc 21ea 873e
000002e0: a3df cebc b916 183e 71fc d93d 7290 533e
000002f0: c3b7 0c3c 372f d6bd 0258 5dbd 2169 52be
00000300: c84a 203e 9d9f 493e 8a71 d4bc 963d 5a3e
00000310: 467f de3d aa7b 943d 0f4e 0f3e 1548 7dbc
00000320: 5b1c b5bd 6a89 083c 89fb 863d ad0b 9bbc
00000330: ad01 d5bc 43e2 1a3e 3c52 763d fe55 60bd
00000340: 9f1a ec3d a92c 32bd b3ac a8bd fefc e93c
00000350: 2764 323d 9e6c 0ebd 800e 763d ab04 a9bc
00000360: 88cc 6b3d bc9e 523d 4cd0 bc3d e30b 013e
00000370: f61e b7bd 2a5b ec3d 5294 433d e12d 2f3d
00000380: 1823 933d 2b7b a43d eb9d 39bd 3954 e73d
00000390: 7c11 a63d efae da3b d2a4 983e 78c6 01bd
000003a0: 4fd3 31be f96a c73d 0c9c d43d c861 1e3d
000003b0: c898 86bd ab8a 463d 4336 c6bd 7d97 033e
000003c0: 2f6a a3bd fe31 24bd 3854 333d 2f82 a13d
000003d0: 767f 0b3e 5eeb 303e 7415 9abd 19e3 5d3e
000003e0: 979f 6fbc d14a 2d3e df4e 0abd 49e8 313e
000003f0: a4d6 e53d cdbd 903d 5c16 b2bd ffef d0bd
-0.031723782 -0.119362295 -0.0023333551 -0.0046068877 0.061603345 0.057704356 0.062158912 0.015328961
0.05160558 -0.009064486 -0.020841382 0.09458848 -0.0592214 0.04959649 0.1839705 0.11438435
-0.1872839 -0.04515608 -0.004437998 -1.9543637e-05 0.06192687 -0.04191239 0.023180371 -0.07315484
0.0043550623 -0.123693734 -0.102753885 0.11691101 0.11744813 0.11015388 -0.046786785 0.06535478
0.07235704 -0.09307669 -0.12248656 -0.17212206 -0.008080514 -0.11383397 -0.11042879 0.13148499
-0.0054882 0.03691769 0.038246185 0.06626311 -0.11578825 -0.057078972 -0.14106093 0.10751619
0.06928158 -0.14665197 -0.10082815 0.006006408 0.06353198 -0.20938724 0.11545622 -0.07282487
0.025004387 0.12609999 -0.009212131 0.07661556 0.020465134 0.19379658 -0.0022039784 -0.0133106075
-0.23884748 -0.47009292 0.037728578 -0.22330205 0.13216576 -0.024727708 0.056640763 -0.12659249
0.01170803 -0.0804271 -0.01112136 0.048723686 -0.094290674 -0.0015016521 -0.16531904 0.06507016
-0.11601687 -0.109313406 0.11913863 -0.09533821 -0.019698102 0.06846588 0.01995741 0.03021605
-0.07427111 0.025763923 -0.08725938 -0.053094532 -0.08431647 -0.13054511 -0.18858096 -0.19853385
-0.085805535 -0.05235549 0.10217907 0.06691127 -0.124313675 0.08020737 -0.115752235 0.064321406
0.10876345 -0.08760999 -0.075868964 0.26869527 -0.07427296 -0.004135147 0.106388286 0.094012596
-0.03291242 0.012324764 0.115241766 -0.0838587 0.04540851 -0.15491939 0.025726886 -0.1352797
-0.11357595 0.07765171 -0.08310869 -0.15642685 -0.15536627 0.11015633 0.042764675 0.22713967
0.07373957 0.2965103 -0.010355477 0.03002809 -0.0069872006 0.007043417 0.078350484 0.06512843
0.048521206 0.04914531 0.0584632 -0.05295653 0.08443938 -0.015932657 0.06457483 -0.061576996
0.096360125 -0.046785817 -0.00024550612 0.0076694996 0.017500779 -0.08221834 0.09495164 -4.2276555e-05
0.12526453 0.021864166 0.022862498 -0.0573565 0.021212716 0.009843373 0.092275254 0.010239461
-0.0042013624 -0.018384676 0.003005744 0.075407855 0.12317769 0.091426894 0.26531318 0.091452114
-0.17755891 0.13436957 0.1264449 0.023516588 -0.070326164 0.05188593 -0.05110598 0.052139927
-0.020084161 -0.0024626134 0.038660027 0.045950588 0.008500464 0.23453978 -0.016969267 0.26545814
-0.025253123 0.14852418 0.106438525 0.2066057 0.008588734 -0.10458224 -0.05403901 -0.20547916
0.15653527 0.19689794 -0.025933046 0.21312556 0.10864119 0.072501495 0.1399462 -0.01545908
-0.08843299 0.008333543 0.06590945 -0.018926466 -0.026001776 0.15125374 0.06013702 -0.05476951
0.11528515 -0.043499622 -0.08236065 0.028563019 0.043552544 -0.034771554 0.060072422 -0.020632109
0.057568103 0.051420912 0.09219417 0.1260219 -0.08941452 0.11540826 0.04774887 0.042768363
0.07184428 0.08031305 -0.045316618 0.11295361 0.08108804 0.0066736857 0.29813248 -0.031683415
-0.17365764 0.097372 0.10381326 0.03866747 -0.065721095 0.048472088 -0.09678318 0.12850757
-0.07979237 -0.04008674 0.04378149 0.07886159 0.13622841 0.17277285 -0.07523623 0.21668662
-0.0146254515 0.16923071 -0.033766624 0.17373766 0.1122258 0.070674516 -0.08695671 -0.102020256

fc3.bias f4 [64]
00000000: a4a2 e9bd 1579 bf3d 514c 243c 86c0 b63d
00000010: 183c 65bd 3723 9cbd f078 c03d facf d1bd
00000020: 3e0a 63bc c152 a43c c3ee 883d 967e aabd
00000030: 2d87 8ebd bad1 e2bd 0063 073e 6626 37bd
00000040: f3f5 ff3d be23 0d3e 0a90 75bb 8f8c a9bd
00000050: 0b5c d33d a1c0 94bd 91d9 bdbd ec52 80bc
00000060: 81b9 9fbc 93f1 dc3d 2ca2 d43c 2160 b03d
00000070: 30f0 c03d 382d 59bd d24f ebbb ecd6 2e3c
00000080: c286 983c 5765 e03d 9736 b73d 9e1a 073d
00000090: 5923 b1bc c734 20bc b9b5 983d fe77 d1bd
000000a0: 4fbf 3dbd b0d0 76bd 139b c3bd ecc9 6dbd
000000b0: 013d d5bd 1e9e a73c 2630 96bd 5b45 043e
000000c0: 958a 14bd 54e3 fbbd 6abf aebd c7f5 b13d
000000d0: c7c9 97ba 326e 8cbd ef75 23bd 6339 54bd
000000e0: 382d d5bd c21b 973c 8a19 b0bd 6266 a13d
000000f0: 88b1 94bd 07b4 81bd 310c f13d 0247 0fbd
-0.11407974 0.093492664 0.010027961 0.0892344 -0.055965513 -0.07623904 0.09398067 -0.102447465
-0.013857422 0.020058991 0.06686165 -0.083249256 -0.069593765 -0.110751584 0.13221359 -0.044714354
0.12498083 0.13783166 -0.0037469887 -0.082787625 0.1032029 -0.072633035 -0.09270013 -0.01566454
-0.019497635 0.10788264 0.025956236 0.08612085 0.09420812 -0.05302164 -0.007181146 0.010671359
0.018618945 0.10956829 0.08945959 0.03298437 -0.0216233 -0.009778208 0.07456536 -0.10227965
-0.046325024 -0.060257614 -0.095510624 -0.058053896 -0.10412026 0.020461138 -0.07333402 0.12917082
-0.036264975 -0.12299219 -0.08532603 0.086894564 -0.001158052 -0.068569556 -0.039907392 -0.05181254
-0.104090154 0.018445853 -0.08598621 0.07880856 -0.07260424 -0.063331656 0.117699035 -0.034979828

reg_head.weight f4 [1, 64]
00000000: 9c33 50be 04e0 0bbe 436d 813d aa48 1c3d
00000010: b0d4 96bc 7485 5ebc 368a 973d cc6a a2bd
00000020: 4090 dfbd ebcf 58bc 4987 00be 68eb 533d
00000030: b4bd a1bd c005 7ebb 2978 0e3e b067 be3b
00000040: e30d 853d aec6 8abe 20ab dcbe de0b 983d
00000050: 5a90 303d d65a 2b3e 2046 143e 23f6 c93d
00000060: 92eb e6bd 0abd 39be 5b41 32bd 1d01 36be
00000070: ab42 27be b015 dbbb 4408 b8bd ca40 153e
00000080: ea23 c7bb 3e05 21be 8920 19be b322 be3d
00000090: d93f 20be 5c5a 8d3d d362 013e effd 2b3e
000000a0: 9db1 31bb 8230 cd3d 0cf6 72bb f480 25bd
000000b0: 2db7 2f3d 1260 9fbe 49e0 adbd d984 61be
000000c0: a4bb dc3d e049 a9bc 4bac a4be c491 e33d
000000d0: 9d66 293d d049 dfbd c0f2 183e 21f7 583d
000000e0: 4040 9c3c 9f9b 90bd b428 dc3d 7777 023e
000000f0: 218b 41be f78c babd 4b49 10be ab35 acbb
-0.20332187 -0.13659674 0.06319668 0.038155235 -0.018411964 -0.013581622 0.073994085 -0.07930526
-0.109161854 -0.013233165 -0.12551607 0.051738173 -0.07897511 -0.0038760751 0.13913025 0.0058107004
0.06496789 -0.27104706 -0.43099308 0.074241385 0.043106414 0.1673387 0.14479876 0.098614
-0.112754 -0.18138519 -0.04351936 -0.17773862 -0.16334026 -0.006685935 -0.089859515 0.14575496
-0.0060772793 -0.15724656 -0.14953817 0.09283962 -0.15649356 0.06902 0.12635355 0.16796087
-0.0027113922 0.10019018 -0.0037072925 -0.040406182 0.0428993 -0.31127983 -0.084900446 -0.22023334
0.10777977 -0.02066511 -0.321627 0.11111787 0.041357625 -0.109027505 0.14936352 0.052970055
0.019073606 -0.07060932 0.10749951 0.12740885 -0.1890073 -0.09108918 -0.14090459 -0.005255421
