grasp_placement/models/run_seed_3987/stability_net.pth (torch, 213772 bytes, 9 tensors)

fc1.weight f4 [128, 21]
000000 e7 c4 0a be 6b 30 af bd b9 3b 12 be 4b 73 8c 3d
       -0.13551675 -0.08554157 -0.14280595 0.06857928
000010 de eb 1e 3e 0a dd 56 3e 0e 73 e2 3d bf 32 25 3e
       0.15519664 0.20982757 0.11057101 0.1613264
000020 ce 6b 32 3e 34 2c 10 bd 7e ff 10 3b b5 32 c9 3d
       0.17423937 -0.035198405 0.0022124941 0.09824125
000030 d9 77 9b 3d 6c 81 ae 3c a6 03 48 3e 6c 05 09 3c
       0.075912185 0.021301948 0.19532642 0.008363109
000040 2e 01 29 be e5 37 25 be 55 58 f5 bd ad a7 90 be
       -0.16504356 -0.16134603 -0.119797386 -0.28252926
000050 50 f5 4c 3e 0f 20 40 3e ff ec 01 3e a2 35 c0 bc
       0.20015454 0.1876223 0.12688063 -0.023463074
000060 42 ff ef bd 20 20 ad 3c 38 4d 88 3d 18 12 04 3e
       -0.117186084 0.021133482 0.06655353 0.12897527
000070 f3 4c d2 3d 0b 73 73 bd 72 9e 4d 3e 6c af 3b be
       0.10268583 -0.059435885 0.20079973 -0.18328637
000080 8a 48 87 be 18 b7 23 be 3a f6 0c 3e 66 a0 8c 3e
       -0.2642253 -0.15987813 0.13765803 0.27466124
000090 85 29 31 3e 8a d1 eb 3d 95 55 0b 3e fd cc d4 3b
       0.17300995 0.11514576 0.13606866 0.006494163
0000a0 db 44 0b 3e 35 22 32 3e ae 4e 09 3e 2d 95 97 bd
       0.13600485 0.17395861 0.1340892 -0.074015
0000b0 3d 57 82 bd 3b 93 6d be 75 6c 95 bd 39 c1 86 3c
       -0.06364296 -0.23200695 -0.07296077 0.016449558
0000c0 1b bb bf 3e b7 34 08 be 46 6c c5 3d ae 36 81 ba
       0.37447438 -0.13301359 0.09639792 -0.0009858215
0000d0 bd 2d 55 be c4 c4 59 3c 9f 9e b4 bb 96 b7 d3 3b
       -0.20818229 0.0132915415 -0.005512073 0.006461094
0000e0 e7 64 65 be 57 82 b1 bc f2 67 1d 3e ee 39 29 be
       -0.22401772 -0.021668596 0.15371683 -0.16526005
0000f0 25 53 81 be 8e bc 56 be 51 e2 fb 3c 25 53 0f 3e
       -0.25258747 -0.20970365 0.030747565 0.13996561
000100 71 95 4b bc 7c 92 30 be e3 41 5e be 95 08 8b be
       -0.012425766 -0.1724338 -0.21704821 -0.27154985
000110 bc 15 6e 3e bc 08 86 b9 1f 5a 43 be ba 01 b5 bd
       0.23250479 -0.0002556498 -0.19077347 -0.0883822
000120 61 36 15 3d 59 5a 3a bd 7b 74 32 3d 1d 5b 81 3d
       0.036428813 -0.04549632 0.043568116 0.063162066
000130 3a 02 f0 bd 5f 07 84 3e 24 2e ae bd 88 fe 90 bc
       -0.11719175 0.25786874 -0.085048944 -0.017699495
000140 39 6d 45 bd f6 b9 92 bd 57 5e c5 bc f9 63 3e 3e
       -0.048199866 -0.071643755 -0.024092836 0.18592824
000150 cc ec 13 be 8e 6e 2e be cb 79 9d bd db a5 92 3d
       -0.144458 -0.17034361 -0.07689246 0.07160541
000160 b2 03 21 3e 3e c9 e3 bd 10 c0 04 3c 83 ce 10 be
       0.15724066 -0.11122368 0.008102432 -0.14141278
000170 0f 80 a6 3d d1 27 0e be 6f 78 99 3c c0 f1 1b be
       0.08129894 -0.13882376 0.018734185 -0.15228939
000180 9e 47 65 3e aa 2c ed bd e6 0d e8 3d d1 2a 58 3d
       0.22390601 -0.115807846 0.11330776 0.052775208
000190 ec 1a 38 3e 1e 0d 2b 3e d8 22 48 3e 7f 6d 18 3e
       0.1797902 0.16704223 0.19544542 0.1488552
0001a0 2a f9 e7 bd 97 9e 12 3e af 97 3a be 5d 44 11 3e
       -0.11326821 0.1431831 -0.18221925 0.14186235
0001b0 cf 7a 80 bd 8a 8b a7 3c ce fa 18 be 3d ac aa 3d
       -0.06273424 0.02045228 -0.14939424 0.08333633
0001c0 bb 1a 63 bd 6c 3d 3a 3e 2f e2 2e be 5e 41 28 3e
       -0.055445414 0.18187493 -0.1707847 0.16431186
0001d0 56 fa b8 bd 4b 15 9c 3c e3 d7 bd bc 0b 2d ab bd
       -0.09032123 0.019053122 -0.023174232 -0.08358201
0001e0 6f d9 f0 bc f2 a9 f2 3d 88 5d 31 3e 58 9d 8e 3d
       -0.029400555 0.11848821 0.17320836 0.06963605
0001f0 89 85 f1 3d 80 d9 c1 3d 2e bb 3b 3e 23 9f 25 3d
       0.11793048 0.09465313 0.18333122 0.040434968
000200 39 b1 1b 3e f9 ba 64 bc 33 dd 3e 3e b2 97 8e bd
       0.15204324 -0.013960593 0.18639068 -0.06962527
000210 f2 77 e0 bb a2 63 33 3d 2b 7d a8 bd a3 60 87 bd
       -0.006850236 0.04379619 -0.08226999 -0.06610229
000220 cd 4d 5b 3e e2 62 00 bc 69 cc ea bd 7e 9d 31 be
       0.21416397 -0.0078360755 -0.114647694 -0.17345235
000230 19 c6 e8 3a d2 9e 03 3d 3e 7d d2 bd c8 09 9b bd
       0.0017759233 0.032133885 -0.10277794 -0.07570225
000240 9d 45 27 3e ed 60 bf 3d 4b ce 75 be e1 0d 5a 3d
       0.16335149 0.09344659 -0.24004476 0.053235892
000250 c7 79 2c 3e b4 00 40 bb 50 cd 37 3e ef a4 40 3e
       0.1684333 -0.0029297294 0.17949414 0.18812917
000260 9b 59 95 3d 84 03 d1 3d e2 af eb 3d 28 16 c5 3d
       0.072924815 0.10205749 0.11508156 0.096233666
000270 7f b3 ce bc 35 5d 14 bd 05 03 cc 3d 86 96 82 3d
       -0.025232075 -0.0362217 0.099615134 0.06376366
000280 d3 15 cd bd 67 2e b6 3d 3b 2a ad 3d 36 13 87 3d
       -0.10013928 0.08895569 0.084553204 0.06595461
000290 fa 4a 5e bd 8a 34 c4 3d d7 a8 14 bc f8 55 4f be
       -0.054270722 0.095803335 -0.009073458 -0.20247638
0002a0 b2 4b bb 3d 20 90 10 3e 40 4b 22 bd 66 df 6e 3e
       0.09145297 0.1411748 -0.039622545 0.23327407
0002b0 4c a4 2a be f6 c7 fc 3d 5d 84 3c be f4 81 ee bd
       -0.16664237 0.12342827 -0.18409868 -0.1164588
0002c0 02 f1 23 be c8 60 75 3e 6c e7 80 3e de 6a 68 bd
       -0.16009906 0.239627 0.2517656 -0.05674254
0002d0 32 2f b9 bd bd bf e5 bd 40 9f 80 bd 67 0c 4e 3d
       -0.09042205 -0.11218212 -0.062803745 0.050304797
0002e0 2c 95 c5 bd 6e 66 55 be f1 a5 4b be 64 95 9b bc
       -0.09647593 -0.20839855 -0.1988752 -0.018992133
0002f0 71 50 3c 3e 98 6b f5 3c d5 31 e4 3c ae 3f b3 3c
       0.18390061 0.029958531 0.027855793 0.02188095
000300 2e d8 1b 3e c9 a7 24 bd 00 6c eb 3d 41 60 e9 ba
       0.15219185 -0.040199075 0.11495209 -0.0017805175
000310 7f 49 0a 3e 8d 65 b1 bd cb 25 62 bd dc 6f 0e 3d
       0.13504599 -0.086619474 -0.055211823 0.034774646
000320 e6 f4 d5 3c 9f a6 a5 3e 2b 1a 99 3e 23 3a 3b be
       0.026117753 0.32353684 0.29902777 -0.18283896
000330 f2 ec a2 3d 4c 4d 28 be fc 50 91 be a5 39 91 3d
       0.0795535 -0.16435736 -0.283821 0.07091073
000340 fa 32 5b bd 0f 12 2c 3e 30 a2 17 be 46 fc 9a bd
       -0.053515412 0.16803764 -0.14807963 -0.075676486
000350 e5 78 62 3e 6c f8 63 3d f6 bc 04 be 0d cc 09 be
       0.2211643 0.055656835 -0.12962708 -0.13456745
000360 bb 85 cc 3d 78 87 57 bd 2d 51 7b be b0 c3 2f bd
       0.099864446 -0.052619427 -0.24542685 -0.04291123
000370 36 0e 42 bc f2 6d dd 3d 98 15 9a 3d fd 81 25 3e
       -0.011844208 0.10811986 0.0752365 0.16162868
000380 35 11 4c 3c 97 94 fb 3d 50 46 91 3d c3 ce 09 3e
       0.012455274 0.12284201 0.07093489 0.1345778
000390 e5 81 11 3b d7 9f 24 be 71 0c 8b be 89 d4 f4 3c
       0.0022202667 -0.16076599 -0.2715793 0.0298865
0003a0 d0 f1 01 3e 69 6e 17 3e cf 42 0f 3e 62 eb d1 3d
       0.126899 0.14788212 0.13990329 0.10249974
0003b0 30 af ae bd 40 99 24 be b2 c2 2d be 84 b7 d0 bc
       -0.08529508 -0.16074085 -0.16968802 -0.025478132
0003c0 26 45 32 be 7b 5a 4a be 9d ca ac 3d 72 f4 89 3c
       -0.1740919 -0.19761078 0.08437083 0.016840193
0003d0 a7 25 10 be 60 9c 6e bd 8a 8e 0f bd dd 8e c3 bc
       -0.14076863 -0.0582546 -0.035048045 -0.023871833
0003e0 5a 40 41 3e ec 5a eb 3a ba 7e 44 3c 58 cd 8d 3e
       0.18872204 0.0017956174 0.011993105 0.27695727
0003f0 b0 4b 0c be 60 62 4d be ef 68 3a 3c f3 46 2d 3d
       -0.13700747 -0.20057058 0.011377557 0.04230399

fc1.bias f4 [128]
000000 56 a9 0a be ab 60 4a be 8d 9e a9 3c b6 15 e9 bc
       -0.13541159 -0.19763438 0.020705486 -0.028452735
000010 87 0a 2e be 9e 95 e0 3d e0 4d 5b be 1c 4d 40 be
       -0.16996203 0.10966037 -0.21416426 -0.18779415
000020 7a ce d0 bd 41 af 37 be dd 1a bb bd 12 07 2b 3d
       -0.10195632 -0.17937948 -0.09135983 0.04175479
000030 64 ea 95 bd fd 14 be 3d d3 a1 0c 3d 2b 12 2f be
       -0.07320097 0.09281347 0.034334015 -0.17096774
000040 a6 aa 80 3c aa 21 1c 3e d7 d3 0b 3d 98 9e 9a 3d
       0.015706372 0.15247217 0.034137573 0.075497806
000050 f0 85 dd 3d ba 0c 56 3d 1f ea 04 be b5 fc 01 be
       0.10816562 0.05225823 -0.12979935 -0.12694056
000060 bc e2 4e be ca 1d 21 bd f9 8c 4a 3e 80 6c e3 bc
       -0.2020368 -0.03933505 0.1978034 -0.027761698
000070 76 67 03 be d6 7f ee ba fe 7c 0f 3e 32 dc 0a 3e
       -0.12832436 -0.0018196057 0.14012524 0.1356056
000080 b2 ae 1c 3e 60 1c 28 be 3f 72 b7 bc b7 c5 f3 3b
       0.15301016 -0.16417074 -0.022393344 0.007439341
000090 a1 fe 1c bd 0e 52 0a b9 c6 8b 27 3d c6 0c b0 bd
       -0.03832877 -0.00013191273 0.040904783 -0.08596186
0000a0 24 1c 9b 3d 3a 80 c1 3c 72 8c 0b 3e 77 22 f3 bd
       0.07573727 0.023620714 0.13627794 -0.11871808
0000b0 c8 47 d3 bc 7c 9c 98 bd 5e 0c ad ba 85 c7 12 be
       -0.025791064 -0.07451722 -0.0013202538 -0.14333923
0000c0 fa 43 96 bd d3 36 5c be 02 a3 07 3e 96 60 11 bd
       -0.07337184 -0.21505289 0.13245776 -0.035492502
0000d0 bd dc 82 3d 15 93 15 be 9b e3 b7 bd 6c c3 12 be
       0.06389759 -0.14606889 -0.08978959 -0.1433236
0000e0 81 b5 30 be 70 cd 0e 3e 7a e9 b0 bd 46 7c 59 bc
       -0.17256738 0.13945556 -0.08638282 -0.013274258
0000f0 17 af 5a 3c 83 79 d6 bb fa c2 64 3d b1 e0 ee bd
       0.013347409 -0.006545247 0.055850007 -0.1166395
000100 89 48 02 be fc 35 36 3e df fd 1c 3e f9 66 90 bc
       -0.12722982 0.17794031 0.15331219 -0.017627226
000110 8e 42 46 bd 79 d1 2b 3d 4b 7f c9 3d 22 2e 60 be
       -0.048403315 0.041947816 0.09838732 -0.21892598
000120 8f 90 15 3e d2 89 9a bd c6 e0 08 3e c3 91 9b bd
       0.14605926 -0.075458184 0.13366994 -0.07596161
000130 a7 5e 3a 3e dc ae 00 3e 81 8e bc bd d0 5e 91 3d
       0.1820017 0.12566704 -0.09206868 0.07098162
000140 8d 26 0b be 6a 77 65 3c 92 c0 b0 bd c5 95 fa bd
       -0.13588925 0.014005521 -0.0863048 -0.122355975
000150 d8 e9 07 3e bb e3 4f be 3d 2b 4c bd 60 5b 86 3d
       0.13272798 -0.20301716 -0.049845923 0.06560397
000160 8e ef 04 3e 09 a4 32 3d 86 59 68 3d f3 5d 34 bd
       0.12982008 0.043613467 0.056726 -0.04403491
000170 ae 89 e8 3d 96 be 13 3d 68 e2 de bd be ca 59 be
       0.11354385 0.03607043 -0.10883027 -0.21268746
000180 6d ca 98 bd d0 83 53 be b1 bd 17 3e 67 09 21 be
       -0.07460485 -0.20655751 0.14818455 -0.15726243
000190 85 c4 42 3e 48 ee 0f 3e ff e9 19 3e 2e 8e a3 3d
       0.19020279 0.14055741 0.15030669 0.07986103
0001a0 f5 7f d3 3d bb a8 95 3d 13 6f 67 3c 19 ba 03 be
       0.1032714 0.073075734 0.014125603 -0.1286396
0001b0 a8 d4 4e 3e 5b e7 39 3e 69 7a 43 be b8 d1 53 be
       0.2019831 0.18154661 -0.19089665 -0.2068547
0001c0 de bc 80 bd e9 65 02 be 28 7c 3b bd 72 66 9f 3d
       -0.062860236 -0.12734188 -0.0457727 0.07783212
0001d0 d5 d1 24 be e3 95 1d 3e a1 19 88 3c 09 8e 0d 3e
       -0.1609567 0.15389208 0.016613783 0.13823713
0001e0 e9 ae ed bd 67 c4 2a bd 14 4f 04 be 95 90 a6 3d
       -0.11605627 -0.04169121 -0.12920791 0.081330456
0001f0 a1 fa a5 3d 9b 00 b4 bd 65 16 15 be 0c ff 45 3e
       0.08104444 -0.08789178 -0.14559324 0.19335574

fc2.weight f4 [128, 128]
000000 b3 9f 40 bc ce 9d 2f 3c f3 36 d5 bd 33 10 3d 3d
       -0.011756825 0.010718776 -0.10410871 0.046158027
000010 8a e2 c6 bc be 6a de bd 76 38 ec bc f2 49 12 3b
       -0.024277944 -0.10860203 -0.028835516 0.0022321907
000020 0f 8d df 3d 5e fd 0c be 67 ff bc 3d 15 2b d0 bd
       0.10915577 -0.13768527 0.09228402 -0.10164467
000030 44 8e 83 3d 53 d9 f0 bd 30 64 e9 bd 33 d3 42 bd
       0.064236194 -0.11760201 -0.113960624 -0.047564697
000040 7d 90 93 bd d2 3f 3c 3d e9 9e 81 bd 18 10 77 bd
       -0.07205293 0.0459593 -0.06329138 -0.060318083
000050 10 d0 66 bd ac 17 e5 3d ff 63 ad bd 5f b5 c2 bc
       -0.056350768 0.11186156 -0.08466338 -0.023768125
000060 89 6d 6c bd 60 dc e7 3c f4 5f cc 3d b3 9d 25 3d
       -0.05772165 0.028303325 0.09979239 0.040433597
000070 b1 76 8a 3c a5 fd c2 3d 37 76 8a bd 98 45 02 bd
       0.0169023 0.09521035 -0.06760829 -0.03180465
000080 55 6b 20 be ca 67 9d 3d 3d 9b 23 3d 23 76 d3 3c
       -0.15665944 0.07685812 0.03994297 0.025813168
000090 76 3b b9 3d 0f 66 1f 3d ed bb 88 bd f0 34 be bd
       0.090445444 0.03891569 -0.06676469 -0.09287441
0000a0 49 45 0d be 66 9d 07 3b 58 0a 06 3e ba eb 24 bd
       -0.13795961 0.0020693182 0.13089883 -0.04026387
0000b0 00 67 10 be f6 84 11 bd ec f5 2e bd 2c 87 51 3d
       -0.14101791 -0.035527192 -0.042714998 0.0511543
0000c0 ae c2 b5 bc e4 a3 4f bd e0 d7 da 3d 71 5d c5 bd
       -0.022187557 -0.050693408 0.10685706 -0.09636963
0000d0 9a 36 3f bd 92 3e 17 be 03 c1 95 3d 69 62 58 3c
       -0.04668293 -0.14769962 0.07312205 0.013207057
0000e0 18 92 98 bd 40 bd 85 3d ee 11 6c 3d 7f a0 07 bc
       -0.0744974 0.06530237 0.057634287 -0.008278011
0000f0 92 c2 25 bb 88 51 da 3d 81 f2 5b 3d 2e 9f d3 bd
       -0.0025292975 0.10660082 0.053698067 -0.103330955
000100 ad 2d 5e 3d 1d 22 73 bd 23 5d ab bd 20 eb 8e 3d
       0.05424278 -0.059358705 -0.08367374 0.0697844
000110 ff 72 e8 3d da 3e 1f 3d 43 74 44 bd 73 78 a8 bc
       0.11350059 0.0388783 -0.04796244 -0.020565247
000120 fd 19 8e 3d b6 44 27 be aa ef 03 3b 06 97 be 3b
       0.069385506 -0.16334805 0.0020131865 0.0058163432
000130 8d da 6b 3d 82 8e f9 bd 8f 30 8f bc d9 09 bf bd
       0.057581473 -0.12185384 -0.01747921 -0.0932805
000140 4b d7 70 bd 06 56 80 3d d9 3f 7e be 41 b7 80 bd
       -0.05879907 0.06266408 -0.24829043 -0.06284953
000150 b9 39 ef 3c 23 df a6 bd 41 15 ad 3d c2 53 0f be
       0.029202329 -0.08148029 0.084513195 -0.13996795
000160 04 e8 1c 3c dd e1 94 3c ff fe eb 3d 4c 06 47 bd
       0.009576801 0.018174106 0.11523246 -0.04858999
000170 80 e3 b0 3b 5a d0 7e bd b6 71 5b 3c bd d6 91 3d
       0.005398214 -0.06221042 0.01339381 0.07121036
000180 db c8 22 be 15 4e 8d 3c 87 55 8f bd 12 e3 d3 3d
       -0.15896933 0.017249146 -0.06998735 0.103460446
000190 c5 e5 b5 bd 52 11 a7 3c e8 5c c3 3d f4 c1 fb 3c
       -0.08881716 0.020394001 0.09539205 0.030732132
0001a0 bd 1c 94 3b 37 4a 7e 3d 3d 6c 7d 3d db 6b 5a bd
       0.0045200274 0.062082496 0.061870802 -0.053325515
0001b0 51 bb ca 3d 9a 92 01 3d 2b 25 36 3c cf 35 a2 3d
       0.09899009 0.03163395 0.01111726 0.079204194
0001c0 2e 0a 7c bd 03 6b 10 bd 72 1c d5 bc 3e 81 99 3b
       -0.061533146 -0.035258304 -0.02601454 0.0046845963
0001d0 da 12 95 3d 9b 28 1d be ab 47 bd 3c 66 58 5a 3d
       0.07278986 -0.15347521 0.023105463 0.05330696
0001e0 4a 7c c5 3d 1c f2 b4 3b 53 51 ab 3c b1 c2 d0 bd
       0.09642847 0.0055220257 0.020912802 -0.101933844
0001f0 d6 e7 50 bd 27 71 75 bc 7a f6 22 be a7 a8 c6 bc
       -0.051002346 -0.014980591 -0.15914336 -0.024250342
000200 1f f8 7a bd 8b 1a 9d 3d 25 29 12 be 9c 67 cd 3b
       -0.061271783 0.07671078 -0.14273508 0.0062684547
000210 3f 52 bd 3d 29 cf d1 3c 7e a9 5a 3d 9b 8e ae bd
       0.09244203 0.025611477 0.053384297 -0.085232936
000220 7e 85 00 be cd 5d e9 bd 53 de 37 3c 76 df d7 bc
       -0.12550923 -0.11394844 0.01122244 -0.026351672
000230 ca 6e de bd 03 d9 62 3c e2 81 5b bd c2 f9 f1 bd
       -0.10860975 0.013845685 -0.053590663 -0.11815216
000240 0a 2e 28 bb cc 1f c2 3b 81 b4 4b 3a bf e1 89 bd
       -0.0025662207 0.0059242006 0.00077707326 -0.06732511
000250 c8 37 19 be ac 0a bd bd e4 ae b1 3d 0b c0 a7 bd
       -0.14962685 -0.09230551 0.08675936 -0.08190926
000260 1b 59 2b 3d 14 90 82 be 0d 7c 6a 3c 39 fa 18 3e
       0.041833024 -0.25500548 0.014311803 0.14939202
000270 e2 e0 ef bd 3d fe af bd a7 92 1f 3d ce de 2c 3d
       -0.11712815 -0.08593414 0.038958218 0.04220467
000280 ab 89 14 bd 57 94 03 be a8 51 21 3d 3a 21 e0 bc
       -0.036264103 -0.12849556 0.039384514 -0.027359594
000290 9a c1 7b bd 5c bd 0e 3d bc 44 aa bd 08 ed 02 bd
       -0.06146393 0.034848556 -0.08313891 -0.031964332
0002a0 d9 a2 b9 bc e3 14 b5 3c b4 33 8d 3d e5 3c 04 3d
       -0.02266066 0.022104686 0.06894627 0.032284636
0002b0 6d 5f 82 3d 08 d9 4b bd 9a 16 00 be 56 a5 91 3c
       0.06365857 -0.049767524 -0.12508622 0.017779034
0002c0 c2 3a 60 bd 24 b2 cf 3e b1 5b 6e 3c 3c cb a7 3d
       -0.054743536 0.40565598 0.014548228 0.08193061
0002d0 17 9b 95 3d df 51 a0 bd 78 e0 27 3d d6 32 19 bd
       0.07304972 -0.07828116 0.040985554 -0.037401997
0002e0 f4 a4 90 bc 1d e0 10 be e3 e3 62 bd 87 93 ff 3c
       -0.01765678 -0.14147992 -0.05539311 0.031198276
0002f0 ed 9b e1 bc db 0c 31 be f5 3b 3e 3d 08 0e 0e be
       -0.027540172 -0.1729006 0.0464439 -0.1387254
000300 c6 1e b4 ba ca 21 ef 3c 11 93 cd bd b1 2d b8 bc
       -0.0013742081 0.029190917 -0.10037816 -0.022482725
000310 1f b2 de bc d2 41 b6 bc 3d 8f dd bd 3a 9c 1e bd
       -0.027184544 -0.022248182 -0.10818336 -0.038723208
000320 24 f3 7b 3d 40 04 a2 3d 18 c2 16 3d f1 44 0d be
       0.061511174 0.07910967 0.036806196 -0.1379583
000330 83 ed ac bd c4 82 0c 3c 5c d4 9c 3d ff 88 29 3d
       -0.08443739 0.008576099 0.07657692 0.041390415
000340 17 7e 92 bc ef 46 00 bd d9 d1 1c 3e f4 aa 2f 3d
       -0.01788239 -0.031317648 0.15314426 0.042887643
000350 3e 69 89 3d 16 52 f8 bd 2a fe 06 be 9c 53 9d bc
       0.067095265 -0.12125032 -0.13182893 -0.019204907
000360 0d bd 60 3d d5 22 a5 3c d3 9b f5 3d 57 9f 3b bd
       0.054867793 0.02015821 0.11992612 -0.045806255
000370 c9 e8 1f be 03 e2 2f bd d8 42 33 be c4 0a a5 3c
       -0.15616144 -0.04294015 -0.17505968 0.020146735
000380 cf dd f6 3d 5c b3 65 3e 7d fb 47 bc 69 31 2d be
       0.120540254 0.22431701 -0.012205956 -0.1691338
000390 0e 00 2d 3d 96 9e 6d bd 7f 72 6f be aa 85 24 bd
       0.04223638 -0.058012567 -0.2338352 -0.040166534
0003a0 4d d9 3a bc a2 c7 0c 3d 1e cc dd bd 00 d5 df 3d
       -0.011404348 0.034370072 -0.10829948 0.109292984
0003b0 8f 29 82 bd 30 08 f5 3d 2e f3 0c 3e f6 c0 39 3d
       -0.06355583 0.11964452 0.1376464 0.045350038
0003c0 9e f2 bb 3d ba 17 ec 3d 39 a6 bf bd 46 cf 5e 3d
       0.09177135 0.11527963 -0.09357876 0.05439689
0003d0 9c 81 d3 3c fb 32 02 3d 41 81 59 be 88 e9 14 bc
       0.025818639 0.0317869 -0.21240713 -0.009088881
0003e0 27 4e 87 bd 28 9b e4 3b 77 a8 89 be ee 2c 9b 3d
       -0.06606703 0.006976504 -0.2688634 0.07576929
0003f0 9c 9f 02 3e 47 97 ab bd 76 d0 73 bd 0b c1 77 3d
       0.12756199 -0.08378463 -0.059524976 0.060486834

fc2.bias f4 [128]
000000 92 7a 22 3d 8a 15 a8 bd 8e 5a b6 ba 93 d5 c6 bb
       0.039667673 -0.08207233 -0.0013912485 -0.0060679405
000010 4d 5c 80 bd e7 5a 5a 3d a9 bd 71 bd a0 cf 56 3d
       -0.06267605 0.053309347 -0.059018765 0.0524441
000020 14 d2 ad bc 96 4a 6b bd e2 df 98 3d 0c 26 a5 bb
       -0.021218337 -0.057444178 0.07464577 -0.005039936
000030 2e ef df bd 64 04 a0 bb c9 c5 69 bd 0a a3 3e bd
       -0.10934292 -0.004883336 -0.05707339 -0.046542205
000040 7c 1a 0f 3d 0d c9 13 3d a7 8e 8d 3d 80 00 0f bd
       0.034937367 0.03608041 0.069119744 -0.034912586
000050 e2 da 0b bd 69 31 81 bd 50 b2 57 bd 93 58 59 bc
       -0.03414429 -0.06308252 -0.052660286 -0.013265747
000060 9d 34 28 bd 17 c2 ca 3c 71 e9 95 3d 5d fc 5b 3d
       -0.0410658 0.024750752 0.07319916 0.05370747
000070 f7 24 74 3d 05 89 5c 3d ca d2 51 3d 14 a4 55 bc
       0.059605565 0.05384161 0.051226415 -0.013039608
000080 06 03 39 3d df 46 50 bd 7f 56 b5 bd ba 04 ba bb
       0.0451689 -0.050848838 -0.088543884 -0.005676833
000090 f7 cf 02 3c 32 8c 5a bd 73 a5 8f bd 5f 92 a2 bd
       0.007984153 -0.053356357 -0.07013979 -0.07938074
0000a0 02 4e 14 3d 43 3d 7d bd b2 ac bb 3a 8d a9 99 bd
       0.036207207 -0.061826 0.0014318435 -0.07503042
0000b0 3c 79 42 3d 95 14 bc bc 28 6e 89 3a 49 4a 4e 3c
       0.0474789 -0.022959033 0.00104851 0.012590953
0000c0 4f d8 24 3d 8b c5 ba 3b eb 22 f7 bc a4 3b 22 3d
       0.04024535 0.0056998185 -0.030168017 0.03960766
0000d0 ee 89 93 3d 76 56 71 bc 95 42 65 bd 0e 7a 5e 3d
       0.072040424 -0.014730087 -0.0559717 0.05431562
0000e0 52 3e 27 bd 9d 3a 99 3d ab 7a d4 bd 08 ab 34 bd
       -0.040830918 0.07481883 -0.103749596 -0.04410842
0000f0 c2 90 74 3b dc f4 39 3d bd 9e 99 3c cc ce 34 bd
       0.0037317728 0.04539953 0.01875245 -0.04414253
000100 30 9e cd bb b3 02 14 bd 78 e1 93 bd 28 35 ca bc
       -0.006274961 -0.036135387 -0.07220739 -0.02468355
000110 ab 9f 56 3d 02 79 ae 3c d4 8f 98 bd 1f 32 84 3d
       0.052398365 0.021297935 -0.07449308 0.06454872
000120 d2 d0 27 bb 37 50 12 bd a1 c4 3d bd f8 37 76 3c
       -0.0025606644 -0.03572103 -0.046330098 0.015027992
000130 6a 3f 8a bc 17 80 3e 3d 0c ff bc ba 3b d2 1e 3d
       -0.016875941 0.046508875 -0.0014419272 0.03877471
000140 0b 33 70 3d 5e 98 b4 3c df 82 5e bb 78 98 db 3c
       0.05864243 0.02204531 -0.0033952517 0.026806101
000150 44 ea 16 3d ac 04 ae bd cc 30 31 bd 39 7f ad bd
       0.036844507 -0.08496985 -0.043259427 -0.084715314
000160 23 77 2c bd 7b 4f 82 bd 60 18 24 3d 6b c5 3a bd
       -0.042105805 -0.06362816 0.04006231 -0.04559843
000170 3f 71 b0 3d eb d5 6d 3d fd 2d 72 bd 31 a8 70 3d
       0.0861535 0.058065336 -0.05912589 0.05875415
000180 d7 06 f5 3c 28 d4 b3 bd 60 fc b6 bc f0 78 83 bd
       0.029910488 -0.087807 -0.022337139 -0.06419551
000190 f9 1c 1c bd 2c 69 ef bb 4f b2 ce bc 72 f3 f5 bc
       -0.038113568 -0.0073062386 -0.025231509 -0.03002331
0001a0 66 5d f8 3c 9d 4d 1a 3b 3e 9f 1c bd b8 77 c7 bd
       0.030317973 0.0023544796 -0.038237803 -0.097396314
0001b0 27 5c c8 bd 19 3b 50 3d 0c dd 94 3d 05 ea af bd
       -0.09783202 0.05083761 0.07268724 -0.085895576
0001c0 7f 81 48 bd d6 2a 92 3d 4e 1d a8 3b db 0f 01 bc
       -0.048951622 0.071370766 0.0051304465 -0.007877315
0001d0 6c e6 1d bd 7e e5 b6 bc 82 de a8 3c 75 f8 02 bc
       -0.038549826 -0.022326227 0.020613912 -0.007993807
0001e0 63 7d 08 bd 6f 7d 51 3d 26 b1 5d bb f4 30 ab bc
       -0.033322703 0.051145013 -0.0033827513 -0.020897366
0001f0 8f 1c b6 bd 94 6c 28 bd e6 52 47 3c f5 4a 96 3d
       -0.08892166 -0.041119173 0.012165761 0.07338516

fc3.weight f4 [128, 128]
000000 7c 4f 97 3b 6f b3 62 3b 0d 0a b1 bd 4f 72 72 3d
       0.0046176296 0.0034591814 -0.08644495 0.059191044
000010 0d 78 9a bd ab 30 0f bd d7 86 6d 3d 10 5a cf 3c
       -0.07542429 -0.034958523 0.05798992 0.0253115
000020 75 34 6c 3c 0b 98 17 3d e1 72 29 ba e3 58 2c bd
       0.014416804 0.037010234 -0.00064639567 -0.042076956
000030 45 be bf bc b1 d0 14 3d 00 ed b3 bd 7f 6e 88 bd
       -0.023406157 0.036331836 -0.087854385 -0.066617005
000040 72 74 99 bc 57 34 99 bc b3 28 98 bc e8 f1 96 3d
       -0.018732283 -0.018701715 -0.018574094 0.07370359
000050 b4 b4 90 3d 06 e5 ad 3d 7d 63 7f 3d 98 56 73 bd
       0.070657164 0.084909484 0.06235074 -0.059408754
000060 77 2d 20 3d 78 21 af bd 46 16 8f bd fa aa 61 bb
       0.03910586 -0.085513055 -0.0698667 -0.0034434185
000070 1d af 87 3d 16 07 b3 bd ba 25 1a bd ee 05 b8 3b
       0.06625197 -0.08741586 -0.037633635 0.0056159412
000080 af 64 7b bd a4 5a 5b bd 12 df 39 bd 7b 93 9b bc
       -0.061375316 -0.05355324 -0.045378752 -0.018991223
000090 27 0f 87 3d 61 6a 21 bd 06 8f 48 3c 01 41 38 bd
       0.06594687 -0.03940809 0.012241131 -0.044983868
0000a0 07 dd dd bb 7b ad e0 3a b0 ed b4 bd 96 2c 38 3d
       -0.0067707333 0.0017141545 -0.08834398 0.044964395
0000b0 b6 1e 2f 3d db ba da bc b7 36 83 bd b8 61 4d bd
       0.042753898 -0.026700428 -0.064069204 -0.05014202
0000c0 04 4a 84 bd 9d 38 2a bd 67 28 83 bd 16 6b b1 bd
       -0.0645943 -0.041557897 -0.064041905 -0.08663003
0000d0 f3 2a 8b bd 1c 02 44 bc 62 1d ba bb 49 78 a7 bd
       -0.06795301 -0.011963394 -0.0056797722 -0.081772394
0000e0 87 93 0e 3c 1e e7 9c bd 81 9f 05 3d fd 19 bd bc
       0.008702165 -0.076612696 0.032622818 -0.023083681
0000f0 90 f9 c6 bc 40 c4 a5 bd 16 a1 42 3c c8 f6 fc 3c
       -0.024288923 -0.08094072 0.011879226 0.030879393
000100 d1 9f ff 3b 06 43 34 bb 28 74 c7 bc fe c0 90 3b
       0.007801034 -0.002750577 -0.02434738 0.0044175377
000110 a0 cf ab bd 7a 4c b1 bd 89 4c 2a bc 7b 45 82 3d
       -0.08389211 -0.08657165 -0.010394224 0.063609086
000120 a7 59 8b 3d 3a c6 36 bd bc 53 3c 3d ba 7d 60 3d
       0.06804209 -0.044622637 0.045978293 0.054807402
000130 79 91 bc 3a bc 33 3c 3c ae c9 9b bd e9 88 05 bd
       0.0014386616 0.011486944 -0.07606827 -0.03260127
000140 af 7e a0 bc 1d 04 7c bd cc 50 9a bd e1 f1 7e 3d
       -0.019591657 -0.06152736 -0.07534942 0.062242392
000150 25 26 cd 3c 66 8b c8 3c 37 28 2b bd b9 83 19 3d
       0.025042603 0.024480533 -0.0417864 0.037479136
000160 1f 7e 08 3d 72 8c fd 3c 40 4e 54 3d 39 02 3f bd
       0.033323403 0.030950759 0.051832438 -0.04663298
000170 56 4a 90 3d bf b2 6f bd 08 fa 65 bd df a2 8d 3d
       0.070454285 -0.058520075 -0.05614665 0.06915831
000180 b2 97 37 3d a9 06 09 bd ba 5d 61 bc 4e ce 0e 3b
       0.044822402 -0.033453617 -0.013755256 0.0021790448
000190 56 c3 16 3d c8 eb 9b 3d ac 3c 5a 3d 69 4c 53 3d
       0.03680738 0.07613331 0.053280517 0.051586542
0001a0 b9 53 2d 3d 3c 1f 0d 3d 59 92 1c 3b 65 bd 80 3d
       0.042316172 0.034453616 0.002389094 0.06286124
0001b0 ef 7a bc 3b 91 c9 6c 3d a2 a6 46 bd 84 14 09 bc
       0.0057519595 0.057809416 -0.048498757 -0.008366708
0001c0 bf 81 e9 ba 80 7c 38 3c b4 ff 64 bc 97 59 8a 3d
       -0.0017815157 0.011260152 -0.01397698 0.06755369
0001d0 8c 5d 91 3c 60 a9 69 bd 1a 95 aa bc 88 6c 95 3d
       0.017744802 -0.057046294 -0.02082305 0.07296091
0001e0 09 f1 50 bd b9 18 a3 3d 02 2e c1 3c 2e 59 36 3d
       -0.05101112 0.079637 0.023581509 0.044518642
0001f0 1e e0 7d 3d 83 bf 55 bd be 12 99 bd d2 1f 67 3d
       0.061981313 -0.052184593 -0.07474278 0.05642683
000200 da 2a b5 bd 91 6c 86 bc e5 b2 9e bd a3 c3 39 bd
       -0.08846064 -0.01640919 -0.07748965 -0.04535259
000210 47 1c b4 bd 02 93 2f bd 91 f0 03 3d eb 8e 9c bd
       -0.08794456 -0.042864807 0.032211844 -0.07644447
000220 98 e7 4d bd 9e d9 b5 bd dc f2 6a 3d 04 2d ef 3b
       -0.050269693 -0.08879398 0.057360515 0.0072990675
000230 79 0f 92 3c bd 28 9d bd 15 9b 9e bd cf 3d 86 bd
       0.017829644 -0.07673786 -0.07744423 -0.06554758
000240 c3 5e 93 3d d2 56 33 bc b1 a7 97 bd d6 2a 62 bd
       0.07195809 -0.010945993 -0.074050315 -0.055216633
000250 46 ba 03 bb 5d ca 31 3d e1 32 ba bb 0b e9 4f 3d
       -0.0020100041 0.04340588 -0.005682335 0.050759356
000260 ee af 66 3d dc fc 00 ba eb eb 50 bc 1f f2 b1 bc
       0.056320123 -0.00049204915 -0.01275156 -0.021721898
000270 c6 0e 26 bc 66 0f 35 bd 64 36 54 bc 27 61 1c bd
       -0.010135358 -0.04420414 -0.012952421 -0.03817859
000280 25 9d b4 bd db c6 ef bc 72 0e 90 bd 91 4a 46 bd
       -0.088190354 -0.029269626 -0.07034005 -0.048410956
000290 80 49 77 bb 46 d4 d9 3c 13 a9 89 bd 27 1e 92 3d
       -0.0037733018 0.026590478 -0.067217015 0.07134657
0002a0 ff bc de bc 9c 51 89 3d 80 dd 4d bd d3 a9 14 3d
       -0.02718973 0.06705019 -0.050260067 0.03629477
0002b0 21 6b f1 3c 18 87 9d bd a9 bb 68 bd 06 63 44 bd
       0.029470028 -0.07691783 -0.05681959 -0.047946
0002c0 95 16 cb bd 25 73 8b 3d b4 12 a4 37 28 3f d6 3c
       -0.099164166 0.068090715 1.9559033e-05 0.026153162
0002d0 17 73 c4 3c 87 48 e3 3c 57 2b 70 3c 8a 20 6e bc
       0.02398066 0.027744545 0.0146587705 -0.014534125
0002e0 c8 93 0b 3d 7e 0e 0c bd bf d6 c9 3c 24 1a 45 bd
       0.034076482 -0.03419351 0.024638532 -0.048120633
0002f0 01 20 a7 3c c1 de 78 bd 5b a3 bd bd 4c 93 83 3c
       0.020401003 -0.06075931 -0.09259673 0.016061448
000300 e2 9e ca 3b fe d3 83 3c 84 27 ee 3c a5 92 8c ba
       0.006183491 0.016092297 0.029071577 -0.0010724856
000310 d7 21 9e bd 18 44 d4 bd d5 63 9f 3d 35 9a 60 3d
       -0.07721298 -0.1036455 0.07782713 0.054834563
000320 12 3b 8e 3d 19 42 12 bc 35 67 98 bd 65 c9 c6 bd
       0.069448605 -0.008926892 -0.0744156 -0.09706382
000330 af 0d b5 bb 57 74 8e bd 4c ed c2 bd ce eb dc bc
       -0.005525313 -0.06955784 -0.09517917 -0.02696791
000340 ee 84 99 bb cf ea 94 3b c4 4f 77 bd 74 83 3c bd
       -0.004685036 0.004544593 -0.060378805 -0.0460238
000350 42 43 89 bd a9 ef 03 bb 1b 7e b4 bd a7 22 69 3d
       -0.067022815 -0.0020131862 -0.08813115 0.056917813
000360 60 8b 14 3d 31 c0 98 bd a5 6b b3 3c 67 8d aa 3d
       0.03626573 -0.074585326 0.021901915 0.083277516
000370 dc 02 84 bd 76 17 af bd 1b 82 5f 3b 79 2b 01 3d
       -0.06445858 -0.08549397 0.0034104649 0.0315356
000380 bd d7 05 bd fa 31 69 3c 55 22 83 3d 94 83 0f 3d
       -0.032676447 0.014233107 0.06403033 0.035037592
000390 ed ea 0a 3c 58 8c 4f 3d 57 f1 1e 3d a7 67 8e 3d
       0.008478862 0.05067095 0.03880438 0.06953364
0003a0 ee 42 21 3d 24 ed 12 3d a1 fb dd 3c cf e0 cb bc
       0.03937047 0.035870686 0.027097525 -0.02488747
0003b0 e0 81 7f 3d 29 99 be 3c 38 12 93 bd d4 6f d2 ba
       0.062379718 0.023266392 -0.07181209 -0.0016055056
0003c0 86 f6 c8 3b 4a 0b 35 bd 9d 59 c4 bc be 80 ac bd
       0.0061329035 -0.04420022 -0.023968512 -0.08422993
0003d0 41 a8 94 bd 76 0e 80 bd f2 ac 1b bd 57 da ad bd
       -0.072586544 -0.06252758 -0.03800673 -0.08488911
0003e0 30 38 4c 3d 1d 33 0c bd 30 a5 c9 bc 7a 2f 9b bd
       0.049858272 -0.034228433 -0.0246149 -0.07577415
0003f0 50 0b a1 3d 0f 1a 12 bc 43 8d c7 bc 5a 0a 84 bd
       0.07863486 -0.008917346 -0.024359351 -0.06447287

fc3.bias f4 [128]
000000 c4 9b 9b bd 09 bc de 3b 37 99 10 bd 27 54 87 bd
       -0.07598069 0.006797318 -0.035302367 -0.06607848
000010 6d 5a 15 bc 70 3b 34 bc 95 4a 66 3d 50 e8 4c 3d
       -0.0091157975 -0.011000499 0.05622347 0.050026238
000020 8e 89 c5 3d 7b f1 83 3d 51 49 c5 3d 6a 7c fe bc
       0.09645377 0.06442543 0.096331246 -0.031065185
000030 a2 31 83 3d e4 de 31 bd 20 5e 41 bc ff 12 65 bd
       0.06405951 -0.043425456 -0.011802226 -0.05592632
000040 58 b1 53 3d 96 db b1 bd b6 ec 20 bc a9 1f 6a bd
       0.0516828 -0.08684461 -0.009822061 -0.0571591
000050 b5 27 c7 3d f6 6e 01 bd eb e9 5b 3d 04 67 70 3c
       0.097243704 -0.03159996 0.05368988 0.014672998
000060 95 57 0e bd a3 2a 3f bd 98 70 a2 3d cf dd 25 bc
       -0.034751493 -0.04667152 0.07931632 -0.010123684
000070 cf 9f a3 3d 93 50 da bc 3e f8 91 3d 9b 5d 86 3c
       0.079894654 -0.026649749 0.071274266 0.016402056
000080 b0 cc 8f 3d 6b f2 4e 3d b7 c8 92 bd c6 c2 d0 bc
       0.07021463 0.050524157 -0.071671896 -0.0254835
000090 7a 4c b8 bd 9d f7 7e bd 72 1a 85 bd c8 59 5e 3d
       -0.08998962 -0.06224786 -0.06499185 0.05428484
0000a0 66 ca a8 3a b8 13 ae bd d6 91 4a 3d de 4f 0e bd
       0.0012877702 -0.08499855 0.049455486 -0.034744136
0000b0 0b 75 66 bd 27 62 52 bd 2f f1 34 3d b7 09 79 3d
       -0.056263965 -0.051363137 0.044175323 0.06080028
0000c0 60 1f e6 3b 02 6d 61 3d 0a 03 99 bc cc 88 a0 bd
       0.007022783 0.0550356 -0.018678207 -0.07838592
0000d0 7d 04 da bc a2 af 8e 3d 06 f0 f2 3c 0b e2 9e bd
       -0.026613468 0.06967093 0.029655468 -0.07757958
0000e0 f9 e1 56 bc 31 56 9f bd 62 b5 55 bc 74 a7 9a 3d
       -0.0131153995 -0.077801116 -0.013043733 0.075514704
0000f0 e8 c1 49 3d c8 c4 6e 3c fb a2 56 3d 8f 59 65 3d
       0.04925719 0.0145732835 0.052401524 0.055993613
000100 58 92 af 3d 09 52 af bc 3c e2 ac 3d 64 ac 1b 3a
       0.08572835 -0.021401422 0.08441588 0.0005938469
000110 6b 6f 99 3d 69 cb 13 3d 69 1f ab 3b 5b 5f 4c 3d
       0.074919544 0.03608266 0.0052222502 0.049895626
000120 95 6a 38 3d 2d 1d 29 bd b5 ed 00 3d 38 f7 b0 3c
       0.04502352 -0.04128759 0.031476695 0.021602258
000130 84 0d d2 bd b9 f4 95 bd 3f b9 ca 3d 27 d2 bf 3d
       -0.10256484 -0.07322068 0.09898614 0.09366255
000140 f0 f6 a2 ba ab 2c 0a 3d 99 1f 70 bd d2 d2 90 bd
       -0.0012433212 0.033734005 -0.058623884 -0.07071461
000150 38 8b 6c 3d 75 1f 11 3d 86 b6 8b bd 46 a6 d5 3c
       0.057749957 0.03543039 -0.06821923 0.026080262
000160 5e 33 48 bd ab 2f 5b bd 7e a6 b0 bd d1 42 90 bd
       -0.048877113 -0.053512257 -0.08625506 -0.07043994
000170 2a 16 19 3c 0a 71 4c bc 3c e7 85 bd 59 38 28 3d
       0.009343663 -0.0124781225 -0.06538245 0.041069362
000180 d6 9b b0 bb 8f 68 8c bd fd 68 91 3d 85 96 92 3c
       -0.005389671 -0.068558805 0.07100103 0.017894039
000190 6d ed f6 3c d3 61 a4 3d 45 b2 9b ba bd a3 6e 3d
       0.03014251 0.08026471 -0.001187869 0.05826162
0001a0 54 a0 d7 3b 32 eb 6d 3d e4 80 85 3d 35 14 76 3b
       0.006580392 0.058085628 0.065187246 0.0037548665
0001b0 1a c1 47 3d 4d 37 fc ba 6a 2d a1 bd 45 28 85 bd
       0.04876814 -0.0019242555 -0.0786999 -0.065018214
0001c0 80 44 ca 3d 48 5f ac 3d 73 c8 4f bd 03 fa 22 3d
       0.098763466 0.08416611 -0.050728273 0.03978921
0001d0 b4 c0 9d bd 30 2b bb ba 27 28 79 3c 07 f3 70 bd
       -0.07702771 -0.0014279839 0.015207327 -0.05882552
0001e0 07 55 99 3c fd b2 89 bd f1 4b e2 bc 6f 93 8b 3c
       0.018717302 -0.067235924 -0.027624102 0.017038075
0001f0 de 25 41 3c 29 55 8d 3d 1b 81 30 3d 44 bb c8 3d
       0.011788813 0.06901009 0.043091875 0.09801343

fc4.weight f4 [128, 128]
000000 b9 da e6 3c 2d 9d 88 3d 55 be c0 bd 54 89 ab bd
       0.028180467 0.06670604 -0.09411303 -0.08375803
000010 ba 70 06 bd 27 6e ce bc aa a2 f1 bc bb 77 12 3c
       -0.03282235 -0.02519901 -0.02949651 0.008939679
000020 64 a9 2c bd 1e 5c 93 3c 71 fc 3c bd 68 4e 97 bd
       -0.04215373 0.01798826 -0.046139184 -0.07388002
000030 79 75 52 bd 66 fa a8 bd b9 45 20 bd 19 53 b2 bd
       -0.051381562 -0.08250885 -0.039128993 -0.08707256
000040 02 dc 81 bd f2 98 61 bb da 4b e9 bc 1a 4f 8b bd
       -0.06340791 -0.0034423438 -0.028478552 -0.06802197
000050 b8 e0 52 3d 76 75 b2 bd 47 81 30 3d 52 1a 07 bb
       0.05148384 -0.0871381 0.04309204 -0.0020615053
000060 a5 3f 12 bd df 6a 72 bd d0 17 86 bd 66 41 8f 3d
       -0.035705227 -0.05918395 -0.065475106 0.06994896
000070 c2 26 a0 bd bb c8 d7 3b 17 1b a4 3d 87 a9 8a bd
       -0.078198925 0.0065852082 0.080129795 -0.06770616
000080 0a cf a1 3d f2 93 1c bd 47 ca 67 bd 13 d0 74 3a
       0.07900818 -0.03822703 -0.05658939 0.0009338867
000090 19 33 93 bd 39 ce 58 bd 17 c6 bb bd 5c 10 c9 3c
       -0.071874805 -0.052931044 -0.09168642 0.024543934
0000a0 6b 41 74 3c 2f 34 00 3b a7 cd ac 3c de f4 be bd
       0.014908175 0.0019562354 0.021094156 -0.093240485
0000b0 a6 38 ed 3c e5 77 44 3d cb 4b bb bc 61 92 82 3d
       0.028957676 0.047965903 -0.02286329 0.06375576
0000c0 9a 9c 98 3d 7c fb 3c bc db 6a a5 3d 93 08 bb bd
       0.074517444 -0.011534568 0.08077022 -0.09132495
0000d0 f2 a5 03 bd 58 09 48 3d 78 ce 7f 3c 53 8c 55 bc
       -0.03214068 0.048837036 0.015613191 -0.013033944
0000e0 0f 9d 61 bd a7 1d 9e 3d 16 90 59 b7 0b 57 b0 3c
       -0.055081423 0.077204995 -1.29677555e-05 0.02152588
0000f0 60 31 05 3d 54 74 a9 3c 5e 39 c0 bd cc 6e 9b bc
       0.03251779 0.020685352 -0.09385942 -0.01897373
000100 5e 71 15 3d 87 0d f5 3c e3 c2 d9 bc fe 98 aa 3d
       0.03648507 0.029913677 -0.026582187 0.08329962
000110 ad d7 e4 3c 60 ac 73 3d ba 43 94 3d c8 a3 9f bd
       0.027934873 0.05949056 0.0723948 -0.07794911
000120 f9 6c 82 bd 6a 74 51 bd 27 e7 98 bd 9d 17 5c 3d
       -0.06368441 -0.05113641 -0.07465964 0.053733457
000130 d6 ad b5 bc cb a8 c3 3b 12 54 98 3d 89 9a 9b bd
       -0.022177618 0.0059710494 0.0743791 -0.075978346
000140 16 04 b5 bd 13 6b 88 3c e4 98 8d bd ff 07 3a 3d
       -0.0883867 0.01665262 -0.06913927 0.045417782
000150 91 64 69 3d 94 59 a6 bd bf 37 2f 3c f2 16 9a 3c
       0.056980673 -0.081225544 0.010694443 0.01880977
000160 eb 89 ce 3c d7 4e 30 bc 2f 5e 62 3d 06 f4 b1 bd
       0.025212249 -0.010760984 0.0552656 -0.08689122
000170 56 57 80 3d e7 63 7f bb bc 32 e5 bb 53 d7 93 bd
       0.06266658 -0.0038969459 -0.0069945734 -0.07218804
000180 40 20 c0 3a 66 3e bc 3c 63 0e 6f 3d 9d 93 91 3d
       0.0014658049 0.022978973 0.05836333 0.07108233
000190 1e d4 7a 3d a7 a2 7f 3c da 76 40 3c 49 18 d6 bc
       0.061237447 0.015602744 0.011747086 -0.026134627
0001a0 2d ba aa bd 03 a3 9a 3d 3d 2c 71 bd 72 7c 11 bd
       -0.083362915 0.07550623 -0.05888008 -0.03551907
0001b0 a4 ce af 3c 87 88 6f 3c 7b 6f 92 3d 7d 83 98 bd
       0.021460839 0.014619953 0.071501695 -0.074469544
0001c0 b0 65 e0 3c c0 e3 af bc 29 f2 ff bc 4e 13 33 bd
       0.027392238 -0.021470904 -0.0312434 -0.043719582
0001d0 02 7f 9f 3d 0e fd b6 bd 68 38 0f 3d 85 56 2d bd
       0.07787897 -0.08934985 0.034965903 -0.04231884
0001e0 d8 cf a3 3d 86 2c 9b 3d cc 7f 02 bd ae 4d 34 3d
       0.079986274 0.075768515 -0.031860158 0.044019394
0001f0 33 6c 98 bd ee 55 f2 bc 78 ba 54 3d ba ab db bc
       -0.07442512 -0.02958199 0.051935643 -0.026815284
000200 d0 df 6b bd b2 4f bf bc a5 01 55 3d 08 7b a8 bd
       -0.05758649 -0.023353431 0.05200352 -0.08226591
000210 de a0 52 bc 9b 0c 72 bc 92 63 8b bd ae 4e 2e bc
       -0.012855737 -0.014773513 -0.06806101 -0.010638876
000220 0a aa 8f b9 22 79 87 3d 80 16 8a 3c 0f fe 44 3d
       -0.00027401774 0.06614901 0.016856432 0.04809385
000230 f4 b0 0f 3d c6 56 9e 3d 16 a8 ad 3d 2f 9a 4e bd
       0.035080865 0.077313945 0.084793255 -0.05044001
000240 42 ad 34 3d 37 d8 60 bc 43 dc 2d bc d6 eb d8 bc
       0.044110544 -0.013723425 -0.0106115965 -0.026479643
000250 a5 92 9b bd 82 72 a8 3d 7c da 07 bd 42 c5 98 bd
       -0.075963296 0.08224966 -0.033167347 -0.07459499
000260 6d 9d 62 bd d0 6b 00 bd 39 e9 f2 3c cf 15 83 3d
       -0.055325914 -0.031352818 0.029652225 0.06400644
000270 31 b1 60 3c a1 c3 94 3d 54 03 6d bd a2 03 68 3d
       0.013714121 0.07263876 -0.057864502 0.05664409
000280 d4 56 b3 bd b3 ce 45 3c f4 93 41 bd d6 e0 d3 3c
       -0.087567955 0.012073207 -0.04726024 0.025864046
000290 56 ff 9f bc 56 3d 71 3d b9 58 7c bd c4 91 a7 bd
       -0.019530933 0.058896385 -0.06160805 -0.081820995
0002a0 ed 8e e3 bc 22 68 61 bd 1e 29 88 3c b5 9a 64 3d
       -0.027778113 -0.05503095 0.016621169 0.055811603
0002b0 b8 e3 96 3c 39 ac 6e bd 3e 3b 9d bd ae dd 9b bd
       0.018419132 -0.058269713 -0.07677315 -0.076106414
0002c0 4c c9 71 38 26 58 5e 3c 6d 0f 2e bd de 56 34 3c
       5.764635e-05 0.013570821 -0.04249518 0.011007039
0002d0 cc 1d 33 bc ad 2a 8f bd 96 98 10 bd db 5b 51 3d
       -0.010932397 -0.06990562 -0.035301767 0.05111299
0002e0 4b 64 4b bc 0f 20 66 3d 43 e4 2d bd 40 01 63 bd
       -0.012414048 0.056182917 -0.042454015 -0.055421114
0002f0 8d 27 2f 3d 55 7e 78 bd 25 e3 84 bd 22 db 25 3d
       0.042762328 -0.060667355 -0.06488637 0.040492184
000300 17 2f 8e bd d3 f0 42 bd 6e dd 3e 3c c5 e7 17 bd
       -0.069425754 -0.04759295 0.011649473 -0.037086267
000310 bf 88 c8 bb 41 07 40 bc f8 fb 53 3b 12 79 96 bd
       -0.006119817 -0.0117204795 0.003234623 -0.07347311
000320 8c 2e 6e 3d c3 b5 13 bd 9d dc 40 3d 25 d2 94 bd
       0.05814986 -0.036062013 0.047085393 -0.072666444
000330 3c 59 ac 3d 6f 48 a0 3b de 10 05 3b 25 cd 18 bb
       0.084154576 0.0048914473 0.0020304243 -0.0023315635
000340 74 50 20 3d b3 0b 0d bc 1f 64 63 3c 64 ca 9f 3b
       0.039139226 -0.008608746 0.013878851 0.0048764218
000350 77 3a ad bd 06 e9 40 3d 0c d6 21 bc 14 fa 5c 3d
       -0.08458417 0.04709723 -0.009877693 0.05394943
000360 6e 8f 66 3d da 12 54 3d 17 fe e0 bc d4 43 37 bd
       0.05628913 0.05177579 -0.02746491 -0.04474242
000370 79 cf a0 bd 03 8d a6 3c 87 33 98 3b 69 4b 23 3d
       -0.07852072 0.020330912 0.0046448144 0.03986684
000380 12 4a 24 3d c9 5c 9c 3b 00 13 80 bd aa e6 99 bb
       0.0401097 0.004771803 -0.06253624 -0.0046966868
000390 5a fd 7f 3d fb 4b 9b 3d 2f 7e 9d 3d 01 87 74 bd
       0.062497474 0.075828515 0.07690083 -0.059699062
0003a0 24 05 95 bc 3b 17 f7 bc 2c 5f 26 3d e2 6e 4a 3d
       -0.018190928 -0.030162444 0.040618107 0.049422152
0003b0 4e 1f a1 3c 0c a2 22 3d 1a fa c0 3b 6f 46 a2 bc
       0.019668248 0.03970532 0.0058891894 -0.019808976
0003c0 54 bd 8b 3b 3f 95 1b 3d 83 b2 95 3d e0 3e ad bd
       0.004264513 0.03798413 0.07309439 -0.08459258
0003d0 16 4a 8d 3d 2f 7e 09 bb 49 a1 9d bd 8d c2 1e 3b
       0.068988964 -0.0020979752 -0.07696778 0.0024224848
0003e0 f5 35 6c bd fc cf ff 3c 3e 6d b3 bd 80 db ea bc
       -0.057668645 0.031227104 -0.08761071 -0.028669119
0003f0 39 5b b8 3c b8 55 49 3c 32 fe 99 bc 5d 82 17 bd
       0.022504436 0.012288503 -0.018797968 -0.03698956

fc4.bias f4 [128]
000000 82 45 29 bc a3 a8 1f bd e9 a0 9a bd 80 f2 54 3d
       -0.010331513 -0.038979184 -0.075502224 0.05198908
000010 1d 87 c3 ba 41 01 b2 bd 2d d4 57 bc 5e ea fa 3c
       -0.0014917586 -0.086916454 -0.013173145 0.030629333
000020 29 3e 3b bd ea 35 b1 3d a4 d7 58 bb 3e b1 d6 bc
       -0.045713577 0.086528614 -0.0033087516 -0.026207563
000030 bb a4 01 3d 47 1b 81 3c d1 88 d1 3c b6 85 99 bd
       0.03165124 0.015760077 0.025577934 -0.074962065
000040 69 b9 e0 3b 7f 1b 93 3c 77 bd de bd d9 c4 57 3d
       0.00685804 0.017957447 -0.10875981 0.052677963
000050 32 23 0b bd 8a ab 29 3d 86 80 a6 bd 82 01 29 bd
       -0.03396911 0.041423358 -0.08129983 -0.041261204
000060 ba b3 a9 bc 8a 62 ac bd 84 32 43 3d d4 a2 ef bd
       -0.020715583 -0.08417232 0.047655597 -0.11700979
000070 0a 8f da 3d 2b f5 58 3c 03 b2 35 3d c8 db c0 3c
       0.10671814 0.013242046 0.04435922 0.0235423
000080 ba ed a1 bd 21 7b c5 bb 0a ae a8 3d 80 83 cd 3d
       -0.07906671 -0.006026641 0.0823632 0.10034847
000090 28 8b 37 bc 42 cc 37 3d ab 07 62 3c b6 8a 38 bd
       -0.011202611 0.04487253 0.0137957735 -0.04505416
0000a0 31 79 85 bd e5 af b7 3c 0d 83 f6 3c 2a d8 45 bd
       -0.06517256 0.02242274 0.030091787 -0.048301853
0000b0 f9 a6 25 bd a5 82 45 3c 66 c4 29 3d e2 c5 a0 bd
       -0.04044244 0.012055074 0.041447066 -0.07850243
0000c0 67 29 4e 3d 04 00 a4 3d e3 f1 83 3d 84 09 1b bd
       0.050332453 0.080078155 0.064426206 -0.03785087
0000d0 7f 58 c2 3d 14 5c 04 bd 42 82 c5 3d 30 2d 48 bd
       0.094895355 -0.032314375 0.09643985 -0.04887122
0000e0 2c a2 8a 3c 4f d6 b3 bc 81 8b 62 3d cf 26 e8 bc
       0.016923033 -0.021952776 0.055308823 -0.028338818
0000f0 9c aa 51 bd 17 71 d2 3d 08 54 cc 3d fb 87 e8 3d
       -0.051188096 0.102754764 0.09976965 0.11354061
000100 90 2c 60 bd ff d7 a8 3d 25 99 9e 3d aa 40 41 3d
       -0.054729998 0.08244323 0.07744054 0.04718081
000110 ad b0 77 bb 98 7f 10 bd 4f 75 47 3d 0a 65 a9 bd
       -0.0037794516 -0.035277933 0.04869586 -0.08271225
000120 5e f6 73 bd 5a 2b b4 bd 58 50 10 3d 29 62 7b 3d
       -0.059561126 -0.08797331 0.03523287 0.06137291
000130 45 90 5b 3d 14 5e c7 3c 46 5d ac bc 1e b8 15 3d
       0.053604383 0.024336852 -0.02104057 0.03655254
000140 a2 75 15 bd 0f 5e 92 bd df 67 ca bc 96 0d 9c 3b
       -0.036489137 -0.071468465 -0.024707733 0.0047623618
000150 1e 8e 1f 3c 38 0b e1 bb 0a a5 4b bd e8 c3 b2 bd
       0.009738473 -0.0068677925 -0.04971794 -0.087287724
000160 6f dd e5 3c a3 66 1e bb 44 fa 38 bd ff 49 82 bd
       0.02805969 -0.0024170063 -0.045160547 -0.0636177
000170 04 7f 2c 3d d6 1f 90 bc 8e 13 80 3c b8 ff b8 bd
       0.04211332 -0.017593306 0.015634324 -0.090331495
000180 03 de 65 3d b8 c2 b7 3c 22 f4 4a 3d d5 6f 10 3d
       0.05611993 0.022431716 0.04954923 0.0352629
000190 c5 92 b3 3d fe 5a ec bc 37 c8 ac 3d 3b f4 74 bd
       0.087682284 -0.028851982 0.084366255 -0.05980323
0001a0 51 ca 1c bd e0 b8 1e bd 9b bc b0 3c 33 94 a4 bd
       -0.03827888 -0.03875053 0.02157431 -0.08036079
0001b0 b1 ad a7 bc 1a 51 e8 3d ea 35 0f bc 80 b1 ed 3c
       -0.020468565 0.11343594 -0.008740881 0.029015303
0001c0 ec 72 4e bd 80 10 0a 3c a7 52 5f bb a6 13 83 bb
       -0.050402567 0.0084267855 -0.0034076364 -0.004000145
0001d0 22 6a b2 bd 65 f0 4a 3d ca ad bd 3d c5 7c 09 3b
       -0.087116495 0.049545664 0.09261663 0.002097891
0001e0 5f 5f 45 bd 85 44 a7 bd d6 c5 26 3d a2 bc f1 3c
       -0.048186656 -0.08167366 0.040716015 0.029508892
0001f0 a3 1a 1d 3d cd 84 57 3d dd 07 e5 bd 9e c0 dc 3c
       0.03835548 0.052616883 -0.111831404 0.026947316

reg_head.weight f4 [1, 128]
000000 4e cb 21 3a 30 da f4 39 3b cc a4 3d 6a dd 61 3c
       0.00061719574 0.0004670187 0.08046766 0.013785699
000010 04 da a0 bc 27 b6 68 bd c2 12 14 bd a2 0a a8 bd
       -0.019635208 -0.05681434 -0.0361507 -0.08205153
000020 99 47 b2 bd b7 e7 88 3d 7b fe 46 3c ff 49 a4 bd
       -0.087050624 0.06684821 0.012145634 -0.08021926
000030 dc 9b 7e bd dc 2a 76 3d 7d 37 16 bc 09 95 ac 3d
       -0.062160358 0.060099468 -0.009168503 0.08426864
000040 1c 37 4c bd d5 9e 5e bd 04 3e 93 bd f5 51 4f 3c
       -0.049857244 -0.054350693 -0.07189563 0.012653817
000050 4e 96 1b 3d 7b 08 b3 3d d0 5b 9d 3d ca 64 ba 3c
       0.03798514 0.08741852 0.076835275 0.022753138
000060 79 20 5a 3c 3f c6 3f 3c 7d 4e 2a 3d cc 63 21 bd
       0.013313406 0.01170498 0.04157876 -0.039401814
000070 aa f0 8c 3d f0 2e cf bb 72 a6 81 bd d9 9d 3b bc
       0.068818405 -0.006322734 -0.06330575 -0.011451208
000080 df 3f 1c bd e1 00 ee 3c 9a bd 98 3d 09 e0 d0 3d
       -0.03814685 0.029053153 0.07458039 0.10198981
000090 05 3a a1 bc cf 23 9e bd 1e 3e 3c bd 40 56 4d bd
       -0.019680986 -0.07721674 -0.045957677 -0.050131083
0000a0 e9 7b 6b 3d e0 72 72 bd fe d2 a5 3d 82 a0 f4 bc
       0.057491217 -0.059191585 0.08096884 -0.029861692
0000b0 33 58 d8 3a ee 8f fb 3c 40 c9 ed bc e5 f8 88 bd
       0.0016505778 0.03070828 -0.029026628 -0.06688098
0000c0 79 90 d2 3c a8 3a c4 3d 14 71 80 3d 68 5a d5 bb
       0.025703656 0.095815 0.06271568 -0.0065110214
0000d0 95 8f 93 3d ce 7b cf bc 53 36 c2 3d 75 1f 3f bc
       0.072051205 -0.02532759 0.09483018 -0.011665215
0000e0 06 40 92 bc 88 4c 1e bd 2d 19 92 bd 1c 64 22 3d
       -0.017852794 -0.038647205 -0.07133708 0.039646253
0000f0 91 d1 16 3d 5e f4 b9 3d 79 10 d4 3d 1e 94 73 3d
       0.03682095 0.090798125 0.103547044 0.059467427
000100 a3 09 6b bd 23 0b 80 3d bb c2 a6 3d 9a de 87 bd
       -0.057382237 0.06252124 0.08142611 -0.06634255
000110 2f 8f a4 3d a2 0d 75 bc 4e 61 e2 bc 03 6f 7f 3d
       0.080351226 -0.014956864 -0.02763429 0.06236173
000120 f5 7d 9f bc 0a 48 ae bd 4e 82 62 bb 77 bc 9a 3d
       -0.01946924 -0.08509834 -0.003456253 0.07555478
000130 68 df fa bc 58 8d da bb 5b 48 89 3b 0d 34 ca bb
       -0.030624107 -0.0066696815 0.0041895336 -0.0061707557
000140 2c cf 9b bc b6 07 ad 3d 28 78 65 bd b7 b6 96 3c
       -0.019019686 0.08448736 -0.056022793 0.018397672
000150 5c 5e 29 bc b0 f8 ec bb 7e 7f 93 bd 19 be 79 3d
       -0.010337438 -0.0072317943 -0.072020516 0.060972307
000160 87 76 10 bd fd 87 10 39 53 35 88 3d 56 89 63 bc
       -0.035269286 0.0001378357 0.06650796 -0.013887724
000170 99 55 63 3a ff d2 83 bd 07 0b 27 bd 49 5f a0 3d
       0.0008672118 -0.06436729 -0.040782 0.07830674
000180 0a c5 84 bd 57 94 92 3d 02 8c 05 bb 5f ab 6e bd
       -0.06482895 0.071572 -0.002037764 -0.0582689
000190 44 bc 86 bd bd 87 e0 3c 1b f8 35 3d f3 7f ab bd
       -0.065788776 0.027408475 0.044426065 -0.08374014
0001a0 04 8a 3d 3d 09 67 7c bd 72 a0 c3 3d 7d 76 5a bd
       0.0462742 -0.0616217 0.09552087 -0.053335655
0001b0 76 39 af bc 9c ce c3 3d 72 20 9a 3d cb 84 4c 3d
       -0.021389704 0.09560892 0.0752572 0.04993133
0001c0 e7 ba 58 3d f8 fc 8f 3d fe cd 4d bd fd 8e d0 3d
       0.05291262 0.07030672 -0.050245278 0.10183523
0001d0 0d af 55 bd 4a f5 9e 3d 15 97 b4 3d 87 29 8e 3d
       -0.052168895 0.07761629 0.08817879 0.069415145
0001e0 f9 a0 a1 bd 34 6e 86 3c ef 1f 81 3d ca 41 93 bd
       -0.07892031 0.01640997 0.06304919 -0.07190283
0001f0 df 27 8d bd b2 15 4b bc 8e a8 14 bd 4d 29 92 bd
       -0.068923704 -0.012395309 -0.03629356 -0.07136784
