grasp_placement/models/run_seed_54/stability_net.pth (torch, 289476 bytes, 5 tensors)

fc1.weight f4 [256, 21]
000000 d5 f8 54 3d 31 20 a8 3d 10 98 37 3e cc 3e f4 3d
       0.051995117 0.08209265 0.17929101 0.1192604
000010 7d 27 f2 bd cb 2f 12 3e 22 d0 f1 3d 80 e7 c7 3c
       -0.11823938 0.14276044 0.11807276 0.02440238
000020 83 fe d8 bd 86 bb 32 3c d5 7e 53 be 6a b9 7d bd
       -0.10595419 0.010908967 -0.20653851 -0.061944403
000030 f0 3c 21 be 98 84 ff 3d 7a 07 2d 3e d9 1f 69 bc
       -0.15745902 0.12476462 0.16897383 -0.0142287845
000040 42 8a 27 3e a5 de 07 3d d3 34 81 3c fb fe 78 be
       0.16361335 0.033171315 0.015772259 -0.24316017
000050 80 c3 cc bd 20 45 48 3e f5 9b 53 3d e9 b0 f4 3d
       -0.09998226 0.19557619 0.051662404 0.119478054
000060 1e 5f c1 3c 3c 0c 9a 3d 13 bb 44 bd d8 2a 4d be
       0.023604926 0.07521865 -0.04802997 -0.20035875
000070 c7 09 22 3e 82 5a 43 bd 0d f1 2f be 0c e5 09 3e
       0.15824042 -0.047693737 -0.17181797 0.1346628
000080 c5 e9 00 be 5b 4a 3c 3e 02 82 23 3e 43 b8 e6 bc
       -0.12589176 0.1838774 0.15967563 -0.028164035
000090 58 8b 8b bd 77 fe 40 be 05 f3 0b be a0 99 e6 bd
       -0.06813687 -0.1884707 -0.13666923 -0.112597704
0000a0 02 0e 00 3e e6 d0 8c 3d bd 0b 4e be 54 c1 0b 3d
       0.12505344 0.06875782 -0.20121665 0.03411992
0000b0 c8 94 20 3e 48 74 ed bd 3a d2 48 3e 52 06 45 3e
       0.15681756 -0.115944445 0.19611445 0.19240692
0000c0 6e cc d5 3d 6a 75 2d bd 38 dc df bd 34 9f 1f 3e
       0.104393825 -0.042348303 -0.10930675 0.15588075
0000d0 6d fd 4d 3e 07 9b c0 3d d8 68 cf bd 28 df f5 bd
       0.20116206 0.09404569 -0.10127419 -0.12005454
0000e0 2e 6e 1c be 32 ec 96 3c 51 1f c3 3c ea 2a 5a 3d
       -0.15276405 0.018423174 0.023818644 0.053263582
0000f0 73 c2 4e 3e 29 8b 16 be c3 c3 b4 bd cb 98 84 3c
       0.20191364 -0.14701523 -0.08826401 0.016186139
000100 be 58 30 be 46 5e 24 be 4d 67 81 bd 38 0f af bd
       -0.17221352 -0.16051587 -0.06318531 -0.085478246
000110 64 39 62 3e 98 b6 fc bc 39 f2 96 3d 2e 7c a3 bc
       0.22092205 -0.030848786 0.07370419 -0.019956674
000120 62 cd 11 3e ee 88 cf bd ec 0a 90 3d f3 12 1f be
       0.14238504 -0.10133539 0.07033333 -0.15534572
000130 e4 3a 5f 3d 12 49 3a 3b b0 22 66 be 8b 39 8a bd
       0.05449952 0.00284249 -0.2247417 -0.06749257
000140 3f d6 05 be 30 64 2d be 0d c8 c0 bd a6 a3 1a be
       -0.1307001 -0.1693275 -0.09413157 -0.1510149
000150 3a 53 59 3d 05 d6 09 3e 06 57 22 be 95 f9 17 be
       0.053057887 0.13460548 -0.1585351 -0.14841302
000160 e9 b0 da bc 6b 3c 44 be d6 bb 1d be 55 19 2b 3e
       -0.026695685 -0.19163673 -0.15403685 0.16708882
000170 f4 15 4f 3d fc a5 c4 bb f2 09 c8 bd 11 35 bf 3d
       0.050558046 -0.006001232 -0.09767522 0.093362935
000180 ee 2c 58 be 61 70 ed bc 38 f4 5a 3e f4 c0 1d be
       -0.2111089 -0.02898425 0.21382225 -0.15405637
000190 00 b2 52 3e 45 4c 17 3e bb a9 0a 3d e9 c3 ad bc
       0.20575714 0.14775188 0.033853274 -0.021211581
0001a0 7b e6 43 bd 9c 28 15 be 00 8f 83 3c 0d ab 72 be
       -0.047827225 -0.14566272 0.016059399 -0.23698063
0001b0 0e 01 8c 3e 51 95 09 be 49 bc 0b bd ba 0a 29 3e
       0.27344555 -0.13435866 -0.03411511 0.16507998
0001c0 2e f3 26 3e 5f fa b8 3d bd 40 47 3c dc ca c4 bd
       0.16303703 0.090321295 0.012161431 -0.09609005
0001d0 6d c2 36 be 53 21 2b 3e a1 a7 94 bd 7c 23 14 3d
       -0.17847605 0.16711931 -0.07258535 0.036166653
0001e0 ff f7 31 3e f7 6e a4 bc 06 b4 26 be 98 f6 e3 bd
       0.17379759 -0.020072443 -0.16279611 -0.111310184
0001f0 c4 5f 2e be db 23 0b 3d 02 da 35 bd ea 2c ce 3d
       -0.17028719 0.03396974 -0.04439736 0.100671604
000200 82 26 75 bd ac 0f 8a 3e 02 2e 77 be 55 cf 1b be
       -0.059851177 0.26965082 -0.24138644 -0.1521581
000210 66 9d de 3d 18 f8 bf bc fa ab 01 be 10 89 54 be
       0.10869865 -0.02343373 -0.1266326 -0.2075541
000220 ee b1 58 3e 95 2f 56 3d 6d 45 35 be e7 1e 79 bc
       0.21161625 0.05229147 -0.17702265 -0.015205122
000230 29 25 5f 3e 75 3c ab bc 87 79 12 be 41 0c 67 be
       0.21791519 -0.020902852 -0.14304172 -0.22563268
000240 2b c4 1e 3e 5f 3b 9a 3d 9e 77 d6 3c f8 ce f8 bd
       0.1550452 0.075308554 0.026180085 -0.12148851
000250 7c 6d 31 3e 7f df 26 bd a1 78 4c bd 10 34 6d be
       0.17326921 -0.040740486 -0.04991973 -0.23164392
000260 df 5c 11 3e 35 5b a2 bd 74 46 4f 3e c9 77 73 3b
       0.14195584 -0.079275526 0.2024172 0.0037150255
000270 69 75 8f 3d d3 7c 1c 3e 41 aa 70 bb 5c 69 a7 bc
       0.07004816 0.15281992 -0.0036722573 -0.020435981
000280 82 0c 54 bc 7f 97 48 be 63 70 6d 3d 9c fa 1c 3e
       -0.012942435 -0.19589041 0.05796851 0.15329975
000290 de f8 ec 3d bc 25 a4 3d bb b6 46 be 3f 4d 1a 3e
       0.11570905 0.0801501 -0.19405644 0.1506853
0002a0 5f b8 13 3d a5 be b5 bb c2 2c e3 3d c7 fc a9 bd
       0.0360645 -0.0055464082 0.11092521 -0.083001666
0002b0 ab 35 0d be c2 48 dd 3d 40 32 48 3d dc ef b4 bc
       -0.13790004 0.10804893 0.048876047 -0.02208703
0002c0 f5 05 30 3e c7 61 5f be de 90 2c 3e b7 f6 1b 3c
       0.17189772 -0.21814643 0.16852137 0.009519271
0002d0 6e 47 c6 bd 24 80 ee bc 96 63 fc 3d d2 64 4f be
       -0.09681593 -0.029113837 0.12323682 -0.20253304
0002e0 e9 31 02 bd e3 7c 78 3d 33 9e 6c 3d 1d 9d 08 be
       -0.03178588 0.060665976 0.057768058 -0.13341184
0002f0 31 a1 60 3e 6b 5f 0c be 5a 74 12 be c7 4d 3e be
       0.2193649 -0.13708274 -0.14302197 -0.18584357
000300 9d 9e 32 bd b8 8e 21 3e ff 7d 2a 3e 99 df 41 be
       -0.043608297 0.15777099 0.16649626 -0.18932952
000310 d7 45 84 bd 87 8b 58 3e 6f 64 99 3b f2 9a e6 bd
       -0.064586334 0.21146975 0.004681162 -0.11260022
000320 9e b8 87 bc c3 ea a3 3d 35 1e a0 3d 0b 34 9c 3c
       -0.016567525 0.080037616 0.078182615 0.019067785
000330 93 29 bf bd 1b e5 f7 3d 2c bc 0b 3d 9d be 8a 3e
       -0.093341015 0.12104245 0.034115 0.2709855
000340 53 89 d5 bd 4b 88 86 bd ac 11 e6 bd af d5 47 3e
       -0.10426583 -0.065689646 -0.112338394 0.19515108
000350 dd 03 41 3e 2c d6 f4 3d aa ec 4c be 0a b6 33 be
       0.1884913 0.119549125 -0.20012155 -0.17549911
000360 ff ac f6 bd 4a 74 09 be 52 61 93 bd e1 77 a0 3d
       -0.12044715 -0.13423267 -0.07196297 0.07835365
000370 e9 ab dc bd 9f 7b 14 3e 0f 26 a9 3d d7 6a 21 be
       -0.10774977 0.14500283 0.08259212 -0.15763412
000380 08 8f ec 3d 7b f2 2b be 64 40 49 be 90 6e 11 bd
       0.115507185 -0.16791718 -0.1965347 -0.03550583
000390 71 e3 14 be 43 5e dd bd 16 72 7b bd e2 db 28 bd
       -0.14539887 -0.108089946 -0.061388098 -0.04122532
0003a0 e1 09 2a 3e 29 9c 6e 3d f1 3b 75 3e c7 d8 07 3e
       0.16605331 0.058254395 0.23948647 0.13266288
0003b0 c5 85 66 3d a6 37 26 be dc 37 ba bc 8e f0 29 be
       0.056279916 -0.16232166 -0.022731714 -0.1659567
0003c0 21 8d 90 3d 18 2b 37 be d2 8f de bd bf 4a 4f be
       0.07058168 -0.17887533 -0.10867275 -0.20243357
0003d0 15 cc 8b bd 39 77 87 bd 6e c4 28 3d fa c0 10 bd
       -0.06826035 -0.06614537 0.041202955 -0.035340287
0003e0 f5 a9 62 be 99 38 8e 3c 88 5e 27 3e 1f ab 16 3e
       -0.22135146 0.017360972 0.16344655 0.14713715
0003f0 a7 77 42 be 0c ac 36 be 3c b4 7c 3d f0 f6 5e be
       -0.18990956 -0.17839068 0.061695322 -0.21773887

fc1.bias f4 [256]
000000 1f e8 fd 3d c5 e6 3d 3e de e5 12 3e ea 16 36 be
       0.12397789 0.18545063 0.143455 -0.17782179
000010 b3 44 36 3e 46 80 73 ba d1 66 10 be 11 0f 02 be
       0.17799644 -0.00092888286 -0.14101721 -0.1270106
000020 61 c5 e5 bd 43 18 1f be 7e e4 30 3e 05 7d f1 3d
       -0.11219288 -0.15536599 0.17274663 0.11791424
000030 2c 93 b8 3d e1 30 c8 bd 0b a1 55 3d a1 08 2b 3e
       0.09012446 -0.09774948 0.052155536 0.1670251
000040 64 ff 7e bd 55 10 83 bc c8 a5 da 3c 2f 1b 16 3e
       -0.06225528 -0.015998999 0.026690379 0.14658807
000050 7f 69 02 be 66 6a e9 3d 3d cb 4a 3d 6c 19 a9 3d
       -0.12735556 0.11397247 0.04951023 0.08256802
000060 4b f1 30 3e 0f 7b 54 3e a4 ef 93 3d cb c7 4a be
       0.17279546 0.20750068 0.07223442 -0.19802777
000070 59 6e 4e 3e f4 81 45 be d8 58 1f be 5e 6a 4a be
       0.20159282 -0.19287854 -0.15561235 -0.19767138
000080 ab 14 24 be 0c cb d6 bc 23 8d 1d be 89 b8 24 bd
       -0.16023509 -0.026219867 -0.1538587 -0.04021505
000090 b5 1f ed bd d7 a0 49 3e 54 fb 69 bd f8 ba 24 be
       -0.11578313 0.19690262 -0.05712445 -0.16086948
0000a0 4d e5 e1 3d a6 11 38 3e 3b 10 06 be b6 11 44 be
       0.11030064 0.17975482 -0.13092129 -0.19147381
0000b0 db ea 28 be 05 5f 37 be 4a 8a 1f 3e bb 02 dd 3d
       -0.1649584 -0.17907341 0.15580097 0.107915364
0000c0 b0 7b 66 3c e1 e5 4f be ce f4 02 be 17 b7 55 be
       0.014067575 -0.20302536 -0.12788698 -0.20870624
0000d0 06 9f 3f be 5a b9 f3 bd 6f 51 a3 bd 33 d9 32 3e
       -0.18713006 -0.119005874 -0.079745166 0.17465667
0000e0 4c bb 4d be 13 de 81 3d 6d a7 de 3d 0d be 40 3e
       -0.2009098 0.063411854 0.10871778 0.18822499
0000f0 45 d4 24 be 8b b8 1b bc db 3a a1 3d 06 a8 2c be
       -0.160966 -0.009504448 0.07872554 -0.16860971
000100 de 96 25 be 5e fb 42 3e 27 1f 03 be 4b 0e 31 3c
       -0.16170833 0.19041201 -0.12804852 0.01080663
000110 e2 c6 6f bd b8 2e e4 bd 4a 01 f7 bd c7 a1 8b bd
       -0.05853928 -0.111417234 -0.12060793 -0.06817966
000120 38 00 1c 3e 8e f1 7b 3d ca ca 28 be c3 9e 82 bc
       0.15234458 0.06150966 -0.16483608 -0.015944844
000130 db bc 3a be 87 b0 72 bd 4c ad ec 3d 8b 11 2c be
       -0.18236105 -0.05925038 0.11556491 -0.16803567
000140 34 77 35 be a4 c5 5c bd 0e da 0d 3e 4b 0a e0 3c
       -0.17721254 -0.053899422 0.13852713 0.027348658
000150 c8 86 33 3d 01 8b a6 bd 05 a2 3b be 59 9d 26 3e
       0.04382971 -0.08131982 -0.18323524 0.16270961
000160 5e 65 35 be b8 bd b7 3c 7f a4 b0 3d c8 2e 81 bd
       -0.1771445 0.022429332 0.08625125 -0.06307751
000170 7d 94 19 bd 9e 11 4a 3a 4b ed 11 3e c8 6b 18 be
       -0.037495125 0.00077083136 0.14250676 -0.14884865
000180 10 48 94 3d 90 95 f5 3c 2e 46 f6 3d a7 55 a5 3d
       0.07240307 0.029978544 0.120251045 0.080729775
000190 93 b3 ef 3c 98 da 34 be 4c 30 27 be de 8f 04 3e
       0.029260432 -0.17661512 -0.16327018 0.12945506
0001a0 5c 54 06 be 81 4c 5b 3e a7 35 a5 bd a2 ab 22 3d
       -0.13118118 0.21415903 -0.08066874 0.039714463
0001b0 ab ec dc 3d bd 30 67 3d 63 e2 b9 bd 97 c6 fe 3d
       0.10787328 0.056442965 -0.09076383 0.12440222
0001c0 1d 61 04 3e dc ad 0d be 56 46 55 be d2 3e 4f 3e
       0.12927671 -0.13835853 -0.20827612 0.20238808
0001d0 0c 38 23 be c5 4e 12 3a 0f d2 90 bd ee 4c 1a 3e
       -0.15939349 0.00055811956 -0.070713155 0.15068409
0001e0 2d 2c 4c 3e 8c 7a ee 3d fd 63 13 be e9 cd 41 3e
       0.19938727 0.11644468 -0.14393611 0.18926205
0001f0 6a 78 22 3e fa 17 97 3d 34 02 48 be 7d f5 c5 bd
       0.15866247 0.0737762 -0.1953209 -0.09665964
000200 de 45 9b 3d d4 13 06 bc 2c 39 72 bd 3a c6 af 3d
       0.075816855 -0.008183438 -0.059136555 0.085827306
000210 fb 97 07 be 87 fa c7 bd 7e 52 2a 3e b9 b6 bc bd
       -0.1324157 -0.09764581 0.16633031 -0.09214539
000220 af 28 f9 bd 02 1f 04 3e a0 7c f6 3d 5f 96 8c bd
       -0.12165963 0.12902454 0.12035489 -0.068646185
000230 6a 5f c4 bd 36 e8 4e 3e 31 ef 02 be c8 0e 41 3e
       -0.09588511 0.20205769 -0.12786557 0.18853295
000240 e4 89 bc 3d 82 57 0e bd 42 40 2b be 5a aa a2 bb
       0.09205988 -0.034751423 -0.16723731 -0.004964155
000250 ff 48 43 3e f8 4c cc 3d 26 87 99 3c 88 16 39 3d
       0.19070815 0.09975618 0.018741202 0.045187503
000260 64 74 e4 3c 34 e8 d0 3d 36 2f 93 3d 05 2c ce 3d
       0.02788753 0.10200539 0.07186739 0.1006699
000270 11 b3 38 3e ce 2b 4f be 26 18 1e 3e be 27 9a 3d
       0.18037058 -0.20231554 0.154389 0.075271115
000280 21 bd c8 3d fb 6d c0 bd 74 e2 67 bd a6 b6 c2 bb
       0.098016985 -0.09395977 -0.056612447 -0.0059421835
000290 90 ab b9 3c d0 b4 76 3d 79 20 7d 3d ca d6 ff 3d
       0.022664815 0.06023103 0.061798546 0.1249214
0002a0 2b de c3 bb 88 1f 29 3e 34 a6 d9 3b d5 37 15 bb
       -0.005977412 0.16515934 0.0066421274 -0.0022768874
0002b0 2a f7 e4 3c 77 b1 94 3c 8d 3f 46 be 52 20 b6 bd
       0.027949888 0.018151028 -0.1936018 -0.08892883
0002c0 19 af 04 be 4e 27 5e 3e 02 33 a5 bd 3d 87 1f be
       -0.1295742 0.21694681 -0.080663696 -0.15578933
0002d0 7d 85 34 3e 7b 5e 35 bd 49 d1 0e be 67 26 37 3e
       0.17629047 -0.044279557 -0.13947023 0.17885743
0002e0 4a b6 3e 3e 9a ee 46 3e b0 dc 4e be cf 9e 1d 3c
       0.18624225 0.19426957 -0.20201373 0.009620382
0002f0 20 46 50 3d d9 3e 8c bd 5f 74 53 3d 40 77 84 bd
       0.050848126 -0.06847925 0.051624652 -0.06468058
000300 3e 69 4e 3e 9f ef 35 3e cb cd 4e 3e 6c f1 e1 3d
       0.20157334 0.1776719 0.20195691 0.11032376
000310 fe 92 39 be 10 d9 a3 3d ca c8 23 3e c9 68 38 3e
       -0.1812248 0.08000386 0.15994564 0.18008722
000320 6c 0c b7 bb ba d3 14 be 75 47 cc 3d 33 7d 19 3e
       -0.0055861976 -0.14533892 0.09974567 0.14989166
000330 42 ba 9c bd 6c d8 dc 3d 1a f7 d3 3d b7 45 6d ba
       -0.07652713 0.10783467 0.10349865 -0.0009051221
000340 df 96 5c bd b8 64 20 3e ef ca 89 3b 3e 7e 6f bd
       -0.05385482 0.15663421 0.0042051 -0.058470003
000350 f7 62 bc bd 2f ae 74 3d ae 54 38 be 81 12 c6 bd
       -0.091985635 0.059736427 -0.18001053 -0.09671498
000360 43 ca 1c be 57 82 17 be b2 0a 64 3d bf 67 a0 3d
       -0.15311532 -0.14795814 0.055674262 0.07832288
000370 d8 a0 0a 3e 01 58 a4 3d 4d c8 f9 bd 2a 22 30 3e
       0.1353792 0.08024598 -0.121964075 0.17200533
000380 09 c8 37 bd 97 22 2f be 4b f2 af bd 48 73 5b 3e
       -0.044868503 -0.17103039 -0.085911356 0.21430695
000390 31 53 3e 3e 19 3e 2a 3e fa 6d f7 bd b4 37 a4 bd
       0.18586423 0.16625251 -0.12081523 -0.08018437
0003a0 e7 d6 e2 3d dc 69 6f bd c2 56 00 3e 8d e6 3e 3e
       0.110761456 -0.058450565 0.12533095 0.18642636
0003b0 35 b3 ae 3d 08 cd 33 3d f4 c3 2e be f2 87 30 3d
       0.08530275 0.043896705 -0.17066938 0.043098398
0003c0 bf 1f e3 3d f0 d8 2c 3e 87 df ff 3c 80 97 02 be
       0.110900395 0.1687963 0.031234516 -0.12753105
0003d0 b3 ba 01 3d a0 6f f4 bb 99 2e 77 bc e5 57 4f be
       0.03167219 -0.007459596 -0.015086793 -0.20248373
0003e0 1f 7d 48 3e 0c 4c f5 bd 7c 98 8c 3d 6a 1e cf 3d
       0.1957898 -0.119773954 0.068650216 0.10113223
0003f0 19 cb 37 3e 1c 2f 02 be 27 4e 4c 3e 6d 5f 4a 3e
       0.1794857 -0.12713283 0.19951688 0.19762965

fc2.weight f4 [256, 256]
000000 e7 d2 a6 3c 93 e4 4c 3d 23 f3 3e bd 72 3a bb bc
       0.020364238 0.050022673 -0.046618592 -0.022855017
000010 2c c7 62 3b 30 c8 86 3d 9f b8 1e 3d 33 9d ae bc
       0.003460358 0.065811515 0.038750287 -0.021315193
000020 39 28 79 3c 6b 3d f6 3c c7 b3 77 3c ab 1b 88 3d
       0.015207344 0.030058583 0.015118546 0.06645902
000030 c2 94 ea bb 48 99 88 3c 4c 26 8c 3d 82 e5 33 bd
       -0.0071588466 0.016674653 0.06843242 -0.043920048
000040 d7 27 18 bd 38 72 2e 3d cc 22 c7 3c e9 a7 07 3c
       -0.03714737 0.042589396 0.024308585 0.008279779
000050 88 0e 70 3d 59 7b a6 3c 60 d5 26 bd 8c 0e e4 3c
       0.058607608 0.020322489 -0.040730834 0.027838968
000060 f6 6e cf 3c 63 ea 83 bd 21 30 c4 bb 33 28 b4 3d
       0.025321465 -0.0644119 -0.0059871827 0.0879673
000070 22 9b da 3c 33 a6 ac 3d 13 a7 b9 3d d0 b9 4b 3d
       0.026685301 0.084301375 0.0906507 0.04973775
000080 86 aa 1b 3b 52 40 c2 3c f0 42 3b bd d2 56 69 bd
       0.0023752763 0.023712311 -0.045718133 -0.056967564
000090 c6 a4 4e 3c a9 c1 40 bc 59 57 62 3d bc ee 9c bd
       0.012612527 -0.011764922 0.055259082 -0.076627225
0000a0 8c 7f 97 bc c1 ec 30 bb 61 75 7b bd b2 9a ba 3d
       -0.018493436 -0.0026996585 -0.061391238 0.09111537
0000b0 2f 5a 1f 3d 10 0b ed 3b 8a 51 98 3d 51 d7 69 3d
       0.038904365 0.007233985 0.07437427 0.057090107
0000c0 d8 07 49 bc 58 2f 26 3d 7c 2a 00 bd 51 2a 8f 3d
       -0.0122699365 0.040572494 -0.031290516 0.06990493
0000d0 71 63 b3 3c 01 3a 5e 3d 94 8a 82 3d 62 be 1b 3b
       0.021898003 0.054254536 0.06374088 0.00237646
0000e0 5d 8f 0f bd 31 59 30 3d e1 18 c3 bb f8 6d 16 3c
       -0.03504883 0.04305381 -0.0059538935 0.009181492
0000f0 3f d1 39 bd e8 7c e5 bc 10 24 8f 3c cb 23 b1 3d
       -0.04536557 -0.028013662 0.01747325 0.08649405
000100 47 08 49 3c 08 7c 0e bd 31 94 b6 bb b0 06 66 3d
       0.01227004 -0.034786254 -0.005571865 0.05615872
000110 49 cc 09 3b 26 a6 43 3d 69 be c0 bc 6f da 74 3d
       0.0021026304 0.047765873 -0.023528295 0.059778627
000120 8c d8 37 3d 68 49 aa bc 0c 74 f1 bc f8 c6 e9 3c
       0.04488425 -0.020786956 -0.02947428 0.028537259
000130 23 86 d0 bd 05 fe 94 bd ce c5 55 bc 64 bb 62 3d
       -0.101818345 -0.07275013 -0.013047649 0.05535449
000140 87 7d d3 3d ec e3 7b bd 1d 1d 35 3d 30 25 98 3d
       0.10326677 -0.06149666 0.044217218 0.07428968
000150 b5 66 a6 bd 3c b5 25 3d df 46 cb bc 3a 56 7d bd
       -0.081250586 0.04045604 -0.024814067 -0.06184981
000160 b9 14 c2 3c 16 dd 38 bc 9f 33 0e 3d 1b 3e a4 3c
       0.023691522 -0.01128318 0.0347172 0.020049145
000170 73 dd 01 bd a0 9b 10 bd fe 22 87 3d 44 7c c1 3c
       -0.03170533 -0.035304666 0.06598471 0.023618825
000180 b0 e0 0e bd 71 56 d8 3c 97 f9 6a bc a5 b9 ab bd
       -0.034882247 0.026408406 -0.014341733 -0.08385018
000190 ed 36 07 ba c8 62 4b bd b3 37 c1 3d 8b 5e 71 3c
       -0.0005158026 -0.049654752 0.09434452 0.014732013
0001a0 24 4c 74 bd bb 0c 2d bd b6 63 71 3d 20 e0 52 3d
       -0.059642926 -0.04224847 0.058932982 0.051483274
0001b0 a0 35 15 3c 15 b2 43 bd 18 7a f6 3d 17 8d f7 3c
       0.0091070235 -0.047777254 0.12035006 0.030218644
0001c0 a6 31 a0 3b 89 6e 38 bc e7 18 28 3d 9b e0 a9 bd
       0.004888731 -0.011256822 0.041039374 -0.08294793
0001d0 77 5f 24 3c 9b 63 3a b9 ef a4 e8 bc 32 d1 0c bd
       0.010032526 -0.00017775448 -0.028398959 -0.03437919
0001e0 72 68 f7 3c 67 a2 0a 3c 6a a4 ec 3d fc 70 00 3d
       0.03020117 0.008461571 0.11554797 0.03135775
0001f0 be e3 cc 3b 24 37 7b 3d b4 9c 5e 3c 54 4e 07 3c
       0.006252735 0.061331883 0.013587166 0.008258421
000200 2c 2c 44 3d 17 00 ba 3d 2d 4f 7c bd 48 ea 3b bd
       0.047893688 0.090820484 -0.061598945 -0.045877725
000210 33 b8 e4 3b df 8c c7 3b b0 31 35 3d 86 b1 9c 3c
       0.006979966 0.006089791 0.04423684 0.019127619
000220 b6 05 b6 bd b7 6f 71 bd 3d 7d 93 bd 75 fb 5e 3d
       -0.08887808 -0.05894443 -0.07201622 0.054439027
000230 bd d1 53 bc ce 38 eb 3c 5e a8 91 bc ec 56 59 3d
       -0.0129284235 0.02871361 -0.017780479 0.05306141
000240 2e 52 9e 3d 7b 58 83 3d c8 a7 88 bd 59 27 a9 bc
       0.07730518 0.06413361 -0.06672627 -0.020648645
000250 bf 26 82 3c 2e fb 58 3d 42 19 48 bd d6 c2 fa 3b
       0.015887616 0.05297392 -0.048852213 0.007652621
000260 5e 8f 81 bd 2f 1a 93 3c 27 2d 6e 3d e8 89 e7 3c
       -0.06326173 0.017956821 0.05814853 0.028264001
000270 34 46 c0 3c b1 3d 8f 3d 03 26 37 3d 21 5e 0e 3d
       0.023470975 0.069941886 0.044713985 0.034757737
000280 0e e1 f8 3d 6b b8 41 bc a2 e6 9f bd 3c bc 79 3d
       0.12152301 -0.011823754 -0.078076616 0.06097053
000290 f9 64 56 3d d6 f6 89 3a 59 26 2f 3d 53 6a 0a 3d
       0.05234239 0.0010525833 0.04276118 0.033792805
0002a0 d6 6d 7a 3c c4 f1 73 bd 10 70 65 3d de 56 5c 3c
       0.015284976 -0.059556738 0.056015074 0.013448445
0002b0 49 ec d2 3d d6 4c c2 3d 23 a6 27 3d 59 17 0c bb
       0.10298974 0.094873115 0.040929925 -0.002137622
0002c0 b3 81 81 3d 66 01 95 bb 97 ec 64 bc e5 fa 80 bc
       0.06323566 -0.004547286 -0.013972423 -0.015744636
0002d0 21 d8 53 3d 07 7a a5 bd 8b 14 0a bb a7 d9 70 3d
       0.05171979 -0.080799155 -0.0021069373 0.05880132
0002e0 4a 7f 99 bb ca 06 6b 3c 47 55 37 bd 2a c2 6a 3d
       -0.0046843635 0.01434488 -0.04475906 0.057314076
0002f0 ea a1 eb bc ae 8d 07 3d 62 85 10 3a 9d 88 7d bc
       -0.02876373 0.0330941 0.00055130397 -0.015474466
000300 84 5f 09 3b f7 37 4f 3d 72 a6 1e 3c 23 d9 00 bc
       0.0020961473 0.05059048 0.009683238 -0.007864269
000310 ff dc 1f bd d6 ca b3 bc b7 c9 38 3d 8a 7b 02 bd
       -0.039029118 -0.021947306 0.045114245 -0.031856097
000320 d7 75 06 bc 0c 27 cd bd c1 57 ae 3c f0 d0 00 bd
       -0.008206806 -0.10017213 0.021282079 -0.03144926
000330 5d 0a 85 bd 12 2c 66 3d 41 e1 da 3b 82 e1 2e bc
       -0.06496117 0.056194372 0.0066796844 -0.010673882
000340 0e 13 1c 3d 24 74 42 bd f1 78 9f bd 93 7f 2e 3d
       0.03810411 -0.04747404 -0.077867396 0.042602133
000350 fc 13 fc bc 36 c8 5a 3d c4 fd 0b 3e 91 e7 c5 bc
       -0.030771248 0.053413592 0.13671023 -0.024158271
000360 c2 4c ab bd 7e 07 d6 3d 23 f9 18 bd e3 60 72 3b
       -0.0836425 0.10450648 -0.03734697 0.0036984019
000370 88 85 5c 3c 60 22 8a 3c 0e 62 60 3d 25 8e 3a bd
       0.013459571 0.016862094 0.054781012 -0.045545716
000380 5b 52 2e 3d 87 01 be 3b 87 d5 e5 3c a5 44 44 3d
       0.04255901 0.005798522 0.02805592 0.047917027
000390 98 9f 32 3d b7 17 86 3d a7 1e 0e bd 00 4d 95 bc
       0.04360923 0.06547492 -0.0346972 -0.018225193
0003a0 2e 06 ff 3c d6 d8 74 bc 6a a9 d1 bc e0 e0 58 bc
       0.031130876 -0.014944276 -0.025593478 -0.013237208
0003b0 f1 a0 71 3c f1 1a 8d bd b5 30 83 bd 36 fd 8d 3c
       0.014747844 -0.06889904 -0.064057745 0.017332654
0003c0 3e 9f 1a 3d c6 e7 75 bd 5e ea 04 3d 5f 4e 6a bd
       0.03774952 -0.06003549 0.032450072 -0.057203647
0003d0 07 2a aa 3b 4c 58 a3 3c 19 37 2e bd 10 5a 08 3d
       0.0051929983 0.019939564 -0.042533014 0.033289015
0003e0 85 3d 87 3d 3f 14 8a bb fc ba a6 3d 09 a9 ee ba
       0.06603531 -0.0042138393 0.08141133 -0.0018208335
0003f0 1f 83 52 3c 98 20 8a bd 34 54 26 3d d5 c1 54 bd
       0.0128486445 -0.06744498 0.040607646 -0.051942665

fc2.bias f4 [256]
000000 ea 04 9e 3a b9 e9 92 3c 91 24 0f 3d 6e 88 ce ba
       0.0012055908 0.017933713 0.03494698 -0.0015757212
000010 59 16 41 3c 81 c9 0a ba 32 e0 2e 3d fc 7f d6 bc
       0.011785113 -0.00052943086 0.042694278 -0.026184075
000020 34 a1 46 bd c8 1d 43 3d 3d 0a 15 bc 84 c9 67 bb
       -0.04849358 0.047635823 -0.009096679 -0.0035367915
000030 0e 67 48 3d b3 3c 30 3d 1c f6 d0 3b 7c 0d 0d bc
       0.048926406 0.043026637 0.006376995 -0.008609172
000040 60 73 bc ba 3b 3f 11 3d 3b 4f 01 3d 79 83 81 3d
       -0.0014377646 0.035460692 0.0315697 0.063239045
000050 05 f6 17 bd 2d 98 b6 bc 96 a0 cb bc fb 74 2e 3d
       -0.037099857 -0.02228936 -0.024856847 0.04259203
000060 0e 62 84 3c d1 4d 17 3d 1b 61 9e 3c fe ef 54 bd
       0.016160037 0.036939446 0.019333413 -0.051986687
000070 46 2f b5 3c f5 b4 7c 3c 4b cd 5e 3d 2c aa 09 bd
       0.022117268 0.015424003 0.054395 -0.033609554
000080 d8 98 11 bc be 35 6d 3d 3e 97 08 bd 00 20 73 39
       -0.008886538 0.05791258 -0.03334736 0.00023186207
000090 a4 14 72 3d e9 4a 06 3c 02 ee 00 3d a5 00 8d 3c
       0.059101716 0.008196571 0.031476982 0.017212221
0000a0 da 22 47 bd d2 c9 fe 3b 23 8f c2 3c db e3 69 3c
       -0.04861722 0.0077755237 0.023749894 0.014275516
0000b0 c4 b8 a1 bc 77 0b e3 bc 0d 58 1d bd 65 25 60 3c
       -0.019741423 -0.027715428 -0.03841405 0.013680791
0000c0 eb bf 77 3b da 84 63 3d 36 e1 a9 bc be b8 97 3b
       0.00378036 0.05554662 -0.020737272 0.0046301773
0000d0 b1 4c 58 bd 7c 3b 7f bc 6a d2 77 bd 4e 30 41 bc
       -0.052807514 -0.015578147 -0.0605034 -0.011791302
0000e0 89 17 2a bc dd 80 28 bb 9c 22 23 bd fd 18 0f 3c
       -0.010381588 -0.0025711574 -0.039827928 0.008733985
0000f0 a4 f3 2e bd 7c 45 85 bb cf 47 99 bc 64 b8 01 3d
       -0.042712823 -0.004067121 -0.018710999 0.03166999
000100 9b e1 80 3a e4 fa ac bc bc 94 0f bd 2e a7 1b 3d
       0.0009832861 -0.021115728 -0.035053954 0.03800123
000110 9e 81 fd bc 81 38 20 3c b0 70 46 3d a2 26 14 bd
       -0.030945595 0.009779097 0.04844731 -0.036169656
000120 0c 26 9b bc a8 92 ab 3c b0 51 58 3d 57 9e 86 3c
       -0.01893904 0.020943955 0.05281228 0.016432924
000130 05 ef e1 3c 15 fc bd bb d2 43 eb 3c 61 0d 13 bd
       0.027579794 -0.005797873 0.028718863 -0.03590143
000140 c9 6a 53 3d 60 ac 5b 3c d9 76 81 3c 44 02 3e bd
       0.05161551 0.013407797 0.015803741 -0.04638888
000150 eb ef 7f 3d 8c f5 98 3c aa 11 50 3d 87 99 16 3d
       0.062484663 0.018671773 0.050798096 0.03676751
000160 cf 3d d5 3c d2 9f 96 3c 7f 46 1c bd 1c 9e 2d 3c
       0.02603045 0.018386755 -0.038153168 0.010596778
000170 b0 8c f1 bb 6b c2 dd bc 04 62 14 3d 42 d2 6e bd
       -0.0073715076 -0.027070245 0.036226287 -0.058305986
000180 62 6a 29 bd 4a 41 62 3d 59 e9 30 3d fe 12 59 bd
       -0.04136122 0.055238046 0.043191288 -0.052996628
000190 79 60 87 ba be 93 0a 3d 77 95 f4 3c 97 f3 fe bb
       -0.0010328434 0.033832304 0.029856427 -0.007780503
0001a0 39 fe 14 3d cb 32 53 bd 20 b1 04 bd 1b 8a bd bc
       0.036375258 -0.05156211 -0.032395482 -0.023137143
0001b0 c4 d6 be 3c 2d 78 dd 3c cb 6c 5f bd f6 3a 55 bd
       0.023295768 0.027034843 -0.054547112 -0.052058183
0001c0 5b f0 5c 3a 6d b3 26 3b d5 59 ef 3c 2f 42 70 bd
       0.000842815 0.0025436536 0.02921764 -0.058656868
0001d0 f1 33 ab bc 7e 1f 24 bd fd f2 63 3d 12 cc 7c bd
       -0.020898791 -0.040069096 0.055651654 -0.061718054
0001e0 60 cf 84 3b 1e 91 1e 3b 6d 03 4a 3d 33 db f8 bc
       0.0040530413 0.0024195383 0.049319673 -0.03037796
0001f0 0b 02 f3 3c d3 14 30 3c a5 43 48 bc bc 66 81 bd
       0.02966406 0.010747152 -0.012223159 -0.06318423
000200 f2 4b 58 bd 5b 58 3b bd 58 f7 57 bd 12 99 02 bd
       -0.052806802 -0.04573856 -0.05272612 -0.03188426
000210 39 8e 59 bc 9a 6e fa bc fe 34 95 3b 71 6e 39 3d
       -0.013278537 -0.030570317 0.0045534363 0.04527134
000220 2b e4 5f 3d ec c3 fa 3c ec 50 53 bb df f4 31 bd
       0.054660957 0.030611001 -0.0032244278 -0.043446418
000230 35 2b 48 3d 77 ec 87 3c 73 db 22 3d 1f 42 32 bd
       0.04886933 0.016592247 0.039760064 -0.04352009
000240 08 61 8f 3c 86 25 15 bc e7 ba df 3c 92 70 41 bd
       0.017502323 -0.009103185 0.027310802 -0.047226496
000250 70 f6 1b bd 2d 46 3c 3d 5e 82 28 bd 78 93 05 3c
       -0.038076818 0.045965362 -0.041139953 0.008152835
000260 84 e0 44 bd 4c 3f 06 3d a0 fd c4 3c df cf 5c 3d
       -0.048065677 0.03277521 0.02404672 0.05390918
000270 6f 8e f5 3c 10 ed 1b 3c ed a0 1e 3d 6b 63 11 bd
       0.029975144 0.009516969 0.03872769 -0.035495203
000280 bd ab cf 3b aa 63 c3 3c 08 43 35 bd ad c1 67 bb
       0.0063376115 0.023851234 -0.04425338 -0.0035363242
000290 99 a0 56 3d c9 0a 40 3d 68 19 38 bd 5c f4 f2 3c
       0.05239925 0.046885286 -0.044946104 0.029657535
0002a0 c0 6c 9c bb d3 d7 14 3d fe 34 41 3c 53 be b8 bc
       -0.004773706 0.03633864 0.0117924195 -0.022551691
0002b0 a2 5b 50 3d 6c 12 27 bd a3 0a f4 bc 8d 5d df bc
       0.050868638 -0.040789053 -0.029790228 -0.027266288
0002c0 2d 2c d3 bc f2 e7 80 ba 05 21 bf 3c f8 d4 3f 3d
       -0.0257779 -0.000983475 0.023331175 0.046833962
0002d0 42 cd 6c bb b7 04 41 bd 03 26 5f 3d d6 f9 0a bc
       -0.0036133085 -0.047123637 0.05447961 -0.008482417
0002e0 5e b1 aa bb 4e b6 fa bb dd d6 cb 3b 14 31 06 3d
       -0.005209132 -0.007651127 0.006220682 0.03276165
0002f0 89 91 00 bd a9 34 3b bd 7f a1 70 3b dc d3 00 bd
       -0.031388793 -0.045704518 0.0036717353 -0.031452045
000300 fb 5b 57 3d 30 02 13 bd 75 46 9d 3c ca 67 b5 bc
       0.052577954 -0.035890758 0.019198636 -0.022144217
000310 0e 77 df bc 88 0d 66 3d 98 cf 62 3c 4d 9f 64 3d
       -0.02727845 0.05616525 0.0138434395 0.055815984
000320 16 f0 f1 bc d5 53 bc bc ec ea 92 3c 2b 99 eb bb
       -0.029533427 -0.022989193 0.017934285 -0.00718989
000330 12 e0 48 3d 3a 4a ba bc 4f f2 23 bd b3 f8 fe bc
       0.049041815 -0.022740472 -0.040026005 -0.031124448
000340 e6 5b 36 3d 93 74 50 bd a6 39 62 bd 79 3f 98 bc
       0.044521235 -0.050892424 -0.05523076 -0.018584954
000350 7b 6e 16 3d 28 88 4a 3c ed 0e 08 3d 4c 19 6d bd
       0.036726456 0.012361564 0.03321736 -0.057885453
000360 ef 7d 2e bd 77 8a 81 3d 82 bb 77 bd bc d7 0d bd
       -0.04260057 0.06325238 -0.060481556 -0.03462957
000370 15 a3 c6 3c 2e 4e 83 bb b0 1e 02 3c 92 f5 7f 3c
       0.024247685 -0.0040071225 0.007941887 0.015622513
000380 97 1d 91 3c c5 5f 80 bd da 8d 5b bd f7 34 42 bd
       0.017714305 -0.062682666 -0.053602077 -0.047413792
000390 c1 d1 63 bd 4c c4 b4 bc 0f 3e c5 3c 6d 28 dd bc
       -0.05561996 -0.022066258 0.024077443 -0.026996816
0003a0 09 93 1a 3d a0 5f 08 bc e0 e2 bf 3c 57 b2 5e bd
       0.03773788 -0.00832358 0.023423612 -0.054369297
0003b0 a2 f4 4f bd 2f d7 70 bc e9 8d 04 3d 24 95 e8 bc
       -0.05077041 -0.014699741 0.0323619 -0.028391428
0003c0 9f 38 fe 3c 28 68 53 3d 16 79 15 3d 23 fa 54 3c
       0.031032858 0.051613003 0.03649243 0.01299909
0003d0 a1 3c 69 3c f2 9c 21 bc d2 16 00 bd 4e 5c 30 3d
       0.014235646 -0.009864079 -0.031271763 0.04305678
0003e0 13 24 f5 bc 5b db 3d 3c cf aa 70 3d fc 25 b7 bc
       -0.029924428 0.011587943 0.058756646 -0.02235698
0003f0 97 12 08 bc 2b bc e8 3c 25 24 d4 bc 06 32 97 3c
       -0.008305213 0.028410038 -0.025896141 0.01845647

reg_head.weight f4 [1, 256]
000000 a7 58 bb 3d 14 ad 76 3d 89 ec e5 3d 5d d2 73 3d
       0.091477685 0.060223654 0.11226756 0.05952679
000010 ac b0 0c be 82 dc 09 bd 0e 40 86 3d 10 6e d9 3c
       -0.1373927 -0.03365756 0.06555186 0.02654174
000020 ef a8 bc 3d 18 22 78 bd d2 96 20 be ba 6e e1 bc
       0.09211909 -0.06057939 -0.15682533 -0.027518619
000030 67 86 e5 bc c8 b5 04 be aa 14 98 3d aa 51 f0 bd
       -0.02801819 -0.12959969 0.07425816 -0.11734326
000040 47 f3 af bd 28 57 c0 bd 07 c8 57 bd 39 03 39 3d
       -0.08591323 -0.09391624 -0.052680995 0.04516909
000050 1f af d8 bd 80 ca 89 3d cf c2 56 bd b2 73 1d bb
       -0.10580277 0.06728077 -0.052431878 -0.0024025259
000060 5f 9e 4f 3b 03 f6 6f 3d db de 7a bd 88 73 c1 3d
       0.003168009 0.058584224 -0.061247688 0.09445864
000070 59 b0 44 bd fb 00 b8 bd ba e4 4d 3c 60 7a d8 bc
       -0.04801974 -0.08984562 0.01256674 -0.02642554
000080 4d 9e 26 3d df 80 85 3c 0d b0 1c be c6 66 54 bd
       0.04067831 0.016296802 -0.15301533 -0.051855825
000090 5a 37 e2 3c 57 de 3c 3d 96 a9 ac bd d2 a8 ae bd
       0.027614284 0.046110477 -0.084307835 -0.08528294
0000a0 f4 b0 f9 3c b2 00 b2 3c d9 3b c8 3c a8 cb 5a 3d
       0.030479886 0.021728847 0.0244426 0.053416878
0000b0 b4 6e 44 3d fb a5 bc 3d fa 06 ee 3c 8d 75 da bd
       0.047957137 0.09211346 0.029056061 -0.10666952
0000c0 36 16 dd 3c de 38 8d 3d 4d 65 24 bd 13 47 5f bd
       0.02698813 0.06895612 -0.04013567 -0.05451114
0000d0 2a 2d 37 3d 34 b5 c3 bd 7b c8 53 bd 5f 12 14 3d
       0.044720806 -0.09556046 -0.051704865 0.036150333
0000e0 ff 07 68 3d 44 50 10 be 61 cc bd bd f2 15 4e 3d
       0.05664825 -0.14093119 -0.09267498 0.050313897
0000f0 16 35 d4 3d 5c c6 8c 3d e9 0a 89 3d 27 8b 88 3d
       0.10361688 0.068737715 0.06691534 0.06667166
000100 6e fb df bd f7 21 d2 bd ac 44 bf 3c 9c f5 ad bd
       -0.10936628 -0.102603845 0.023348175 -0.08494112
000110 cc 7d 61 3d 14 83 8f bd 93 24 00 3d 24 4d 05 3d
       0.05505161 -0.07007423 0.03128488 0.03254427
000120 d2 77 40 3d 7f 90 10 3d 5f 15 84 3d 2f 8e 9a 3d
       0.04698927 0.035294052 0.06449389 0.075466506
000130 7d 78 1a 3d 32 fc 5b 3d 13 4c e2 3c 78 b1 23 bd
       0.037712563 0.05370731 0.027624166 -0.03996417
000140 9e f5 17 3c 1f a7 2c 3e a4 e5 26 bd e8 28 d2 bd
       0.009274868 0.16860627 -0.040746346 -0.102617085
000150 ba 8e 19 3d 9d 43 72 3d de a5 34 3d f5 6d 0f 3d
       0.03748963 0.059146512 0.044103496 0.035016973
000160 06 35 84 3d 34 c4 65 bd 98 28 2c 3e ed db eb 3c
       0.06455426 -0.056095317 0.1681236 0.028791392
000170 ff c6 8b 3d 44 af ba 3c ff f5 82 3d 92 49 5c bc
       0.06825065 0.022788651 0.06394576 -0.013445275
000180 d4 22 d1 3c 1c 47 a3 3b 74 d1 93 bd 3c 12 78 3d
       0.025529303 0.004982842 -0.072176844 0.060564265
000190 d4 f0 ff 3b ac 12 9d 3d 51 77 7a 3d d4 94 6d 3d
       0.0078106914 0.07669577 0.061148945 0.05800326
0001a0 26 2d e5 3c d2 7f 2b be a0 40 86 bd fc c1 86 bd
       0.02797563 -0.16747978 -0.06555295 -0.06579968
0001b0 56 91 02 bd d1 4d 97 bd a4 ee be 3c bd 06 26 3d
       -0.031876884 -0.07387889 0.023307152 0.04053377
0001c0 17 73 b2 3d 8b 04 4a 3d ce 0d 26 3d 7f c4 81 bb
       0.08713358 0.04932074 0.04054051 -0.0039601917
0001d0 9b 59 c0 bd 0e f1 2d 3d 09 e3 89 3d 5d 78 77 3d
       -0.09392091 0.042466216 0.06732757 0.06041752
0001e0 6b 6a 1d be 3b ee 2b 3d 20 be 38 3d 18 02 af bd
       -0.15372626 0.04197524 0.045103192 -0.08545321
0001f0 cb 45 a7 bc 5f 7b d2 bd dc c6 a6 bc 18 96 ed bd
       -0.020419022 -0.102774374 -0.020358495 -0.11600894
000200 7d 6f 19 bc 0e 64 9a bb be 10 0e 3d 18 de 04 3d
       -0.00936496 -0.0047116345 0.034683935 0.032438368
000210 9f 1a 4c bd 56 e6 f6 bd 88 a6 1a 3d 08 92 1a bd
       -0.049830075 -0.12055652 0.037756473 -0.037736923
000220 55 0a 0a 3d 8b 50 79 3d a5 b9 1c bd c2 63 37 3d
       0.03370126 0.060867827 -0.038262982 0.04477287
000230 83 df 6d bd a5 57 d8 bd ea 6a 7d bd d8 2f 5f bd
       -0.058074486 -0.10563592 -0.06186954 -0.054488987
000240 b2 26 61 3d 37 23 06 be 91 55 34 3d c9 f1 a4 bd
       0.054968543 -0.13099371 0.044026915 -0.08053929
000250 60 d3 93 3d d3 05 16 bb 83 b9 99 3c e5 c1 61 3d
       0.07218051 -0.0022891655 0.018765217 0.055116553
000260 ca 69 d1 bd 13 2f a7 bd 99 e9 97 bd b3 c4 7e 3d
       -0.10225256 -0.081632756 -0.07417602 0.062199306
000270 84 d3 34 bd dd d0 ba 3c 0d 56 fc 3c 51 35 c3 3d
       -0.04414703 0.022804672 0.030802751 0.09531654
000280 59 3a 7e 3d 10 48 36 be 73 3b ff bc 91 b6 de bb
       0.062067363 -0.17800927 -0.031156277 -0.006796666
000290 45 ec fc bc e9 44 68 3d b8 bb 93 bd ec 57 08 3d
       -0.03087438 0.056706343 -0.07213539 0.033286974
0002a0 5a 48 54 3d 3f 77 99 bd 45 2e 3c bc 1e b7 92 3c
       0.051826812 -0.074934475 -0.011485641 0.017909583
0002b0 f7 c7 c4 bd 12 b8 a3 bd 70 ee 94 3d b8 da 08 3d
       -0.09608453 -0.07994093 0.07272041 0.03341171
0002c0 b7 9a 85 bd ad 3a f9 bc c6 89 fa bd 6b a8 5e 3d
       -0.0652365 -0.030423487 -0.122333094 0.054359835
0002d0 4c db f5 3c 23 55 92 3d 90 25 80 3d 9b 0d db bd
       0.030011795 0.07145145 0.062571645 -0.106959544
0002e0 14 1f 02 be 17 7b 05 be 39 7a f0 bc 52 03 0b bd
       -0.12707168 -0.13035236 -0.029355155 -0.033938713
0002f0 fb 27 3a 3d 7a 33 47 3d ce 20 08 3d 62 37 d3 bd
       0.045448285 0.048633076 0.03323441 -0.10313298
000300 d7 61 73 3d ed 89 ca bc 5e be 9d bd 45 1d c7 3d
       0.05941948 -0.024723971 -0.07702325 0.097223796
000310 06 f2 93 3d a1 52 aa 3d df d7 83 bd f1 7a 59 3d
       0.07223897 0.083165415 -0.064376585 0.05309576
000320 f4 b4 c9 3d cb 5b 66 3d 6e 97 88 bd eb e5 b1 3c
       0.09848967 0.056239884 -0.06669508 0.021716079
000330 67 07 0d 3d 51 f4 11 be 12 e3 3f bc b3 c7 33 bd
       0.034430888 -0.14253356 -0.011711853 -0.04389162
000340 33 f4 c2 bd dd 4f 94 bd 32 99 f4 bd cf 0a e6 bd
       -0.095192336 -0.07241795 -0.11943282 -0.1123253
000350 08 78 22 bd e2 f0 a7 bc bc af a1 bd 6a e0 09 be
       -0.039665252 -0.020500604 -0.07894847 -0.13464513
000360 52 13 98 3d c3 f7 cb 3c f3 15 97 bd e2 c2 66 bd
       0.0742556 0.024898415 -0.07377233 -0.0563382
000370 dc ea 54 bd a8 28 9a 3d 53 28 95 3d 67 80 5d 3d
       -0.05198179 0.07527286 0.07283082 0.054077532
000380 ca 8c 80 3b 70 86 bd bc 3c 75 85 bd 06 4c a6 3c
       0.0039230334 -0.023135394 -0.06516501 0.020299923
000390 d4 12 98 3d 38 6f de bc be 6e 26 3d 48 ca b5 3c
       0.07425466 -0.027152643 0.040632956 0.022191182
0003a0 22 3e d2 bd b4 01 0a 3d 96 a4 1e bd 3d 2a 82 bc
       -0.10265757 0.03369303 -0.03873118 -0.015889281
0003b0 cb 1d 0c 3e 79 cf b0 bc d6 71 3a bd 12 d2 a0 bd
       0.1368324 -0.021583306 -0.04551872 -0.07852568
0003c0 24 9d 81 bd f5 1d e3 3c fa b8 77 3d 67 03 59 3d
       -0.063288 0.027724246 0.06047914 0.05298176
0003d0 e4 79 8c 3d 60 ef 81 bd 0c 81 8e 3d 15 ba 81 bd
       0.06859186 -0.06344485 0.069582075 -0.063343205
0003e0 fc f9 d3 bd 2a 87 2b 3d 08 b5 11 bd 7c 04 54 bd
       -0.10350415 0.04187695 -0.035573035 -0.05176209
0003f0 31 ec de bc 0a f8 b4 3c 05 03 db 3c 00 ee ca 3d
       -0.027212234 0.02209093 0.026734838 0.09908676
