grasp_placement/models/run_seed_7529/stability_net.pth (torch, 25284 bytes, 5 tensors)

fc1.weight f4 [64, 21]
000000 9a 8c a0 3d 9d cd bb bc 38 77 3c be a9 b9 04 bd
       0.078393176 -0.022925192 -0.18404853 -0.03240362
000010 a8 fb 31 3e a4 14 3a be ef b7 e0 3d d1 60 a0 3d
       0.17381155 -0.18171936 0.109725825 0.07830966
000020 75 e0 d8 bd b9 8a f8 3d b3 f7 06 be 23 0f 1b 3e
       -0.10589687 0.12135834 -0.13180427 0.15142493
000030 6c d7 eb bd 1c 30 c1 3c 96 8a 92 bd 5e e4 09 3e
       -0.11515698 0.02358251 -0.071553394 0.13466021
000040 b2 c9 10 3d 1d 8f 65 3e 5d f2 95 3d 0b 6f 26 3c
       0.0353486 0.22417875 0.07321618 0.010158311
000050 b1 22 48 be 76 8f cd 3d 5c 94 0a be b3 a7 0b be
       -0.19544484 0.100371286 -0.13533157 -0.13638191
000060 3b 8d 3e be 1c 9f 6b 3d 80 ff 2f be 3d c4 45 3d
       -0.18608563 0.057524785 -0.1718731 0.04828285
000070 c6 9c c3 3d cb 3b 0a 3e 63 52 d5 bd 93 89 31 3e
       0.095513865 0.13499372 -0.10416105 0.17337637
000080 a9 48 3e be c5 ec ef 3d bf 40 89 3e 38 19 24 be
       -0.18582405 0.11715082 0.2680721 -0.16025245
000090 6e 4d 1d 3e 76 26 01 be dc a2 08 3d 37 57 ec 3d
       0.15361568 -0.12612328 0.03335844 0.115400724
0000a0 ba 44 8d be 20 92 52 be 3f 83 45 3e ae 65 0e 3e
       -0.27591497 -0.20563555 0.19288348 0.13905975
0000b0 b8 4e 46 3e b9 a3 2f 3c df 39 c7 bd a3 8b a2 3d
       0.19365966 0.010720187 -0.09727835 0.0793679
0000c0 0a 84 eb 3d 2b f4 d3 3b 8e 73 e7 bd 33 ba 22 3e
       0.11499794 0.006468316 -0.11301337 0.15891342
0000d0 e7 23 86 bd d7 22 ff 3d 18 54 1c 3d 10 2f 08 be
       -0.065498166 0.12457817 0.038166136 -0.13299203
0000e0 b1 1b 8f bd 45 38 c6 3d bb fe 0b 3e 21 5a 06 3d
       -0.069877036 0.09678701 0.1367139 0.032800797
0000f0 c8 3f be 3d d1 30 28 3e 6a a9 92 be e6 cc 40 be
       0.09289509 0.16424872 -0.28644878 -0.18828163
000100 da 74 06 be 5c a2 50 3e 59 8c 8f 3c 95 7b 0a be
       -0.13130513 0.20374435 0.017522978 -0.13523705
000110 f7 f7 07 3d 32 c6 62 3d d0 fd 99 bc c9 4c 1e 3e
       0.033195462 0.055364795 -0.018797785 0.15458979
000120 08 fe 12 bd 60 88 85 bc 61 24 d4 3d 51 a4 ba bc
       -0.035886794 -0.01630038 0.10358501 -0.02278343
000130 96 5c 0d bd b7 06 3f 3e b7 dc 2f be 56 8a af bd
       -0.034512125 0.18654905 -0.1717404 -0.08571307
000140 09 d3 65 be 46 a9 8a 3e bd e9 84 3d 88 eb 34 3e
       -0.22443785 0.2708227 0.064898945 0.17667973
000150 4b 82 e0 3b 99 9e 5a be 8c ab f3 3d 37 dc 88 3d
       0.0068514696 -0.21349563 0.11897954 0.06682628
000160 a0 5c 13 3e 96 89 b6 3a c8 45 a6 bd 1e b9 44 3c
       0.14390802 0.0013926502 -0.081187785 0.012007026
000170 61 83 ff bd 20 cd 25 bc dc 61 1a be 3b d1 5d be
       -0.124762304 -0.010119706 -0.15076393 -0.21661846
000180 fe 39 68 be 0f c0 e3 bc 74 0d 63 bd 24 1c 27 bc
       -0.22678372 -0.027801542 -0.05543275 -0.01019958
000190 ef ed 49 be b8 b0 58 be b8 78 e1 bc 08 c1 61 bb
       -0.1971967 -0.21161163 -0.027523383 -0.003444733
0001a0 80 66 7f 3e 06 b8 96 3e b0 84 50 3e 2d ad 6a 3e
       0.24941444 0.29437274 0.20363116 0.22917624
0001b0 a3 84 84 be c3 58 bb bd 5f db 33 be f6 1b 56 be
       -0.25882444 -0.09147789 -0.17564152 -0.20909104
0001c0 a2 69 8e bc 8e ff f6 3d 6e bc 0a 3d 30 05 09 3b
       -0.017384354 0.12060462 0.033871107 0.0020907633
0001d0 a7 24 0b be 1d b9 0a be 59 1f 72 3c e1 30 87 3d
       -0.135882 -0.13547178 0.014777982 0.0660112
0001e0 75 7a 78 3d 0a b5 8a 3d db 7f 65 bd 0e 05 24 3e
       0.06066366 0.06772812 -0.056030136 0.16017553
0001f0 83 08 87 be 60 3f a5 3e 83 14 fa 3d 25 f6 a7 3d
       -0.2637368 0.32274914 0.122109435 0.08201245
000200 54 f1 92 3e 77 54 d5 3d b9 53 55 3e 3a f4 56 be
       0.28699744 0.10416501 0.20832719 -0.20991603
000210 97 e5 32 3e f3 0b aa bd 4e bd 81 3d 18 89 75 bd
       0.17470394 -0.083030604 0.06334935 -0.059945196
000220 c1 d0 ab bd 91 ed 5a be 61 a6 2c 3e bf 86 81 be
       -0.08389426 -0.21379687 0.16860344 -0.25298116
000230 82 83 c4 3d ca 34 8b 3c ef 95 8d bd 70 b2 3b bc
       0.095953956 0.016992945 -0.06913363 -0.011456117
000240 29 27 c6 bd 15 80 73 3d 39 ee 74 bd 7c 82 9d bc
       -0.09675438 0.05944832 -0.0597975 -0.019227259
000250 b8 e7 27 3e be 09 86 3c 67 c4 b1 3e f6 85 3d be
       0.16396987 0.016362067 0.34720156 -0.18508133
000260 9d 62 95 bd 7d 89 05 be 68 a5 14 bd b3 81 ac bd
       -0.072941996 -0.13040729 -0.036290556 -0.08423176
000270 d4 4f 98 bd 30 e9 91 bc d7 3d 2e bd 63 cf ce 3d
       -0.07437101 -0.017811388 -0.042539444 0.100981496
000280 8d ec 29 be b4 1b c9 3d de c6 e5 bd cf 90 95 3d
       -0.16594143 0.09819737 -0.112195715 0.07303011
000290 ee e9 e2 3d 88 ab d7 3d 1a 36 e1 bc d5 0e 71 3e
       0.11079775 0.10530764 -0.027491618 0.23540814
0002a0 a9 ec a4 3d 43 ca 3a 3e 2d 41 25 be a4 7f 4a 3e
       0.08052952 0.18241219 -0.16138144 0.19775254
0002b0 f7 ce 4d 3e 03 85 53 3e 7e 28 f4 bc 78 d6 e5 3c
       0.20098482 0.20656209 -0.029804464 0.028056368
0002c0 36 f9 03 3e e5 28 82 3e e0 a0 6e 3c 4b 3d 68 3e
       0.12888035 0.25421825 0.014564723 0.22679631
0002d0 0a f6 4f 3e 9b 9e 7b be c7 e4 14 be f1 b9 32 3e
       0.203087 -0.24572222 -0.14540397 0.17453744
0002e0 ae 99 92 bd 98 bb d9 3c a8 f2 f3 bd 58 af 27 be
       -0.07158218 0.02657871 -0.119115174 -0.16375482
0002f0 31 11 ba bc 25 15 44 bd e9 b0 43 3e e4 e6 27 3e
       -0.022713276 -0.047871727 0.19110455 0.16396672
000300 d5 ec 81 be de ae 7d bd cf 15 5e 3d 61 89 a0 3d
       -0.25376 -0.061934344 0.054220017 0.07838703
000310 ce 89 97 bc c8 69 44 bd f6 49 80 3c fc ed 97 bd
       -0.018498328 -0.047952443 0.015660267 -0.07418439
000320 2b 65 22 bc cc 97 a3 3c 8a c7 d9 3c 98 ad 4a be
       -0.009911816 0.019969843 0.026584405 -0.19792783
000330 3d 0f 30 be b0 3e 0f be 32 63 1f 3e 9a 85 42 bd
       -0.17193313 -0.13988757 0.15565184 -0.047490694
000340 cd ea 17 be 91 be 9c 3e 0e 5f 6b 3e 6f 79 33 3e
       -0.14835663 0.3061414 0.22985479 0.17526792
000350 46 79 eb 3d d7 f9 22 bd 06 3b e1 3d e8 12 4c bd
       0.114977404 -0.039789047 0.10997586 -0.049822718
000360 e6 61 f5 3d dd 2e 5d 3d a7 f4 26 3d 59 4b 47 be
       0.11981563 0.05399977 0.040760662 -0.19462337
000370 8f 5d 25 be 99 3e a6 bc 8a 48 5d 3e 67 b9 1d bd
       -0.16148971 -0.02029352 0.21609703 -0.03850689
000380 e1 ca 3e 3e 43 82 b1 bd 37 76 3e 3a 1c 99 c4 ba
       0.1863208 -0.086674236 0.000726554 -0.0014999243
000390 19 8e 1d 3e b0 77 00 be 5a ad 6c 3e 95 61 b3 bd
       0.15386237 -0.12545657 0.23113003 -0.08758847
0003a0 43 cd d3 bc bd c5 f3 3d 24 2c b1 bb 26 dc ff bd
       -0.025854712 0.1190295 -0.0054068733 -0.12493162
0003b0 02 d1 10 3e 3b d6 0a 3e 54 2e 43 3d 13 d4 5b bc
       0.1414223 0.13558285 0.047651604 -0.013417262
0003c0 83 ae 08 3e 1d ee cd bd c3 0f f0 3b cd 86 ca bc
       0.13347821 -0.10055182 0.0073260977 -0.024722481
0003d0 43 5d 4d 3d a6 ce 95 3d 91 42 1b 3e ea 0a 1e be
       0.05013777 0.07314806 0.15162112 -0.15433851
0003e0 07 21 65 3e a9 a7 95 bd ac c9 0f 3e 70 ae 48 3c
       0.2237588 -0.07307369 0.14041775 0.01224862
0003f0 ef 21 ab bd db 86 24 3e 3a e4 8c 3c 27 f0 8e 3d
       -0.08356082 0.16067068 0.01719867 0.06979399

fc1.bias f4 [64]
000000 02 3c 0a be 43 cd b0 3d 5c e4 2e 3e 56 61 c9 bd
       -0.13499454 0.086329006 0.170793 -0.098330185
000010 76 c0 16 3d d1 53 77 bc 40 61 84 bd 09 79 1f bd
       0.03680464 -0.015095667 -0.064638615 -0.038933787
000020 f4 1a 5a bd 81 e3 94 3c d8 79 f2 bd 30 70 86 bd
       -0.05324836 0.018174889 -0.11839646 -0.06564367
000030 05 fb 9d 3c 3b 9c c3 3d c0 30 10 3e 1a e8 ec 3d
       0.019284735 0.09551283 0.14081097 0.11567707
000040 2d 62 ed 3d c2 ff 22 3d 0b 33 a6 3d 99 8a 38 3e
       0.11590991 0.03979469 0.081152044 0.18021621
000050 ab 21 63 bd 65 ea e3 bd 95 f4 5c 3d 21 c1 4f be
       -0.05545203 -0.111286916 0.05394419 -0.20288517
000060 35 74 ef 3d 8c 48 c1 bc 1a c4 4d 3e 8b 4f 9d bd
       0.116920866 -0.023594163 0.20094338 -0.07681187
000070 7c 7f a7 3c 8d 5c 9e bd 93 b3 e1 bd 53 54 59 3c
       0.020446531 -0.077324964 -0.11020579 0.013264733
000080 43 58 a3 3a c0 8e a1 3d 76 f6 80 bd e3 b1 b4 bc
       0.0012462217 0.078885555 -0.06297009 -0.02205748
000090 b0 8b 82 bd c7 e1 a4 bd 6c 74 6d 3d 2c 2d 4f bd
       -0.063742995 -0.08050876 0.057972357 -0.05058019
0000a0 91 d0 0f 3e 9e 89 68 bd 92 fd dd bd bd cd f1 3d
       0.14044406 -0.056771867 -0.1083938 0.118068196
0000b0 b7 a3 56 3e 02 92 d1 bc 7c 42 12 3e 3e ea bd 3d
       0.2096089 -0.025582317 0.14283174 0.09273194
0000c0 04 de 48 3e 0e 7d 64 bd 20 c7 55 3d ea 9c 10 be
       0.19615942 -0.055783324 0.052191854 -0.14122358
0000d0 45 44 b5 bd 80 91 59 3e 5e 2f b5 3d 6d 43 7c 3c
       -0.08850912 0.2124691 0.08846925 0.015396935
0000e0 ea ef 2f 3e 6c 66 47 bd ca 56 47 be bb 4d bd 3d
       0.17181364 -0.04868166 -0.19466701 0.092433415
0000f0 b4 ab 27 3e 37 a7 b4 bb 45 39 23 be d6 08 13 3e
       0.16374093 -0.0055130976 -0.15939815 0.1435884

fc2.weight f4 [64, 64]
000000 e3 69 1a be 5d 71 f3 bd 21 e6 31 bd a4 2d f7 3c
       -0.15079455 -0.11886857 -0.04343236 0.03017313
000010 5e 3d 8a bd 78 6c 05 3c 43 bd 35 3e 5b 22 98 bd
       -0.06749986 0.008143537 0.17747979 -0.07428428
000020 93 c9 90 3d 27 3c 26 be 9d 5a 5c 3d e1 1e c8 3d
       0.07069697 -0.16233884 0.053797353 0.09771515
000030 a6 70 85 bd da 82 08 be 49 79 84 3d b4 7a c2 bc
       -0.065156266 -0.13331166 0.06468446 -0.02374015
000040 25 b0 67 3c 05 2c 5c be 67 e0 42 3d 2f bf 83 3d
       0.014141117 -0.21501167 0.047577288 0.0643295
000050 01 bd f5 3c 8b 53 da bd f7 88 2c 3d 9c 00 17 be
       0.02999735 -0.10660466 0.042122807 -0.14746326
000060 13 de 0a 3e 3f 5c 68 3d 2b db 03 3d 40 71 4d bd
       0.13561277 0.056728598 0.032191437 -0.05015683
000070 e4 a2 c9 3d fe 29 27 be 03 31 47 bc fd 4e bb 3d
       0.09845522 -0.16324612 -0.012157681 0.09145925
000080 02 17 b6 3c 60 10 30 3c be 6c 14 be 7d 8a d4 bc
       0.022227768 0.010746092 -0.14494607 -0.025944943
000090 2f c7 0f bd 41 7c e2 3d 33 db 2e be 45 24 0f bd
       -0.035102066 0.11058856 -0.17075805 -0.0349467
0000a0 7d 9a 39 3e 83 25 09 3e fb 05 40 be 5b 0a 60 3d
       0.18125339 0.13393216 -0.18752281 0.054697376
0000b0 8c ce a1 bd 78 98 21 3d bd 68 b4 3d ce e9 5d 3c
       -0.07900724 0.039452046 0.0880904 0.013544513
0000c0 c8 40 90 bd 01 cd a4 bd f3 1a 83 bd 00 fa 7e 3c
       -0.07043606 -0.08046914 -0.064016245 0.015562534
0000d0 03 23 50 3b 3a 06 89 bd ed 1f de 3d ce 7c 06 3e
       0.003175915 -0.06690641 0.10845933 0.13133547
0000e0 04 62 48 3d 68 2c eb bd df 88 39 3d d5 7c 33 3e
       0.0489216 -0.11483079 0.045296546 0.17528088
0000f0 ef ee df bd 3b 2c 35 be c0 c2 ff 3b d9 66 c5 bd
       -0.10934245 -0.17692654 0.0078051984 -0.09638757
000100 1f 93 2e bb 2d 19 9d bd 59 0e f5 3d cf 30 2b 3e
       -0.0026637984 -0.076708175 0.11965627 0.16717838
000110 49 87 f4 bd c3 6c 9c 3d 6a 8a f4 bd b2 e9 0e 3e
       -0.11939866 0.07637932 -0.11940463 0.13956335
000120 5c 66 9c 3c 16 8f 41 3e 57 15 e1 3d 9f bc 0c 3e
       0.019091778 0.18902239 0.109903984 0.13743828
000130 68 aa 70 3e 33 7b 82 3d 73 40 7e 3d cc 48 fb 3c
       0.23502505 0.06371155 0.062073182 0.03067436
000140 a9 c8 5e 3c 4d e1 26 3e 0f 48 07 bb 0b ff d3 3d
       0.013597646 0.16296883 -0.0020642316 0.1035138
000150 82 15 b1 bd f9 65 20 3e fa c0 06 bd 9f fc 12 3e
       -0.086466804 0.156639 -0.03289888 0.1435418
000160 84 8d 03 3e a1 e2 20 3e a0 f2 bf bc 5c 48 b3 3d
       0.12846953 0.15711452 -0.023431122 0.08754036
000170 d4 d2 b1 bc 8e 32 1d 3e 63 e8 ad 3c 07 5b c9 bd
       -0.021706976 0.15351316 0.021228975 -0.09831815
000180 90 9c 62 3d af 72 56 bd 59 4e 05 3e e8 14 cf bc
       0.05532509 -0.052355465 0.13018169 -0.025278524
000190 1f 9e 8c 3c 90 d3 98 3b 7e ad 5a 3d d2 81 05 3e
       0.017165242 0.004663892 0.05338811 0.13037804
0001a0 e8 bb e4 bd 58 03 5f 3d 3e 10 d7 3c d9 92 8b 3d
       -0.11168653 0.05444655 0.026252862 0.06815118
0001b0 9a 8b a4 3d 92 1d bb 3d c9 73 25 3d 27 74 ec 3d
       0.080344394 0.091364995 0.040393624 0.11545592
0001c0 31 6e 84 bd cd b3 85 bc 75 9f 80 3c 4a c7 d9 bd
       -0.0646633 -0.016321087 0.015701035 -0.106337145
0001d0 9a 05 76 bb 1b 42 2a 3e c3 95 c0 3d 19 9f af 3d
       -0.003753996 0.1662678 0.09403565 0.08575267
0001e0 2a 55 c2 3d 70 d0 4e 3c 37 91 bb 3d 27 da d2 bb
       0.094889 0.012622938 0.09158557 -0.006434697
0001f0 db 60 16 bd b8 65 03 3d 24 56 a3 3d b4 20 c8 bd
       -0.036713462 0.03207943 0.079754144 -0.097718626
000200 ba 98 5b 3e 18 c2 9f 3d 6b b7 0f 3e d1 2b 0f 3e
       0.2144498 0.07800692 0.14034812 0.13981558
000210 54 80 bd 3c 20 f0 53 bd 7d 54 97 bd e9 1f 60 bd
       0.02313248 -0.051742673 -0.07389162 -0.054717932
000220 36 52 ff bd 70 fc 5e bd 52 b3 58 3c 7e d8 d3 3d
       -0.12466852 -0.054439962 0.013226347 0.10344027
000230 59 80 51 3d 7b 91 ca bd c0 b7 c0 bc fc b4 e0 3d
       0.051147792 -0.098910294 -0.023525119 0.1097202
000240 95 73 b5 bd 58 77 72 3d 35 c1 f5 bc c1 7e 28 bc
       -0.08859936 0.059195846 -0.029999355 -0.010284127
000250 f2 c7 ec 3d 69 e5 11 3e e1 01 99 bc ad 65 0b bd
       0.11561574 0.1424767 -0.018677654 -0.034032512
000260 a8 d9 82 3d 3d c7 d1 3c be 30 d6 3d ee b7 bc 3c
       0.06389171 0.0256077 0.104585156 0.023036923
000270 99 d7 2f 3d 97 d4 fe 3d d7 f3 80 bc f4 2c fb bc
       0.04293022 0.12442892 -0.015741272 -0.030661084
000280 b4 45 b4 bd 3a 16 c4 3d 43 98 ac 3b 51 57 77 3d
       -0.08802357 0.09574552 0.0052671744 0.060386006
000290 c4 a0 e9 3d 2a 24 b6 bd d2 86 cf 3d f4 47 e4 bc
       0.11407617 -0.088936165 0.10133137 -0.027866341
0002a0 7a f9 a2 bc b1 13 c2 bd 74 ea 3a bd 1d 3d 37 3c
       -0.01989435 -0.09476412 -0.04563375 0.011184004
0002b0 72 c2 35 3d 25 27 83 bc aa 98 03 3e 9c 65 91 3c
       0.04437489 -0.016009877 0.12851205 0.017748646
0002c0 0f f3 11 3d a5 45 23 3e ba 86 38 bd 88 ee 80 bd
       0.03563219 0.15944536 -0.04505036 -0.06295496
0002d0 48 20 3a 3e 53 59 8e 3d 21 78 c0 3d 69 66 96 bb
       0.18176377 0.06950631 0.09397913 -0.004589845
0002e0 9b 99 ee 3b 96 ac bb 3d d0 6e bb 3d 27 01 a7 bd
       0.007281495 0.091637775 0.09151995 -0.08154517
0002f0 f6 f7 10 3e 82 5c c3 bd 9c 30 ca bd 89 1c 7d bd
       0.1415709 -0.09539129 -0.09872553 -0.06179479
000300 c0 0a 14 be db ac c3 3d 0f 1b d5 3d 8a f9 12 3d
       -0.14457226 0.09554454 0.10405552 0.03588251
000310 67 7a 60 be 14 c9 66 bd 0e 20 57 3d 04 1c f7 3c
       -0.21921693 -0.056344107 0.052520804 0.030164726
000320 99 f8 9b 3d 39 65 01 be 5e 38 e9 bc 91 11 18 bd
       0.076157756 -0.1263627 -0.02846926 -0.037126128
000330 40 b3 15 be a1 e7 cf 3d 61 f3 22 3d 56 50 8f 3d
       -0.1461916 0.101516016 0.039782885 0.06997745
000340 1a 4e 54 bd 1d 41 5d be 6c 7f 99 3d f3 9d 8a bd
       -0.051832296 -0.2160687 0.07495007 -0.06768408
000350 51 3a f9 bb 0c c7 07 3e 91 b6 1b 3e f0 db e5 3c
       -0.007605829 0.13259524 0.15206362 0.028058976
000360 54 47 85 bd 90 71 f4 bc 47 aa ea bc 18 6b de bd
       -0.065077454 -0.029839307 -0.028645648 -0.1086027
000370 59 33 53 be ab 95 34 be 51 4d 1f be 54 9d e5 3d
       -0.20625056 -0.17635219 -0.15556838 0.112116486
000380 88 f1 9e bd 7e 14 dc 3d 65 28 cd 3d ce aa df bd
       -0.07760912 0.10746096 0.1001747 -0.1092125
000390 f8 2b a1 bd 00 a2 f4 bd 63 e7 2c bd be d0 05 bc
       -0.078697145 -0.119449615 -0.042212855 -0.008167444
0003a0 58 3b 99 3d 99 fb fe 3d db b2 dd 3d cb 0a a3 bd
       0.07482022 0.12450332 0.108251296 -0.07961043
0003b0 55 20 b8 bd 38 8d 94 bd cd 68 90 3d a2 39 0b 3e
       -0.08990542 -0.07253498 0.07051239 0.13596204
0003c0 bb 19 34 be c1 58 8d bd 81 9a e7 3d f4 5b 9a bc
       -0.1758794 -0.06901694 0.11308766 -0.018842675
0003d0 1e 7d 0f be 7b 92 f0 bd e1 e0 ab 3d 03 b0 ed bd
       -0.14012572 -0.11746689 0.083925016 -0.11605837
0003e0 1b f5 60 be b4 c1 90 bd 5b 9b 07 be 16 d6 25 bd
       -0.219685 -0.07068196 -0.13242857 -0.04048737
0003f0 56 7c 61 bd de 0c 36 be a8 5a c4 bc 79 9a 2c 3d
       -0.055050217 -0.17778346 -0.02396901 0.042139504

fc2.bias f4 [64]
000000 af 2d 2f 3b 68 15 82 bb 6b 1e 21 3d 80 57 9c bc
       0.002673011 -0.003969837 0.03933565 -0.019084692
000010 7f a2 32 3d ac 5c a4 3d 99 74 ed bd 10 89 3b 3d
       0.043612 0.08025488 -0.11594505 0.04578501
000020 b2 42 16 bd 87 4c a8 bd fb 25 00 3e a3 a0 91 bc
       -0.0366847 -0.082177214 0.12514488 -0.017776793
000030 05 ec bf bc c3 07 2f 3c 79 a5 bf 3d 0c 3e 95 3c
       -0.023427973 0.010683003 0.09357733 0.018218063
000040 3e f2 02 3e c7 ca 91 bb e0 17 f8 bb 54 e3 a3 bd
       0.1278772 -0.004449222 -0.0075712055 -0.08002344
000050 7c 13 be 3d 32 45 39 bd a0 69 b2 3a 79 53 53 3d
       0.0928106 -0.045232005 0.0013611801 0.051593278
000060 4b 1f fc bc 61 d0 56 3d d8 4a a4 bd 60 ee 76 3d
       -0.03077664 0.05244482 -0.08022088 0.060285926
000070 79 dc 6e 3c 08 ed 34 bd 04 04 ea bb e6 c8 b2 3d
       0.014578932 -0.044171363 -0.007141592 0.087297246
000080 60 bd 98 bb a0 20 ce 3d 59 07 71 3d c8 ba ac 3d
       -0.004661247 0.100648165 0.058844898 0.08434063
000090 20 a9 95 3d 87 9e be bd 58 8f 92 3c 31 4c b3 3d
       0.07307649 -0.093075804 0.017890617 0.08754767
0000a0 3c 55 63 bd 70 80 fb 3c 2b 21 81 bd 90 db a4 3d
       -0.055501208 0.030700892 -0.063051544 0.08049691
0000b0 fe 9f d3 bd 81 eb c6 bb 77 72 c0 bd 6e ee 80 3d
       -0.103332505 -0.0060705547 -0.093968324 0.06295477
0000c0 d0 4e 9b 3c 91 44 9d 3d ca 11 1d 3c 49 e1 e3 3d
       0.01895848 0.07679094 0.009586761 0.11126954
0000d0 66 f7 95 3d a2 e5 d6 bd ff 15 c9 bd 01 6f c5 bd
       0.07322578 -0.10493018 -0.098186485 -0.09640313
0000e0 e0 bb ef bd 03 ba 10 3d 3e 8a 80 3d 01 d1 89 bd
       -0.11705756 0.035333645 0.062763676 -0.067293175
0000f0 a2 d0 0f 3e ca 98 80 bc 91 47 13 3c 26 49 b3 bb
       0.14044431 -0.015697856 0.008989231 -0.0054713665

reg_head.weight f4 [1, 64]
000000 ae 74 22 be 7d 17 1e 3e d5 b0 ef 3d 32 63 58 be
       -0.15864822 0.15438648 0.1170365 -0.2113159
000010 05 4a 14 be dc 6a 12 3e 68 8c ba bd bb 56 1c 3e
       -0.14481361 0.14298576 -0.091088116 0.1526746
000020 39 3b 46 be f3 bd 56 bc 6a 09 e0 3d a3 d9 21 3e
       -0.19358529 -0.013106811 0.109392956 0.15805678
000030 9d cd 42 3e 04 b1 36 3d eb d4 05 3d 49 cc a1 bd
       0.19023748 0.04460241 0.032673758 -0.079002924
000040 99 25 2a 3d 34 31 92 be d0 94 75 3c 09 cc 8c be
       0.041539762 -0.28553164 0.014989093 -0.27499416
000050 55 ce 0b 3e 57 21 a2 3d c6 39 0d 3e 2e 06 56 3e
       0.13652928 0.07916515 0.1379157 0.20900795
000060 43 bd 79 3d 8a 82 66 3d b4 96 13 be d1 b6 48 be
       0.06097151 0.056276836 -0.14412957 -0.19600989
000070 1f f5 31 be 7c 54 67 bd 07 fe f0 3d 5f 75 e8 3c
       -0.17378663 -0.056477055 0.11767202 0.02837628
000080 a0 09 30 3d 49 80 0a be ad be c8 bd 8c 3f 7d 3d
       0.04297793 -0.135255 -0.098019935 0.06182818
000090 81 e1 fb 3d 29 a2 e2 bd 8c e8 d3 3d 12 91 e5 bd
       0.12298871 -0.11066086 0.10347089 -0.112093106
0000a0 33 bd 85 3e ba f2 e0 bd 07 a6 d1 3d cc f3 38 be
       0.2612091 -0.109837964 0.10236745 -0.18061751
0000b0 eb ac 4c be dc 16 4d 3d 6f 72 0b be d7 a6 22 be
       -0.19987838 0.05007063 -0.13617872 -0.15883957
0000c0 4a 3e 81 be a0 2f 2b be b4 d3 bd 3d 07 e8 4e be
       -0.25242835 -0.16717386 0.09268895 -0.20205699
0000d0 6e 25 95 3d 3d 61 a8 be 17 d0 00 be 46 4b 9b 3e
       0.0728253 -0.32886687 -0.1257938 0.30330867
0000e0 66 c3 7a 3e 9d 92 ab 3d f8 27 38 be 3f 3b 4a be
       0.24488601 0.08377574 -0.17983997 -0.19749163
0000f0 cc 83 2a 3e c6 52 0a be 66 dd 7c 3d d4 56 80 3d
       0.16651839 -0.13508138 0.06173458 0.06266561
