grasp_placement/models/run_seed_2194/stability_net.pth (torch, 816972 bytes, 9 tensors)

fc1.weight f4 [256, 21]
00000000: 065b cd3d d44f 133e b165 47be 7343 093d
00000010: c039 ba3d 7e0b 8f3d f98f c33d d256 4dbd
00000020: 5b2a 96bd 2abb 54be e151 e6bd 2456 ea3d
00000030: 1e4b 1cbd e714 223e 4ecb d6bd 40e1 07bd
00000040: 8acf ebbd 71c0 1ebc 930a b5bd d237 923d
00000050: ebb8 b23d 210e f2bd 9825 bc3d cdbc b6bd
00000060: 202a 0c3e dd65 e7bc 74cc 5ebe 1685 223e
00000070: f171 1d3e 2076 133e 2a1d a4bd 2dfd fe3c
00000080: 406d 4c3e 6499 a93c acae 513e 9a01 95bd
00000090: b6e0 d5bc 4fc2 4abd afaa 733d 2060 0a3e
000000a0: a1c3 553e 0724 05be b5c4 40be 39c2 d33d
000000b0: 119f c4bd 2c86 6d3d 1cd3 1cbe a4de 3e3e
000000c0: f738 19bd b2dd 25be c42a fa3d 8f67 403e
000000d0: c571 52be d306 153e f149 24be fac3 523e
000000e0: 241f be3d 50fc f0bd e6cb 1cbd 656e 02bc
000000f0: 427b 163d d92f 7cbd 54fe b93c 8b64 213d
00000100: 0431 4dbe e89f f8bd 4a70 0fbd 60ca 083c
00000110: 1373 1cbd f1d8 1e3d 447f 7c3d 5919 373e
00000120: 1c16 13be db78 983c c164 4c3d dc2d 323e
00000130: 8652 55be 41cc 25be 0b6f 2c3e 8f62 393c
00000140: 8467 05be 10f5 cd3d 4979 393e 002d 733e
00000150: cdc4 51bd ab12 693e c111 b1bd ad33 44be
00000160: 2ef5 b33d 8278 49be 5469 3dbe 1d76 3bbc
00000170: 4e3e 37be d867 b03d b3bd ecbd 84e0 42be
00000180: 0077 8ebd f0dc 9e3d 5e4e 823d 596f d13d
00000190: d45e f4bc 41f0 e83d f4bd 91bd a705 2f3d
000001a0: 4caf 34be c6c5 28be cfa9 6dbd 76fa 1f3d
000001b0: c2c5 37be 4d6a 3bbd bbe9 0f3e 8316 f6bd
000001c0: 751b 48bc 229d d3bd f5fa 85bc db29 303c
000001d0: 902a adbd f579 0f3e 5183 563e 0b89 433e
000001e0: 55e9 51be 23e7 a6bc cf2a 91bd 2fc3 87bd
000001f0: 4605 bcbd 9722 613e 34f0 54be fc31 5dbd
00000200: 7780 f6bd dcaf e13d 6e89 0dbe 44d1 313d
00000210: 0de4 ea3d 887c bf3d 9b57 36be fee2 263e
00000220: 7c3c 5bbc 72fe 853e 1ab4 273e c793 893e
00000230: 6c2e 083e 102d e03c deb5 3d3e 64e9 55be
00000240: 12bd e53d 4178 cebd c7e2 6e3e ddb9 e5bc
00000250: f749 963d 024b 5c3d 4e5f 6d3e b6f0 433d
00000260: e860 30be 4f13 f6bc b3c4 613d 3e91 213e
00000270: 0f91 38be 5d02 f7bd f6c6 483e d431 543e
00000280: 17e1 e73d eecb 5ebd f085 c3bd e6cb 3d3e
00000290: 03c6 5b3e fc5b 06be cfc6 3dbd 333c 1e3e
000002a0: a8c2 5abe ec53 88bc dd19 f33b 5571 1cbe
000002b0: 1966 54bc c584 90bd fb1d 1ebe 80d3 bc3d
000002c0: f7af a6bd 0a43 0abe 35c1 a43b 1161 203d
000002d0: 2c62 033e fecf db3d e400 36be d205 e0bd
000002e0: 20df cc3d c6e6 43be 3f32 9abd b486 413e
000002f0: 5bf2 47bc ba7a 2fbe 85b6 cfbd 3856 2abd
00000300: c813 313e 9eee c7bc ef2b 1ebe 573c 483e
00000310: 9086 7e3a 37eb ca3c f74f 653e a30c 7fbd
00000320: 2607 193e f833 ba3d 8be4 6a3d 99ea 033e
00000330: a87a e6bb 972c 053e aff1 423e 15c6 f43d
00000340: 2977 3c3e 556d 533e 6a93 d83d 0ea1 443e
00000350: cd2e 3c3e c9a0 96bc ad8f a63d b41f 193e
00000360: c06e 4bbd 3f87 433c 7548 35be 82ad 36be
00000370: dfa4 433e 4bec b83d 662a acbd 5bb6 fd3d
00000380: bf61 97bb 8cd0 c8bc 32da 25be 8d02 5fbd
00000390: 2e4b c83d 6aee fa3d 3d29 6ebe 3c24 e63d
000003a0: 558b 633e 74c9 3dbd 1878 9cbb 5f4f e2bd
000003b0: e4f4 e93d f036 fe3c 2c2c 9b3d b2df f4bd
000003c0: cc05 063e 29e6 133b fee6 ddbd 0bf2 c9bb
000003d0: 965f 18bd e5d2 6fbe cc84 36be ad83 e63d
000003e0: 58a1 d7bd f1e8 2fbe 345a 17be ee5c a33d
000003f0: 3a8c 13be 7fa6 1abc 3d13 293e 5e28 043e
0.10027127 0.14385921 -0.19472386 0.03351159 0.09093046 0.06984614 0.09548945 -0.050131626
-0.073322974 -0.20774522 -0.11246086 0.11442211 -0.038157575 0.15828286 -0.10487996 -0.0331738
-0.11514194 -0.009689436 -0.088399075 0.07139553 0.087266766 -0.11819101 0.09186858 -0.0892273
0.13687944 -0.028246814 -0.2175768 0.15871081 0.15375496 0.1440053 -0.08013375 0.031126583
0.1996355 0.020703025 0.20476788 -0.07275696 -0.026108127 -0.049501713 0.05948895 0.13513231
0.20875408 -0.13002025 -0.18825038 0.103397794 -0.09600652 0.057989284 -0.15314907 0.18639618
-0.03740784 -0.16197851 0.12215188 0.18789504 -0.20551212 0.14553384 -0.16043831 0.20582572
0.09283283 -0.11766875 -0.03828039 -0.00796089 0.03673864 -0.06156907 0.02270428 0.039402526
-0.20038229 -0.12139875 -0.035019197 0.008349031 -0.03819568 0.03878111 0.061644807 0.17880763
-0.14363903 0.018612316 0.049900774 0.17400306 -0.20832261 -0.16191198 0.16839235 0.011315002
-0.1302777 0.100565076 0.18112673 0.23747635 -0.051213074 0.22761028 -0.086459644 -0.19160338
0.08786999 -0.19674876 -0.1849721 -0.011441735 -0.17894861 0.086135566 -0.1155962 -0.19030958
-0.06956291 0.07756984 0.063626036 0.10226316 -0.029830374 0.1137395 -0.07116309 0.04273
-0.17644995 -0.16481695 -0.05802327 0.039057218 -0.17946532 -0.045755673 0.14054005 -0.120160125
-0.0122135775 -0.10332705 -0.016355017 0.010752167 -0.08455384 0.14011367 0.2094853 0.19095246
-0.20499165 -0.020373886 -0.07088243 -0.06629025 -0.09180693 0.21985851 -0.20794755 -0.054002747
-0.120362215 0.11019871 -0.13821957 0.043412462 0.114692785 0.09349924 -0.17806856 0.16297528
-0.01338112 0.2617069 0.16377297 0.26870558 0.13298959 0.027365237 0.18526408 -0.20889813
0.11217703 -0.1008153 0.23328696 -0.028042728 0.073383264 0.05378247 0.23180887 0.04783698
-0.17224467 -0.030038504 0.055119228 0.15778062 -0.18024085 -0.12060998 0.19607148 0.20722133
0.11322229 -0.0543937 -0.09547031 0.18534812 0.21462254 -0.13121027 -0.046332177 0.15452652
-0.21363318 -0.01664158 0.0074188546 -0.15277608 -0.012963795 -0.07056574 -0.15441124 0.09220028
-0.081390314 -0.13502136 0.005027915 0.03915507 0.12830418 0.10733031 -0.17773777 -0.1093861
0.10003495 -0.19131002 -0.07529115 0.18899041 -0.012203778 -0.1713666 -0.10142235 -0.04158613
0.17292702 -0.024405774 -0.15446447 0.19554268 0.00097093824 0.024770362 0.22393785 -0.06226791
0.14944133 0.090919435 0.05734686 0.1288246 -0.0070336647 0.13005291 0.19037507 0.11951844
0.18404831 0.20647176 0.10574992 0.19202062 0.18377228 -0.018387215 0.08132873 0.149535
-0.049666166 0.011934101 -0.17703421 -0.17839625 0.19105862 0.09029444 -0.08406524 0.12388297
-0.0046198065 -0.024513505 -0.16196516 -0.054445792 0.097799644 0.12252505 -0.23257919 0.1123738
0.2222112 -0.0463347 -0.0047750585 -0.11050295 0.11423662 0.031032056 0.075767845 -0.11956729
0.13088149 0.0022567606 -0.10835074 -0.006162887 -0.037200533 -0.23420294 -0.17824095 0.11255584
-0.10528821 -0.17178704 -0.14780504 0.07976709 -0.14408961 -0.00943911 0.16511245 0.12906024

fc1.bias f4 [256]
00000000: aa45 f4bc c97e 05bd fe67 31be f12d bdbc
00000010: 2867 43bd b222 7e3d 3b3f 343d 12ab 053e
00000020: bde5 d33d d98c 84bd f23a 29be fc08 b53d
00000030: 39a5 473e 0493 4ebe 8869 d23d 66a1 d13d
00000040: 5787 40be 054e 84bd 48d7 5fbe 5aab 593d
00000050: 6f7f 6fbc 20c8 453e 75b1 e0bd 044d 84bc
00000060: c420 3ebe 46e8 06be 14c1 273e 5dfc 0b3e
00000070: b8ad b6bd 3ce4 23be 2854 c8bd 47ed c239
00000080: de6a 00be 0901 cb3d 340d fabd 819b aabd
00000090: 446f 27bc dd36 2d3d a899 e5bd 111d b93c
000000a0: 7b45 993d d751 edbd c4cd b33d ab12 d93d
000000b0: 1071 d8bd 1fa8 bcbd 7f95 1a3e d5e7 443d
000000c0: 82e1 42bd 9663 d63d 68a3 54bd cd0d d43d
000000d0: 7479 263c d1e7 4b3e 791d f43d 2709 70be
000000e0: c546 51be 80a4 ed3d a149 1dbe 68b4 dfbd
000000f0: 5677 863d 2c8e 29be 5847 cd3d 6863 90bd
00000100: c157 35be e01b e13d a757 41bd cd59 cabd
00000110: a0cd 01be 6e0a 0c3e 1b73 fabd 3f87 28be
00000120: 2df8 ff3c 7a07 87bd 9f5c 073e 540c 383d
00000130: ade2 cebd 85c8 eb3d b1ea 4dbe 70ce 1f3e
00000140: 3325 04bd 666b 123d 2618 be3c 24a4 fcbd
00000150: c588 293c a5c0 36bd efca dc3d 1e9b 483e
00000160: 4bbd 8a3d 7c81 4f3d 358c 373e cde5 813c
00000170: d7e8 1c3e e45a e0bd de41 6f3d add2 0ebd
00000180: 42d6 473d ce81 a2bd 06a1 333e e0d3 42be
00000190: d335 1e3e 8c6a 483e 31db 29be bf46 163e
000001a0: eb37 603e 43b9 4c3c 9442 ccbd 89bd 333e
000001b0: d970 02be 0016 b7bd 1909 06be fd22 3abe
000001c0: f994 a23d 0c09 003e f27e 20be becc 9f3d
000001d0: e8ce 1dbb c87a 5abe 9079 53be d680 18be
000001e0: 9f3f ed3d 5db7 f33d 9fa3 3d3e b449 0d3e
000001f0: 5b60 023e d50d 15be 7b2c fa3d 16d9 1f3e
00000200: 25dc 54be fc8a 53be b5fc 8fbd 4ff8 b8bd
00000210: 33e8 dd3d cc10 20be cd27 ec3c 9374 1a3e
00000220: 3017 1ebe 8f2a 92bd b3f7 41be 472e 42be
00000230: e77a 833d 1fbf a9bd b842 203e 2bf9 cebd
00000240: bf3e 9bbd 8012 303e 8fa6 383e 0cc7 2a3e
00000250: 0dca b73d 6d6b 33be 5d75 a33d 4506 9a3d
00000260: 1e46 73bb ae95 323e 60d4 9b3b 475a f63d
00000270: ba63 233c 22d6 64bc 3795 653e 1f4d 7f3d
00000280: d433 4e3e 84e4 2c3e 9ebf b63d fdf4 2fbe
00000290: 6acd b4bc 2f15 b93d c4d8 61bd 1c40 9a3c
000002a0: b3d3 38be 182a fe3d 7a77 2d3e cead eb3d
000002b0: b578 03be 88e9 49be e297 1b3e 0dba 0fbe
000002c0: 8448 4c3d 3289 3cbe 0a29 533e d8b4 383e
000002d0: 3962 82bd d113 03bd 1b30 83bd c7a8 9e3d
000002e0: 1b2f 203e 7334 59be 754d 4f3e bca6 db3d
000002f0: 1ff6 04be 9386 2b3e 303f a7bd b981 013e
00000300: 3121 4f3e 8c20 013d 5d7a 24be 5100 8fbd
00000310: 051a 8abc 1588 5e3e 0a69 203e 7dda 15be
00000320: b5f0 85bd b21d f0bd 0b65 223e d356 b6bd
00000330: e1d6 1dbe ea32 48be b0aa 48be 2a16 833d
00000340: 7348 febd 2da9 9e3d 8e85 9b3d 82c6 1abe
00000350: c516 3dbe 0a15 1ebe d707 edbd 6e2d 3bbe
00000360: 929e e13d 02db b83d 8edc b83d 251f 9cbc
00000370: ebf9 543e 47ed f53d 3385 53bd 8538 ec3d
00000380: 9c05 2abe 00a9 1a3e 82ea d23d f724 5b3e
00000390: 581d 3c3e c72e 823d 2905 a53d eb9d 4c3e
000003a0: 6975 9e3d 86c2 bfbd b569 283e bf3b c93c
000003b0: c4a4 90bd 4d78 32be 6a9a f8bd 3583 61be
000003c0: 1b31 38be 343a dfbd f2ba aebc f62b 64bd
000003d0: 226c 0a3d 4c53 06bb c960 383e 71c0 bf3d
000003e0: 7358 683d f310 2e3e b661 d7bd dd8a 663d
000003f0: 09b1 a2bb f9b3 0dbd 5a6c cc3d a273 02be
-0.029818375 -0.032591615 -0.17324826 -0.023093196 -0.0477058 0.062044807 0.044005614 0.1305354
0.103465535 -0.06472177 -0.16526392 0.08839604 0.19496621 -0.2017327 0.10274035 0.102358624
-0.18801628 -0.064601935 -0.21859467 0.05314193 -0.014617785 0.19314623 -0.10971347 -0.016150005
-0.18567187 -0.13174543 0.16382247 0.13670488 -0.08919853 -0.16005033 -0.097816765 0.0003717935
-0.12540767 0.09912307 -0.122095495 -0.08330441 -0.010219399 0.04228865 -0.11210948 0.022596868
0.074839555 -0.11587875 0.08779481 0.10599264 -0.1056844 -0.09211754 0.1509609 0.048072655
-0.047578342 0.10468213 -0.05191365 0.10354195 0.010160793 0.1991265 0.11919684 -0.23440991
-0.20437153 0.116036415 -0.15360118 -0.10923082 0.0656573 -0.1655814 0.10023373 -0.0705021
-0.17709257 0.10991645 -0.047202732 -0.098804094 -0.12676096 0.13675854 -0.12228986 -0.16457842
0.03124627 -0.06593223 0.13218926 0.044933632 -0.10101829 0.115128554 -0.20109059 0.15606093
-0.03226204 0.035746954 0.023204874 -0.12335995 0.01034755 -0.044617314 0.10780894 0.19590423
0.06774386 0.050660595 0.17924578 0.015856648 0.15323196 -0.10954836 0.058412425 -0.034868885
0.048788317 -0.079349145 0.17541894 -0.19026136 0.1545022 0.19571894 -0.16587521 0.14675425
0.21896331 0.012495342 -0.09973636 0.1755277 -0.1273836 -0.08939743 -0.13089408 -0.1817741
0.079385705 0.12503451 -0.15673426 0.07802723 -0.0024079625 -0.213359 -0.20651841 -0.14892897
0.115844004 0.11900208 0.18519448 0.13797647 0.12732069 -0.14556058 0.12215515 0.15610155
-0.20787103 -0.20658487 -0.07030622 -0.09031736 0.10835304 -0.15631407 0.028827572 0.15083532
-0.15438533 -0.07137024 -0.18942146 -0.18962966 0.06419926 -0.082884066 0.15650451 -0.10106119
-0.07580327 0.17194557 0.18032287 0.16677493 0.08974085 -0.17521448 0.0798137 0.07520727
-0.003712065 0.17439911 0.0047555417 0.12028938 0.009972507 -0.013967069 0.22420202 0.062329408
0.20136958 0.16884047 0.08923267 -0.171833 -0.022070605 0.090372436 -0.055138364 0.018829398
-0.18049507 0.124103725 0.16940108 0.1150776 -0.12839015 -0.19717991 0.15194657 -0.14035816
0.049873844 -0.18411711 0.20621124 0.18037736 -0.06366391 -0.03200132 -0.0640566 0.077470355
0.1564297 -0.21211414 0.20244391 0.107251614 -0.12984513 0.16750555 -0.08166349 0.12647142
0.20227505 0.03152518 -0.16062303 -0.06982482 -0.01685811 0.21731599 0.15665069 -0.14634128
-0.06540052 -0.11724414 0.15858857 -0.08903279 -0.15414001 -0.19550672 -0.19596362 0.06400712
-0.12416162 0.077471115 0.07593833 -0.15114787 -0.18465717 -0.15437713 -0.11573761 -0.18279049
0.11016573 0.090261474 0.090264425 -0.01905782 0.20798461 0.12008148 -0.0516407 0.11534218
-0.16603702 0.15103531 0.10298635 0.2140082 0.18370569 0.06356578 0.08057625 0.19982116
0.07737238 -0.09363274 0.16446574 0.024564622 -0.070626765 -0.17428704 -0.12138827 -0.22022708
-0.17987482 -0.10899773 -0.021329377 -0.055705987 0.03379453 -0.0020496426 0.1800567 0.09362877
0.056724977 0.16998653 -0.10516684 0.056284774 -0.004964952 -0.034595463 0.09981604 -0.12739423

fc2.weight f4 [256, 256]
00000000: edaf 473d e0a3 8f3c 10c0 f6bc 60c6 2f3c
00000010: db54 5c3d dcc4 03bd 178b d1bc 0ac4 323d
00000020: dece 3ebd 7906 bc3c f687 813d 511a 843c
00000030: a800 1cbd 6aa9 693d e318 c5bc 6967 43bd
00000040: a2c9 54bd c630 523d 3d1a a0bc 27c8 8dbd
00000050: 62d9 a8bd 0916 babc 44c9 543d 23d5 85bc
00000060: b813 f5bc 9852 42bd 4587 6e3d e54c 97bd
00000070: fb3c 7dbc fe77 20bc f0cf 033d 589b abb7
00000080: 14c8 dcbc 8e87 1ebd f8fe 363d 8133 313c
00000090: a5fb e03c b79d 97bd f2b2 243d b651 6bbb
000000a0: 85b9 4f3c 12bb 88bd 77be 2ebd 79fd a83b
000000b0: 92ea 043c f5fb 67bd 073e 853d eaf1 1cbd
000000c0: b38e 363d 7360 a53c 6ce4 d73b fc6f 623c
000000d0: eaf7 823c c846 83bc 83ad 153c e30a 56bc
000000e0: 8e99 f5bb 0a7b 803c da35 8d3c 5ffe bb3c
000000f0: 257a 83bd 9002 6f3b d124 d83c 3f4e 69bd
00000100: 5998 7cbd 7afd 07bd 9302 eb3c f365 ccbb
00000110: 4396 99bb 5bf0 2e3d 5728 e03c 8f31 02bd
00000120: 3624 af3c e458 81bd 84d4 88bc 7334 e33c
00000130: 5815 803c 42ae 2abd 38e8 4ebd 06f9 8ebd
00000140: 5981 dd3c 7c41 0fbd be74 7c3d e3ef 563d
00000150: 6669 85bd 5f0b 6a3d 27eb 80bd 0f57 483d
00000160: a1cd 42bd f560 343d 8466 23bc fe88 f23c
00000170: d942 4bbd ce9d 27bd abb6 c9bb 908e 6ebd
00000180: f01c 053d 3b53 bf3c 2401 cf3c 0de5 01bc
00000190: b06e 93bc 86bd 85bd d252 033d ce0b da3c
000001a0: 7b6c 983c 4590 89bc 1ea9 6dbd ef1f 373d
000001b0: 560d 233d 72ec 9e3b 4866 9c3d ab58 093d
000001c0: 3c2e 473d d8b1 a6bc e723 b4ba 039f 82bd
000001d0: 8668 eb3b 30cd 843b 74cf 5b3d 726c ccbc
000001e0: 49fb 5b3b 0132 95bc 1c6a ba3c 4768 6c3d
000001f0: a013 30bd 9a18 5ebc 60f5 603d d288 02bd
00000200: a75b 26ba 1e91 913d 6722 813c 72cf 81bd
00000210: 37f8 f7bc 6a50 67bd 1cd5 2abb bd86 dc3c
00000220: 78e0 623d fec5 0f3d 9831 243d 0b26 87bc
00000230: dd75 dcba 25aa 49bb 8841 d2bb ee94 093d
00000240: 0dcb e63c 163d 053d 516e ef3b 5965 2c3d
00000250: b64a 8c3d 38ea 70bc 5281 073d 9203 583d
00000260: 9aa6 7ebd c21d 2bbc 7e42 29bd 5d70 47bd
00000270: 135a 8a3d 6c02 4bbc 78b7 2ebd d330 823d
00000280: f038 77bc d773 f3ba 51e8 a6bc 5798 f4bb
00000290: 6eaf 403d 70f4 853c 9ddb 2b3c b3c7 af3c
000002a0: c485 eabc 0ab9 47bc ea45 a53b 49be e23c
000002b0: 0af7 dc3a 567e 413b f065 21bd 7e5b b13c
000002c0: 2747 8c3d d7fe c3b9 ab6d d63c b836 40bd
000002d0: baae 463d f6b7 17bd 3d3b 5a3c 86ad b1bb
000002e0: 5a4c 4bbd 911f 133d 0dc6 eab8 d99c 76bd
000002f0: ba3f 063d 949a b73b 1689 06bd 5a17 e3bc
00000300: 203d cdbc b256 e6ba 3ef6 143c 309a 053d
00000310: bc34 01bb 14cf a63d 3d27 a83b 3f0e fdbc
00000320: c51b 6d3b 8180 a03c f66e 5cbb e3a3 933d
00000330: a775 6dbd 4d11 073d 751c 2e3d c72a 4cbd
00000340: a9f1 b83a f3d6 4f3c 7730 98bd a7ca 013d
00000350: 9ffd 19bc f1c1 cebd be8c 643d d6be ab3c
00000360: 7b04 c53a 332d 923d a599 4a3d 4edd 66bd
00000370: 7608 c53b c4f8 eebc 7b3c d4bc decf c3bc
00000380: 3325 b7bc 8ac8 94bd ab7e 533d 623e 64bc
00000390: c97b 853d 5847 0cbd 956c 103c 9232 073d
000003a0: 2e60 1ebd 0c48 19bd 509d 3d3d 2c51 0a3c
000003b0: 3efa 8b3d 1c13 bc3b 4b1c 253c 3ba7 663c
000003c0: dbb0 84bc e367 833d a4ec 333d 9f78 25bc
000003d0: a3b2 fdbc 5570 cc3c 5413 b4bc 807c 00bd
000003e0: eda4 0e3c b4b5 d2bc c43d b43b de11 4d3d
000003f0: be3e 22bd c951 753a ac89 2d3d 6450 3f3d
0.04875176 0.017534196 -0.03012088 0.010728449 0.053791862 -0.03217016 -0.025579019 0.04364399
-0.046584003 0.022952305 0.063247606 0.01612583 -0.038086563 0.05704633 -0.024059718 -0.04770604
-0.051950105 0.051316045 -0.019543761 -0.06922942 -0.082445875 -0.022715585 0.051949754 -0.016336983
-0.02991663 -0.04744205 0.05823447 -0.07387713 -0.015456433 -0.009794233 0.032180727 -2.0457126e-05
-0.026950873 -0.038703494 0.04467675 0.010815502 0.027463743 -0.074031286 0.040209718 -0.0035906858
0.012678509 -0.06676306 -0.04266211 0.0051571694 0.008112567 -0.05663677 0.065059714 -0.038316645
0.044569682 0.020187592 0.0065885093 0.0138206445 0.015987355 -0.016024962 0.009135607 -0.013064119
-0.007495112 0.01568367 0.017237592 0.022948442 -0.064197816 0.0036470033 0.026384743 -0.056959387
-0.061668728 -0.03320072 0.02868775 -0.006237739 -0.004687102 0.04270969 0.027362986 -0.031785544
0.021379571 -0.06315783 -0.016702898 0.02773497 0.015635177 -0.04167009 -0.05051443 -0.06981091
0.027039217 -0.03497456 0.06163477 0.052474868 -0.06514244 0.05713975 -0.06294852 0.04891115
-0.047559384 0.044037778 -0.009973172 0.029606339 -0.049624298 -0.04092198 -0.006155809 -0.058241427
0.0324983 0.023355117 0.025269099 -0.007928145 -0.017997116 -0.06530289 0.032061405 0.026616957
0.018606415 -0.016792426 -0.05802261 0.04470819 0.03980764 0.004849964 0.07636696 0.033531826
0.048628077 -0.020348474 -0.001374361 -0.06377985 0.007184091 0.0040527806 0.05366464 -0.024954055
0.0033566526 -0.01821232 0.022755675 0.057716634 -0.042987466 -0.01355567 0.054921508 -0.031868763
-0.0006346055 0.07107757 0.015763475 -0.06338395 -0.030269725 -0.056473173 -0.0026066964 0.026919717
0.05538985 0.03510093 0.04008636 -0.016497632 -0.0016819794 -0.003077158 -0.0064165033 0.033589296
0.028172994 0.03252896 0.007306852 0.04208884 0.068501875 -0.01470428 0.033082314 0.05273778
-0.062170602 -0.0104441065 -0.041323178 -0.048691142 0.067554615 -0.012390714 -0.04265544 0.06356969
-0.015089259 -0.0018573952 -0.020374449 -0.0074644494 0.047042303 0.016351908 0.010489372 0.021457529
-0.028628238 -0.012190113 0.005043735 0.027678626 0.0016858291 0.0029524765 -0.039403856 0.021650072
0.06849509 -0.0003738317 0.02617534 -0.046927184 0.048506476 -0.037040673 0.013319788 -0.005422297
-0.04963336 0.035918776 -0.00011194879 -0.060208175 0.032775618 0.005603144 -0.03284558 -0.027721096
-0.02505356 -0.0017573445 0.009091912 0.032617748 -0.001971527 0.08144966 0.0051316307 -0.030890582
0.0036179882 0.019592525 -0.0033635474 0.07208993 -0.05797353 0.032975484 0.042507607 -0.049845483
0.0014110106 0.012685525 -0.07431119 0.031687405 -0.009398847 -0.10095585 0.055798285 0.020965021
0.0015031243 0.07137527 0.049462933 -0.056363396 0.0060129715 -0.029171355 -0.025907746 -0.02390283
-0.022356605 -0.07264812 0.051634472 -0.013930889 0.06517751 -0.034247726 0.0088149505 0.033007212
-0.038665943 -0.037422225 0.046292603 0.008442204 0.06834839 0.0057395827 0.010077546 0.014077957
-0.016197613 0.06416299 0.04392685 -0.010099559 -0.03096897 0.024955908 -0.021981873 -0.031368732
0.008706314 -0.025721408 0.005500527 0.050065868 -0.039610617 0.0009358195 0.042367622 0.046707526

fc2.bias f4 [256]
00000000: 8a58 c7bc 92f9 e13b 8367 443d 8f0d 50bd
00000010: a2a7 953c 28ba a83b 0a03 4f3d 3c80 073d
00000020: 476b be3c 6c8a ee3c c878 fcbc 79da 75bc
00000030: 3e59 223d 5cac 6f3d 7665 fbbc caa5 733d
00000040: b5e9 563d fa27 50bd 728d 373d 00e3 153c
00000050: 9545 1dbd 5223 6f3d 2251 f13c f804 30bd
00000060: 575f d5bc 9f4f 0bba 4f4b 103d e9ca 823c
00000070: 289b 4e3d 1292 933c 919c 063c b0f8 d23c
00000080: e228 6e3c 6708 613d c82e 173c 64ab 393d
00000090: f862 373d 1657 a2bb 8d14 a83c e540 563d
000000a0: f0d0 803c 0b58 14bd 354d c5bb fc90 703d
000000b0: fdcb 71bd 4103 503c e0a8 d93c 4069 4d3d
000000c0: f69d ad3c d54d 513b 3c37 c9bc a029 e83c
000000d0: ef77 063d 1a1b 6bbd 456d 2a3d 408a 0c3d
000000e0: 6b54 a73c 4c83 8d3c 0386 973c 0ce3 4b3d
000000f0: f44a 53bd 4040 dabb c513 2dbc 9b44 093d
00000100: 3440 8bbc 8534 3e3b 202b d43c 9f2f 7e3c
00000110: 25df 2e3d a13a 723d 169c 633d 5a73 663d
00000120: 707d 04bd a46c 623b 9444 d63c 0e36 f23c
00000130: 313d f8bc edbf 6abc d13f 713b 64f2 423d
00000140: b13a 72bd 40db 0ebd 52fb ddbc e4c7 10bc
00000150: e48e 50bd 5e82 35bd 1a7c 0f3d 337f cd3c
00000160: d86b 133c a530 94bc 0636 6cbb c539 b73c
00000170: 164a 533d 3a0e f03c 5124 f23b b330 ab3a
00000180: df35 00bd 025d d9bc a2dc 303d ebe6 37bc
00000190: 7e4d 573d 750d 24bd 45e4 a9bc db51 a23c
000001a0: 0fe2 30b9 4e1b 70bd 1e10 0f3d 227e 4ebd
000001b0: 18af 0a3d b055 28bd ffc7 633d f726 66bd
000001c0: baa7 b8bc 5872 1c3c 9261 8e3c e101 64bc
000001d0: 8a3a 86bc c48f 18bd 8484 213b afdf f93a
000001e0: 1c79 d73c a9b2 573d 69f1 3abd e314 71bd
000001f0: 7655 453d cb19 2d3d 4dbb 9f3b 1fb1 1fbd
00000200: 4f8c d03b 1c88 14bc baf4 b4bc e7a4 353b
00000210: 01cd 1a3d f6e3 6dbb 6f2a 62bd 3406 57bd
00000220: c430 0b3d 306e 713c 858d 24bd 6281 243d
00000230: bf6a 9c3c b979 223c ba48 9dbb 3845 c4bc
00000240: af2a 003c 67d1 81bd 8e8c 4b3d 4959 48bd
00000250: 544a 38bd 4419 493d fdf4 1dbd 7ada 16bd
00000260: 478c 8bba 60c5 c4bc 7a40 a8bc ac64 4c3d
00000270: 2013 233d 9159 58bd 0b78 e5bc 3679 1cbc
00000280: 129f 793c e15d 08bb cbd7 1c3b 06af 6bbc
00000290: af3e b9bc e20a bfbb 645f 523d f87c 17bd
000002a0: f6ce e83b d393 23bd 5834 e1bc 9efa 303c
000002b0: 1386 c2ba dfa1 5f3d af6f af3c 32c3 fcba
000002c0: c46f 013c c51e 35bc 3f4c 16bc c272 c53c
000002d0: 36fb ea3a 1c11 9bba 91b9 98bc 7a9a e33c
000002e0: 4f56 54bd c9d3 593c 8fb3 64bd b5d3 453d
000002f0: f48f 09bd 17be ea3c 03b0 9bbc 7cf7 6ebc
00000300: 8460 6f3c 0690 57bd 6865 0e3b 353e bbbb
00000310: cbae 503d 7b25 03bc 6dd2 54bd ca4d 72bd
00000320: 54a0 f43c 264c 5cbd 6e76 1f3d 5fa8 a13c
00000330: 0d45 0c3d c0ca 323d a4a0 8cbc c5fa c8bb
00000340: 7fea 4ebb 5e71 5ebd 6963 3abd 2b00 41bd
00000350: b793 6b3d 74cd 75bd a6fd 123d 01f8 c7bc
00000360: ee3c 06bd 8149 0cbd 34bf 0d3d 2eea 0bbd
00000370: d78f 07bd c94f 163d d087 3cbc f73e f3bc
00000380: c697 2ebc 5479 61bd e999 5e3d e5a9 c4bc
00000390: 0011 52ba 6e36 c1bb 18b5 02bd fd13 82bd
000003a0: 1614 243d d143 ec3c b4df 413d b2a5 3bbd
000003b0: 6e1f 30bd e8af 973c b0cf be3c 9f4d 2dbd
000003c0: 4749 a1bc a5a4 54bd b36a e1bc eea8 f2bc
000003d0: c991 c73c 45ed 4abd 4989 3cbc c2fa 1bbd
000003e0: dc57 6fbd 0f38 853c b50b 163d 2d7c 0c3c
000003f0: 9bfc 473c 97c5 a1bb d84b bdbc b83d 6d3d
-0.02433421 0.006896206 0.04795028 -0.05079418 0.01826841 0.0051491447 0.050540008 0.03308128
0.023244513 0.029118739 -0.030819312 -0.015005701 0.03963589 0.058513984 -0.030688029 0.05948428
0.052468974 -0.050819375 0.044812627 0.009148359 -0.038396437 0.058383293 0.029457632 -0.04297349
-0.026046438 -0.00053142937 0.03522807 0.015965896 0.050440937 0.018013988 0.008216039 0.025753349
0.014536114 0.054939654 0.009227462 0.045329466 0.04477212 -0.004954229 0.020517612 0.052307982
0.01572463 -0.036216777 -0.0060211667 0.058732018 -0.05903243 0.012696088 0.026569784 0.050149202
0.021193486 0.003193726 -0.02456247 0.02834016 0.03282922 -0.057398893 0.041608114 0.034311533
0.020425996 0.017274521 0.018496519 0.049777076 -0.051585153 -0.006660491 -0.010563795 0.033512693
-0.016998388 0.0029023003 0.02589947 0.015514283 0.042693276 0.059137944 0.055568777 0.05626235
-0.03234619 0.0034549618 0.026155747 0.02956679 -0.030302616 -0.014327985 0.003681172 0.047594443
-0.059138004 -0.03487706 -0.027097378 -0.00883672 -0.05091752 -0.04431378 0.03503046 0.025085067
0.00899788 -0.018089602 -0.0036042943 0.022366414 0.051584326 0.029303659 0.007389583 0.0013060778
-0.031301375 -0.026533607 0.04317916 -0.011224489 0.052564137 -0.040051896 -0.02073873 0.019814422
-0.00016868881 -0.05861979 0.03492748 -0.05041326 0.03385839 -0.041097343 0.055610653 -0.056189504
-0.022540916 0.009548746 0.01738051 -0.013916464 -0.016385335 -0.03724648 0.0024645636 0.0019063855
0.026302867 0.052660618 -0.045640383 -0.05885781 0.048177205 0.042260926 0.004874623 -0.038987275
0.0063643823 -0.009065654 -0.022089351 0.0027716698 0.037793163 -0.0036299205 -0.05521625 -0.05249615
0.033982053 0.014735743 -0.040174026 0.04016245 0.01909387 0.009916716 -0.0047999294 -0.023958787
0.007822677 -0.063387685 0.04969459 -0.048913274 -0.04499276 0.04909636 -0.038563717 -0.03682945
-0.0010646664 -0.024019897 -0.020538557 0.049900696 0.03981316 -0.052819792 -0.028011343 -0.009550383
0.015235679 -0.002080791 0.0023932334 -0.014384991 -0.022612898 -0.0058301548 0.051360503 -0.036984414
0.00710475 -0.039935898 -0.02749078 0.010801939 -0.0014840983 0.05459773 0.02141556 -0.0019284247
0.007900182 -0.011054699 -0.009173452 0.024102572 0.001792765 -0.001183066 -0.018643172 0.027783621
-0.051840123 0.013295122 -0.055835303 0.048297603 -0.03358455 0.028655095 -0.019004827 -0.014585372
0.014610413 -0.052627586 0.0021727923 -0.0057142028 0.050947946 -0.0080045415 -0.05195849 -0.059156217
0.029861607 -0.05378356 0.038931303 0.019733606 0.03424554 0.04365039 -0.017166443 -0.0061334097
-0.0031572876 -0.054307334 -0.04550496 -0.0471193 0.05751392 -0.06001039 0.03588643 -0.02441025
-0.03277295 -0.034249786 0.034606174 -0.034158878 -0.03309616 0.036697183 -0.01150699 -0.02969311
-0.010656303 -0.05504735 0.054346 -0.024006793 -0.00080133975 -0.005896381 -0.031910986 -0.06351469
0.040058218 0.028840931 0.04733248 -0.045812316 -0.042998724 0.018516496 0.023292392 -0.042310353
-0.019688262 -0.05191483 -0.027516698 -0.029621568 0.024361508 -0.049542684 -0.011507341 -0.03808094
-0.0584334 0.016262082 0.03663226 0.008574528 0.012206222 -0.0049368846 -0.023107454 0.057920188

fc3.weight f4 [256, 256]
00000000: 6605 4a3c ddbf 8d3d 00e1 263d 2076 673d
00000010: a4f8 a5bd 7f92 3ebc d53a 17bd 6789 6cbc
00000020: 3ca3 27bd d5ec 62bd b88d 2a3d 2e59 08bd
00000030: b7e6 2fbd 45b6 7a3d bf56 dbbc 05b3 f43c
00000040: c69a 66bd 0946 92bb 8339 42bd 1f02 5cbd
00000050: cf3a abbd 84be 2b3d 78df 603d c250 27ba
00000060: 417a 3b3d a353 323d 9114 253d 9dd9 a83d
00000070: ba5f 2f3d d3c5 02bc 6c5d 873d 3cc1 243d
00000080: f3ae 07bd 141a 513d d233 403c 4e95 ab3b
00000090: d2a9 163d d598 573d 3888 9d3c 23b6 0d3d
000000a0: 9e9a b03d 7d8a ebbb 9af2 393d 5dea 4dbd
000000b0: 61ad 14bc e9d5 f93a 59b7 40bd 546b 0c3d
000000c0: 10f7 20bd 1e28 693d e182 07bd 92ca 523c
000000d0: 61b9 393d 1b46 c0bd 9a97 babc 714a 263d
000000e0: a906 8ebc d4b7 58bc 3418 4b3d b0d2 253d
000000f0: a402 4c3d 24e6 eabc 9746 b53d 8be9 2bbd
00000100: 1fcf 2f3d ff3f 57ba ab7a 61ba b0a2 803c
00000110: 5fc4 523d af6b 43bd 7125 01bd 325a 4cbc
00000120: 293a e83c 4c49 ab3c 52a6 99bb 0015 823d
00000130: 2d07 d2bc cb0a babc 3c4e 2bbd b3da 893d
00000140: b64a 613c efee 2a3d f66b 883d a1a3 a53d
00000150: 8ec1 10bb fc5e 5dbc 381e a4bc aa94 49bd
00000160: 8348 b33c 045f 743c f1a3 6a3d 39a2 febb
00000170: 8723 983c 0f01 e8bc 3de1 02bd 4d32 a63d
00000180: d485 483d eb60 cabc 03e2 453d e852 8b3b
00000190: 595d 45bd 376f b33c b10e 51bd 7174 96bd
000001a0: 8c5a d53c 73d2 dcbc feec 263c fd03 823d
000001b0: 4001 733d 67e0 9ebc 5a4f 933d fd50 ccbb
000001c0: 0ad1 fa3c d2b3 4fbd 669f 5dbc 869b e7bb
000001d0: a8c9 433d 76b2 703c 0258 363c e236 2dbd
000001e0: 7bfc 673d 7337 7bbd 7241 73bc 42a0 383d
000001f0: cb49 acbc 0baa b23d aecd 503d 00d7 103b
00000200: 7f16 aabc 7003 fa3b c8ac f2bc 1813 943b
00000210: cf5d 56bd b765 af3d 6a3a 953c f300 ce3b
00000220: 5da9 4f3c c6b0 17bd 2259 a23d fdc3 6bbd
00000230: efe0 33bd 9608 91bc 04fb a83b 72a1 e53c
00000240: 69e2 1b3c 5ba2 a7bc ff33 4a3c 6f76 f4bc
00000250: d406 4a3d c3c1 8a3d f5fc ea3c 6f78 fbbc
00000260: aba6 cb3b 6d98 68bc 93ac fabb 4f23 363b
00000270: abd8 893d 679b 0c3d e16a 683d 1cb5 093d
00000280: 8c88 a83c af4a 9c3c fef4 113c 97f4 413c
00000290: 2a62 983d b155 3cbd f322 05bd da46 7f3c
000002a0: 2836 43bc 294c 113c 5e25 0dbc 2610 f13a
000002b0: 41d9 32bb fb6c 013d d3fc 1cbc 1db2 ea3c
000002c0: d76e 1a3d 8310 703d 15cf a83d 3bef 1c3b
000002d0: 5195 15bd c392 a5bb 06c9 de3c 9481 8a3d
000002e0: 28de 293d 2560 2e3d e0df fe3c fbac 603c
000002f0: 1db4 f63c 34c5 49bb cc90 703d 54a8 38bd
00000300: c687 a33d dd69 373d 8222 32bd a0a2 853c
00000310: f39e 1b3d 0510 76bd 5175 9a3c c3ba e03a
00000320: bdf6 0dbd 05f6 883c c75e 0fbd 370c 34bd
00000330: 1b6e 803d 6199 b73c 3bee 01bc cd16 c33c
00000340: b410 823c ecf4 1fbd 7781 53bc 40f1 e4bc
00000350: f75e 2fbc b7ea 39bd 66c7 073d 6edf 693c
00000360: db9e 063d b47c a2bc 0739 24bd cf7a 80bc
00000370: 0862 2abd 12e3 55bb 7f12 02bb 615f 9b3d
00000380: 9d6d 073c a12e c6bd cc12 73bd f556 db3c
00000390: 449a dabc f25e cf3b 1821 253d 7da3 8d3c
000003a0: 94ab 99bd d459 b4bb cea0 32bd 8806 00bd
000003b0: 1741 27bd af4f 74bb f8d7 653d 4f2a 4a3c
000003c0: 8f4a c2bc cad3 13bd d43b a13c 0f2b 1bbd
000003d0: e010 943d 6b4b a0bc 9fb2 313d f2a8 78bd
000003e0: a8a6 4abd bb05 0fba 58b0 22bc 4e1c 1e3d
000003f0: 4654 15bd c096 1abd 674d b5bc 9f48 ab3d
0.012330389 0.06921361 0.04074192 0.056509137 -0.08104065 -0.011631607 -0.03692134 -0.014437056
-0.040927157 -0.055401642 0.04163906 -0.033288173 -0.042944636 0.061208982 -0.026774762 0.02987052
-0.056299947 -0.0044639152 -0.04741813 -0.05371296 -0.08360826 0.041929737 0.054900616 -0.0006382578
0.045770887 0.043536793 0.040302817 0.082446314 0.0428159 -0.007981735 0.06609616 0.040223345
-0.03312583 0.05105026 0.011731105 0.0052363044 0.036783047 0.052635986 0.019229993 0.034597527
0.08623241 -0.00718814 0.04539738 -0.050272334 -0.00907454 0.0019060943 -0.047049854 0.034282044
-0.039298117 0.056923024 -0.0330838 0.012865679 0.045342807 -0.093883716 -0.022777367 0.040598337
-0.01733716 -0.013227422 0.04958363 0.04048413 0.049807206 -0.028674193 0.088513546 -0.04197077
0.042922135 -0.0008211135 -0.0008601348 0.015702575 0.051456805 -0.047710117 -0.031529848 -0.012472676
0.028348045 0.020908974 -0.0046890164 0.06351662 -0.025638187 -0.022710225 -0.041822657 0.06731167
0.013750723 0.04173177 0.06661217 0.0808785 -0.0022088024 -0.013511416 -0.02003394 -0.049214043
0.021885162 0.014915232 0.057285253 -0.0077708033 0.018571628 -0.028320817 -0.031953085 0.08115063
0.048955753 -0.024704417 0.048311245 0.0042518266 -0.048184726 0.021903617 -0.0510394 -0.07346428
0.026044153 -0.026955819 0.010188339 0.06348417 0.059327364 -0.019394113 0.071928695 -0.0062352405
0.030617256 -0.0507086 -0.013526773 -0.0070681004 0.047799736 0.014690986 0.011129381 -0.04228867
0.05663727 -0.061332177 -0.014847146 0.04507471 -0.021031281 0.08723839 0.0509774 0.0022100806
-0.02076268 0.0076298043 -0.029623404 0.0045188777 -0.052335557 0.085643224 0.01821633 0.0062867342
0.012674657 -0.03703382 0.07927157 -0.057559956 -0.043915685 -0.01770429 0.0051568765 0.028031085
0.00951443 -0.02046316 0.012341498 -0.02984163 0.049322918 0.06775238 0.028685072 -0.030697076
0.0062149367 -0.014196497 -0.007649967 0.0027792042 0.06730779 0.03432789 0.056742553 0.033619985
0.020572923 0.01907858 0.008908508 0.0118381 0.07440598 -0.04598016 -0.032504033 0.015580857
-0.011914767 0.008868256 -0.008614866 0.0018391653 -0.0027290138 0.031598072 -0.009581762 0.028649384
0.03770336 0.058609497 0.08242623 0.0023946303 -0.036519352 -0.0050528958 0.027195465 0.06762996
0.04147163 0.04257216 0.031112611 0.013713117 0.030115182 -0.0030787708 0.05873184 -0.045082405
0.07984881 0.044778693 -0.04348994 0.016312897 0.037993383 -0.06007387 0.018854769 0.0017145503
-0.034659136 0.016718874 -0.035002496 -0.04395696 0.06271001 0.022412004 -0.007930334 0.023814583
0.015877105 -0.039051935 -0.012909285 -0.027947068 -0.010703794 -0.045389857 0.033149146 0.014274461
0.03286634 -0.019834854 -0.040093448 -0.01568356 -0.041597396 -0.0032636565 -0.001984745 0.075865515
0.00826588 -0.096768625 -0.059344098 0.026774863 -0.026684888 0.006328457 0.040314764 0.017289871
-0.07503429 -0.0055038724 -0.043610387 -0.03125623 -0.04083356 -0.003727894 0.056114167 0.012339189
-0.023717193 -0.03609065 0.019681849 -0.03788286 0.07229781 -0.019567212 0.043383237 -0.060707994
-0.049475342 -0.0005455871 -0.009929739 0.038601212 -0.036457323 -0.037741423 -0.022131635 0.08363461

fc3.bias f4 [256]
00000000: 4654 c53c b087 103d a3c7 443d 089a 80bc
00000010: f356 4fbd 3caf 1f3d 2fe0 163d f4d1 3bbd
00000020: 1fc4 bebc f076 47bd 165c ee3b 8212 30bc
00000030: 4fba 0bbd faa0 11bd f647 37bd 91f7 353d
00000040: 9bc1 c7ba a6ba cebb f9fb 06bc c96c 823d
00000050: 7fd1 c8b9 0132 523c f7cd 0fbd 9885 2abd
00000060: 955d 12bb 2ed7 22bd 8c1b 653d 730f 163d
00000070: 3976 1cbc 2731 24bd 46ae cb3c 8619 49bd
00000080: 4f3a 773c 124f 77bc a7df 8a3d b178 9ebc
00000090: c5ce b3bc 2a83 00bd ab3c f43c d0fc 493d
000000a0: 6c51 513c a09a 013d aa7d 5bbd 3f08 14bc
000000b0: 5d3c 783c 204e 9bbc 6f46 1bbd 2a2f 413c
000000c0: 913a b3bc 13f4 093d 5473 2bbc d87f d43c
000000d0: d86d 73bd 2695 d83c cda5 793d 216b 1cbd
000000e0: 44e0 4cbc fc98 4dbc 43a7 3a3d 3647 a6bc
000000f0: 93f6 c6bb f086 9e3a 0e04 91bc 4f9e 473d
00000100: 9958 3abc c2ac cabb c0bd 403d ab18 473d
00000110: d109 e5ba eb63 4cbd 87ea 8cbc 7888 143d
00000120: 3ad5 09bd 2171 6f3d 134a 693d 3788 803d
00000130: 027f 5a3d 38aa 263d 3a4c fdbc 3ff1 55bd
00000140: 206b 4d3d 935e 8f3c 568d 3fbd 4e63 49bc
00000150: 6f3e 44bd bcae 34bd df3a 463d 1893 d4bc
00000160: 1634 c73c 7709 64bd 5841 7abd 27c5 3f3d
00000170: 385c 13bd 1535 50bd 779b 3d3d 670d 2d3c
00000180: 3d24 343c 89c9 53bd 65ca 453d 3d09 82bd
00000190: aa27 5abc bdbd 103d edd3 443d 7fb4 643d
000001a0: 51e6 52bd f1ac 483d d1b9 873c 4e9d d2bc
000001b0: 136e b4bc 718a 263d ed32 28bd b6c3 40bc
000001c0: 0fb8 243d 3388 913c 4119 84bc 699b 3dbd
000001d0: dfca 593c ef30 21bd 5ac0 2fbc 9393 753d
000001e0: e603 033c d021 89bc 79c1 d5bb 8345 3abc
000001f0: eaea 933a 497e 91bc 3947 93bc e639 0abd
00000200: 64a3 61bd 11d8 483d f20c a4bc 2db9 493d
00000210: ee96 933c b6a3 953c 1702 3b3b a64c 00bd
00000220: 74d5 efbc d16f 04bd ce6e 13bd 2ace 70bc
00000230: 9351 563d b93d 4abd f223 543d cdca 19bb
00000240: 6310 053d faaa d43c 1b7e 1abd e2aa 2f3d
00000250: d296 793d d2a1 263d 67c8 00bd d0d4 37bd
00000260: ff66 ceb9 1cf5 44bd dddf 0dbd 95f2 c6bc
00000270: b75a 0ebc 6389 033d f23b 5cbb ab3f 1abc
00000280: d5f8 473d 354f 033d 3d82 07bd c0ea dc3c
00000290: c1bf e4bb d672 713a c4a8 1d3d 9c1c 5bbd
000002a0: 0ef7 13bc c60c 893d 4f33 45bd 8b77 8f3c
000002b0: 03e1 7ebc 4168 b13c 977f 6c3d 6bce 323d
000002c0: bcde 6b3d e145 b63c e3af 503d 8122 4dbb
000002d0: 444a 773d 3a15 2ebd 3c4c 92bb 95ce 4e3d
000002e0: 304f 513d 44e1 a8bc 807c b3bc c866 2d3d
000002f0: a76b 3e3c ce8d b0bc 3300 193d 5a42 80bc
00000300: 8677 a9bc 4678 adbc d978 753c b9b0 1d3d
00000310: 0256 013b d6bf d4bc 3a7d 31bc 42e7 68bd
00000320: 4fbd 653d b4ed 4e3d 6915 21ba f2d0 38bc
00000330: c0de 103c 3f3f b0bc 4d3f 41bc e23d d03c
00000340: 990a 433d 74a0 243c 51d6 bdbb 061a 5f3d
00000350: 0bd5 8ebb a8c8 763d cf9e c83b b144 40bc
00000360: 3303 cd39 fa52 0a3d 2e74 2ebd 2090 7cbd
00000370: d9bf 0a3d d9b5 eebc 3bef 4e3d 9415 413d
00000380: 4f44 1fbd 0a96 2ebc 5c6c 4f3c 2556 fa3c
00000390: 9033 733d 5a9c 143c 5f1b 49bd 09d9 0abd
000003a0: ce1d 773d 2fc0 60b9 9e3c 05bd 6e04 06bd
000003b0: 9029 65bd c202 bcbb 10ed f3bc 5905 edbc
000003c0: 6a62 f53c e63e 90bc 34c8 81bc 67c9 713b
000003d0: 1aee 63bc c308 6bbd f1ee d73c 499d 223d
000003e0: 609c 593d 4637 eb3c 6a16 c8bc 16e3 53bd
000003f0: 14c0 bd3c 8a03 4abd f6c7 4b3d b8b4 48bd
0.024088036 0.03528565 0.04804195 -0.015698448 -0.05062003 0.038985476 0.036834892 -0.045854524
-0.023286877 -0.048697412 0.007274161 -0.0107466 -0.034113225 -0.03555391 -0.04474636 0.04442555
-0.0015240194 -0.0063088713 -0.008238786 0.06368405 -0.0003830306 0.012829305 -0.035108533 -0.04163131
-0.0022333611 -0.039755993 0.055934474 0.036635827 -0.009549671 -0.040085938 0.024863373 -0.049096607
0.015089585 -0.015094535 0.067809395 -0.01934466 -0.021949181 -0.031375088 0.029814085 0.049313366
0.01277576 0.031641603 -0.05358664 -0.009035169 0.0151511105 -0.018958151 -0.037908968 0.01179103
-0.021878513 0.033680033 -0.010464508 0.025939867 -0.059430927 0.026438307 0.060949136 -0.038188104
-0.012504641 -0.012548681 0.04556967 -0.020297628 -0.0060718744 0.0012094658 -0.017702129 0.04873496
-0.011373662 -0.006185145 0.04705596 0.04860751 -0.0017474239 -0.049899977 -0.017201675 0.03626296
-0.033650614 0.058457498 0.05695541 0.06275981 0.05334378 0.040689677 -0.030920137 -0.052232023
0.05015099 0.017501151 -0.046765648 -0.0122917425 -0.047911104 -0.044111952 0.048395988 -0.025949046
0.024316829 -0.05567309 -0.061097473 0.04681888 -0.03597662 -0.050831873 0.04629084 0.010562277
0.010994968 -0.05170587 0.04828872 -0.06349418 -0.013315121 0.0353372 0.04805367 0.055836197
-0.051489178 0.048993055 0.016568096 -0.025709774 -0.022025144 0.04065937 -0.04106419 -0.011765411
0.040214594 0.01776514 -0.016125323 -0.04629079 0.013292997 -0.039353307 -0.0107270125 0.05995519
0.007996535 -0.016739756 -0.006523308 -0.011369112 0.001128522 -0.017760413 -0.017978298 -0.033746623
-0.055087462 0.049034182 -0.020025704 0.049248863 0.018016305 0.01826654 0.0028535181 -0.031323098
-0.029276587 -0.0323332 -0.035994343 -0.014697591 0.05232389 -0.04937527 0.051792093 -0.0023466826
0.03248633 0.025960434 -0.03771792 0.042887576 0.06093485 0.040681668 -0.03144112 -0.04488069
-0.0003936812 -0.048085317 -0.03463732 -0.024285594 -0.00868862 0.032113444 -0.0033605066 -0.009414594
0.04882129 0.03205796 -0.03308319 0.026967406 -0.0069808667 0.00092105323 0.038491026 -0.05349408
-0.00903107 0.066918895 -0.048144635 0.017513057 -0.015556577 0.021656157 0.057738867 0.043653887
0.057585463 0.022250118 0.05094899 -0.0031301084 0.06037356 -0.042500712 -0.0044646543 0.05048998
0.05110091 -0.020615228 -0.021909952 0.042334348 0.011622346 -0.021551993 0.037353706 -0.015656639
-0.020686876 -0.021175515 0.014982426 0.038498614 0.0019735103 -0.02597038 -0.010833079 -0.05686117
0.056088742 0.05051966 -0.0006144853 -0.011280285 0.00884217 -0.021514533 -0.011794877 0.025420133
0.04761753 0.010048021 -0.005793371 0.054468177 -0.004358893 0.060249954 0.006122447 -0.011735127
0.0003910303 0.03377054 -0.042591266 -0.061660886 0.033874366 -0.029139446 0.050521117 0.04713972
-0.038883504 -0.010655889 0.012660112 0.030558655 0.059375346 0.00907048 -0.04909837 -0.033898387
0.06033116 -0.00021433899 -0.032528512 -0.03271907 -0.05594784 -0.0057376334 -0.029776126 -0.028933214
0.029954154 -0.017608117 -0.015842535 0.0036893727 -0.013911748 -0.057381403 0.026359053 0.03970078
0.053127646 0.02871288 -0.02442475 -0.051730238 0.023162879 -0.04931978 0.049751244 -0.04900047

fc4.weight f4 [256, 256]
00000000: 4ef9 99bc 8b00 f23c 24c2 95bc 568d eebc
00000010: f5bf c3bc 6bed afbc 138e 17bd 4d8f 0d3d
00000020: 2fff 03bc 6e7e 35bd b50a 8ebd bd30 5e3d
00000030: 2a39 993c 1ee3 8c3d 45a1 b7bd f560 bc3c
00000040: f37a bbbc 6259 aabc 005c cdbd 1f7d 543d
00000050: 0c5e aabc 6f52 eb3b 88e7 76bd 2f4a 11bd
00000060: 4152 0f3d 72aa 36bd cb00 323b b235 c03b
00000070: 1f16 9e3c 4246 3b3d 552e ebbc 35b5 10bd
00000080: e11a 13bd d933 b0bc 3f35 453d 22a6 c2bd
00000090: e06a 5bbd 84b6 5b3d 9947 24bd 7604 113d
000000a0: 0896 2a3c eeb4 3fbd 0e44 9ebc c7f3 9cbd
000000b0: c0b2 90bd bee7 b03c 9121 a1bc bdf2 d6bc
000000c0: 6935 2b3d 1a4f 5a3c c5bd bfbc deae 933b
000000d0: 2827 c23c ba8d 693d 2a44 42bb 074b 0ebd
000000e0: ec24 0f3d e337 06bd e3eb 6c3d e5c1 45bd
000000f0: 8e5e b4bd 10ce 12bc 15b7 163d 197f 08bd
00000100: 4104 623d 2abf 1e3d 8b83 9b3d 58b6 8cbc
00000110: 10b6 db3c 2a81 813d 756b 70bd 0ce1 dbbb
00000120: f156 11bd 9f72 633c d48c 3fbb 5b9e a2b9
00000130: 0704 993b 4b69 b5bc 7fcd e73c 04b0 91bc
00000140: 5968 913d d9d6 5b3d 9e69 0cbd 41b4 92bd
00000150: 22f5 a1bc a496 4dbd 77af c33c cd44 543d
00000160: a86d f9bc c08f a8bc 0ac6 5abc bd3e 9dbc
00000170: 1227 f5bd eee2 2b3d 9602 f23b bfc9 dabb
00000180: a1e6 053d 963b f43c bded aabd 0467 20bd
00000190: 3ae1 f33c c159 18bd eca2 0bbb 39d5 92bc
000001a0: 6609 353b 76d9 b5bc 2605 52bd e2bf 233d
000001b0: edcd 8d3d 200c cebd 062d 823d 7221 663d
000001c0: f8f6 283d 3d2a 813b fa88 a6bd 0677 9e3c
000001d0: 9675 e7bc f576 b03c e4a0 f93c 0746 193d
000001e0: 8a2f 923d 3a93 8dbb 1493 27bc d2da 863d
000001f0: 4cb4 31bd 560c 1cbd a7fe a73c a7fd 8b3c
00000200: 73be a3bd fbd9 253c 06ce f2bb b8f2 8f3d
00000210: 5f28 06bc 1f09 af3c f45d 5ebd 5ea6 5d3d
00000220: d71d 4dbc 2783 bfbd 92cc dc3c 0133 1a3d
00000230: 33b7 e7bc 73ac 31bc 08c9 febc 57f2 a43d
00000240: fb01 453d 8f00 353d c8bf a23c 73cc be3c
00000250: a9e1 023d 1c20 143d 3751 f0bc 48c0 68bc
00000260: d282 cc3d a203 823c 448a 8d3c e792 a23c
00000270: 001f afbc 357d 023a e31f 05bc b6be 8cbc
00000280: cfc6 1fbd f56a b23c 7a1d 19bc d15a ab3d
00000290: d2a6 05bd c6ca bc3d 306d 44bd 8708 14bd
000002a0: 0450 593d 828b 573d 3644 fe3c fcc2 8dba
000002b0: 477d ab3d e853 e3bc 037b 32bc fcbd a03c
000002c0: ed2d 12bc bbf6 46bd 2948 7dbd e583 95bd
000002d0: 8c74 1bbd 6e53 393d fa05 cdbd 7b67 723c
000002e0: 39c1 b3bc dfee 96bd a278 23bd 90f3 37bc
000002f0: ad60 0f3c 3aa0 303c 6903 1abd 27c8 613d
00000300: b8bf 51bd 9a3c 76bd 45de cbbd 66d7 783d
00000310: ebb4 52bd 531a 8cbd cf7c 633d 9905 443d
00000320: 0adc 983b 4e0d 023d 8be0 91bd 9d13 8abc
00000330: 80c5 6f3d eb36 b23c a68b 1e3d 0421 ff3b
00000340: 3ee3 0abd 9d4f debc 982f 773d 438b 03bc
00000350: 8270 8f3d b9e9 573d 7438 6e3d 3e29 a43c
00000360: fb55 22bd 65ee 0c3d 04b1 2c3d ebf7 4cbd
00000370: da32 3e3d f730 88bc 5733 6a3d 64cc 973d
00000380: b9d7 25bd 2446 5c3d e419 6c3d 2398 3e3d
00000390: 1170 343d 3e35 133d 4e1a e8bd 3518 d9bc
000003a0: a964 16bd cf7d 8d3d 197c b3bc a037 463d
000003b0: 5898 2ebc d1b8 2ebc 1690 2a3c 057c d7bb
000003c0: 8775 313d 0854 56bd 4cd4 4cbd a02b b83d
000003d0: b220 b73b e67d f3bc 8224 c53c 3b2f c9bc
000003e0: 739b c9bc 9515 523d 84a7 8f3c eba5 66bd
000003f0: d2b8 253d 2225 4fbd cc90 903c 6019 28bb
-0.018795636 0.029541275 -0.01828105 -0.029120129 -0.023895243 -0.021475514 -0.037000727 0.03456049
-0.008056446 -0.044310026 -0.06935636 0.0542457 0.018704016 0.06879257 -0.089663066 0.022995451
-0.022885775 -0.020794574 -0.10027313 0.051877137 -0.020796798 0.0071814577 -0.0602794 -0.035471138
0.034990553 -0.044596143 0.0027161117 0.005865776 0.019297658 0.0457213 -0.028708616 -0.035329062
-0.035914306 -0.021509098 0.048146483 -0.095043436 -0.05356872 0.053640857 -0.040107343 0.035404645
0.010411747 -0.046803407 -0.01931956 -0.07663684 -0.07065344 0.021594878 -0.019669326 -0.026238794
0.041798983 0.013324523 -0.023405919 0.00450693 0.023700312 0.057019927 -0.002964268 -0.03473952
0.03494732 -0.03276814 0.057842147 -0.048280615 -0.088070974 -0.008960262 0.036795694 -0.033324335
0.055179838 0.038756527 0.07593449 -0.017176792 0.026820213 0.06323464 -0.05869623 -0.0067101773
-0.035483304 0.013882308 -0.0029228227 -0.00031017032 0.0046696695 -0.022144934 0.02829623 -0.017784126
0.07099981 0.05367169 -0.034280412 -0.07163287 -0.019770209 -0.05019249 0.02388738 0.051823426
-0.030447796 -0.020576358 -0.01335288 -0.019194955 -0.11970343 0.041964464 0.007385562 -0.006676882
0.032690648 0.029813569 -0.08346126 -0.039160743 0.029770482 -0.03719497 -0.0021306826 -0.017923938
0.002762401 -0.02219842 -0.05127444 0.039977916 0.06924043 -0.100609064 0.06356244 0.05618424
0.041251153 0.003941803 -0.08131595 0.019343864 -0.028254312 0.021541098 0.030472226 0.0374203
0.071379736 -0.0043205293 -0.010227937 0.065847054 -0.043384835 -0.038097702 0.02050717 0.017088724
-0.0799531 0.010122771 -0.007409814 0.07028717 -0.008188336 0.021366654 -0.05428882 0.05411374
-0.012519321 -0.09351187 0.026953015 0.037646297 -0.028285598 -0.010844338 -0.031101719 0.08054035
0.04809759 0.044189986 0.019866839 0.023290848 0.031953488 0.036163434 -0.029335601 -0.014206
0.099858895 0.015870873 0.017277844 0.01984544 -0.021377087 0.0004977764 -0.008125278 -0.017180782
-0.039007958 0.021779517 -0.009345407 0.08366931 -0.032629795 0.092183635 -0.04795569 -0.036140945
0.053054824 0.05262328 0.031038385 -0.0010815556 0.08373504 -0.02774997 -0.010893586 0.019621842
-0.008922082 -0.048575144 -0.061836395 -0.073005475 -0.037952945 0.04524558 -0.100109056 0.0147951795
-0.021942722 -0.0736978 -0.039909966 -0.011227503 0.008751077 0.0107803885 -0.03760091 0.05512252
-0.051208228 -0.060116388 -0.09954504 0.060752295 -0.051442068 -0.068409584 0.05553895 0.0478569
0.0046649026 0.03175097 -0.07122906 -0.016855055 0.05853796 0.021754703 0.038707398 0.007785918
-0.03390812 -0.027137572 0.060348123 -0.008028808 0.07003881 0.05271313 0.058159307 0.020039197
-0.03963278 0.03440704 0.042161003 -0.05004112 0.046435215 -0.01662491 0.057177868 0.07412031
-0.040488932 0.05377783 0.05764188 0.046531808 0.044052187 0.035939448 -0.11333142 -0.0265008
-0.03671709 0.06908762 -0.02190976 0.048392892 -0.010656439 -0.010664181 0.010410329 -0.0065760636
0.043324973 -0.052326232 -0.05000715 0.08992696 0.0055886144 -0.029723119 0.02406526 -0.024558654
-0.024610257 0.051290113 0.017535932 -0.056310575 0.04045946 -0.050572522 0.01764717 -0.002564989
