grasp_placement/models/run_seed_3309/stability_net.pth (torch, 80580 bytes, 5 tensors)

fc1.weight f4 [128, 21]
0	0xbd88502b	-0.06655916
1	0xbe17d75c	-0.14828247
2	0x3e38c588	0.18044102
3	0xbe2dd43e	-0.16975495
4	0x3d7f6bf3	0.062358808
5	0xbd564fba	-0.052322127
6	0x3de7b81b	0.11314412
7	0x3d94e535	0.0727028
8	0x3e55f3ad	0.20893736
9	0x3c8f399f	0.01748353
10	0x3dc982ba	0.09839387
11	0x3a89ca75	0.0010512607
12	0xbe2de0a5	-0.16980226
13	0xbd29f540	-0.041493654
14	0xbe45757d	-0.192831
15	0xbd8c9a88	-0.06865412
16	0x3d1d24fa	0.03836534
17	0x3e25d7d8	0.16195619
18	0x3c0e6721	0.00869158
19	0x3cabb98a	0.020962495
20	0xbd2a7ad1	-0.041621033
21	0xbe82d0bd	-0.2554988
22	0x3e40b2ab	0.18818156
23	0x3e0dbcc7	0.13841544
24	0xbe115d79	-0.14195813
25	0x3e2919f0	0.165138
26	0x3e43832c	0.19093007
27	0x3e249f9f	0.16076516
28	0x3bb9b886	0.005667749
29	0x3e1a3b81	0.15061761
30	0xbc7ffb36	-0.015623858
31	0xbe625a52	-0.22104767
32	0x3e681aa4	0.22666413
33	0xbe4b955c	-0.19881195
34	0xbd3d789a	-0.046257593
35	0x3e23a7ec	0.15982026
36	0x3c99018f	0.018677501
37	0x3dd11d89	0.102107115
38	0x3e1f0a86	0.15531358
39	0x3e7433cb	0.23847882
40	0x3dcbf516	0.09958856
41	0xbe249a8d	-0.16074581
42	0xbe37797d	-0.17917438
43	0x3d93b5b4	0.072123915
44	0x3db6c6ed	0.08924661
45	0x3da84e12	0.08218016
46	0x3e3d4f5d	0.18487306
47	0xbd82e5a3	-0.06391456
48	0xbe27d00b	-0.16387956
49	0xbd8b21ea	-0.06793578
50	0x3c56d921	0.013113291
51	0x3e733f76	0.23754677
52	0xbe1f81c5	-0.15576847
53	0xbe9376b4	-0.288015
54	0xbcd04816	-0.025424998
55	0x3b81a79b	0.0039567477
56	0x3e228368	0.1587044
57	0xbdc79474	-0.09745112
58	0xbd9cf891	-0.07664598
59	0xbc5cf2a5	-0.013485585
60	0x3e4af0fc	0.1981849
61	0x3e8b30ee	0.27185768
62	0xbe5a390d	-0.21310826
63	0xbc885820	-0.016643584
64	0xbda9c6e8	-0.082898915
65	0x3b81c3d9	0.0039601144
66	0xbe9dc80f	-0.30816695
67	0xbcc25d87	-0.023726238
68	0x3de448a0	0.111466646
69	0xbba8c13e	-0.0051499894
70	0xbe2a1523	-0.16609626
71	0xbe06c01b	-0.1315922
72	0xbd35298c	-0.044229075
73	0x3da78698	0.081799686
74	0xbd2b269d	-0.04178487
75	0x3d880744	0.06642011
76	0xbda72594	-0.08161464
77	0x3e3e5518	0.18587148
78	0xbdfb3921	-0.12266756
79	0x3d44b2f1	0.048022214
80	0x3e2b91c6	0.16754827
81	0x3deee32d	0.11664424
82	0xbe35dbfb	-0.17759697
83	0x3da6efc3	0.081512
84	0xbd4d4c6a	-0.050121702
85	0xbdfadf5d	-0.122496344
86	0x3e4d2acf	0.20035861
87	0xbd461ddd	-0.048368324
88	0xbd837e31	-0.064205535
89	0x3d30fe6b	0.043211382
90	0x3dcc5d82	0.09978773
91	0xbddcf7a1	-0.10789419
92	0x3e19f8cf	0.15036319
93	0x3deb7b6d	0.11498151
94	0xbd6ecdbc	-0.058301672
95	0x3e36d744	0.17855555
96	0x3e099750	0.13436627
97	0x3af51c05	0.0018700367
98	0xbd9b3cd1	-0.07579959
99	0x3cbd91d7	0.02314083
100	0xbe2c4cd6	-0.16826186
101	0x3e7d4016	0.24731478
102	0x3dba3b78	0.09093374
103	0x3dc31a17	0.095264606
104	0xbe7e3c76	-0.24827752
105	0x3bd5d721	0.0065258895
106	0x3e39dad6	0.18149886
107	0xbe47beb5	-0.19506343
108	0x3d805b55	0.0626742
109	0x3e0a8eda	0.13531056
110	0x3ccdb311	0.0251098
111	0x3e4f8e01	0.20269014
112	0xbe12fa01	-0.14353181
113	0xbcb5a8a9	-0.02217515
114	0xbe853c46	-0.26022547
115	0x3dea0153	0.11426034
116	0xbcf514fe	-0.029917236
117	0xbe080e42	-0.13286689
118	0xbda6d857	-0.08146732
119	0xbe5c131e	-0.21491668
120	0xbda33074	-0.07968226
121	0x3e10a82b	0.14126651
122	0x3e14e9d2	0.1454232
123	0xbdc8cb12	-0.098043576
124	0x3d79d7f2	0.060996957
125	0xbd66fe3d	-0.056394804
126	0xbdbf04ff	-0.09327125
127	0x3d3f0e07	0.046644237
128	0x3cca2e35	0.024680236
129	0x3da69647	0.08134132
130	0x3e6eb5e8	0.23311579
131	0xbbc9df0f	-0.006160624
132	0xba69a89f	-0.0008913371
133	0x3e362036	0.17785725
134	0xbdf615b1	-0.12015856
135	0xbe6ed441	-0.23323156
136	0xbe6162b4	-0.22010309
137	0x3e8673de	0.26260275
138	0xbd8eddee	-0.069759235
139	0xbe57cd54	-0.2107442
140	0xbd1ecc37	-0.038768973
141	0x3d991528	0.07474738
142	0xbd8b31c5	-0.06796602
143	0x3e680890	0.22659516
144	0x3e3173c0	0.17329311
145	0x3d6e76d2	0.058218785
146	0xbc9ea532	-0.01936588
147	0xbe25f7c1	-0.16207792
148	0x3db14013	0.08654799
149	0xbdd4d9a5	-0.10393075
150	0xbe3ad062	-0.18243554
151	0xbd02a544	-0.03189589
152	0xbb7ea072	-0.0038852957
153	0xbe9bb995	-0.30415025
154	0x3e3991a6	0.18121967
155	0xbc83748d	-0.016046787
156	0xbd0929f2	-0.033487268
157	0xbcfc1b55	-0.030774752
158	0x3cc58097	0.024109168
159	0x3eabead2	0.3357759
160	0x3dadfa71	0.084950335
161	0xbe4c1992	-0.1993163
162	0xbc0d904e	-0.008640362
163	0x3d399730	0.0453102
164	0xbe627c94	-0.22117835
165	0xbe8eb986	-0.27875918
166	0x3ddfea9b	0.10933419
167	0x3d7b2058	0.061310142
168	0xbd8d36da	-0.06895228
169	0x3e78851a	0.24269524
170	0xbd01d2d2	-0.031695195
171	0xbdb27499	-0.087136455
172	0x3dbd948c	0.09256849
173	0xbd8436e5	-0.06455783
174	0x3d73bde4	0.059507266
175	0x3e012840	0.1261301
176	0x3dd753fc	0.105140656
177	0xbd8bfe61	-0.06835628
178	0xbdb7dc8d	-0.089776136
179	0x3d93c3ec	0.072151035
180	0xbd4fa393	-0.050693106
181	0xbd879c4d	-0.06621609
182	0x3d2b732a	0.041857876
183	0xbdbd9419	-0.09256763
184	0xbe1e2f1b	-0.15447657
185	0xbca82e3f	-0.020529864
186	0xbe29762a	-0.16548982
187	0x3dae154a	0.08500154
188	0xbe59cb7f	-0.21269034
189	0x3b1c2302	0.0023824577
190	0x3e0007fa	0.12503043
191	0xbe13f7c0	-0.14449978
192	0x3d1ff26f	0.039049562
193	0x3e54e13e	0.20789048
194	0x3e8a92e2	0.27065188
195	0xbe1023c4	-0.14076144
196	0xbe019220	-0.12653399
197	0xbe60b72f	-0.21944879
198	0x3d2030b5	0.03910895
199	0xbdf534f5	-0.119729914
200	0x3d0f42f3	0.034975957
201	0xbd029d2f	-0.031888183
202	0xbe830354	-0.25588477
203	0x3e3a722a	0.18207613
204	0x3cc47027	0.02397926
205	0xbc4f6c8e	-0.012660159
206	0xbe1c1a62	-0.15244439
207	0x3d17682d	0.036964584
208	0x3e147677	0.14498316
209	0x3c98b8c1	0.018642785
210	0xbdd85388	-0.10562807
211	0xbe2c2726	-0.16811809
212	0xbe433c36	-0.19065937
213	0xbdb6e1dc	-0.08929798
214	0x3df68f37	0.12039035
215	0x3de6bd63	0.112665914
216	0x3df41426	0.119179055
217	0x3cc62eb0	0.024192184
218	0x3dcc3587	0.09971147
219	0xbe195528	-0.14973891
220	0xbd994497	-0.074837856
221	0xbdfc2800	-0.12312317
222	0x3e2351ef	0.15949224
223	0xbd55d2e0	-0.05220306
224	0x3e7f861b	0.24953501
225	0xbce4ea2f	-0.027943699
226	0xbe52070d	-0.20510502
227	0x3dd22a0e	0.102619275
228	0x3d0c9b11	0.03432757
229	0xbe28a3c8	-0.16468728
230	0x3e4b0b83	0.1982861
231	0xbdc16c69	-0.09444506
232	0x3e321e72	0.17394426
233	0xbae169b6	-0.0017197642
234	0x3e600b0f	0.21879219
235	0xbd6227ae	-0.055213623
236	0xbabba913	-0.0014317356
237	0x3d86133a	0.06546636
238	0xbe826ff4	-0.25476038
239	0x3dd71813	0.10502639
240	0xbda724d6	-0.08161323
241	0xbe420f81	-0.18951227
242	0xbe36dca9	-0.17857613
243	0x3e071b67	0.13194047
244	0xbe12e55f	-0.1434531
245	0xbcf0f5b5	-0.029414037
246	0x3a487c83	0.0007647948
247	0x3c84a3f0	0.016191453
248	0xbc6942c9	-0.014237114
249	0x3d2b7e35	0.041868407
250	0x3dd29e59	0.10284109
251	0xbea6a019	-0.3254402
252	0xbd973eed	-0.07385049
253	0xbe748b78	-0.23881328
254	0x3e7a72fa	0.24457923
255	0x3e71abb7	0.2360066

fc1.bias f4 [128]
0	0xbd179e22	-0.03701604
1	0x3dcd94dd	0.10038159
2	0x3e7cca3e	0.24686524
3	0x3dda4c80	0.106591225
4	0xbdd04fe9	-0.10171492
5	0xbe23b5ae	-0.15987274
6	0xbdd4e695	-0.103955425
7	0xbe33c649	-0.17556109
8	0xbd61f578	-0.055165738
9	0xbbbd7237	-0.0057814377
10	0x3e43f3db	0.19135992
11	0x3e3719bf	0.17880915
12	0xbe10130f	-0.1406977
13	0xbdbdccc1	-0.09267569
14	0x3e1cb5cc	0.15303725
15	0xbd515e89	-0.051115546
16	0x3e224f98	0.15850675
17	0x3ca0a820	0.019611418
18	0xbd954e59	-0.07290334
19	0xbd804c82	-0.06264593
20	0x3dffdb40	0.124929905
21	0xbd9abc5d	-0.07555459
22	0xbe410da9	-0.18852867
23	0x3e416c90	0.1888907
24	0xbe407d19	-0.18797721
25	0xbc36f54b	-0.011166881
26	0x3ca68284	0.020325907
27	0x3de3ddfa	0.11126323
28	0x3e1db2f8	0.15400302
29	0xbe0efd36	-0.1396378
30	0x3d2397cb	0.039939683
31	0x3e0d8b7e	0.13822743
32	0xbe159375	-0.14607032
33	0xbd44f04b	-0.048080724
34	0xbd997646	-0.07493262
35	0x3deb555d	0.11490891
36	0x3dd583b6	0.104255125
37	0x3e221ef9	0.15832128
38	0xbe25476c	-0.16140527
39	0x3d1cc09a	0.038269617
40	0xbd4c4996	-0.049874865
41	0xbd2ee3bd	-0.042697657
42	0x3ba42ca1	0.005010203
43	0xbd027752	-0.031852074
44	0x3d781791	0.06056935
45	0x3de9244d	0.11383877
46	0xbdca91aa	-0.098910645
47	0x3d0c239a	0.03421364
48	0x3e0915ba	0.13387194
49	0x3e54dba8	0.20786917
50	0xbd605164	-0.05476512
51	0xbac90d91	-0.0015339126
52	0x3ddda8b9	0.10823197
53	0x3d86eaea	0.06587775
54	0x3d66b9e6	0.05632963
55	0x3ddb846f	0.10718619
56	0xbcde6505	-0.02714778
57	0xbe35fc8d	-0.17772122
58	0x3d0e088f	0.03467613
59	0xbd9633a1	-0.07334066
60	0xbdc4d521	-0.096109636
61	0x3e236b16	0.15958819
62	0x3d208e6b	0.03919832
63	0x3dedb77e	0.11607264
64	0x3d3c0393	0.045901846
65	0xbcf4f386	-0.029901277
66	0xbdec8bb5	-0.115500845
67	0x3e11f41c	0.14253277
68	0xbe4aa95c	-0.19791168
69	0x3d3f7fb9	0.046752665
70	0x3c715539	0.014729791
71	0xbdccbcab	-0.09996923
72	0x3ddc8ba4	0.10768822
73	0xbdf0feea	-0.11767371
74	0xbe54c3e4	-0.20777851
75	0xbe76ed38	-0.2411393
76	0xbb5ee999	-0.0034013747
77	0x3c112ee5	0.008861278
78	0xbe58e1ad	-0.21179838
79	0x3c032ff5	0.008007039
80	0xbe20ff9c	-0.15722507
81	0x3e17b5f9	0.14815511
82	0x3e1efe51	0.15526702
83	0x3c78dfb1	0.015190051
84	0xbd7e23b1	-0.062045757
85	0xbe133472	-0.14375475
86	0xbdb69037	-0.089142255
87	0xbce9ffdf	-0.028564392
88	0x3e0f7fc7	0.14013587
89	0x3da9d20b	0.08292016
90	0x3dd9a2b7	0.106267385
91	0xbe4dda50	-0.20102811
92	0xbda77d4f	-0.081781976
93	0x3e315e52	0.17321137
94	0x3dd7b7a1	0.10533071
95	0xbdbc2d7c	-0.09188363
96	0xbce834ed	-0.02834555
97	0xbd089597	-0.033345785
98	0x3af25f98	0.0018491624
99	0xbdf41dce	-0.11919747
100	0xbd64f43e	-0.05589699
101	0x3d2f4e30	0.042799175
102	0x3e28ff53	0.16503648
103	0x3d790564	0.060796157
104	0xbd627ab9	-0.05529282
105	0xbdf06c2c	-0.11739382
106	0xbcff0cea	-0.031134088
107	0xbe2a25e5	-0.16616018
108	0xbe535a5c	-0.20639938
109	0xbc909d9a	-0.017653275
110	0xbda69282	-0.08133413
111	0x3c823282	0.015893225
112	0x3d62bab9	0.055353854
113	0x3da79913	0.081834935
114	0x3dd70323	0.10498645
115	0xbe223b10	-0.15842843
116	0x3e2f9e85	0.17150314
117	0xbe6964ac	-0.2279231
118	0x3d845bc7	0.06462818
119	0xbdc6a894	-0.097001225
120	0xbdf16d94	-0.117884785
121	0x3e27ac4f	0.16374324
122	0x3deb2822	0.11482264
123	0xbdf77a28	-0.12083846
124	0x3df632fa	0.12021442
125	0x3db56b6d	0.088583805
126	0xbd0c7c33	-0.034298133
127	0xbdf4e1d0	-0.11957133

fc2.weight f4 [128, 128]
0	0xbd3bc73a	-0.045844294
1	0x3d0e7a09	0.03478435
2	0xbd9606c1	-0.07325507
3	0xbd8a91f3	-0.06766119
4	0xbd8a05bd	-0.06739376
5	0xbc2b3904	-0.010450605
6	0x3d53a5ef	0.05167192
7	0xbcfbe483	-0.030748611
8	0xbdaec7ee	-0.08534227
9	0xba602fc1	-0.0008552038
10	0xbc9a4eda	-0.018836427
11	0xbd02f1ae	-0.031968765
12	0x3d418249	0.04724339
13	0x3c11f65a	0.008908832
14	0xbd08908a	-0.03334097
15	0x3cf40193	0.029785907
16	0x3d8251f1	0.06363285
17	0x3d23f4ff	0.04002857
18	0x3c0649ad	0.008196277
19	0xbd53b0b7	-0.0516822
20	0x3d59210a	0.053010024
21	0x3cd18ad8	0.025578901
22	0xbc17b051	-0.009258346
23	0xbd893f1c	-0.0670149
24	0xbc2c6046	-0.010521
25	0xbd242336	-0.040072642
26	0xbd5cf633	-0.05394573
27	0xbcdab401	-0.02669716
28	0x3c6edd5b	0.014579142
29	0x3c03c44f	0.008042409
30	0x3d477779	0.048697922
31	0x3d9e3c50	0.077263474
32	0x3d2d4e08	0.042310745
33	0xbd3113a5	-0.043231625
34	0xbd1ecb18	-0.038767904
35	0xbd4cc0e4	-0.049988642
36	0xbd9dd1d8	-0.0770604
37	0xbcb991ae	-0.022652473
38	0x3da7db39	0.0819611
39	0x3d8e2d4f	0.06942236
40	0x3d20c76f	0.039252695
41	0x3d020e7d	0.0317521
42	0xbb74ff37	-0.0037383565
43	0xbdb4fe21	-0.08837534
44	0xbd6e541d	-0.058185685
45	0x3cbf1976	0.02332757
46	0xbd7f7f58	-0.062377304
47	0xbd69b9fc	-0.057062134
48	0xbdaf51cf	-0.085605256
49	0xbc22550a	-0.00990797
50	0xbda506b6	-0.08057921
51	0x3dad7088	0.08468729
52	0x3c947c4a	0.018125672
53	0xbd615ff6	-0.055023156
54	0xbd08afa4	-0.03337063
55	0xbdb0dc22	-0.08635737
56	0xbc8c769c	-0.017146401
57	0x3d9d374e	0.07676564
58	0xbd3b4933	-0.045724105
59	0x3d75361d	0.05986606
60	0x3d0f76cb	0.0350254
61	0x3d883588	0.06650835
62	0x3d3dac87	0.046307113
63	0x3d1272d0	0.035754025
64	0xbca29077	-0.019844277
65	0xbcfc9934	-0.030834772
66	0xbd3528e0	-0.044228435
67	0x3dac9717	0.084272556
68	0x3ce7172f	0.028209297
69	0xbd30221d	-0.043001283
70	0xbdad93de	-0.08475469
71	0xbcf8e613	-0.030383145
72	0xbd8943d2	-0.06702389
73	0xbdaf2c27	-0.08553343
74	0xbd964bc4	-0.0733867
75	0xbd5e96b2	-0.054342933
76	0xbcc15d50	-0.023604065
77	0xbd6f64fc	-0.058445916
78	0xbd3d445f	-0.046207782
79	0x3d6c4987	0.05768731
80	0xbd949b37	-0.072561674
81	0xbc74c9f8	-0.014940731
82	0xbbef3a07	-0.0073006186
83	0xbd5a12b0	-0.053240478
84	0xbcc4d03b	-0.024025073
85	0x3d1280bf	0.035767313
86	0x3d10c473	0.0353436
87	0xbd292179	-0.041291688
88	0x3d520049	0.051269803
89	0xbd386084	-0.04501392
90	0x3dabe5df	0.08393454
91	0x3c075b26	0.008261478
92	0x3d9fccde	0.07802747
93	0x3d1158b0	0.03548497
94	0x3d871455	0.06595675
95	0x3d0ae82f	0.033912834
96	0x3d1d32c8	0.038378507
97	0x3da4cf3a	0.08047338
98	0xbc9b6fb8	-0.01897417
99	0x3b704683	0.0036663122
100	0xbda2b237	-0.07944148
101	0xbc3160ce	-0.010826303
102	0xbcb9c1d9	-0.022675442
103	0xbd708b3a	-0.058726527
104	0x3d21de4a	0.039518632
105	0x3d4058f3	0.04695983
106	0xbcd838ce	-0.026394274
107	0x3d52b223	0.051439416
108	0x3d9a7ae8	0.07542974
109	0x3daeebab	0.08541044
110	0x3d0b3a6e	0.03399127
111	0x3d9d627c	0.076848
112	0xbda53e44	-0.08068517
113	0xbd83ebab	-0.064414345
114	0xbd3078a5	-0.043083806
115	0x3c281c54	0.01026066
116	0xbb28df97	-0.0025768036
117	0xbda9608b	-0.08270367
118	0x3d3f69e5	0.04673185
119	0xbc1b9f69	-0.009498456
120	0xbd434ddc	-0.047681674
121	0x3d513c3f	0.051082846
122	0xbd7a483a	-0.061104037
123	0xbd9829e3	-0.07429864
124	0x3d48bdc8	0.049009115
125	0xbd81335c	-0.06308624
126	0x3d88a557	0.06672161
127	0xbd4195cd	-0.047262
128	0xbd545fc0	-0.051849127
129	0xbce069d5	-0.027394215
130	0x3d38568f	0.045004424
131	0xbba59fc3	-0.0050544455
132	0x3c881489	0.016611354
133	0xbdcaab43	-0.09895947
134	0xbca9f1df	-0.020745216
135	0x3d487a24	0.048944607
136	0x3db52c91	0.08846391
137	0xbdb541da	-0.08850451
138	0xbdd597c1	-0.104293354
139	0x3d322559	0.04349265
140	0xbdc1a8c3	-0.09456017
141	0x3d59fe45	0.053221006
142	0x3e26e9ff	0.163002
143	0xbcce835b	-0.02520912
144	0xbd4299a4	-0.047509804
145	0xbc0687f1	-0.008211122
146	0xbd6d9737	-0.058005538
147	0x3b383113	0.0028105422
148	0xbdb69103	-0.089143775
149	0xbd836b55	-0.06416956
150	0xbda62d88	-0.08114153
151	0xbc9533bc	-0.018213145
152	0x3db00b07	0.08595853
153	0xbd5e594f	-0.05428439
154	0xbdff65a7	-0.124705605
155	0x39ddc9c4	0.00042302732
156	0x3c06416b	0.008194308
157	0x3db73e80	0.08947468
158	0xbdb89fd6	-0.09014861
159	0xbd187d0b	-0.037228625
160	0xbc88e3ea	-0.01671024
161	0x3dfa0ea7	0.12209826
162	0xbc48d96c	-0.012258869
163	0xbb282cb2	-0.0025661406
164	0xbd8b616b	-0.068056904
165	0xbda2d1a5	-0.07950143
166	0xbd4b1333	-0.049578857
167	0xbcf72bd1	-0.03017226
168	0xbcd0cc3d	-0.025488013
169	0xbd7218b6	-0.059105597
170	0xbd659239	-0.056047652
171	0xbd608e8f	-0.054823454
172	0xbde78266	-0.113041684
173	0xbdac17cd	-0.08402977
174	0x3cad0cf6	0.021124344
175	0xbd5bfd07	-0.053708103
176	0x3dab96f5	0.08378402
177	0xbbaa4477	-0.00519615
178	0xbdd1b850	-0.10240233
179	0x3d598a74	0.053110555
180	0x3d6ad4f4	0.057331994
181	0xbde6a023	-0.112610124
182	0xbd3a9ccb	-0.045559686
183	0xbdf43d13	-0.119257115
184	0x3dc31f7f	0.09527492
185	0x3d3b3555	0.04570516
186	0xbc248152	-0.010040598
187	0x3d87c9fa	0.06630321
188	0x3d0e51e6	0.034746073
189	0x3dc9ece7	0.09859639
190	0x3ccb3e81	0.024810078
191	0xbd00f395	-0.031482298
192	0x3da025c0	0.078197
193	0x3dadd9c6	0.084888026
194	0xbb34a625	-0.002756485
195	0x3e08ed0e	0.13371679
196	0x3907838d	0.0001292361
197	0xbe409771	-0.1880777
198	0xbb8d8556	-0.0043188734
199	0x3c8519a0	0.01624757
200	0xbdb0c238	-0.08630794
201	0xbc1edff9	-0.009696954
202	0xbd5fa166	-0.05459728
203	0xbc5bbe0e	-0.013412012
204	0xbd8da11a	-0.06915493
205	0xbddf0d3c	-0.10891196
206	0x3dd1baf4	0.102407366
207	0xbd68c38c	-0.056827113
208	0xbb2743a2	-0.002552249
209	0x3cd23c62	0.025663558
210	0xbdf4c965	-0.119524755
211	0x3bff3068	0.007787753
212	0x3e12f972	0.14352968
213	0xbdc57246	-0.096409366
214	0x3cc10401	0.02356148
215	0x3c2fd190	0.010731116
216	0x3d3f1d57	0.04665884
217	0xbd3f303f	-0.04667687
218	0xbda0c70d	-0.07850466
219	0xbc848915	-0.016178647
220	0x3b4db1b6	0.0031386442
221	0x3c934c8a	0.017980833
222	0x3c62bd0e	0.013839019
223	0xbbf5efcf	-0.007505394
224	0x3bed2e86	0.007238212
225	0x3c69627c	0.014244672
226	0xbe0471e3	-0.1293407
227	0x3d076c51	0.033062283
228	0xbd0cf868	-0.034416586
229	0xbce1321d	-0.027489716
230	0xbc135915	-0.008993407
231	0xbd9113b9	-0.0708384
232	0x3c49dd01	0.012320758
233	0x3d98bb65	0.07457618
234	0x3b5d68ee	0.0033784467
235	0xbdc369a6	-0.09541635
236	0xbc957669	-0.018244939
237	0xb89aa42b	-7.373871e-05
238	0xbd7930f8	-0.060837716
239	0xbdbb77f0	-0.09153736
240	0xbbc9cfcb	-0.006158804
241	0xbd7e13b8	-0.062030524
242	0xbcd8ce64	-0.026465602
243	0xbd691562	-0.056905158
244	0xbcec5dd3	-0.028853333
245	0xbda55356	-0.08072536
246	0xbe317f93	-0.17333822
247	0xbd94d110	-0.07266438
248	0xbd026682	-0.03183604
249	0xbd98425a	-0.074345306
250	0xbd7b7016	-0.06138619
251	0xbd240a80	-0.040049076
252	0x3d25c049	0.04046658
253	0xbd85db98	-0.06536025
254	0x3aa5f2b4	0.0012660832
255	0xbd559d97	-0.052152243

fc2.bias f4 [128]
0	0xbce2f9d6	-0.027707022
1	0xbc3ab84e	-0.011396481
2	0xbcb5cc15	-0.02219204
3	0x3d93ec76	0.07222836
4	0x3d902981	0.07039166
5	0xbd881d82	-0.06646253
6	0x3dbbdeb4	0.091733366
7	0xbd7ff2b0	-0.062487304
8	0x3dd89861	0.10575939
9	0xbc12027c	-0.008911725
10	0xbcc3c5ad	-0.02389797
11	0x3d298208	0.041383773
12	0xbd1f4a97	-0.038889494
13	0xbd5460e9	-0.051850233
14	0x3c9a94fc	0.01886987
15	0x3dd8b9c9	0.10582311
16	0xbd615d34	-0.055020526
17	0x3d913c0b	0.070915304
18	0xbd0b2cf1	-0.033978406
19	0x3d96536f	0.073401324
20	0xbd3e9a5a	-0.04653392
21	0x3d8c14db	0.06839915
22	0x3d92589a	0.07145806
23	0xbc48f6c4	-0.012265865
24	0xbd09151d	-0.0334674
25	0xbda813f0	-0.08206928
26	0x3d2088a6	0.039192818
27	0x3d96a249	0.07355172
28	0xbceeb275	-0.02913783
29	0x3c390fb7	0.011295251
30	0x3d0b88a0	0.034065843
31	0xbdb49fc0	-0.088195324
32	0xbda06b5a	-0.07832976
33	0x3d8544b8	0.06507248
34	0xbd7c16d3	-0.061545204
35	0xbdb30d0b	-0.08742722
36	0x3dae95eb	0.08524688
37	0xbd8221d3	-0.06354108
38	0xbd902593	-0.07038417
39	0x3d831227	0.06399947
40	0xbd8b7191	-0.068087704
41	0x3dd9fc62	0.10643841
42	0x3c14310a	0.009044895
43	0x3d4edf2a	0.050505795
44	0x3ce48634	0.027896024
45	0x3c569c4d	0.013098788
46	0x3cf83093	0.0302966
47	0x3dcea1f8	0.10089487
48	0xbd8331e7	-0.064060025
49	0x3ce9d2f0	0.028542966
50	0x3d5850f6	0.052811585
51	0xbcec5f23	-0.028853958
52	0x3cddf6f3	0.027095294
53	0xbdb7e62d	-0.089794494
54	0xbdb4f395	-0.08835522
55	0xbd27568d	-0.040854026
56	0xbc29c8ed	-0.010362846
57	0xbd2e67c7	-0.04257944
58	0xbd4eda7b	-0.050501328
59	0xbb87e8eb	-0.004147639
60	0xbd58229b	-0.052767377
61	0xbc879a8f	-0.016553191
62	0xbdbeb23f	-0.093113415
63	0xbdb4e1e8	-0.08832151
64	0x3cec6b50	0.028859764
65	0xbdac9470	-0.0842675
66	0x3d918bed	0.07106767
67	0xbc9c7922	-0.01910073
68	0x3c86b2ef	0.016442744
69	0x3cbb0652	0.022830162
70	0xbd6f927d	-0.05848931
71	0xbc09a0df	-0.008400171
72	0x3da3009d	0.07959101
73	0x3d370d05	0.04469015
74	0xbb93b7ab	-0.004507979
75	0xbd50371b	-0.050833803
76	0x3ca008cc	0.019535445
77	0xbb38921d	-0.0028163262
78	0xbdbf6e85	-0.09347252
79	0xbd227ef4	-0.039671853
80	0xb7ead8b9	-2.7995893e-05
81	0x3caf990f	0.021435289
82	0x3d4096f6	0.047018968
83	0xbd9ff007	-0.078094535
84	0x3d64bc85	0.05584385
85	0x3da3a2ca	0.07990034
86	0xbd87d82d	-0.06633029
87	0xbbb8e7b6	-0.0056428565
88	0x3cadd435	0.021219352
89	0x3cf4d94e	0.029888775
90	0x3d7379c5	0.0594423
91	0xbc976c09	-0.018484132
92	0xbd407df8	-0.046995133
93	0xbd11c13e	-0.03558468
94	0xbd6f6b75	-0.05845209
95	0x3a333247	0.00068358
96	0xbd083a05	-0.033258457
97	0x3daea2ef	0.08527171
98	0x3d080d6d	0.03321593
99	0xbd67c049	-0.05657986
100	0x3c243808	0.0100231245
101	0xbdb4c918	-0.08827418
102	0x3d83fd33	0.06444778
103	0x3d6e2286	0.058138393
104	0x3cef4799	0.029208945
105	0xbd433884	-0.04766132
106	0x3de6afd8	0.11264008
107	0xbbfe648b	-0.0077634505
108	0x3d996532	0.074900046
109	0x3d11cb14	0.03559406
110	0xbd86b6ec	-0.06577858
111	0xbbbd7cfe	-0.0057827225
112	0x3da91b1b	0.08257123
113	0x3c0646ec	0.00819562
114	0x3da72ffe	0.08163451
115	0x3d84eeb6	0.06490843
116	0xbc14e99e	-0.009088902
117	0x3d97ea5a	0.07417746
118	0x3d8d835d	0.06909821
119	0x3c5bca06	0.013414865
120	0xbca32ca3	-0.019918745
121	0xbd4d7de5	-0.05016889
122	0xbd9a0095	-0.07519642
123	0xbd7eb50a	-0.06218437
124	0x3c857056	0.016288918
125	0x3866d5a7	5.5035252e-05
126	0x3d16d65b	0.03682552
127	0xbcf066a7	-0.029345823

reg_head.weight f4 [1, 128]
0	0x3dad323a	0.084568456
1	0xbe057160	-0.1303153
2	0xbd8437a0	-0.06455922
3	0xbe853e4a	-0.26024085
4	0x3d17f0f9	0.037095044
5	0x3c3e1be4	0.011603329
6	0x3dc0af7f	0.09408473
7	0x3d2317b5	0.03981753
8	0x3dc31dfb	0.09527203
9	0xbeacae50	-0.3372674
10	0x3d921a4f	0.07133924
11	0x3d6b322e	0.057420902
12	0x3aa4bc91	0.0012568404
13	0xbe5692ee	-0.20954487
14	0xbdb96ec4	-0.0905433
15	0x3d11e098	0.03561458
16	0x3e2dc1fb	0.16968529
17	0xbec0c861	-0.37652877
18	0x3e661b57	0.22471367
19	0xbe3b1c86	-0.182726
20	0x3cf2f9be	0.029660102
21	0x3d9bb433	0.0760273
22	0xbe7b2802	-0.2452698
23	0x3e29511e	0.1653485
24	0x3d3ff35e	0.046862952
25	0xbb910047	-0.004425082
26	0xbe30af52	-0.1725438
27	0xbe08cfdd	-0.13360544
28	0x3e806052	0.25073487
29	0xbe27a63c	-0.16372007
30	0xbeafcb29	-0.34334686
31	0xbe99d54a	-0.3004554
32	0x3d02077e	0.031745426
33	0xbe7ea8ab	-0.24869029
34	0xbd9fd109	-0.07803542
35	0xbd110f9a	-0.03541527
36	0x3d82ef60	0.063933134
37	0x3d992879	0.07478423
38	0x3e2b0412	0.16700771
39	0x3daa05f9	0.083019204
40	0x3bff153c	0.0077845138
41	0x3da9f2c9	0.08298261
42	0xbe7809cf	-0.24222492
43	0xbd068c9c	-0.03284894
44	0x3d1a39c2	0.03765274
45	0x3dbab73b	0.0911698
46	0xbe1f1471	-0.15535142
47	0x3d879985	0.066210784
48	0x3d1d6a7d	0.038431633
49	0xbe78a9c8	-0.24283516
50	0x3d5e7dee	0.054319315
51	0xbe68fcd6	-0.227527
52	0x3d78f04d	0.060776044
53	0xbee0d458	-0.43912005
54	0xbd59ed27	-0.05320468
55	0x3dea1d3c	0.11431357
56	0xbdb5360a	-0.08848198
57	0xbba41ac5	-0.005008074
58	0xbdf44d12	-0.119287625
59	0xbe23d91b	-0.16000788
60	0x3d96ffad	0.07372985
61	0xba5621ba	-0.0008168478
62	0x3d839200	0.06424332
63	0xbd92826e	-0.07153784
64	0xbdeb1635	-0.11478845
65	0x3d6c41f1	0.057680074
66	0xbed93a07	-0.42427084
67	0xb8ae1e42	-8.3026025e-05
68	0x3ccc611a	0.024948645
69	0x3d823560	0.06357837
70	0x3d7fe23c	0.062471613
71	0x3e91b092	0.28455025
72	0xbe671d4b	-0.22569768
73	0x3dac2009	0.08404548
74	0x3d9a5671	0.07536019
75	0x3e241f48	0.16027558
76	0x3d710570	0.058843076
77	0x3d500819	0.050788973
78	0x3c1782f1	0.009247527
79	0xbe9c4a2d	-0.30525342
80	0xbe79847e	-0.24366948
81	0xbe760f53	-0.24029283
82	0x3d97ff7d	0.074217774
83	0xbe6e4ec7	-0.23272239
84	0x3d2bfafa	0.041987397
85	0xbea8f2c3	-0.32997712
86	0x3db39ab7	0.08769744
87	0xbe4f93ce	-0.20271227
88	0x3dd0eef1	0.102018245
89	0x3d8e5904	0.06950572
90	0xbe87d810	-0.2653203
91	0xbda6453e	-0.08118676
92	0x3d94ee65	0.07272033
93	0xbe2db691	-0.16964175
94	0x3e62e274	0.22156698
95	0x3e664745	0.22488125
96	0xbe6f8ff1	-0.23394753
97	0x3c82b704	0.01595641
98	0xbe4d9425	-0.20076044
99	0x3e2b2398	0.16712797
100	0xbe98df40	-0.29857826
101	0x3cf9ab5b	0.030477216
102	0xbe29ac16	-0.16569552
103	0x3cd46e02	0.025931362
104	0xbe5c0b6b	-0.2148873
105	0x3e5a4b0d	0.21317692
106	0x3dbedd5a	0.09319563
107	0xbea4401b	-0.3208016
108	0xbe588b16	-0.21146807
109	0xbe73c55f	-0.2380576
110	0xbe55454c	-0.20827216
111	0xbea753fd	-0.32681265
112	0x3c9055c7	0.017619027
113	0xbe697f95	-0.22802575
114	0x3c728775	0.014802803
115	0x3d266ab6	0.04062911
116	0x3e61bb76	0.22044167
117	0xbdd5a762	-0.10432316
118	0xbea8ab0d	-0.32943
119	0xbcd43b74	-0.025907256
120	0x3d418778	0.047248334
121	0xbd916781	-0.0709982
122	0xbc330773	-0.010927069
123	0xbe0e3e6a	-0.13890997
124	0x3c74af36	0.014934352
125	0xbdb929de	-0.09041189
126	0x3e466d70	0.19377685
127	0x3d7ac474	0.06122251
