grasp_placement/models/run_seed_3217/stability_net.pth (torch, 289476 bytes, 5 tensors)

fc1.weight f4 [256, 21]
000000 7c 15 33 be 52 d1 b2 3d 8d 22 0e 3b 15 7f 58 3e
       -0.17488664 0.08731331 0.0021688074 0.21142228
000010 02 ac c5 bc cb 95 7f 3e 5b e3 3a bd 7e 4c 63 be
       -0.024129871 0.24959485 -0.04562698 -0.22197148
000020 00 fd 38 3e 63 7c b7 bd b0 63 ee 3d ff 1a 81 bc
       0.18065262 -0.08959272 0.11640108 -0.015759943
000030 a7 e7 1d be 9e eb 08 bf a6 9a e1 bc 7b 3f df 3d
       -0.154204 -0.53484523 -0.027539562 0.1090078
000040 b5 00 5e 3d 2b df 11 be 19 d2 ab bc d5 f8 99 3e
       0.054199893 -0.14245288 -0.020974206 0.30072656
000050 64 a9 fa bd 59 2a 48 be 09 78 34 bd 01 8d 20 be
       -0.1223934 -0.19547404 -0.044059787 -0.15678789
000060 26 d5 a4 bd dc 03 71 3e 32 c9 e7 bc 70 3d 49 3d
       -0.08048467 0.23536628 -0.02829418 0.049130857
000070 ec 40 6d 3d 3d 82 5e be 71 6a 42 be 9c e9 91 3d
       0.057923242 -0.2172937 -0.18985917 0.071246356
000080 5c a6 e2 bc 82 2c 51 3e 98 43 84 3e a2 d9 35 3c
       -0.027667217 0.20427135 0.2583282 0.011099251
000090 e0 65 c1 bd 0b bc 45 be 65 e9 49 be 92 3b a1 bd
       -0.09443259 -0.19310014 -0.19717939 -0.0787269
0000a0 50 69 9c 3c b2 6e ed bd 0b 34 36 3e 17 7f e5 bd
       0.019093186 -0.11593379 0.1779329 -0.11205881
0000b0 df ec a6 bd cd 0a 68 3e 4a 2a c8 bd ff 34 9e bc
       -0.08150648 0.2266037 -0.09773691 -0.01931238
0000c0 ff 14 13 be 44 17 5a 3e 83 85 fe bd 21 fc 6d be
       -0.14363478 0.21297938 -0.12427809 -0.23240711
0000d0 db a3 93 bd 94 fc 01 be e2 18 8d 3d 55 55 37 be
       -0.07208987 -0.12694007 0.06889512 -0.17903645
0000e0 9f c0 64 3d 57 e1 33 3e 83 0f 28 be 4b d5 b3 3d
       0.05584776 0.17566429 -0.16412167 0.08780917
0000f0 0b 72 fa 3d 06 e2 00 be d2 e2 ae 3e d3 93 1d be
       0.12228783 -0.12586221 0.34157425 -0.15388422
000100 cf 41 23 be b6 ae b5 be 61 29 2e 3e dc bc 31 be
       -0.15943073 -0.35484856 0.17007972 -0.173572
000110 22 93 aa bd 45 6c 88 bd 2d 45 4d bc 50 6c 2a 3e
       -0.083288446 -0.06661276 -0.0125287 0.1664288
000120 87 e5 19 3d e4 c3 af 3d 01 f6 61 bb 81 b1 08 3c
       0.03757241 0.08582285 -0.0034478905 0.0083431015
000130 11 39 ee bd 87 df 24 3e be 51 38 be a2 92 c8 3d
       -0.11631978 0.16100894 -0.17999932 0.09793593
000140 90 8e c2 be f0 3c 20 be 9d e9 31 3c f4 a5 ee 3d
       -0.37999392 -0.15648246 0.01085892 0.11652747
000150 1b a7 99 3d ec 7f f7 bd ec c3 cd bd c1 03 e9 3d
       0.07502576 -0.12084946 -0.10047135 0.11377669
000160 25 80 9c 3d 65 c1 6c 3e fa f5 f2 bc 45 00 63 3d
       0.07641629 0.23120649 -0.029658306 0.05542018
000170 5f 7c 6a 3d b2 69 4e bd b7 5d 04 3e 61 fd 82 bd
       0.057247516 -0.050393768 0.12926374 -0.063959844
000180 52 2b cb 3b 0a f0 a4 bd db 27 7a 3d db 5d 37 3e
       0.0062002325 -0.08053596 0.061073165 0.17906897
000190 47 69 a2 3d 80 ff c0 3d 0c 40 de 3c 68 28 0b 3e
       0.07930236 0.09423733 0.02713015 0.13589633
0001a0 8e 9e 05 be cf 38 8a b9 51 f3 78 3e 7f 65 cf 3d
       -0.13048765 -0.00026363737 0.24311568 0.10126781
0001b0 88 6d 7e 3e ef a9 1a 3e 06 67 81 3c ac 64 2d bd
       0.2484647 0.15103887 0.015796196 -0.042332336
0001c0 88 0a 19 be f7 55 5c 3e 01 9e f6 bd 28 f4 36 be
       -0.14945424 0.21517168 -0.120418556 -0.17866576
0001d0 1b a9 37 3d ee 08 76 3d 55 52 3a bd 47 37 ca 3c
       0.044839006 0.06006711 -0.045488674 0.024684561
0001e0 10 82 0b 3c cb 5f 5f bd 91 65 6d 3d 47 ec 1f 3e
       0.008514896 -0.054534715 0.05795819 0.15617476
0001f0 f8 2f 31 bd 44 33 b8 3e c9 f1 c8 bd 3c 47 30 3e
       -0.043258637 0.35976613 -0.09811742 0.17214674
000200 f5 8f 6d be eb 91 24 3e 0c 9f 1f be 4f 7f b7 3e
       -0.23199446 0.16071288 -0.15588015 0.35839316
000210 33 b7 a8 bd b0 5f be bd 57 94 c8 bc e4 3f c1 3d
       -0.082380675 -0.09295595 -0.024484796 0.09436014
000220 06 45 d0 bd 80 e5 f4 bd 1f 0f 41 3e d6 99 cc bd
       -0.10169415 -0.11957836 0.18853424 -0.099902794
000230 78 88 d6 3b cf 9e a0 bd c6 0e 6c be 0c 07 11 3e
       0.00654703 -0.0784279 -0.2305251 0.14162844
000240 6a 8b 3e 3e 06 0a e7 3d c6 75 9a 3e f8 a9 8d 3d
       0.1860787 0.11281209 0.3016798 0.069171846
000250 3b 65 5b 3e 42 d7 a4 3c 11 9a af 3d 9a 4e 48 be
       0.21425335 0.020122174 0.08574308 -0.19561234
000260 b0 2c f4 3c ea 7d ce 3d 14 f9 0b 3e 63 cf a7 3e
       0.029806465 0.1008261 0.13669235 0.3277541
000270 d8 96 62 be a0 28 5f be d0 26 10 be fb 25 3a 3e
       -0.22127855 -0.21792841 -0.14077306 0.18178551
000280 7f d0 cd be ca 46 82 be a2 79 9c be 74 c0 b9 3c
       -0.40198132 -0.25444633 -0.30561548 0.022674777
000290 1a f0 c0 3d 45 3f 2c be 33 94 dd 3d 04 83 2f be
       0.09420796 -0.1682101 0.108192824 -0.17139822
0002a0 cb 82 c4 3d 9e ef 96 3d 3d 95 a4 3d 17 0a 86 3e
       0.09595259 0.07369922 0.080362774 0.26179573
0002b0 82 60 ee bc 32 8b 8b 3d 27 91 01 bd 12 c9 d8 3d
       -0.029098753 0.06813659 -0.03163257 0.10585226
0002c0 6b 5d c2 3d 57 89 90 3d e3 21 4d be e1 2b 21 be
       0.09490474 0.070574455 -0.20032458 -0.15739395
0002d0 f4 8f f1 3d 60 aa 33 be e3 a4 79 3c d8 91 0b 3d
       0.11795035 -0.17545462 0.015237066 0.034074634
0002e0 67 b8 1a be c4 31 98 3c 14 0b 57 3e 88 32 0c 3e
       -0.15109406 0.018578418 0.2100032 0.13691151
0002f0 82 a9 7f bd 4d 96 55 3c d5 19 c6 3d 05 19 a6 3c
       -0.062417515 0.013036323 0.09672896 0.020275602
000300 44 26 40 bd a6 1f f3 3c f9 26 00 3d 47 fa 21 3e
       -0.046911493 0.029678177 0.031287167 0.1581813
000310 b9 80 a2 3c ae cf 22 3e c9 2c 26 be d1 68 0b be
       0.01983677 0.15899536 -0.16228022 -0.13614203
000320 a5 4c a5 be f2 f9 76 3e 7c e0 ee 3e 34 77 08 bd
       -0.32285038 0.24118784 0.46655643 -0.033316806
000330 56 51 be bd ab b5 73 3d cf 6b 19 3e 8d 02 55 3e
       -0.09292857 0.059499424 0.14982532 0.20801754
000340 bc a3 4b be 87 2e d8 3d 58 70 b8 3d 93 b6 25 3e
       -0.19886678 0.105557494 0.09005803 0.16182928
000350 22 0d e5 bd 9e a9 09 3e f1 fe 11 3e 6c 8a 27 3d
       -0.111841455 0.1344361 0.14257409 0.040903494
000360 66 58 42 bd 91 a9 90 3e ff d8 68 be 2b 61 b2 be
       -0.047447585 0.2825437 -0.22739027 -0.34839758
000370 ac bc bb bd 34 ba 37 be c3 67 eb bb e6 be d9 be
       -0.09166846 -0.17942125 -0.007184 -0.42528456
000380 f1 8e a5 3e d6 5d 8e 3e 0f d7 4a be 3d 99 be 3d
       0.32335618 0.27805966 -0.19808601 0.09306572
000390 8f c1 52 be dc ed 1f 3e 20 95 0e 3e 12 ae 70 bb
       -0.20581649 0.1561808 0.13924074 -0.0036724848
0003a0 0d 5d 20 bd bb 64 9a be be d9 89 be 16 d6 6a 3d
       -0.03915124 -0.30154976 -0.26923937 0.057333075
0003b0 26 bb 35 3e ff 20 44 3e 8f 17 86 bd 6c aa 1a 3c
       0.17747173 0.19153212 -0.06547462 0.009440046
0003c0 9c 2b 07 be f7 3d cd 3d 41 b0 41 be 40 71 59 bd
       -0.1320023 0.100215845 -0.18914892 -0.05308652
0003d0 4e eb 2e 3e 80 4f 36 3e f7 00 7b bd 8a 94 36 bd
       0.17081949 0.17803764 -0.061280217 -0.04457525
0003e0 0a 95 b5 3d a2 9f 20 3e 88 03 5d 3e d3 23 20 3e
       0.088663176 0.15685895 0.21583378 0.15638666
0003f0 24 0f 86 bd 2b 4d 32 be d2 7c 15 be fd 21 8f 3e
       -0.065458566 -0.1741225 -0.14598396 0.27955619

fc1.bias f4 [256]
000000 94 20 0b be 5e e4 39 3d c4 db 43 3c ad 02 b7 3d
       -0.13586646 0.045383804 0.011954252 0.08936057
000010 7a ca 54 be 92 3e ee bd 8c a9 26 bc 6b 64 b9 3d
       -0.20780364 -0.11633028 -0.010172259 0.09052356
000020 7f 79 23 be 04 1a c4 3d c5 1e fe bd 95 48 03 be
       -0.15964316 0.095752746 -0.124082126 -0.12820657
000030 71 05 2b 3e f6 48 c2 bd 4b 4b 2d bd cb 7a 60 bd
       0.16701294 -0.094865724 -0.042308133 -0.054804605
000040 04 5c 6c bd aa 79 00 3e ad 54 34 3e 46 36 78 bd
       -0.05770494 0.12546411 0.17610426 -0.060598634
000050 0c 61 db 3d 5f 31 15 be 92 9a a3 3c 58 7e 6c bc
       0.107118696 -0.14569615 0.019971166 -0.01443442
000060 d9 b2 5a 3e 9b 26 4f be 41 38 49 be 34 1a be 3d
       0.21357287 -0.2022957 -0.19650365 0.092823416
000070 46 2c 71 be 87 d6 bc bd e7 d7 96 bd 9a c2 bc bb
       -0.23552045 -0.09220605 -0.07365399 -0.005760503
000080 5f 9f 33 be 51 68 b4 bd d2 3f 15 be 0f 74 35 3d
       -0.17541264 -0.08808959 -0.14575127 0.044300135
000090 a3 0c 3b be fd 54 81 3c a2 1c 05 be c0 fc 24 3d
       -0.1826654 0.015787596 -0.12999204 0.040280104
0000a0 cc 41 ea bc 78 ed 47 3d a4 aa 1f bd f6 04 54 be
       -0.028595828 0.048810452 -0.038981095 -0.20705017
0000b0 cf e5 54 be ef ae 2c be 81 3c 68 3d fb 12 f1 bd
       -0.2079079 -0.16863607 0.056698326 -0.11771198
0000c0 02 3d 33 be 3b c7 af 3d 80 f7 15 be 69 ef 83 be
       -0.17503741 0.08582922 -0.14645195 -0.25768593
0000d0 ab 46 93 3d e7 92 4f 3d 2d 17 be 3d 17 52 37 be
       0.07191213 0.050677206 0.09281764 -0.17902409
0000e0 d0 fb 1c 3c 1d e8 5f 3c 1a 5d a6 bd 7d a7 2b be
       0.009581521 0.01366618 -0.081232265 -0.1676311
0000f0 e0 c3 f1 3c 37 68 94 3d 61 20 c0 3c 38 8c 1c 3c
       0.029512346 0.0724644 0.02345294 0.009554915
000100 11 94 0d 3d 5e a8 04 be 40 5a a2 3d 9d 3e ac 3d
       0.034565035 -0.12954852 0.0792737 0.0841038
000110 7e 31 2c be b9 6d bc 3d 68 0d c6 bc 07 7c 15 3d
       -0.16815755 0.092006154 -0.024176314 0.036495235
000120 dc 44 5e be 95 6d 7d bd db ec 4a be 89 0d 98 bd
       -0.21705955 -0.061872084 -0.19816916 -0.074244566
000130 50 68 e5 3d 2a 7e 1c be d2 21 af 3d 48 cb 20 be
       0.11201537 -0.15282503 0.085513726 -0.15702546
000140 95 af 31 3e 4d 33 16 3e 3f 6d f4 3d fa 82 5f bd
       0.17352135 0.14668007 0.119348995 -0.05456827
000150 0e cb e0 bd 03 40 1e be 65 5e 65 be f9 14 4d be
       -0.109762296 -0.15454106 -0.2239929 -0.20027532
000160 e4 c1 78 3d bf 2f 3a be 7b 8b 7a be be 9e 67 be
       0.060731784 -0.18182276 -0.2446727 -0.22619149
000170 99 a7 c9 bd ff 72 91 3d dc 95 8d bd 87 e3 ab 3d
       -0.0984642 0.07102012 -0.06913349 0.08393007
000180 4e 30 27 bd 0f 8c 6d 3d 06 d7 0a bd b5 a2 4e bc
       -0.04081755 0.0579949 -0.03389647 -0.012612035
000190 b1 af 58 be 65 e4 c8 bd 49 1d 63 3c 4f a6 30 3d
       -0.21160771 -0.09809188 0.013861963 0.043127354
0001a0 14 d3 06 bd 5e 69 35 3e 95 aa 27 be c7 bb 50 bd
       -0.032916144 0.17715976 -0.16373666 -0.05096033
0001b0 77 44 b3 bd f8 28 1c be 6f dc d2 bd 19 27 23 3e
       -0.08753293 -0.15250003 -0.102959506 0.15932883
0001c0 2d ce be bd ed bb 77 3c 1e 4f da 3d a1 97 73 bd
       -0.09316669 0.015120489 0.10659622 -0.059470776
0001d0 c6 db ba bd 36 93 40 be 5f 08 0b 3e 09 a7 d4 bc
       -0.0912395 -0.18806157 0.13577412 -0.025958555
0001e0 10 64 c1 bd 5d de 68 3d 6b 32 31 bd 57 98 3f be
       -0.094429135 0.056852687 -0.043260973 -0.18710457
0001f0 4d 87 7d 3d b2 35 2d bd a4 28 35 bd 99 7d 44 bc
       0.06189661 -0.042287536 -0.04422821 -0.011992835
000200 86 33 ab bd 11 71 48 be 9c aa 3d 3d 44 01 61 be
       -0.08359437 -0.19574381 0.046305284 -0.21973139
000210 56 86 e6 3d cf ad 86 bd d3 69 eb bd 7c 89 08 3e
       0.11256091 -0.0657612 -0.11494794 0.13333696
000220 60 eb 8f bd 32 e0 da bc c5 4e 72 bd 86 b7 25 bc
       -0.07027316 -0.026718233 -0.05915715 -0.010114556
000230 fb 82 c8 3b e0 48 b7 3c b6 db b9 3d 3a 8e be 3d
       0.0061191297 0.022373617 0.0907511 0.09304471
000240 d5 86 07 be 2e a7 32 be 81 4d 41 ba e1 3e 7e 3d
       -0.13235028 -0.17446586 -0.00073739147 0.062071685
000250 c5 a0 e2 bd b3 6d b1 bc e0 71 4d be a2 a2 61 3d
       -0.110658206 -0.021658754 -0.20062971 0.05508674
000260 da c5 0e 3d b2 7e f1 bc 34 0c 46 3d 8d 02 e5 3d
       0.034856655 -0.029479358 0.04835148 0.11182127
000270 47 f7 bd bd 29 0d f6 bd 15 a9 6e 3d 6f 2b 23 bd
       -0.0927568 -0.12014229 0.058266718 -0.039836343
000280 e9 bd 59 be a8 3a 1e 3d 9c 08 62 be a6 7e 02 3d
       -0.21263851 0.038630158 -0.22073597 0.031859063
000290 4a 11 2b 3d 55 3b cd 3d 0c e7 3c 3d 75 f8 21 be
       0.041764535 0.10021082 0.04611878 -0.15817435
0002a0 06 e2 4b bd 20 24 87 be 8a 13 5e 3d 5a d1 37 be
       -0.0497761 -0.2639475 0.054217853 -0.17950955
0002b0 71 92 84 be a3 5f 8d 3d 27 31 fa bd c0 fd b4 3d
       -0.25892976 0.06903007 -0.12216406 0.088374615
0002c0 ea f3 d5 bd 49 51 32 be 66 45 d2 bd d2 02 b5 3d
       -0.104469135 -0.1741382 -0.10267143 0.088384286
0002d0 58 15 60 3d 3c e3 de 3d 97 9f fb bd 2a 27 b5 bb
       0.054707855 0.10883185 -0.12286299 -0.0055283504
0002e0 36 26 09 3e 30 bf 32 be 25 b7 43 be 00 0b 1b be
       0.13393483 -0.17455745 -0.19112833 -0.15140915
0002f0 ae 2c cb bc 21 f3 0b 3e a1 3b 4f 3d d1 09 19 be
       -0.024801578 0.13666965 0.050593976 -0.14945151
000300 76 f6 e4 bd fe a0 7e 3c d1 39 78 be f9 52 50 3d
       -0.11179821 0.015541313 -0.24240805 0.05086038
000310 e0 45 55 bd 62 6a 02 be a9 57 36 be cc 8d 38 be
       -0.05206859 -0.12735894 -0.17806877 -0.18022841
000320 4f 5d a7 3d e7 0d 0c 3e 5f e0 cc bc cb c6 18 3d
       0.08172094 0.13677178 -0.025009332 0.03729896
000330 8b 7d 85 3d 66 75 65 be 85 15 9d 3d e0 00 94 bd
       0.06518086 -0.22408065 0.0767012 -0.072267294
000340 c0 8a 54 3d 8f 55 fe 3d ec 73 cd bd c0 da ac 3d
       0.051890135 0.12418663 -0.10031876 0.08440161
000350 44 af 80 3d 5a f1 11 3e df 62 9d 3c e3 dd 90 bd
       0.06283429 0.14252225 0.019212184 -0.070735715
000360 0f 2e a0 bd c8 9a 33 bd 43 17 18 bd a8 f6 67 3d
       -0.07821285 -0.043848783 -0.03713156 0.056631714
000370 81 3c 39 be 4d 8c 29 be 2a a4 b3 bd f6 8c 64 bd
       -0.18089487 -0.16557427 -0.08771546 -0.055798493
000380 d8 d4 f1 3d 96 56 79 3d 0c bc 7d be 48 1d 28 be
       0.11808175 0.06087359 -0.24778765 -0.1641742
000390 b4 87 4e be ac cf f1 bd 4e 9f 9a 3b 30 6d ba 3b
       -0.20168954 -0.118071884 0.0047186976 0.0056892857
0003a0 82 0d 47 3c 4c d1 6c be 47 f2 00 3e 2b bf e2 bc
       0.012149217 -0.23126715 0.12592421 -0.027679047
0003b0 3a 12 be 3c d8 9b 81 3d 61 89 25 be 9d 81 ac 3c
       0.02320205 0.06328553 -0.16165687 0.021057898
0003c0 9b 37 70 be a6 bc cc bd 2f 82 91 bd 26 ea 8d 3d
       -0.23458712 -0.09996919 -0.07104909 0.06929426
0003d0 64 73 a0 3c 7f 9d e9 3d 7f b3 d9 3d ce d6 3d bd
       0.019586273 0.11406993 0.10629939 -0.04634743
0003e0 a7 de 77 be d5 18 ab 3c af 2a 1c 3e 7a ef b1 bc
       -0.24206029 0.020885864 0.15250657 -0.021720637
0003f0 d1 9d 13 3e 5f 62 29 bd 8d 6f db 3b 47 cc c9 bd
       0.14415671 -0.04135358 0.0066966475 -0.09853416

fc2.weight f4 [256, 256]
000000 7b 3c 64 bc fb 32 c8 bc 2a 41 32 3c 24 e6 9e ba
       -0.013930435 -0.024438372 0.010879794 -0.0012123031
000010 77 ae f9 3b 0c 1a 0d bd 1d e8 03 bc b3 88 70 3c
       0.007619675 -0.03444867 -0.008050946 0.014681029
000020 d5 73 7a 3d 2d 99 3b bd 8e f7 54 bc 4f 94 b0 bb
       0.061145622 -0.045800377 -0.012998475 -0.0053887735
000030 c0 e4 ff bb 16 1a bd 3c c0 ee 84 bd 5b cb a4 bd
       -0.0078092515 0.023083728 -0.064908504 -0.080465995
000040 19 ad 26 3c 97 d9 98 bd 78 0d 7b ba f3 e4 a2 3d
       0.010173106 -0.07463377 -0.0009576897 0.07953825
000050 b2 ce 48 bd 5b 1f 89 bd 05 ca e0 bb 40 a5 b7 3c
       -0.049025245 -0.06695434 -0.00686002 0.022417665
000060 dc 62 6a 3c ee bf bd bc 31 1b 29 bd c2 83 f1 3b
       0.0143057965 -0.023162808 -0.041285697 0.007370443
000070 97 ea ef 3c 14 87 06 3d fa 44 6a bc ef 54 2d bc
       0.029286666 0.032843664 -0.014298672 -0.010579332
000080 0d 75 ad bc d8 96 b3 bd cf 71 2a 3d 5e 08 80 bd
       -0.021173978 -0.087690055 0.041612443 -0.06251596
000090 29 64 bf 3c f5 0d 0a bd 8c 34 98 bd 57 56 38 bd
       0.02336319 -0.033704717 -0.074318975 -0.045004215
0000a0 f9 58 c0 bc de ee 88 bd f6 57 6f bd d9 2c 82 3b
       -0.023479925 -0.06686185 -0.058433495 0.0039726314
0000b0 75 6a 8b bc c1 b6 4f 3c 0a 2e 00 3d 73 3c 9d bd
       -0.017018536 0.012677849 0.031293906 -0.076775454
0000c0 07 af 70 bc 6e 1e 5e bb 5f b1 54 3d 23 57 3e 3d
       -0.014690167 -0.003389265 0.051926967 0.04646982
0000d0 ad 46 70 bb fa 20 56 3c 52 0f 4d bd 73 5d 25 3c
       -0.003666322 0.013069386 -0.05006344 0.010093081
0000e0 b7 d0 dc 3c 26 5d cd bb 2a 21 73 bd 2f 33 63 bd
       0.026954992 -0.0062672077 -0.0593578 -0.055468734
0000f0 96 f6 0e 3d 8d d9 00 bd f2 28 83 3d 89 c1 62 bd
       0.03490313 -0.031457473 0.06404294 -0.05536035
000100 9f 36 44 3d fb 8a 41 3c a2 6a d3 3c bc 39 88 3c
       0.047903653 0.011812921 0.025807682 0.016629092
000110 4d ed d7 3c fd 20 54 bd e5 5a 7c bc e7 8a 82 38
       0.026358271 -0.051789273 -0.01540253 6.2247556e-05
000120 37 ec 67 bc a6 4c ab bd 70 93 e9 bc e7 a7 5c bb
       -0.014155439 -0.08364229 -0.028512686 -0.0033669414
000130 df 54 72 3c 5a e2 1b bd a6 5b bd bb ae 9d 46 bc
       0.014790743 -0.038057663 -0.0057787476 -0.012122555
000140 10 f9 77 bd 8f f1 5a bc 78 01 f2 bb 1a 6a 87 bd
       -0.06054026 -0.013363256 -0.007385429 -0.06612034
000150 12 8d 1a 3c 40 4d 9e bd a1 4b e0 3c f3 10 c7 3c
       0.009433048 -0.07729578 0.027379813 0.024300074
000160 dd 83 9e bd 8f 29 b1 3b 21 e0 58 bc d8 1e 47 3d
       -0.07739995 0.0054065655 -0.01323703 0.0486134
000170 49 e7 6b 3c f0 08 13 3d 0c db 9e bc e8 f3 46 bd
       0.014398404 0.035897195 -0.019391559 -0.04857245
000180 91 bf da bd 36 98 2f 3d b6 9f b5 bc 71 f6 1b 3d
       -0.1068107 0.04286977 -0.022170883 0.03807682
000190 57 eb e9 3b c9 d8 f5 3c 38 64 d5 3b 04 90 26 3c
       0.0071386504 0.030010598 0.006512191 0.010166172
0001a0 f4 ba b5 bc 04 cb c8 bd c8 cb 1f bd 96 f6 1d bd
       -0.022183873 -0.09804347 -0.0390127 -0.03856524
0001b0 50 ee 1b 3d 99 e0 bc 3c 3e 29 dc 3c 8f fd 64 3d
       0.03806907 0.023056315 0.026875135 0.055905875
0001c0 fd 05 95 bd 1f ff d5 bc 21 fe 5a bd ce 22 74 3d
       -0.07276533 -0.026122628 -0.053465012 0.059603505
0001d0 89 78 14 bd d6 ac 95 3b c0 b2 fa 3c 87 16 1b bd
       -0.036247764 0.004567723 0.030602813 -0.03786328
0001e0 ec d2 1e bd db f8 72 bc 92 e6 4e 3c 77 27 8d bb
       -0.03877537 -0.01482984 0.012628214 -0.004307683
0001f0 57 fa a5 3c 03 5c 95 3d 5e 94 a1 bc 0f e7 1c 3d
       0.020260973 0.072929405 -0.019724067 0.038306292
000200 1f 33 aa 3c 3f 97 55 bd 98 eb d6 3c c2 5c 65 3d
       0.02077633 -0.052146193 0.026235387 0.055996664
000210 60 9b 02 bd fd 3a a8 3a cb 0c d5 3c 46 02 57 bd
       -0.03188646 0.0012834963 0.026007077 -0.052492402
000220 27 cf 83 bd 08 ec a6 bd ee a4 28 bb 20 51 01 bc
       -0.064359955 -0.08150488 -0.0025733071 -0.007892877
000230 de 47 71 3c b0 43 0e 3d 23 49 15 3d f1 bc cb 3c
       0.014726607 0.03473252 0.0364467 0.024870368
000240 d1 07 d7 bb 6e ed eb bc 3b b8 6f 3d 1b 12 cb bc
       -0.006562211 -0.028799739 0.058525305 -0.024788907
000250 63 d2 19 3d 48 30 72 3d d3 42 29 be a2 05 15 bd
       0.037554156 0.059128076 -0.16529398 -0.036382325
000260 1b 8c 46 bc e1 27 a7 bd bd 51 f7 bb 8b 40 19 bd
       -0.012118365 -0.08161903 -0.0075475858 -0.03741507
000270 ff 1e 16 bd 03 36 4b 3d 30 a4 03 bd 4e a5 53 3d
       -0.036650654 0.049612056 -0.032139003 0.05167132
000280 0a ab 9f 3c 9d fb 49 bd 8d ac d5 3c bc f9 78 bc
       0.019490737 -0.049312223 0.026083255 -0.01519626
000290 3e fc 50 ba 37 37 11 bd f5 3f 0b 3d 00 a6 54 bd
       -0.00079721573 -0.035453048 0.03399654 -0.051916122
0002a0 4b 31 7d bc cc b8 ac bc e7 20 4c bd d1 c8 18 bc
       -0.015453647 -0.021084212 -0.049836066 -0.009325222
0002b0 58 5d e3 bc 3d c7 ab 3c 1c cc 60 3c 06 cb 46 bc
       -0.02775447 0.020969028 0.0137205385 -0.0121333655
0002c0 ca 25 25 bd 4a 2c e2 bc 43 66 5f bd 05 31 04 3d
       -0.04031924 -0.02760901 -0.054540884 0.03227331
0002d0 24 d3 8d 3c d5 99 92 bd 46 29 1c 3c 08 ae 9d bd
       0.017312594 -0.071582474 0.009531325 -0.076992095
0002e0 e7 c8 86 bd 2c 77 80 bd a0 f7 81 bc 74 45 22 bd
       -0.06581288 -0.0627273 -0.015865147 -0.039617017
0002f0 3e b5 26 bc d1 a2 4e bd 0c 13 6a bc 16 38 0d bc
       -0.010175047 -0.050448243 -0.014286768 -0.008619329
000300 7f c7 38 3d b9 91 bb 3c 3b 04 e5 3c 78 6e 4d bc
       0.04511213 0.022896634 0.027956119 -0.012538545
000310 bc 14 87 bd f8 52 0f bd 63 41 84 3c 92 ca 49 3d
       -0.06595752 -0.034991235 0.01614446 0.04926545
000320 e4 fb ae 3c a7 35 36 bd 13 a0 d4 bc 6e 5b 0a 3b
       0.021360345 -0.04448476 -0.025955236 0.0021111625
000330 7a ad 2e bd 7b 5f cf bd fc bc c8 3c ed 5c 4f bc
       -0.04264591 -0.10125633 0.024504177 -0.012656433
000340 bb ca b5 ba 35 a8 e0 bc b3 47 ce b9 5e 9c eb 3c
       -0.0013869622 -0.027423957 -0.00039344802 0.028761085
000350 fd 5b fd bc f0 a5 cb 3c 52 b2 36 bd 55 49 b5 3c
       -0.030927652 0.024859399 -0.044603653 0.022129694
000360 bb ce ef 3c 29 e3 66 3d e9 7b 74 bd bd 43 98 3c
       0.029273381 0.05636898 -0.059688482 0.018586988
000370 6e d0 96 3c 69 1b 84 bd 53 a7 a5 bd ec 91 60 3c
       0.018409934 -0.064505406 -0.08088555 0.0137066655
000380 7b bd da 3c 92 0c 02 3d fb 24 21 bc d9 70 c8 bd
       0.02670168 0.03175027 -0.009835477 -0.09787149
000390 ac 39 37 bd 23 23 98 bb 29 76 b5 3c 23 99 26 3d
       -0.044732735 -0.0046428605 0.02215107 0.040673386
0003a0 e3 da 91 bc 9f 5b b8 bd 16 d7 47 bd b6 a7 62 bd
       -0.017804569 -0.0900185 -0.048789106 -0.055335723
0003b0 60 34 0c bd 45 f4 1c 3d 91 dd f4 3c f9 3d ab 3b
       -0.034229636 0.03831889 0.029890807 0.0052258936
0003c0 ec a3 24 3d d2 fc 61 3c 36 b8 0e 3d 8e ec 0f bd
       0.04019539 0.013793187 0.034843646 -0.035137706
0003d0 6b ba 0a 3d 20 1d 0c 3d 25 01 c4 3c ff b5 38 bd
       0.03386919 0.034207463 0.023926327 -0.04509544
0003e0 00 66 87 3a 35 41 d2 bd 3d af 4c bc 1f fd d8 3c
       0.0010330081 -0.102663435 -0.012492952 0.026487885
0003f0 01 5f 4e bd 01 53 27 bd ce f4 89 bd 60 a8 70 bb
       -0.05038357 -0.040850643 -0.06736146 -0.0036721453

fc2.bias f4 [256]
000000 f8 54 9c bd 68 91 bb bc 3c 90 a1 bd 0c c8 12 bd
       -0.07633394 -0.022896484 -0.07888839 -0.03583531
000010 ec ec b3 bc 3f 91 9b bd aa 02 f8 3c 6c 91 80 bc
       -0.02196356 -0.07596063 0.030274708 -0.015694343
000020 31 97 b0 bc c9 96 a6 3d 9d d5 d6 bc ca 57 9b bd
       -0.021556469 0.08134229 -0.026224906 -0.07585104
000030 be bb 98 bd dd 01 0b bd fc b9 81 bd 9d 91 5a 3c
       -0.07457684 -0.033937324 -0.06334302 0.013340381
000040 83 3b 24 3d 53 aa c2 bc b9 a1 91 bd 08 7e 52 bd
       0.040095817 -0.023762858 -0.07110924 -0.051389724
000050 c1 a5 5a bd 92 bc d2 bc 6d 3c 0a 3d 41 16 14 3d
       -0.05338073 -0.025724683 0.033749033 0.036154035
000060 01 d5 ea bc a6 50 7e bd d4 39 82 bd 56 2a b5 bc
       -0.028666021 -0.06208863 -0.06358686 -0.022114914
000070 5e 55 76 bd 44 fa 1d bd b1 ad 23 3c 79 4d 6a bd
       -0.060140006 -0.03856875 0.009990142 -0.05720279
000080 b2 51 c9 3b 6b ac 45 bd 58 12 0a 3e 3c d4 28 bd
       0.006143772 -0.048260134 0.1348356 -0.041218027
000090 ce a9 ef bc 2a 4e 86 bd 11 bd 61 bd ce 59 3d bd
       -0.029255774 -0.06557877 -0.05511195 -0.046228223
0000a0 70 d2 99 bc 74 cf 04 3e d0 e1 0b bd a2 26 67 bc
       -0.018777102 0.12969762 -0.0341509 -0.014108332
0000b0 3c 1b 32 3c ae 4f 12 3b 4a 2b 89 3d dc 42 c6 3d
       0.010870751 0.0022325325 0.0669771 0.09680721
0000c0 04 84 f2 3c 3f 54 08 bd 87 da fa bc 22 d3 8c bd
       0.029603966 -0.03328347 -0.03062178 -0.06876208
0000d0 fc db 9f bc 12 83 e0 3c fc 28 e9 bc 52 27 4e bd
       -0.019514076 0.02740625 -0.028461926 -0.050330468
0000e0 90 af 41 bd 5c 71 0f 3c ad d8 e0 3a 5d ae e0 bc
       -0.04728657 0.008755054 0.0017154418 -0.027426893
0000f0 b3 55 0d 3c 4d 40 c8 3c 45 54 23 bc 25 2e 45 bd
       0.008626389 0.024444724 -0.009968822 -0.04813971
000100 0b 84 c6 bb 42 16 6a 3b 5c 01 8f bd 10 0c 11 3c
       -0.006058221 0.0035718833 -0.06982681 0.008852974
000110 3e 07 85 bd 0b ca 74 3c ed 6c 49 3a 1b 5f cf 3c
       -0.06495522 0.014940749 0.0007683773 0.025313905
000120 79 01 65 bd 3c 70 86 bc 30 2f bd 3d c7 95 0e bd
       -0.055909608 -0.01641094 0.09237516 -0.034810808
000130 8e fa 3b bc 81 f1 9c 3a 1c 74 3c bc a6 af 2c 3d
       -0.011473311 0.0011973829 -0.011502292 0.0421597
000140 52 97 07 3d 50 07 6f bd bd 20 00 bd b7 ab 02 bd
       0.033103295 -0.058356583 -0.03128122 -0.03190204
000150 c7 90 93 3d 7d 71 d5 bb e7 12 76 bd c8 c8 be 3c
       0.072053485 -0.006513773 -0.06007662 0.0232891
000160 1f 85 18 bc b3 84 22 bd be fa c6 ba 13 48 9c bd
       -0.009309082 -0.039677333 -0.0015180928 -0.076309346
000170 8f de 25 bd e4 c7 1e 3c 1d 65 b9 ba 9d 8f 7d bd
       -0.04049545 0.009691212 -0.0014144514 -0.06190454
000180 2d b6 45 bd 2a a6 8a 3c 0f 45 90 3c 78 1b 5c bd
       -0.04826944 0.016924936 0.017611055 -0.053737134
000190 46 75 41 3c 36 09 7d bd 04 d1 99 3c 04 85 4c 3c
       0.011807745 -0.061776362 0.018776424 0.012482885
0001a0 ab 5a 77 bc d9 12 24 3c 6c 8b f5 bb 09 d2 aa 3c
       -0.0150973005 0.010014259 -0.007493427 0.020852106
0001b0 bf 57 17 3a a8 90 de bc 2c 22 21 bb ce 68 04 bd
       0.0005773268 -0.027168587 -0.0024587018 -0.032326512
0001c0 c0 5c 1f bd 72 95 4a 3c 11 35 4f bd 64 bd 02 bd
       -0.038906813 0.012364732 -0.050587717 -0.0319189
0001d0 66 ce 47 3d fa ed 07 3e 2b 98 13 3d 55 4f 82 3d
       0.04878082 0.13274375 0.03603379 0.06362788
0001e0 a1 89 89 bd 17 3c 08 bd 89 09 99 bd 88 e4 1e 3d
       -0.06715704 -0.03326043 -0.07472522 0.038792163
0001f0 cd 8e 45 bc 05 f8 7d bd 89 fd 4f bd da bb 48 3c
       -0.012057972 -0.062004108 -0.0507789 0.012251819
000200 28 c2 45 bd be 35 b0 3d 01 b7 04 3d 66 70 f5 3c
       -0.048280865 0.086040005 0.03240109 0.029960822
000210 71 bf 3d 3d ab ab 28 3d 8e a7 06 bd 42 fa a0 3c
       0.04632515 0.04117934 -0.032874636 0.019650582
000220 cd 81 dd bc fd a7 23 3d 82 1f 89 bd 48 79 6d ba
       -0.027039433 0.039955128 -0.06695463 -0.0009058905
000230 11 c1 87 bd 7c 2c 27 3c 14 64 8e bd e2 be 5f bc
       -0.06628621 0.010203477 -0.06952682 -0.01365635
000240 f4 54 ea bb 93 d3 83 bc b8 66 ec 3c ac 0b 1c bd
       -0.0071512405 -0.016092097 0.028857574 -0.03809707
000250 9c ea 5a bc 0e 54 8e bc 29 ba 21 bd 11 1e ce 3c
       -0.013361599 -0.017374065 -0.039484177 0.025160821
000260 45 7b 95 bd 2a 41 77 bd f9 e7 25 3c ee ae 6e 3c
       -0.072989024 -0.06036488 0.010126107 0.014568074
000270 3b 00 1d 3d 81 85 7f 3b 11 eb 43 3d 5b 03 14 3c
       0.038330298 0.0038989487 0.0478316 0.009034003
000280 46 e5 ad bb 06 92 46 bd ce 2a e3 3c 3e 11 ed bc
       -0.0053068725 -0.048479103 0.027730372 -0.028938886
000290 7f 14 ff 3c ee 95 9f 3c 3f ad b6 3c 39 a7 c7 bd
       0.031137703 0.019480672 0.022299407 -0.09748692
0002a0 26 b1 0d bd 1e 7c 2a 3d 36 64 c7 3d ee 9d a8 bc
       -0.03459277 0.041622274 0.097359106 -0.02058312
0002b0 9c 53 79 bd e8 ac 90 bd 9d 8a 09 3d c2 3e 1f bd
       -0.06087075 -0.07064229 0.033579458 -0.03887821
0002c0 e4 a9 61 bd c5 fc 96 bd 1a f8 56 bd eb 01 21 bc
       -0.05509366 -0.07372431 -0.0524827 -0.009827117
0002d0 16 e8 25 3d b6 25 83 bb 4b c7 8f 3d 6a 6c 6e bc
       0.040504538 -0.004002298 0.07020434 -0.014552215
0002e0 c5 3a a2 bd e1 03 7f 3c 28 bb 86 3d d9 35 2b bd
       -0.07921366 0.01556489 0.06578666 -0.0417994
0002f0 3d a2 91 ba 5f fe c8 ba e0 a8 97 3b 6a e7 3f bd
       -0.0011110973 -0.0015334598 0.0046282858 -0.046851553
000300 1f b5 9a 3d c8 57 b1 3c e8 1b d7 bc 01 61 17 bd
       0.07554077 0.021648303 -0.026258424 -0.036957745
000310 d6 ce 10 3d e5 bf 60 bd 5e ce a9 bd f0 dc 4d bd
       0.035353504 -0.054870505 -0.082913145 -0.05025953
000320 09 46 53 3d fb ab 58 3c 99 97 d2 3c 0b 7d 20 3c
       0.051580463 0.013224597 0.025707053 0.009795438
000330 36 3a a1 3b 98 a8 dd bc 9e 93 45 bd 65 eb 30 bc
       0.0049202694 -0.02705793 -0.04823648 -0.01079831
000340 1b 81 1a 3d 01 c5 f7 bc 88 1d 45 bd db 08 fc bc
       0.03772078 -0.030245306 -0.048123866 -0.030765941
000350 b9 34 40 3d aa bc a6 bc 27 d3 e7 3d d9 66 47 bd
       0.04692528 -0.020353634 0.11319571 -0.048682068
000360 89 be 92 3d 19 a6 bd bd ce dc 8a 3c 52 39 1e 3d
       0.07165248 -0.09260196 0.016950991 0.038628884
000370 a2 d9 8d bb 9a aa fb bc b3 1c 8f 3b ff 82 14 3c
       -0.0043289224 -0.030720998 0.004367435 0.009064435
000380 a2 e6 43 3c ee 45 5b 3d ac f7 5b bc b9 c9 58 bd
       0.011956843 0.053533487 -0.013425749 -0.052926753
000390 3e b8 2a bd 5e 45 22 bc 19 8a df bc cc 5f 04 3d
       -0.041679613 -0.009904234 -0.02728753 0.03231792
0003a0 25 57 4b bd e1 ab 68 3c 6b 57 cf 3c 7f 5c 00 bd
       -0.049643654 0.014201135 0.025310239 -0.03133821
0003b0 3c 93 ae bc 49 bb 09 bd ea 1a a9 bd c2 72 42 3c
       -0.021310441 -0.033625875 -0.082570866 0.011868181
0003c0 76 79 cb bc 2a cd 75 bd 03 3c de bb c3 23 9c 3c
       -0.02483819 -0.060010113 -0.0067820563 0.019060021
0003d0 1b c3 d6 bc ba b4 77 bd 4f 6d fc bc 26 ea 81 3c
       -0.02621608 -0.06047509 -0.030813841 0.015858721
0003e0 fd 8a ed 3c c3 ec 04 3d 5a 11 2c bd 29 22 44 bc
       0.028996939 0.032452356 -0.042008735 -0.011971035
0003f0 cb cf fb 3a 36 aa 8b bc 09 f6 ae bc 2b 63 14 bd
       0.0019211707 -0.017048936 -0.021357553 -0.036227386

reg_head.weight f4 [1, 256]
000000 bf 89 3d bb ae b6 5a bb 45 87 67 be cf 6c bf bb
       -0.0028921214 -0.0033373046 -0.22610195 -0.0058418284
000010 5c bc 00 bd 18 e4 bd bb 24 85 ae 3c c3 bf 6d be
       -0.031429633 -0.005795013 0.02130372 -0.23217683
000020 30 33 ab bc 2c a8 b2 3c 33 d0 a0 bc 76 04 30 bc
       -0.020898432 0.021808706 -0.019630527 -0.010743251
000030 3d ac cd bb b0 5f 20 3d f5 c1 26 bc de 86 7b be
       -0.006276636 0.039153755 -0.010178079 -0.24563166
000040 df 74 57 3c 53 07 c2 3d a6 02 f9 3a 16 9d d6 bc
       0.013150423 0.09474053 0.0018997982 -0.026197951
000050 eb 00 95 bc 49 0d cf bb 8c ef 2d ba 3a 90 29 3d
       -0.018188914 -0.0063187224 -0.00066351215 0.04139731
000060 a0 eb 1c 3d 50 de 3c bd f9 ef 61 bc 18 97 60 3d
       0.038310647 -0.04611045 -0.013790124 0.054831594
000070 31 78 5c bc 8c 63 05 bc a8 11 56 be 7c 67 6f bb
       -0.01345639 -0.00814141 -0.20905173 -0.0036530187
000080 cd 66 ff 3a b4 01 03 bd fc fc 7a 3d 19 a5 02 bb
       0.0019485593 -0.031984046 0.06127642 -0.0019934832
000090 91 ec 46 3e d0 fe 04 bc 74 43 4d bd b1 49 81 bc
       0.1942618 -0.008117393 -0.050113156 -0.01578221
0000a0 78 85 af bc 18 13 94 3d 80 3e 01 bd f7 56 81 be
       -0.021425948 0.07230204 -0.031553745 -0.2526166
0000b0 e0 e6 3b bb 08 60 dd bc f9 54 ab 3c 4e cd 03 3d
       -0.0028671548 -0.02702333 0.020914542 0.032178216
0000c0 f5 f6 21 bb db c1 52 be 45 58 56 be 98 bd 52 3b
       -0.0024713848 -0.20581762 -0.2093211 0.0032156464
0000d0 88 f6 28 3d 75 96 ae bd 96 5d 5a bb fe 20 af bc
       0.041250736 -0.08524791 -0.0033319942 -0.021378037
0000e0 44 02 af bb d0 e9 d4 bb 5d 1d 5c 3d 2f eb 01 3d
       -0.0053408463 -0.006497599 0.05373894 0.03171843
0000f0 d1 2a 18 bd e7 53 50 bc bf 7a 9e bc bb 4b 2e be
       -0.037150208 -0.012715316 -0.01934564 -0.17021076
000100 08 7b 4d ba 2b 22 4b bd cd 58 01 3a 6c f2 ca 3b
       -0.00078384625 -0.049593132 0.0004934192 0.0061934497
000110 a3 7e dc bc a2 ea 91 bd 05 03 dd 3c 51 cc c6 bb
       -0.026915854 -0.07124831 0.026978979 -0.006066837
000120 1b aa 33 3d 1d 26 93 bc 5d 26 b8 3c 44 49 08 bd
       0.043863397 -0.01796251 0.02247923 -0.033272997
000130 b5 4d f9 39 7a 84 0f bc c7 2c 57 be e6 c3 65 be
       0.00047550877 -0.008759612 -0.21013175 -0.2243801
000140 d5 05 68 bb 7d ab e6 3b 7b 63 6e be 23 8a 04 bb
       -0.0035403867 0.007039486 -0.23280136 -0.0020223937
000150 6e 42 37 3d ba 81 50 b9 a2 46 14 bb 97 86 2c 3d
       0.044741087 -0.00019884753 -0.0022625108 0.042120542
000160 1b c4 d7 bc b2 71 b6 bd 64 fb a2 bd bf 1f 06 bc
       -0.026338628 -0.089084044 -0.07958105 -0.00818628
000170 43 ea 39 bb 60 60 e2 3b 50 e4 cb 3d 11 97 81 bc
       -0.002836839 0.0069084615 0.099556565 -0.015819104
000180 1a 47 2f bd 7b ac e1 3c ab e1 66 be 06 cd 99 3d
       -0.042792417 0.027548065 -0.22547023 0.07509808
000190 37 49 d0 bc 32 08 bb 3b 7d 9f 12 3c 98 de 3f 3d
       -0.025425537 0.005707764 0.008949158 0.04684314
0001a0 40 d2 19 bc 2c dc 8e 3b aa 80 12 bc 0c 86 5c 3d
       -0.009388506 0.0043597426 -0.008941809 0.053838775
0001b0 d9 10 8f ba 05 b6 19 be 79 2e 44 be a6 a9 9e 3b
       -0.0010915055 -0.15010841 -0.19158353 0.004842001
0001c0 35 5b 9f 3c b3 4e 99 39 dd 9a 52 3c 13 b0 82 3c
       0.01945267 0.0002924107 0.012854305 0.0159531
0001d0 00 c7 6e 3c 78 56 6b 3d 4c 63 5e 3c 95 72 ca bd
       0.0145738125 0.05745551 0.013573479 -0.09885136
0001e0 f9 4b e9 ba dd e0 5f bd d0 13 85 3a bf 1c 5e 3b
       -0.0017799131 -0.054657806 0.0010152999 0.0033891646
0001f0 f4 79 38 bb 9f 58 cf 3b c1 99 4e 3c d2 50 20 bc
       -0.0028148862 0.006327703 0.0126099 -0.009784894
000200 fd 1a b4 bc 66 85 4c 3c 05 d6 78 bd bb 08 c3 3d
       -0.021985525 0.012482977 -0.06075098 0.095231496
000210 5e 0c 4e 3d ed c3 38 bd 1e 6c b8 3a 44 67 09 3c
       0.050304763 -0.045108724 0.0014070307 0.008386437
000220 1f cc d8 3c eb 39 b3 3d 88 06 fb 3c a0 8e 5f 3c
       0.02646452 0.08751281 0.030642763 0.013644844
000230 ae d9 d9 ba 1d 25 36 bd 7a 7b 8b 3a 4a 80 94 bb
       -0.001662066 -0.044468988 0.0010641657 -0.004531895
000240 eb 40 8f bb 04 81 24 3d 84 4e dc bd 4e 92 38 bd
       -0.0043717525 0.0401621 -0.10757163 -0.045061402
000250 24 5b 74 ba 13 7b a4 bd c6 91 24 bd e7 57 1c 3e
       -0.00093214423 -0.08031287 -0.040178083 0.15267907
000260 9a 66 39 3c 6f 21 11 3d 9e da 6a 3b 37 d8 d9 3d
       0.011315966 0.035432275 0.0035835872 0.10636943
000270 db a6 e0 3d e9 64 4d 3d 03 79 86 3d 89 dc 9e 3d
       0.10969325 0.050145064 0.0656605 0.077569075
000280 76 e7 dc bd 16 e7 fe bc ab 27 a5 bb 8f b9 00 be
       -0.10786335 -0.03111605 -0.005040129 -0.12570785
000290 95 a7 1f bd eb 91 be bc ad 3a 1d 3d 39 d2 83 bd
       -0.038978178 -0.023262938 0.038386036 -0.06436581
0002a0 c9 0a 98 bd 1f 48 88 3d 95 54 34 3d 52 47 25 3d
       -0.07423932 0.06654381 0.044025976 0.04035122
0002b0 16 bc f6 bc cb 83 d9 3d 35 3e 3d 38 5b 61 84 3b
       -0.030118983 0.10620841 4.5119046e-05 0.004039926
0002c0 08 ca 1b bd ad b0 37 3a 71 1f 11 bd b8 ac a7 3a
       -0.03803447 0.0007007223 -0.035430375 0.0012792563
0002d0 43 37 e4 3d d6 14 42 3b 39 a0 fa 3c 6d 74 35 3a
       0.11143353 0.002961447 0.030593978 0.0006921951
0002e0 0c fc 99 bb f8 64 2c 3d ca 33 b9 3c 28 50 46 bd
       -0.004699236 0.04208848 0.022607703 -0.048416287
0002f0 c4 8a 70 bc 62 6d 20 be fe ff 61 3c 05 a3 1a 3d
       -0.014681522 -0.15666726 0.013793943 0.037753124
000300 c7 6c 6a 3d 11 92 e2 3c f3 7d 09 bc 96 69 43 3d
       0.057232644 0.02765754 -0.008391845 0.047708116
000310 99 7b d2 3c 10 74 1c bd d6 dd e7 bc f9 a3 23 3d
       0.025693702 -0.038196623 -0.028304022 0.0399513
000320 46 2d f6 3c 71 e5 36 bd e0 68 d5 3a 1b 9c 07 bd
       0.030050885 -0.044652406 0.0016281866 -0.03310786
000330 e7 58 0b 3b 5c d9 31 3d bf ea a1 bb 85 05 30 bd
       0.0021262707 0.04342018 -0.004941314 -0.042974014
000340 41 21 4c 3c 2c 50 c6 bc 7e 57 9f bc e5 24 86 3c
       0.0124591 -0.02420815 -0.0194509 0.016375015
000350 90 b4 7c 3d 4e 7c 43 bc a0 ed 1e 3d 22 59 9c 3d
       0.061695635 -0.011931492 0.038800836 0.07634188
000360 6a 10 13 3d 1d f8 12 bd e8 66 93 be 01 10 12 bd
       0.035904326 -0.03588115 -0.2878945 -0.035659794
000370 44 49 2b bb da 43 50 bb 26 8b 88 3d 8a e4 bb 3c
       -0.00261362 -0.0031778724 0.066671655 0.022936124
000380 61 4e 45 bc eb ed 55 3d 5a a8 4c bd 68 ad cb 3c
       -0.012042613 0.05222885 -0.04996524 0.02486296
000390 29 12 70 3b cf 82 cd bc ca 22 8e 3d 67 e5 71 bd
       0.0036631918 -0.025086788 0.06940229 -0.059056666
0003a0 2e 83 1a b8 f9 23 b7 bc 4c 3d a8 bb 1b 8c 9d 3b
       -3.683863e-05 -0.02235602 -0.0051342603 0.0048079616
0003b0 2f b2 f3 3c ed cf 6d 3b c1 b0 98 bb d3 00 af 3c
       0.02974805 0.0036287264 -0.0046597426 0.021362698
0003c0 9d 3a 29 bd 8c f5 15 bd d1 87 22 3c e7 cb 40 bc
       -0.041315664 -0.036611125 0.0099200765 -0.011767364
0003d0 65 29 30 3c e5 cd f6 bc ff 37 cc 3b e8 70 82 bc
       0.010752057 -0.030127475 0.006232261 -0.015922979
0003e0 ca 89 3c 3b ed 65 8e bd 6f 97 f3 3a bd a6 1c 3d
       0.0028768652 -0.069530345 0.001858456 0.03824495
0003f0 8a 8b c6 b8 3d 08 84 3c 8b c2 d1 bd ed c1 07 3d
       -9.467367e-05 0.01611721 -0.10242184 0.033143926
