grasp_placement/models/run_seed_1520/stability_net.pth (torch, 80580 bytes, 5 tensors)

fc1.weight f4 [128, 21]
0	0x3c28a038	0.010292105
1	0xbdb040c0	-0.086061
2	0x3d64d505	0.055867214
3	0xbe6807e9	-0.22659267
4	0x3da6f719	0.08152599
5	0xbd8fb99f	-0.07017826
6	0x3dcc9808	0.09989935
7	0x3e4dac13	0.20085172
8	0x3ce1819d	0.027527625
9	0x3c8799a4	0.016552754
10	0xbe1e7d36	-0.15477452
11	0xbe5452cc	-0.2073471
12	0xbe1fa351	-0.15589644
13	0xbe165065	-0.14679106
14	0x3ced11da	0.028939176
15	0x3de58e51	0.11208785
16	0xbd8f11c6	-0.06985812
17	0xbcc003f7	-0.02343939
18	0xbe4a6cd8	-0.19768083
19	0xbe5538cd	-0.20822449
20	0x3e3706ca	0.17873684
21	0x3d7d8dcd	0.06190281
22	0xbe0783cf	-0.13233875
23	0x3e439fe2	0.19103959
24	0xbe0082e7	-0.12549935
25	0x3ddfb6f9	0.10923571
26	0xbe34cd77	-0.17656504
27	0xbe3f9d1a	-0.18712273
28	0xbcb30e58	-0.021857426
29	0x3d233f4c	0.039855286
30	0x3e1b5031	0.1516731
31	0xbe4a9b66	-0.19785842
32	0x3cd245ff	0.025668142
33	0xbdd9b0d6	-0.10629432
34	0x3e5f1244	0.21784312
35	0x3dfe476c	0.124159664
36	0xbe4e3b5a	-0.20139828
37	0xbe2c1ca4	-0.168078
38	0xbd8fd3e4	-0.07022837
39	0xbdf539dc	-0.119739264
40	0xbcddac38	-0.02705966
41	0x3e404422	0.1877599
42	0xbb99dbb2	-0.004695379
43	0x3e3e8ad2	0.18607643
44	0x3db5aa8e	0.08870421
45	0x3e2337a2	0.15939191
46	0xbdabb9f7	-0.08385079
47	0xbe0814ca	-0.1328918
48	0x3b8428c0	0.004033178
49	0x3dfd300d	0.123626806
50	0x3cc83074	0.024437167
51	0x3e1a5e82	0.15075114
52	0x3df249c7	0.11830478
53	0xbdae70f0	-0.08517635
54	0xbd989485	-0.07450203
55	0x3dbc90c6	0.09207301
56	0xbe2d6491	-0.16932894
57	0xbe10f6c7	-0.14156638
58	0xbd4db515	-0.05022152
59	0xbdca2444	-0.09870198
60	0xbe2ed247	-0.17072402
61	0x3d9c6d38	0.07638019
62	0xbcff3c24	-0.031156607
63	0x3a45ce60	0.0007545706
64	0xbc2d34ee	-0.010571701
65	0xbce36ecd	-0.027762795
66	0x3e147a9d	0.14499898
67	0x3e041cf0	0.12901664
68	0xbda1ee73	-0.07906809
69	0x3e1b7211	0.15180232
70	0xbdfdfb42	-0.12401439
71	0x3db41ac7	0.0879417
72	0xbcd875f9	-0.026423441
73	0x3cfb33df	0.030664383
74	0x3e1d1f18	0.15343893
75	0x3d2cecc6	0.042217992
76	0x3c9885bf	0.018618463
77	0xbe515439	-0.20442285
78	0xbe5ad2df	-0.21369503
79	0x3cc69518	0.024241015
80	0xbdb5895d	-0.088640906
81	0x3e4c8bdd	0.19975229
82	0xbd913043	-0.07089283
83	0x3dc02638	0.0938229
84	0xbdf6cc3c	-0.12050673
85	0x3e55de16	0.208855
86	0x3d822290	0.063542485
87	0x3d49ada3	0.04923786
88	0x3be92c63	0.007115887
89	0x3e80c186	0.25147647
90	0xbe5d68e8	-0.2162205
91	0xbe357574	-0.17720586
92	0x3e1065a8	0.14101279
93	0x3e55a5a1	0.20863964
94	0xbe137bb3	-0.14402656
95	0xbd05efc3	-0.032699358
96	0x3e20189b	0.15634386
97	0x3d214eca	0.03938178
98	0xbda64856	-0.08119266
99	0xbe1bd9cd	-0.15219803
100	0x3e63667d	0.22207065
101	0x3d96a168	0.073550045
102	0x3d68e103	0.056855213
103	0xbcfd7ef0	-0.030944318
104	0xbdf8723e	-0.12131165
105	0xbe0a0ab1	-0.13480641
106	0xbdc20989	-0.09474475
107	0xbe15e4ff	-0.14638136
108	0x3de9daa1	0.11418653
109	0x3e554097	0.2082542
110	0x3e6c944d	0.23103447
111	0xbe29c241	-0.16578008
112	0x3e54f0a2	0.20794919
113	0xbddd1bf9	-0.10796351
114	0xbe411898	-0.18857038
115	0xbda83ab0	-0.08214319
116	0xbdbc00ad	-0.091798164
117	0xbe052e86	-0.13006029
118	0xbdd3eaf4	-0.10347548
119	0xbc9d41e4	-0.019196458
120	0x3e0b35c1	0.13594724
121	0xbd3eaf95	-0.046554167
122	0xbbf5d63e	-0.0075023463
123	0x3d13b685	0.036062736
124	0x3df90edc	0.12161037
125	0xbdb71413	-0.08939376
126	0x3ddc730f	0.10764133
127	0x3e2aa150	0.16663098
128	0x3d34c890	0.044136584
129	0x3d89ab64	0.06722143
130	0x3dde6108	0.10858351
131	0x3dbce2bf	0.09222936
132	0x3e352b04	0.1769219
133	0xbe34c7be	-0.1765432
134	0x3e01e822	0.12686208
135	0xbe45947e	-0.19294927
136	0xbe385f0e	-0.1800501
137	0x38ff6bab	0.00012179402
138	0x3e102df2	0.14080027
139	0x3da94a33	0.082661055
140	0x3e47fbb3	0.1952961
141	0x3e48f722	0.19625524
142	0x3d6a91a7	0.05726781
143	0x3e4d9567	0.20076524
144	0xbc2a535e	-0.010395853
145	0x3e135d90	0.1439116
146	0xbe612bf5	-0.21989425
147	0x3e6f1cfd	0.23350902
148	0x3e4beb4f	0.19913982
149	0xbe2673a8	-0.16255057
150	0xbd4c78a6	-0.049919747
151	0xbdc01cb1	-0.093804725
152	0x3e236085	0.15954788
153	0xbe0c02fc	-0.13673013
154	0xbe3dba5c	-0.18528122
155	0x3d84a7a8	0.064772904
156	0x3e01f4cd	0.1269104
157	0xbde7761a	-0.11301823
158	0x3e26e115	0.162968
159	0xbe1edaf0	-0.15513206
160	0xbdd5e157	-0.10443371
161	0x3e241108	0.16022122
162	0xbd9abdd7	-0.0755574
163	0x3df117bd	0.11772106
164	0x3c807d8f	0.015684871
165	0xbe22fbf5	-0.15916426
166	0xbdf5f8fe	-0.12010382
167	0xbca6c324	-0.020356722
168	0x3e3dbe6f	0.18529676
169	0xbdd92dbd	-0.10604427
170	0xbe280806	-0.1640931
171	0x3dfe50af	0.12417733
172	0xbe204891	-0.15652682
173	0x3e11695b	0.14200346
174	0xbdd099c8	-0.101855814
175	0x3d807c79	0.06273741
176	0xbd3ddd02	-0.046353348
177	0x3de4c022	0.11169459
178	0x3e290fc8	0.16509926
179	0x3e4a068f	0.19729064
180	0x3d60b9f4	0.05486484
181	0x3e1a4f2a	0.15069261
182	0xbe0588ad	-0.13040419
183	0x3d9775d3	0.0739552
184	0xbe4501bf	-0.19238947
185	0xbe528cd9	-0.20561542
186	0xbd11f67d	-0.03563546
187	0xbcbb3cd0	-0.022856146
188	0x3d029af4	0.031886056
189	0x3ddde6fb	0.10835072
190	0xbda7a888	-0.08186442
191	0xb98e416d	-0.00027133097
192	0x3a5c53d2	0.0008404824
193	0x3d99d15f	0.075106375
194	0xbe716f99	-0.23577727
195	0x3d9a0a7c	0.07521531
196	0xbe4367dc	-0.19082588
197	0x3e493066	0.19647369
198	0x3c4f65f0	0.012658581
199	0xbd3435ff	-0.043996807
200	0x3e5b2826	0.21402034
201	0xbe083910	-0.13303018
202	0x3dd88ed7	0.105741195
203	0x3de7f13b	0.11325308
204	0x3cb161a5	0.021653006
205	0xbe150733	-0.14553528
206	0xbde1acda	-0.11019297
207	0x3b967eb0	0.004592739
208	0xbe376515	-0.17909653
209	0x3d23cd9b	0.039991003
210	0x3e1f8fc8	0.15582192
211	0x3e1c136f	0.15241788
212	0x3e15dc75	0.14634879
213	0xbde5a74e	-0.112135515
214	0x3d7a0869	0.061043177
215	0x3db65491	0.089028485
216	0x3cf04f7b	0.029334774
217	0x3e1b3426	0.15156612
218	0x3daedd5c	0.08538315
219	0x3dcf31c6	0.101169154
220	0xbe2d0b11	-0.16898753
221	0xbe482f5a	-0.19549313
222	0xbd9d8849	-0.0769201
223	0xbdf3ef7d	-0.11910913
224	0xbe2d0dc5	-0.16899784
225	0xbe6204b0	-0.220721
226	0x3dda2ff3	0.10653677
227	0x3c569ce4	0.013098929
228	0xbd8016fd	-0.06254385
229	0x3e57e73f	0.21084307
230	0xbdfa0065	-0.122071065
231	0x3e4ddda6	0.20104083
232	0x3db27a25	0.087147035
233	0x3e5e67ad	0.21719237
234	0x3defeb0e	0.11714755
235	0x3dfeb316	0.12436502
236	0x3e2c652e	0.16835472
237	0xbe6950ee	-0.22784778
238	0x3dbd8e59	0.09255666
239	0x3d011093	0.031509947
240	0xbe29c765	-0.16579969
241	0xbe35e5df	-0.1776347
242	0xbdfc30e3	-0.12314012
243	0x3d8c26e9	0.06843359
244	0xbbe46094	-0.006969521
245	0xbe113a44	-0.14182383
246	0xbcbd0e70	-0.023078173
247	0x3e2b6a0d	0.16739674
248	0xbe4043f9	-0.1877593
249	0xbd32961a	-0.04360018
250	0x3e0ea01b	0.13928263
251	0x3e37c216	0.17945132
252	0x3cfa7255	0.030572096
253	0x3deb3c7f	0.11486148
254	0x3e3e0ece	0.18560335
255	0x3e2ff139	0.17181863

fc1.bias f4 [128]
0	0xbd6f9a87	-0.058496978
1	0x3dcf90c1	0.101350315
2	0x3e080dbe	0.13286492
3	0x3db1987a	0.08671661
4	0x3c7e85e8	0.015534855
5	0xbde697d3	-0.11259427
6	0x3dc08c15	0.094017185
7	0x3b3fddab	0.0029276412
8	0x3e390306	0.1806756
9	0xbe12e4e9	-0.14345135
10	0xbdb15af9	-0.0865993
11	0x3da1646b	0.07880481
12	0xbdf248bb	-0.118302785
13	0x3e153cd5	0.14573987
14	0x3d020913	0.031746935
15	0x3e3661fa	0.17810813
16	0xbe5678dd	-0.20944543
17	0xbcdc2657	-0.02687375
18	0xbdc17df5	-0.094478525
19	0x3e014001	0.12622072
20	0xbe37d2cd	-0.17951508
21	0x3e5fe270	0.21863723
22	0xbe2bfb79	-0.16795148
23	0x3e393793	0.18087606
24	0xbe295934	-0.16537935
25	0x3cee049e	0.029054936
26	0x3db848f9	0.089982934
27	0x3e6330c4	0.22186571
28	0xbd837f88	-0.06420809
29	0x3db1f834	0.08689919
30	0x3e1c1a4e	0.1524441
31	0xbdd2d381	-0.102942474
32	0x3e28eac4	0.16495806
33	0x3d8ad4a7	0.067788415
34	0xbbe79846	-0.007067713
35	0xbdc811bd	-0.09769008
36	0xbdc0f32a	-0.0942138
37	0x3e4597fd	0.1929626
38	0xbdb72643	-0.08942845
39	0xbe2cd862	-0.16879418
40	0xbdf05dae	-0.11736618
41	0xbd5c70b6	-0.053818427
42	0xbbd6f163	-0.0065595373
43	0x3dbef300	0.09323692
44	0xbe2f2fdc	-0.171081
45	0x3de584d0	0.112069726
46	0x3e5d2e08	0.21599591
47	0xbdeb8ac8	-0.1150108
48	0xbdda26df	-0.10651945
49	0xbdc2f463	-0.09519269
50	0x3e0f72ab	0.14008586
51	0x3c593758	0.013257824
52	0x3d799a7a	0.060938336
53	0xbe0f0fbf	-0.1397085
54	0xbc633543	-0.013867679
55	0xbe4aad5f	-0.19792698
56	0xbdc01d30	-0.09380567
57	0x3e2e46a0	0.17019129
58	0x3db9b99a	0.09068604
59	0x3e2639bf	0.16232966
60	0x3e4bdd91	0.1990874
61	0x3e2af8e7	0.16696511
62	0xbdac9967	-0.08427697
63	0xbcc45505	-0.023966322
64	0x3d10a6ea	0.03531543
65	0xbcd6da0a	-0.026227016
66	0x3e36f20f	0.17865776
67	0x3c4b21ca	0.012398193
68	0x3dd0208b	0.10162457
69	0xbda001a6	-0.078128144
70	0xbe0b7f28	-0.13622725
71	0x3e00f72c	0.12594289
72	0x3e4b7391	0.19868304
73	0x3df29641	0.11845065
74	0xbdf1dce1	-0.118097074
75	0x3e33e2dc	0.17567009
76	0xbd36fc28	-0.04467407
77	0x3dbbcfe0	0.091705084
78	0xbcdcf24f	-0.02697101
79	0x3d41ee03	0.047346126
80	0x3dd62e37	0.104580335
81	0x3e3a4fbe	0.18194482
82	0x3e61d0b7	0.22052275
83	0x3da7c04e	0.08190976
84	0xbd2fde10	-0.042936385
85	0xbd6683dd	-0.0562781
86	0xbdcbe70a	-0.099561766
87	0x3e4564f4	0.19276792
88	0xbde2f313	-0.11081519
89	0xbc28df5b	-0.010307158
90	0xbdb7943d	-0.08963821
91	0x3e10c6f4	0.14138395
92	0xbd276ef4	-0.040877298
93	0xbc6584c9	-0.014008709
94	0xbe028119	-0.1274456
95	0xbd355da3	-0.044278752
96	0x3ce85991	0.028363021
97	0x3e525d8d	0.205435
98	0xbceeb9e8	-0.029141381
99	0xbd99c334	-0.07507935
100	0xbe0ea01c	-0.13928264
101	0xbd5f3f0a	-0.054503478
102	0xbdcd0670	-0.100109935
103	0xbdcd0f06	-0.10012631
104	0xbda02fa0	-0.07821584
105	0xbde3b025	-0.11117581
106	0xbdf7d1e8	-0.12100583
107	0x3e426e41	0.18987371
108	0xbe24cf05	-0.16094597
109	0x3e05bc36	0.13060078
110	0x3d4b6c44	0.049663797
111	0xbd35efdc	-0.0444182
112	0x3e64eac1	0.22355177
113	0xbe02e2dc	-0.12781852
114	0xbdf3cfb3	-0.1190485
115	0xbbd0d821	-0.006373421
116	0xbd8f8cf3	-0.07009306
117	0x3de3019e	0.11084293
118	0xbe291d3b	-0.16515057
119	0x3e0441ff	0.129158
120	0x3e575dad	0.21031828
121	0x3e272050	0.1632092
122	0xbca95408	-0.020669952
123	0xbc8d4312	-0.017243896
124	0x3dad2de7	0.08456021
125	0xbdb6fb25	-0.08934621
126	0xbe2a84b9	-0.16652192
127	0x3e10759b	0.14107363

fc2.weight f4 [128, 128]
0	0xbcdeade2	-0.027182523
1	0x3c92bde5	0.017912814
2	0x3d756967	0.059914973
3	0xbd924bd0	-0.07143366
4	0xbca9e6fd	-0.020740027
5	0xbcbce9d3	-0.023060715
6	0x3b0784e0	0.0020678565
7	0x3caca80a	0.021076221
8	0xbd073036	-0.033004962
9	0x3d516f2f	0.051131424
10	0xbd4694ae	-0.048481636
11	0x3d1a9c7d	0.037746895
12	0x3bddc08f	0.0067673395
13	0x3db6a2fa	0.08917804
14	0xbdb0d17c	-0.08633706
15	0x3d25e2f5	0.040499646
16	0x3cc563e5	0.024095485
17	0x3dac2368	0.08405191
18	0xbd035261	-0.032060985
19	0x3d7b959f	0.061421987
20	0x3d146dbf	0.036237475
21	0x3d727437	0.059192862
22	0x3d5b73ed	0.053577352
23	0x3d4ba9fc	0.049722657
24	0x3d047406	0.03233721
25	0xbd029475	-0.03187986
26	0xbd616945	-0.055032033
27	0xbd9dfb91	-0.07713998
28	0x3cb0571b	0.02152591
29	0xbd5a0924	-0.053231373
30	0xbb913750	-0.0044316426
31	0x3da1ab31	0.0789398
32	0x3c8c3483	0.017114883
33	0xbd17b8a5	-0.037041325
34	0x3d494966	0.049142264
35	0xbd2e7fc4	-0.042602316
36	0xbd1d5496	-0.038410746
37	0xbde75f7f	-0.11297511
38	0xbdcdee13	-0.10055175
39	0x3d2fa208	0.042879134
40	0xbd8516a0	-0.06498456
41	0xbd55fc6a	-0.052242674
42	0xbcbbabb0	-0.022909015
43	0xbd352ddf	-0.0442332
44	0xbd88b08b	-0.06674298
45	0x3cfab98d	0.030606056
46	0xbc710c81	-0.014712454
47	0x3bc65fb9	0.0060538915
48	0xbd93474d	-0.07191334
49	0xbc4d0197	-0.012512586
50	0xbdc90de1	-0.098171
51	0xbb8d6260	-0.0043147057
52	0x3d549820	0.05190289
53	0xbccdabc2	-0.025106315
54	0x3d5e79c7	0.054315355
55	0x3d8e7ce6	0.06957416
56	0x3c66bcc5	0.014083092
57	0xbc311c3d	-0.010809955
58	0x3d1d4c6c	0.03840296
59	0x3dd49940	0.103807926
60	0xbcf577cd	-0.029964352
61	0x3d16774b	0.03673486
62	0x3d395aae	0.045252495
63	0x3c1b41f3	0.009476173
64	0x3d1aae21	0.03776372
65	0x3c22681a	0.009912515
66	0x3cba4a94	0.02274064
67	0x3d0ceff3	0.03440852
68	0xbc1cdbce	-0.00957389
69	0xbda9583e	-0.08268784
70	0x3d99ba0b	0.07506188
71	0xbd18f390	-0.037341654
72	0xbd86b3d8	-0.06577271
73	0x3ca8dbcf	0.020612625
74	0xbd1dc2bc	-0.03851579
75	0xbc55b914	-0.013044614
76	0xbd98d56d	-0.07462583
77	0xbd0683e9	-0.032840643
78	0x3d7430f5	0.059617
79	0xbd5d5bed	-0.054042745
80	0xbce5fd4b	-0.028074881
81	0x3d7826f3	0.06058402
82	0xbd7ec633	-0.062200736
83	0xbdb935ed	-0.09043489
84	0xbd6c28cc	-0.057656094
85	0xba995a0a	-0.0011699807
86	0xbd92e5c2	-0.07172729
87	0x3a545316	0.0008099539
88	0x3ce8252b	0.028338036
89	0xbb39a10b	-0.002832475
90	0x3cd2504e	0.025673058
91	0x3d7c2025	0.061554093
92	0x3d8b6806	0.0680695
93	0xbcf02c6a	-0.029318053
94	0x3c1c54dd	0.009541717
95	0xbcaa6f68	-0.020805076
96	0xbdbdb1dc	-0.092624396
97	0xbd76669b	-0.060156446
98	0xbc9a75eb	-0.018855056
99	0x3d8db48b	0.069192015
100	0xbd7ec0a9	-0.062195454
101	0xbd2a6a45	-0.041605253
102	0xbd8bf043	-0.06832936
103	0x3c85bad6	0.016324442
104	0x3c856731	0.016284557
105	0x3c973326	0.018457007
106	0xbcbb12c3	-0.022836095
107	0x3d355334	0.0442688
108	0xbcd5974c	-0.02607312
109	0x3d1be833	0.03806324
110	0xbd9e270d	-0.07722292
111	0xbd56c993	-0.05243833
112	0xbaae81ea	-0.0013313864
113	0xbcc5abb7	-0.024129732
114	0xbbca3960	-0.0061713904
115	0xbcbe2a2a	-0.023213465
116	0xbd7487a8	-0.059699684
117	0xbbb3d0bd	-0.00548753
118	0xbdcfcc1e	-0.10146354
119	0x3d6797b7	0.05654117
120	0x3ca627d7	0.020282669
121	0x3d6817ea	0.05666343
122	0xbd63b71e	-0.055594556
123	0xbcb078a3	-0.0215419
124	0xbdc0ee9f	-0.09420513
125	0xbda44947	-0.08021789
126	0xbc3c1e58	-0.011481844
127	0x3d7fbc3d	0.062435377
128	0xbca013c1	-0.01954067
129	0x3c4f4b7f	0.012652277
130	0xbd11e6fe	-0.035620682
131	0xbd8cbc32	-0.06871833
132	0x3d86491e	0.06556915
133	0xbd8386b5	-0.06422178
134	0x3c0242c5	0.007950489
135	0x3dd2b824	0.10289028
136	0x3d2790a2	0.040909417
137	0x3db61f53	0.08892693
138	0xbc9d9ac6	-0.01923884
139	0xbd43c198	-0.047792047
140	0xbc771cbe	-0.015082536
141	0x3cd8fcc0	0.026487708
142	0xbd4e417d	-0.050355423
143	0x3b932876	0.0044909073
144	0x3db7bda6	0.089717194
145	0xbbd50247	-0.0065005156
146	0x3d782a6c	0.06058733
147	0xbd4728b3	-0.0486228
148	0x3c6ec1ba	0.014572555
149	0xbd937fbd	-0.072020985
150	0x3d0be39f	0.034152623
151	0x3d55323b	0.052049857
152	0xbd22c99d	-0.039743055
153	0x3d5de4f2	0.054173417
154	0x3d991a07	0.074756674
155	0xbd9a3234	-0.07529107
156	0xbd34094f	-0.04395419
157	0xbe0d50c2	-0.13800338
158	0xbba253b6	-0.004953827
159	0xbd3391a9	-0.043840084
160	0xbcbcd956	-0.023052853
161	0x3db81537	0.089884214
162	0xbc9848f3	-0.018589472
163	0x3d08c1d8	0.03338799
164	0x3cf046b1	0.029330583
165	0x3d12dbb0	0.03585404
166	0xbdacc8f4	-0.08436766
167	0x3d1eee5a	0.03880153
168	0x3d95c29e	0.07312511
169	0x3c5c61f6	0.01345109
170	0x3d0d8003	0.03454591
171	0xbd56edee	-0.052473
172	0xbc188969	-0.009310105
173	0x3dbeac59	0.093102165
174	0xbda8c219	-0.08240146
175	0xbbbfd956	-0.005854766
176	0xbd13c4f0	-0.036076486
177	0xbd5fdde8	-0.054654986
178	0x3d864c74	0.06557551
179	0xbd82593b	-0.063646756
180	0x3d10d611	0.0353604
181	0x3d1d609d	0.038422216
182	0xbd744b4a	-0.059642114
183	0x3d0f32e7	0.034960654
184	0x3c719647	0.014745302
185	0x3d7ca949	0.06168488
186	0x3d8b3ba4	0.06798485
187	0x3d7567c5	0.059913415
188	0x3bc88922	0.006119863
189	0x3d451049	0.048111234
190	0x3d2f76ed	0.042838026
191	0x3d4c3735	0.049857337
192	0x3d579ba8	0.05263868
193	0xbd8c9f06	-0.06866269
194	0x3d429768	0.047507674
195	0x3d834c42	0.064110294
196	0x3c8e7af8	0.01739262
197	0x3b277f1c	0.002555794
198	0xbd8cc4fd	-0.0687351
199	0xbd9c3f97	-0.07629316
200	0xbd223cdf	-0.039608832
201	0xbdadcc98	-0.08486289
202	0x3dbcd1e2	0.092197195
203	0xbaa5aaab	-0.0012639364
204	0xbd085838	-0.033287257
205	0xbcc4c8cd	-0.02402153
206	0xbc374fd3	-0.011188465
207	0x3cebe239	0.028794395
208	0x3cf31bc1	0.02967632
209	0xbdb2cd55	-0.0873057
210	0xbcfa41e8	-0.030549005
211	0x3d0cd4c8	0.03438261
212	0x3d7970ef	0.060898717
213	0x3d97813f	0.073976986
214	0x3d57c623	0.052679192
215	0xbdbba462	-0.09162213
216	0x3d441b3b	0.04787753
217	0x3da11b01	0.07866479
218	0xbd3b0d2f	-0.04566687
219	0x3cac13a2	0.021005455
220	0x3d5ab56f	0.053395685
221	0xbd07c5b8	-0.033147544
222	0x3cfde7bb	0.030994287
223	0x3c27ce8b	0.010242115
224	0xbda58743	-0.0808244
225	0xbda1177d	-0.07865808
226	0xbd2d1da0	-0.04226458
227	0x3d75bca6	0.059994362
228	0xbc3ec3c1	-0.011643351
229	0x3d2d1876	0.042259656
230	0xbd1368e9	-0.035988722
231	0x3dab4bd7	0.08364075
232	0x3cb1366b	0.021632394
233	0x3d5d23f8	0.05398938
234	0x3d939720	0.07206559
235	0x3cd9edd9	0.026602672
236	0x3cba6c88	0.02275683
237	0x3d830975	0.06398288
238	0x3d4f600f	0.050628718
239	0xbc318a66	-0.010836219
240	0xbce53a19	-0.027981805
241	0x3d5cb30a	0.053881682
242	0x3d842adb	0.064534865
243	0xbce421a3	-0.02784807
244	0xbc721082	-0.014774444
245	0xbca8f581	-0.020624878
246	0x3b7b0bca	0.0038306587
247	0xbbf70596	-0.0075385077
248	0x3cba932e	0.022775259
249	0xbd7213af	-0.059100803
250	0x3d823b25	0.06358937
251	0x3d06dc38	0.03292486
252	0x3d1b5f93	0.037932944
253	0xbcdc87e0	-0.026920259
254	0xbad794ad	-0.0016447507
255	0xbda42dba	-0.08016534

fc2.bias f4 [128]
0	0x3d978710	0.07398808
1	0xbb192822	-0.0023369868
2	0xbd3247bc	-0.043525442
3	0x3c9f1fe9	0.019424396
4	0xbd939876	-0.07206814
5	0x3d95de89	0.07317836
6	0xbc3d4017	-0.011550925
7	0x3c8bb791	0.017055305
8	0x3d15851b	0.036503892
9	0xbdbd2c95	-0.09237019
10	0xbd6d30dd	-0.057907928
11	0x3b3dcc91	0.0028961042
12	0xbda6bb05	-0.0814114
13	0xbd81090f	-0.06300556
14	0xbd828c20	-0.06374383
15	0x3d6cf562	0.057851203
16	0x3cb47c20	0.022031844
17	0x3d425e27	0.047453072
18	0xbd36da24	-0.04464163
19	0xbb3b9035	-0.002861989
20	0x3cffa24b	0.031205317
21	0xbc86c93b	-0.016453376
22	0xbcd0a80b	-0.025470754
23	0xbda3d036	-0.079986975
24	0xbd3c93ea	-0.0460395
25	0xbdb61cb6	-0.08892195
26	0xbc11c978	-0.008898132
27	0x3d1b5808	0.03792575
28	0x3a36ffdc	0.0006980875
29	0xbd733ba7	-0.05938306
30	0x3c830c74	0.015997149
31	0xbd8077e6	-0.06272869
32	0xbba22207	-0.004947904
33	0xbd8e07d7	-0.06935089
34	0xbda03bef	-0.078239314
35	0x3ab0a132	0.0013475774
36	0xbc946f52	-0.018119488
37	0xbd30fefb	-0.04321192
38	0xbd3c6d64	-0.04600276
39	0xbc48a750	-0.012246922
40	0x3d83fa9f	0.064442866
41	0xbd03793a	-0.032098033
42	0xbd54bc9d	-0.05193769
43	0x3db298fe	0.08720587
44	0xbd9c38ae	-0.07627998
45	0x3d3904ad	0.045170475
46	0xbd89a715	-0.067213215
47	0xbcd82845	-0.02638639
48	0x3d7e4428	0.062076718
49	0x3d6704cc	0.05640106
50	0x3c8dbadc	0.017301016
51	0x3cc7ac13	0.024374044
52	0x3d37b90e	0.044854216
53	0xbd943487	-0.07236581
54	0x3db9f490	0.0907985
55	0x3d5be63d	0.05368637
56	0xbc9339d3	-0.017971909
57	0x3cb141f3	0.021637892
58	0xbd020f25	-0.031752724
59	0x3d71f8ea	0.059075274
60	0x3cda1e00	0.026625633
61	0x3da18a8c	0.07887754
62	0x3d99114a	0.07474001
63	0xbd74dd5a	-0.05978141
64	0x3d9808b8	0.07423538
65	0xbd7e9094	-0.0621496
66	0xbcb01c60	-0.021497905
67	0xbb9f49e5	-0.004861104
68	0x3db5d8a2	0.0887921
69	0x3d4a14c4	0.04933621
70	0x3c9e6c98	0.01933889
71	0xbba0ed3b	-0.0049110926
72	0xbd7ba636	-0.061437808
73	0xbd3477b2	-0.044059463
74	0xbd9e752d	-0.07737193
75	0xbcd143a0	-0.025544941
76	0x3d2bca08	0.04194072
77	0x3d0c7897	0.03429469
78	0xbda2a460	-0.07941508
79	0x3d99fd73	0.07519045
80	0xbd28eee8	-0.041243464
81	0x3cc4835a	0.023988415
82	0x3c8c9ed9	0.017165588
83	0xbd7e416d	-0.062074114
84	0xbca52d94	-0.020163335
85	0xbd71d106	-0.05903723
86	0x3cf0275c	0.029315643
87	0xbc82a6e1	-0.015948715
88	0x3d350b3f	0.04420018
89	0x3d9ef9dc	0.07762501
90	0x3d92cf81	0.071684845
91	0x39fba2e8	0.00047995825
92	0x3d2eea82	0.042704113
93	0x3d99f7db	0.07517978
94	0x3d924bc1	0.07143355
95	0xbd270663	-0.040777575
96	0x3d03bf8d	0.0321651
97	0x3d53927f	0.05165338
98	0xbc951c78	-0.018202052
99	0x3d813eb4	0.06310788
100	0xbcf5524f	-0.029946474
101	0xbd87d8c0	-0.06633139
102	0x3daae699	0.08344764
103	0xbd78db99	-0.0607563
104	0xbd1b8d3b	-0.037976485
105	0xbd4af8d7	-0.04955372
106	0xbda26aaa	-0.07930501
107	0x3cf9246b	0.030412873
108	0x3ccad1c9	0.024758236
109	0x3d53c6da	0.05170331
110	0x3bae97d6	0.005328159
111	0xbd5ad6ba	-0.053427435
112	0xbd043637	-0.032278266
113	0xbd7b730b	-0.06138901
114	0xbd821e3c	-0.06353423
115	0x3d814b8e	0.06313239
116	0x3c131973	0.008978236
117	0xbc6e3d55	-0.01454099
118	0x3d173ee9	0.03692523
119	0x3d95c0c3	0.07312157
120	0xbd6499ef	-0.055810865
121	0xbd4910c5	-0.04908826
122	0x3bbb7685	0.0057209157
123	0x3d44aa86	0.048014186
124	0xbd0d37e7	-0.03447714
125	0x3d9038df	0.07042097
126	0x3da5ab3f	0.08089303
127	0xbca7a8fb	-0.020466318

reg_head.weight f4 [1, 128]
0	0xbd642301	-0.055697445
1	0xbdc1efc2	-0.09469558
2	0x3d65ec53	0.05613358
3	0x3da56a79	0.08076949
4	0xbd966e0c	-0.073452085
5	0x3da2d923	0.07951572
6	0xbd78ba45	-0.060724515
7	0x3c94440a	0.01809885
8	0xbdbf5b48	-0.093435824
9	0xbd96a7ea	-0.07356246
10	0xbdcb0ecf	-0.09914934
11	0x3dc4c5ac	0.096080154
12	0x3ba09117	0.0049001086
13	0x3dce3b9d	0.10069964
14	0xbc2802bb	-0.010254557
15	0xbda83273	-0.082127474
16	0xbd73ba1e	-0.059503667
17	0x3db6b535	0.08921281
18	0x3d59d06b	0.05317728
19	0xbd80bfdd	-0.06286595
20	0xbdc492e9	-0.095983334
21	0x3dd26a8b	0.10274228
22	0xbdb89dc8	-0.090144694
23	0xbdd18783	-0.10230925
24	0x3daee51a	0.085397914
25	0xbd8c928d	-0.0686389
26	0x3d6fd6af	0.058554348
27	0x3cd4fed8	0.026000425
28	0xbda85614	-0.08219543
29	0x3be1a60b	0.006886249
30	0x3d44592c	0.047936603
31	0x3ddfdd65	0.109308995
32	0x3cb26c51	0.021780165
33	0xbcce444e	-0.025179055
34	0x3da2cfc9	0.07949788
35	0xbd96b02a	-0.073578194
36	0x3cb02c7c	0.021505587
37	0x3db10da6	0.08645181
38	0x3da68a5a	0.08131857
39	0x3dbdba04	0.09263995
40	0x3de6d72c	0.112715095
41	0x3d6e053b	0.058110457
42	0xbda66df1	-0.081264384
43	0x3c8e6d5c	0.017386131
44	0xbe1075d1	-0.14107443
45	0x3d81064c	0.06300029
46	0xbdfbef9f	-0.123015635
47	0xbd3003bb	-0.042972308
48	0xbd33bd12	-0.043881483
49	0xbd1f15c0	-0.0388391
50	0x3dc1a2b9	0.09454865
51	0xbde50b16	-0.11183755
52	0xbdb888b9	-0.09010453
53	0x3d939bb5	0.07207433
54	0x3c2b9c78	0.010474317
55	0xbdc60366	-0.09668617
56	0x3d09ec1b	0.033672433
57	0xbd4fc24e	-0.050722413
58	0xbe04846a	-0.12941137
59	0xbc324976	-0.010881772
60	0x3dca4902	0.098772064
61	0x3d2a466d	0.04157107
62	0xbdfc3555	-0.1231486
63	0x3d81a684	0.063305885
64	0xbdd082f8	-0.1018123
65	0x3ca5d04a	0.020240922
66	0x3d9790bb	0.07400652
67	0x3c76894f	0.015047385
68	0x3d4a0ea7	0.04933038
69	0xbdb7d8a5	-0.089768685
70	0x3dd91a3e	0.106007084
71	0x3ce51772	0.027965281
72	0x3c156d76	0.009120336
73	0xbd573f19	-0.05255041
74	0x3da0a602	0.078441635
75	0x3d1310b5	0.035904605
76	0xbe1693b0	-0.14704776
77	0x3ceaf692	0.028682027
78	0x3cc6f5bd	0.024287099
79	0xbd80aa3c	-0.0628247
80	0x3d91eb7b	0.071249925
81	0x3dbd470b	0.09242066
82	0x3cbe9901	0.023266317
83	0x3da357a3	0.079757
84	0x3d58883b	0.052864294
85	0xbdd42294	-0.10358158
86	0x3d68482d	0.056709457
87	0x3d7f8c48	0.062389642
88	0x3d528993	0.051400732
89	0x3dd523b7	0.10407203
90	0xbd09d5b7	-0.03365108
91	0xbdf3e59f	-0.11909031
92	0xbddc70a9	-0.10763676
93	0xbc2e5998	-0.010641478
94	0x3d0488fd	0.032357205
95	0x3da42196	0.080142185
96	0xbd3fc539	-0.046818946
97	0x3dce25ad	0.1006578
98	0xbd136cc4	-0.0359924
99	0x3cf815a2	0.030283753
100	0x3d99fb99	0.075186916
101	0xbd94b280	-0.07260609
102	0x3dcaa3b1	0.09894503
103	0xbe01e413	-0.1268466
104	0x3db8cf18	0.09023875
105	0xbe0f6d2e	-0.14006492
106	0xbd98a455	-0.07453219
107	0xbd7ba3e5	-0.0614356
108	0x3d43d780	0.04781294
109	0xbd4829c4	-0.048867956
110	0xbda279b2	-0.07933368
111	0xbdc7139b	-0.09720536
112	0xbcb11059	-0.02161424
113	0x3e12eecd	0.14348908
114	0x3dbc3a7e	0.09190844
115	0xbd913268	-0.07089692
116	0x3c91e1e3	0.017807906
117	0x3dd4be28	0.10387832
118	0x3d818b79	0.063254304
119	0x3e082c4f	0.13298152
120	0x3ba8d795	0.0051526525
121	0x3d1ac6ff	0.037787434
122	0xbdb196aa	-0.08671315
123	0xbdbf3073	-0.09335413
124	0x3dd5b406	0.10434727
125	0x3d220d9b	0.039563756
126	0xbd8deb51	-0.06929649
127	0x3d856c04	0.06514743
