grasp_placement/models/run_seed_7399/stability_net.pth (torch, 25284 bytes, 5 tensors)

fc1.weight f4 [64, 21]
0	0xbdf17dc5	-0.11791567
1	0xbe12aa5f	-0.14322804
2	0x3e259d36	0.16173252
3	0xbdd3ea79	-0.103474565
4	0x3e359402	0.17732242
5	0x3d5cc3ee	0.05389779
6	0x3b1ac738	0.0023617279
7	0x3ddfc9da	0.10927172
8	0x3dfa686c	0.12226948
9	0xbd79ba1e	-0.06096851
10	0x3ddf7490	0.109109044
11	0x3de5aff0	0.11215198
12	0xbe3098a7	-0.17245732
13	0x3e21d56f	0.15804075
14	0x3e2cdbc7	0.16880713
15	0x3dfaf5bb	0.122539006
16	0xbdea4d96	-0.114405796
17	0x3de71699	0.11283607
18	0x3e432552	0.19057205
19	0xbc57814b	-0.013153384
20	0xbd2690a7	-0.040665295
21	0x3dc0e691	0.09418977
22	0x3d55404d	0.052063275
23	0xbda87d2a	-0.08226998
24	0xbdbb5349	-0.09146745
25	0x3e2cbbff	0.1686859
26	0x3e1cf0f1	0.15326287
27	0x3c4d1c44	0.012518946
28	0x3dda4064	0.10656813
29	0xbdca864d	-0.09888897
30	0x3e686c0b	0.22697465
31	0x3e39f691	0.18160464
32	0xbd8c1ee0	-0.068418264
33	0x3e14ac01	0.1451874
34	0x3e17b26f	0.14814161
35	0xbd46c2cb	-0.048525613
36	0xbdc79f7e	-0.097472176
37	0xbd935289	-0.07193477
38	0xbde5efef	-0.11227404
39	0x3d7e7ab3	0.062128734
40	0x3e8d0177	0.2754018
41	0x3e80cedb	0.25157818
42	0xbe4735ba	-0.19454089
43	0xbe0c0aa8	-0.1367594
44	0xbe081da4	-0.13292557
45	0xbd033a17	-0.03203782
46	0xbdf8d684	-0.121502906
47	0xbe4f3909	-0.20236601
48	0xbbc2abf5	-0.005940909
49	0x3b6fc83e	0.003658786
50	0xbe17a9fb	-0.14810936
51	0x3e568a42	0.20951179
52	0xbe38e572	-0.18056276
53	0x3e350f9d	0.17681737
54	0xbe053bf8	-0.13011158
55	0xbe28e587	-0.16493808
56	0x3dcbcba8	0.09950954
57	0x3df4d86c	0.11955342
58	0x3e5c4111	0.21509196
59	0x3c6fc366	0.014633989
60	0x3e0deed5	0.13860638
61	0x3d9f334e	0.077734575
62	0x3e318389	0.17335333
63	0x3e723e5c	0.236566
64	0x3e209001	0.15679933
65	0xbdb15d83	-0.08660414
66	0xbe2f5439	-0.17121972
67	0x3df51b26	0.11968069
68	0x3e0a469e	0.13503501
69	0xbdd0d605	-0.10197071
70	0xbe195361	-0.14973213
71	0xbdbf321c	-0.093357295
72	0xbd548c7e	-0.051891796
73	0xbccbbef5	-0.024871329
74	0x3e105568	0.1409508
75	0x3e135199	0.14386596
76	0x3dd2b969	0.102892704
77	0xbd17712e	-0.03697317
78	0xbe29be03	-0.1657639
79	0x3ca94886	0.020664465
80	0xbe475ca0	-0.19468927
81	0x3db8d965	0.0902584
82	0x3d11b556	0.035573326
83	0x3e91336e	0.2835955
84	0xbd076f15	-0.03306492
85	0x3daac610	0.08338559
86	0xbdc390cb	-0.095491014
87	0xbd2292c5	-0.03969075
88	0x3e510939	0.20413674
89	0xbe142891	-0.144686
90	0xbdbfed5b	-0.09371444
91	0xbd9f7b3d	-0.07787178
92	0xbd8513d7	-0.06497925
93	0xbda6add5	-0.081386246
94	0x3e117aea	0.14207044
95	0x3dcc4416	0.09973924
96	0xbd5124d6	-0.05106052
97	0x3e7105ae	0.23537323
98	0xbd0b92a8	-0.03407541
99	0xbe179a74	-0.14805013
100	0xbd95273f	-0.07282876
101	0xbdcc9ec9	-0.09991223
102	0xbd462869	-0.048378382
103	0xbe764ea2	-0.24053434
104	0xbe40a947	-0.18814574
105	0x3e0b8fd1	0.1362908
106	0xbe67aba7	-0.22624074
107	0xbd98c001	-0.07458497
108	0xbb8eb944	-0.0043555815
109	0xbe1f5e34	-0.1556328
110	0x3dad8461	0.08472515
111	0xbe569b9a	-0.20957795
112	0x3dd14ac4	0.102193385
113	0x3dc2c228	0.095096886
114	0x3e162f21	0.14666416
115	0x3c979007	0.018501295
116	0xbe1077a9	-0.14108147
117	0x3e1fa948	0.1559192
118	0xbd5017f2	-0.050804086
119	0x3c97b601	0.018519403
120	0xbe0a826f	-0.13526319
121	0xbe4a0855	-0.19729741
122	0x3d9a83cc	0.075446695
123	0xbdfc1e2d	-0.12310443
124	0xbd3813c1	-0.044940714
125	0x3d5ddd32	0.054166026
126	0x3e274730	0.1633575
127	0x3d8b5b32	0.068045035
128	0x3dc3e189	0.09564502
129	0x3d8b47b5	0.068007864
130	0x3dac1b32	0.084036246
131	0xbddd0cc7	-0.10793453
132	0xbdbd5251	-0.09244216
133	0xbe00ad51	-0.12566115
134	0x3d96014b	0.07324465
135	0x3d20cc17	0.039257135
136	0x3de08780	0.109633446
137	0x3e1c9d59	0.15294398
138	0xbe23d750	-0.16000104
139	0xbd2d4337	-0.04230043
140	0x3e32ff12	0.17480114
141	0x3d154f04	0.03645231
142	0x3c847539	0.016169177
143	0x3de52ac0	0.111897945
144	0xbdab0615	-0.083507694
145	0xbe47e1cc	-0.19519728
146	0x3e35e604	0.17763525
147	0xbe4578dc	-0.19284385
148	0x3e02d1fe	0.12775418
149	0x3e3cfba3	0.18455367
150	0xbe1138e2	-0.14181855
151	0xbe2f61fa	-0.17127219
152	0xbde044e5	-0.109506406
153	0x3dc6ae10	0.097011685
154	0xbdb69260	-0.089146376
155	0xbe1deccc	-0.15422362
156	0xbe3917da	-0.18075505
157	0x3e405e7c	0.18786043
158	0xbe3d99e5	-0.18515737
159	0x3dfab9a0	0.122424364
160	0xbe0da43e	-0.13832185
161	0x3e5411fa	0.20709983
162	0x3d913c7b	0.07091614
163	0xbc8ed2e8	-0.017434552
164	0xbcdea00a	-0.027175922
165	0xbd69aaaf	-0.057047542
166	0xbc72a511	-0.014809863
167	0x3c97822f	0.018494694
168	0x3beb42a3	0.0071795746
169	0x3e4ea222	0.20179036
170	0xbe3137bc	-0.17306417
171	0xbe4ed61a	-0.20198861
172	0xbd6a922e	-0.057268314
173	0xbe3391c6	-0.17536077
174	0xbe324a74	-0.17411214
175	0x3d2dd3fd	0.042438496
176	0x3e4ca8a6	0.1998621
177	0xbe1fe6ab	-0.15615337
178	0x3e41f2cc	0.18940276
179	0xbdf24f84	-0.11831573
180	0x3de7700b	0.113006674
181	0x3e4abcbd	0.1979856
182	0xbce12024	-0.027481146
183	0xbd3633ec	-0.04448311
184	0xbd70afac	-0.058761284
185	0xbd0da9c9	-0.034585748
186	0x3dfb3a9e	0.1226704
187	0x3dc70220	0.09717202
188	0x3e35b99d	0.17746587
189	0xbe29b565	-0.16573103
190	0x3d0863eb	0.033298414
191	0x3d9f06dd	0.07764981
192	0x3e825c2e	0.25460953
193	0xbe65f5a2	-0.22456983
194	0x3e0f2a26	0.13980922
195	0x3e144b0e	0.14481756
196	0xbe5556cf	-0.20833896
197	0xbb7b167b	-0.003831296
198	0x3e3fd4f6	0.18733582
199	0x3e6c308b	0.23065393
200	0x3e17efa3	0.14837508
201	0x3ded80b7	0.11596816
202	0x3e0643a7	0.13111745
203	0x3dc2de23	0.095150255
204	0xbdf02472	-0.117257014
205	0x3e392aba	0.18082705
206	0xbe703abf	-0.2345991
207	0xbdfb543c	-0.12271926
208	0xbe129b42	-0.14317039
209	0x3e65eea0	0.2245431
210	0x3dfab49f	0.12241482
211	0xbe49d4b8	-0.19710052
212	0x3c2ec517	0.010667107
213	0xbe619ba1	-0.22032024
214	0x3de3453a	0.11097188
215	0x3dc9af84	0.0984793
216	0x3d8174bf	0.06321096
217	0xbd90c3c7	-0.070685916
218	0x3d04b462	0.03239859
219	0xbd910552	-0.07081093
220	0xbdbabe4f	-0.0911833
221	0xbd659b82	-0.056056507
222	0x3e12c0b2	0.1433132
223	0xbe055971	-0.130224
224	0xbe3c691d	-0.18399473
225	0x3e5575b9	0.20845689
226	0x3c6a3a10	0.01429607
227	0x3dd18ed8	0.102323234
228	0xbe3ec223	-0.18628745
229	0x3c1ce3de	0.009575812
230	0x3e8bc4cc	0.27298582
231	0xbb196da7	-0.0023411305
232	0xbe2fe968	-0.17178881
233	0xbe3c9336	-0.18415532
234	0xbd5ff25d	-0.054674495
235	0x3cc826ea	0.024432618
236	0xbdea063b	-0.114269696
237	0x3e370c5e	0.17875811
238	0xbcee6be1	-0.029104175
239	0xbde2b57e	-0.11069773
240	0xbd4ebab0	-0.050471008
241	0xbe349f00	-0.17638779
242	0xbe227a17	-0.15866886
243	0xbce2c4b2	-0.027681682
244	0xbdf196e2	-0.11796357
245	0x3e449133	0.19196014
246	0xbe2e9499	-0.17048873
247	0x3d536bf6	0.05161663
248	0x3e0f6382	0.14002803
249	0x3e76fbd0	0.24119496
250	0x3d3375b9	0.04381344
251	0x3dcbe4f9	0.099557824
252	0x3d3872fb	0.04503153
253	0xbd3d7b68	-0.046260267
254	0x3e605a8f	0.21909545
255	0x3c34005b	0.010986413

fc1.bias f4 [64]
0	0x3e6647b7	0.22488295
1	0x3df1ee64	0.118130475
2	0x3e26d114	0.16290694
3	0xbdb29d1f	-0.08721375
4	0x3df6406e	0.12024008
5	0x3e5aaba9	0.21354546
6	0x3e49c6c6	0.19704732
7	0x3dea50ee	0.11441217
8	0x3d837d5d	0.064203955
9	0xbcc33a7c	-0.023831598
10	0x3dbbbb39	0.09166569
11	0xbdedcf84	-0.11611846
12	0x3d7eba4e	0.062189393
13	0x3e6952d7	0.22785507
14	0xbd0ff14b	-0.035142224
15	0x3e471960	0.19443274
16	0xbdfcb6f7	-0.12339585
17	0xbcbba817	-0.0229073
18	0xbd0db58c	-0.034596965
19	0xbe094c1f	-0.13407944
20	0xbdbe4338	-0.09290165
21	0x3c0ab19d	0.008465198
22	0x3d36dbc4	0.04464318
23	0x3e1da9a4	0.15396744
24	0x3e1fd7c5	0.15609653
25	0x3dbd88cf	0.0925461
26	0x3c8bdc70	0.017072886
27	0x3d9dea81	0.07710744
28	0xbdc9556f	-0.09830748
29	0xbe2bf12b	-0.16791217
30	0x3da6f418	0.08152026
31	0xbe094734	-0.13406068
32	0xbcc037e8	-0.023464158
33	0xbd5d7016	-0.05406197
34	0xbe3903f0	-0.18067908
35	0x3e5b1b79	0.21397199
36	0x3d5b68ec	0.05356686
37	0x3de3e8a8	0.1112836
38	0xbdf51482	-0.11966802
39	0x3da16ff3	0.07882681
40	0xbdc70e3a	-0.097195104
41	0xbd4d0675	-0.050054986
42	0xbe2dc51d	-0.16969724
43	0x3e4e3c42	0.20140174
44	0x3e2151ae	0.15753815
45	0x3e42e8be	0.19034097
46	0x3d1a23ad	0.03763168
47	0x3ccc9d3b	0.024977317
48	0x3d14d613	0.03633697
49	0xbd8bc499	-0.068246074
50	0xbe0119a1	-0.12607433
51	0x3d5c8ae1	0.053843383
52	0x3e86cdb2	0.26328808
53	0xbe1f4bce	-0.15556261
54	0x3e4d380d	0.20040913
55	0x3d823e96	0.063595936
56	0x3e503b06	0.20335016
57	0xbc32109a	-0.010868216
58	0xbd022c56	-0.031780563
59	0xbe289e30	-0.16466594
60	0x3e4209d9	0.18949069
61	0x3df602b1	0.12012232
62	0xbdd40feb	-0.103545986
63	0xbdb726cf	-0.08942949

fc2.weight f4 [64, 64]
0	0x3c59511d	0.013263968
1	0xbcb232c9	-0.021752732
2	0x3e041f0c	0.12902468
3	0xbdadd503	-0.084878944
4	0xbe0129bb	-0.12613575
5	0xbe129d6b	-0.14317863
6	0xbdce8fb4	-0.10086003
7	0x3aca57ec	0.001543758
8	0xbc3b7d68	-0.011443473
9	0xbda2bd12	-0.079462186
10	0x3db2b26b	0.08725437
11	0x3d936556	0.07197063
12	0x3d927037	0.071503095
13	0x3df7c94a	0.1209894
14	0xbd9493a0	-0.0725472
15	0x3dfc7f2c	0.123289436
16	0x3c27fd16	0.0102532115
17	0xbda93c28	-0.08263427
18	0x3cf96c83	0.03044725
19	0xbc236e41	-0.009975017
20	0x3cc066ea	0.023486573
21	0x3abd640c	0.0014449372
22	0xbd0f794b	-0.035027783
23	0x3cfead07	0.031088365
24	0xbdb64ebe	-0.08901738
25	0xbc793ea0	-0.015212685
26	0x3c9ec2a2	0.019379918
27	0x3d9968cd	0.07490692
28	0xbd7f82d1	-0.062380616
29	0xbd174c40	-0.036937952
30	0xbe0eecbb	-0.13957493
31	0x3c8c2f81	0.017112495
32	0xbdb9e701	-0.090772636
33	0x3d15f194	0.03660734
34	0x3d4c9dba	0.049955107
35	0xbdcf80e0	-0.10132003
36	0x3b3b5f4d	0.002859074
37	0x3d5fa3cd	0.054599572
38	0x3d951181	0.07278729
39	0xbd7181f7	-0.058961835
40	0x3d76739c	0.060168847
41	0xbdb21ef7	-0.08697312
42	0x3dc7505e	0.09732126
43	0xbdb7416c	-0.08948025
44	0xbe018716	-0.12649187
45	0xbc9a4ab8	-0.018834457
46	0x3e0efde9	0.13964047
47	0x3df55408	0.11978918
48	0x3d9e718f	0.07736503
49	0xbe015f8f	-0.12634109
50	0xbe18bac4	-0.14914995
51	0x3cb37abb	0.021909108
52	0x3d04e35a	0.03244338
53	0x3df1db9c	0.11809465
54	0x3b402222	0.002931722
55	0xbd54e330	-0.051974475
56	0xbc969b17	-0.0183845
57	0x3d61ad7a	0.05509708
58	0x3cc81799	0.024425315
59	0x3d001748	0.031272203
60	0xbdf2f806	-0.11863713
61	0xbc9151f7	-0.01773928
62	0x3de0b951	0.10972846
63	0x3dc858f5	0.09782592
64	0x3dae9fef	0.08526599
65	0xbd19b795	-0.037528593
66	0x3d064b68	0.032786757
67	0x3da2b97e	0.07945536
68	0xbdbc365d	-0.091900565
69	0x3d63c264	0.055605307
70	0x3c5281a5	0.0128482925
71	0xbc93fbba	-0.018064369
72	0x3dd0ab79	0.10188956
73	0xbdb96fad	-0.090545036
74	0xbdf5b3f7	-0.11997216
75	0x3dc52b64	0.09627417
76	0x3ce124f1	0.027483435
77	0xbd92afc9	-0.071624346
78	0x3bbc0370	0.0057377145
79	0xbc3b6981	-0.011438728
80	0x3d6d07b3	0.05786867
81	0x3b94a04f	0.004535712
82	0xbd0e9f44	-0.034819856
83	0x3c6503d5	0.013977964
84	0xbdc9d293	-0.09854617
85	0x3e02b3a0	0.12763834
86	0x3cd1517a	0.025551546
87	0xbbcad2f7	-0.0061896998
88	0xbdc42ba8	-0.09578639
89	0x3cd1535f	0.02555245
90	0x3e0191f2	0.1265333
91	0x3d0f7f9d	0.03503381
92	0x3e095e10	0.13414788
93	0x3dfd678b	0.12373265
94	0x3d5d06b8	0.053961486
95	0xbce0f096	-0.02745847
96	0x3c011f2a	0.007880965
97	0xbde6fef0	-0.11279094
98	0xbc80d489	-0.015726345
99	0x3c47650a	0.012170086
100	0x3da23d3b	0.07921835
101	0xbd701413	-0.058612894
102	0xbdc3214a	-0.09527834
103	0xbcb1b3b5	-0.021692136
104	0x3d9692db	0.07352229
105	0xbdc803c0	-0.0976634
106	0xbe2564a7	-0.16151677
107	0x3d63e6fd	0.05564021
108	0xbcc7bd19	-0.024382161
109	0xbdb20aa7	-0.08693438
110	0xbded31f2	-0.11581792
111	0x3da33ce7	0.079706006
112	0xbd8d0f71	-0.06887711
113	0x3dfddabe	0.123952374
114	0x3c9dfb1d	0.01928478
115	0x3d3bdcbf	0.045864817
116	0xbb533eb5	-0.0032233421
117	0xbde43cd2	-0.11144413
118	0xbcd1964e	-0.025584366
119	0xbda8e84e	-0.082474336
120	0x3d93226f	0.07184302
121	0xbdc41b55	-0.09575526
122	0xbdb0ac92	-0.08626665
123	0xbdb41d72	-0.08794679
124	0xbd06a3ac	-0.032870933
125	0x3aad3fc9	0.0013217862
126	0xbe05fa0e	-0.1308367
127	0xbdde0855	-0.10841433
128	0xbd43857e	-0.04773473
129	0x3d8045c4	0.06263307
130	0xbd7bfa63	-0.061518084
131	0xbd99f2ea	-0.07517035
132	0xbdbbbd3e	-0.091669545
133	0xbda18501	-0.078866966
134	0xbce2f62b	-0.027705273
135	0x3d4b66fe	0.049658768
136	0xbcca945c	-0.024728946
137	0xbd1f12b0	-0.03883618
138	0x3d4d0e38	0.05006239
139	0x3ce49fa6	0.027908158
140	0x3d8ed801	0.06974793
141	0x3b5d9878	0.0033812802
142	0x3da603cb	0.08106192
143	0x3c6b10fc	0.014347311
144	0x3d8ec861	0.06971813
145	0xbbd3dd1a	-0.0064655663
146	0x3dc0053e	0.09376
147	0xbdf12013	-0.11773696
148	0x3e0db29b	0.13837664
149	0xbd536950	-0.051614106
150	0x3e1c8809	0.15286268
151	0x3dac2697	0.08405798
152	0xbc420ccb	-0.01184387
153	0x3e0bda91	0.13657595
154	0x3aa4e3d2	0.0012580103
155	0x3d8fb522	0.0701697
156	0xbda03407	-0.078224234
157	0x3de8bb05	0.11363796
158	0xbd85cc23	-0.065330766
159	0xbc8b7769	-0.017024713
160	0x3e200bd8	0.15629518
161	0x3dfe18c5	0.12407068
162	0x3d9dca6a	0.07704623
163	0x3dde8a3b	0.10866209
164	0xbce87ede	-0.028380807
165	0x3dab4364	0.08362463
166	0xbe1ac6c0	-0.1511488
167	0x3dc6fc2c	0.09716067
168	0x3d808f1f	0.06277298
169	0x3da46769	0.080275364
170	0x3e1e17ac	0.15438718
171	0x3d14e009	0.03634647
172	0x3dbdd8cb	0.092698656
173	0x3de8476b	0.11341747
174	0x3e2f1aff	0.17100142
175	0x3dd435d7	0.10361832
176	0x3c18f499	0.00933566
177	0x3d89ac54	0.06722322
178	0xbd77e93e	-0.06052517
179	0x3dc30bb8	0.095237195
180	0x3db548e3	0.08851793
181	0x39f82290	0.00047327997
182	0x3c87b9a9	0.016568022
183	0xbd2e3a0c	-0.042535827
184	0x3dfaf256	0.12253253
185	0x3e002fc5	0.12518223
186	0x3d9be278	0.07611555
187	0x3e10727f	0.14106177
188	0xbdb71e10	-0.08941281
189	0x3dc40095	0.095704235
190	0xbd2a520b	-0.04158215
191	0x3d94b302	0.072607055
192	0xbd8fbc4e	-0.07018338
193	0x3d4a6a76	0.049417935
194	0x3de3a297	0.11114996
195	0xbcd01686	-0.025401365
196	0x3c65afeb	0.014018993
197	0x3d88137a	0.0664434
198	0xbd160afb	-0.036631566
199	0x3df01bac	0.11724028
200	0xbd057bd8	-0.03258881
201	0xbd2286b0	-0.03967923
202	0x3d44b346	0.04802253
203	0x3cade246	0.02122606
204	0xbd9d8d18	-0.07692927
205	0xbcdd724f	-0.027032046
206	0x3c094f78	0.008380763
207	0xbdfe655a	-0.12421675
208	0xbd558a1c	-0.052133664
209	0x3d891188	0.06692797
210	0xbda3748a	-0.079812124
211	0x3d78faf5	0.060786206
212	0x3dcce8e7	0.1000536
213	0x3d1993c8	0.03749445
214	0xbe3a4230	-0.18189311
215	0xbdb578e3	-0.08860948
216	0x3da1a49f	0.07892727
217	0x392bdf60	0.00016391044
218	0xbd839f95	-0.06426922
219	0x3d8eaff2	0.06967153
220	0x3d5d1dbb	0.05398343
221	0xbd96561c	-0.07340643
222	0xbd6ccd77	-0.057813134
223	0x3d77af66	0.060470007
224	0x3cd948a6	0.0265239
225	0x3c4f393b	0.012647922
226	0xbc63eba4	-0.013911162
227	0xbbf88cfa	-0.007585165
228	0x3cfcce67	0.030860139
229	0xbd13fa9f	-0.036127683
230	0x3d3e468c	0.046453997
231	0xbdf9ea50	-0.12202895
232	0xbd096d23	-0.033551347
233	0xbcff1538	-0.031138048
234	0x3d7dccc1	0.061962847
235	0xbd76cebb	-0.060255747
236	0x3ddfe54b	0.10932406
237	0x3dac3389	0.08408267
238	0xbda3f3dc	-0.08005497
239	0xbd83dfba	-0.06439157
240	0xbd636767	-0.055518534
241	0xbd6a2f9c	-0.05717431
242	0x3d284798	0.041083902
243	0xbd0c0132	-0.034180827
244	0xbc80cb89	-0.015722053
245	0xbdaea0f5	-0.08526794
246	0xbda13e1b	-0.07873174
247	0x3df2f9f4	0.11864081
248	0xbd104d85	-0.03523018
249	0x3c66dde6	0.014090991
250	0x3dc39abe	0.09550999
251	0xbd9cf6d4	-0.07664266
252	0xbd96dd98	-0.073664844
253	0xbd9304b4	-0.071786314
254	0xbc056a33	-0.008142996
255	0xbd197964	-0.037469283

fc2.bias f4 [64]
0	0x3dbfaa78	0.09358686
1	0x3cb509b7	0.022099359
2	0x3cdfb4a8	0.027307823
3	0x3dcc2ff0	0.09970081
4	0x3c6c09f2	0.014406668
5	0xbdb5034e	-0.08838521
6	0x3dc46ca0	0.09591031
7	0x3d8ac3af	0.06775605
8	0xbd73bfb8	-0.05950901
9	0x3dbfb940	0.093615055
10	0x3bf05c0b	0.007335191
11	0x3df15270	0.11783302
12	0xbd762efe	-0.06010341
13	0x3dab84e6	0.08374958
14	0xbbd68927	-0.0065471116
15	0xbcc8ed8a	-0.02452733
16	0xbd72a7e3	-0.05924214
17	0x3d0a40c2	0.033753164
18	0x3e1b9ea0	0.1519723
19	0xbdd98705	-0.10621456
20	0x3d147184	0.03624107
21	0x3dbc1c7f	0.09185123
22	0x3da7ed8c	0.08199605
23	0x3d2c9220	0.042131543
24	0x3dd69dfa	0.104793504
25	0xbcc9810a	-0.024597663
26	0xbdf39079	-0.1189279
27	0xbdfe1cf5	-0.12407867
28	0xbc0c0319	-0.00854566
29	0xbcc09992	-0.023510728
30	0x3dd24068	0.10266191
31	0x3d96de23	0.07366588
32	0x3de38d35	0.111109175
33	0xbc1a8af9	-0.009432548
34	0x3d97ea23	0.07417705
35	0x3df30b03	0.11867335
36	0x3dcd6d5a	0.10030623
37	0xbd00c769	-0.031440172
38	0xbd0e5767	-0.034751322
39	0xbd1b582a	-0.037925877
40	0xbdf2ae00	-0.11849594
41	0x3c9bcb87	0.019017948
42	0xbdb6faa5	-0.089345254
43	0x3d9378db	0.07200786
44	0x3db8465b	0.08997794
45	0x3d83fb54	0.064444214
46	0xbb9eb48b	-0.0048432997
47	0xbbb6dee3	-0.0055807694
48	0xbc9472f3	-0.018121218
49	0xbd4cad0e	-0.049969725
50	0x3dbb7895	0.091538586
51	0xbcae75ef	-0.02129647
52	0x3dc4b53d	0.09604881
53	0xbdbc277c	-0.091872185
54	0x3d081b81	0.033229355
55	0x3d23fa48	0.04003361
56	0x3d3a3354	0.045459107
57	0x3da33538	0.07969135
58	0x3be3bc54	0.0069499407
59	0x3dcaa23a	0.098942235
60	0xbda0f7da	-0.07859774
61	0x3954915b	0.00020272045
62	0x3b8690b1	0.004106604
63	0x3dbc7452	0.09201874

reg_head.weight f4 [1, 64]
0	0xbda77edf	-0.081784956
1	0xbe2b5991	-0.16733386
2	0x3e08a522	0.13344243
3	0xbdc23cee	-0.09484278
4	0x3deec88a	0.116593435
5	0x3dd6cb0b	0.10487946
6	0xbdefac80	-0.11702824
7	0x3e0b07ce	0.13577196
8	0xbe07b7e5	-0.13253744
9	0x3dc2faea	0.09520514
10	0x3df6f6ee	0.12058817
11	0xbd2dcba3	-0.04243053
12	0x3dfb57b1	0.12272585
13	0x3db25010	0.08706677
14	0x3d5c0875	0.053719003
15	0x3e14f9d1	0.14548422
16	0x3d45ab34	0.048258975
17	0xbe021923	-0.12704901
18	0x3d9290ea	0.071565464
19	0x3d92cfe7	0.071685605
20	0xbda8486c	-0.082169384
21	0xbdaebf24	-0.08532551
22	0xbd2090d2	-0.03920061
23	0x3dbfdf11	0.093687184
24	0xbdfa2965	-0.12214927
25	0xbcae681b	-0.021289876
26	0xbdd387f9	-0.10328669
27	0xbd7710f1	-0.06031889
28	0x3e173f10	0.1477015
29	0xbd2c59e5	-0.042077918
30	0xbddb0e2f	-0.10696065
31	0xbe2ad777	-0.16683756
32	0xbdbc4cd0	-0.09194338
33	0xbd412813	-0.04715736
34	0x3de3c129	0.11120827
35	0xbdd752f5	-0.1051387
36	0x3e0854d7	0.13313614
37	0xbe265bc6	-0.16245946
38	0xbc40208d	-0.011726511
39	0xbc06ecc3	-0.008235159
40	0xbd896f60	-0.06710696
41	0xbd96bbca	-0.07360037
42	0xbdc213aa	-0.09476407
43	0xbcbaf0c3	-0.022819882
44	0xbdbaaa98	-0.091145694
45	0x3e126d75	0.14299567
46	0xbd2e9aaa	-0.042627968
47	0xbe01d24b	-0.12677877
48	0xbdee5113	-0.116365574
49	0xbbf8bbcc	-0.0075907465
50	0xbdc214e2	-0.09476639
51	0xbc281f5b	-0.010261382
52	0xbe14b06a	-0.14520422
53	0xbdee0c26	-0.11623411
54	0x3d53b44e	0.051685624
55	0xbde0d735	-0.109785475
56	0x3d7677e4	0.06017293
57	0xbd58a2f9	-0.052889798
58	0x3e165824	0.1468206
59	0x3cdbcab0	0.026830047
60	0xbdd9886b	-0.10621723
61	0x3db63574	0.08896914
62	0xbe1bb07d	-0.15204044
63	0x3d891299	0.06693
