grasp_placement/models/run_seed_8477/stability_net.pth (torch, 25284 bytes, 5 tensors)

fc1.weight f4 [64, 21]
00000000: 5f01 013d 1ce5 bd3e 0e18 9d3c 8331 523e
00000010: 26bf 323e 8001 953e 89b4 b43e ff19 2dbd
00000020: cab3 f53d 7b9c 9bbd 1ad4 49bb 28ad 823c
00000030: 9253 7f3e d977 aabe 9dc2 973d eb38 cbbd
00000040: b224 703d 2491 2abe 40d4 1b3e 7bfb c83e
00000050: 48d1 b3bd 40bd ad3d b47f 2cbe 6b00 c0be
00000060: c3c7 89bd 861f febc 69b0 7b3e 9477 153d
00000070: a5c2 31be 4ad3 a43a 5e40 33bd 53e8 233e
00000080: e485 1c3e 6b36 c23e d7ab 333d 6d71 2d3e
00000090: 0f2e 3b3e d9b7 6cbe b6bf 393e bccd 8bbe
000000a0: 5497 793d 4527 5f3e ba1e 033e ea30 90be
000000b0: 71cd 21be d2e7 9d3d 440f a7be 250e ef3d
000000c0: 12e9 943e ebda 7bbd 2c19 96be ea75 1fbe
000000d0: e2a4 103e f6bb 313d d5a1 92be 448a 8d3e
000000e0: e86c e73c 2060 abbc 86ad 2abb 2419 8d3d
000000f0: a524 033e 713c dfbb cc84 a7bc 1894 813d
00000100: c162 213c 9685 a73e f583 de3e 8a1e da3d
00000110: 27ed a0be a4b4 c03d 6fc0 9e3d 20e8 adbd
00000120: 4613 da3d e183 43be 9dba 573e 2f81 a7be
00000130: deb6 9fbe 09ba a93e bc69 73be c5bb d43d
00000140: 6379 16be 257a 7abe be49 333e 9f5d 253e
00000150: 7069 113e 2709 e83d 52e8 8fbd ab20 c43b
00000160: 08c9 aabd 5bd8 1bbe 4fa2 6dbd 1228 553e
00000170: 1f38 f0bb ef39 aabd 6be8 04be 071d 063c
00000180: 4725 2b3e 75e2 aebc 2290 b2bc 61fb fa3d
00000190: ce02 63be fd35 c23d b257 d2bd c30b c23d
000001a0: b02b 833d e9a6 c33b 01ad 443d 80b7 19be
000001b0: 4519 15be efdd df3c 9932 80bd e445 ee3e
000001c0: 9ee1 123e e131 49bb 9728 85be 3360 b33d
000001d0: 34f3 ea3d af75 833e 93b2 0f3f cf16 b9be
000001e0: 6f5b ce3d 36de 0c3d 9401 f53b 420a 3d3e
000001f0: 009e 303d 324c 10be 6a01 dbbd b347 32be
00000200: 1548 823e 7bb0 1d3e c3e9 6c3d f226 2c3d
00000210: ffc7 983e cdd7 103d 46cf 57be d571 de3d
00000220: a240 e43d eeba 223f 1923 94b7 42a9 fdbd
00000230: 3bf9 833e b81c 94bd ae52 1dbe a779 12be
00000240: 0bb4 aebe 26de 883e 495c 2a3d 3ebb 5bbe
00000250: 4254 3cbc e199 803d ceda 9abe 03ab 563e
00000260: 405a 8b3e e9a0 c6bd 8d77 c1bd 221a 373e
00000270: ce04 c1bd b34b 31be be9a 9bbe f7fc ba3d
00000280: 113d 833e a852 f5bd a61d 213e ab35 e13d
00000290: d15f 163d 0f1e 953e 010e 12be 72fe 86bd
000002a0: 8549 75be d037 d8bc eb70 dfbe 9669 a63d
000002b0: 097d 713c 3642 b4be 3244 103e c4cc e6bd
000002c0: f66e 163e 24e8 2ebe 16d3 be3d 00f8 19bc
000002d0: f163 e73c c9ca 013e 4d9d 2e3e c7cb 5abd
000002e0: a8c6 1b3e cd2e 633e 6af5 dcbd 7bc8 f9bd
000002f0: 1eb5 5fbe 100e 253e 0a4c 3a3e 48cf 5cbd
00000300: 1368 d9bd 08e2 1e3e 2458 dc3d e9ea 033e
00000310: 30d1 ed3d a7eb 803e 1201 1bbb 1612 9ebe
00000320: cdf9 493e eb73 4139 4e46 c63b e630 12be
00000330: c910 d53e e60b e0b9 b38f 20be 197b b13d
00000340: 3b9a a8be 01ae 9ebe 0e82 4a3e 8421 14bc
00000350: 00be 673d 4088 07be 8cdc 23bf be0f 573d
00000360: 0849 503d 55c7 543b cbc2 7bbe b151 1cbe
00000370: 5c4d da3c e3a6 973e eb1a 1a3e 167b 443e
00000380: 1b0f d0bd e169 563d 9c29 3dbe 0794 963e
00000390: dc46 a8be 367c 223d dffa 973c a65d 98be
000003a0: 0279 883d 099c 3bbe b4ed dfbd 3dee 7fbe
000003b0: 48c7 08be d3f9 4b3e 3996 903b af98 0f3e
000003c0: 0ea4 86be 8666 c6bd b2c9 7cbe e6db 91be
000003d0: 7a40 2d3e d683 9d3e b86b ad3e 3339 043d
000003e0: b255 e53d 85eb ec3c 751f 85be fcb6 033c
000003f0: a9c6 403e 1c6a e23c 11f1 babc e068 aebe
0.03149545 0.3708886 0.01917651 0.205267 0.1745573 0.29102707 0.35293987 -0.04226112
0.11997183 -0.07598206 -0.0030796588 0.015951708 0.24934223 -0.33294562 0.074101664 -0.099229656
0.058628745 -0.16656929 0.15217686 0.39254364 -0.087801516 0.08483362 -0.1684559 -0.3750032
-0.06727555 -0.03102089 0.24579014 0.03649099 -0.17359407 0.0012575176 -0.043762557 0.16006593
0.1528545 0.37932143 0.04386505 0.169378 0.18279289 -0.23117007 0.18139538 -0.273054
0.060935333 0.21792324 0.1280469 -0.28162318 -0.15801026 0.07710232 -0.32628834 0.1167262
0.2908407 -0.061488073 -0.2931608 -0.15572324 0.14125398 0.043392144 -0.28639093 0.2764455
0.028250173 -0.02091986 -0.002604337 0.06889561 0.12806948 -0.006812625 -0.020449065 0.06327075
0.009850205 0.32719105 0.4346005 0.10650356 -0.31430933 0.094094545 0.077515475 -0.0849154
0.10648207 -0.19093277 0.21067281 -0.32715747 -0.31194204 0.33149746 -0.23770803 0.10387377
-0.14694743 -0.24460657 0.17508599 0.16148995 0.14200377 0.11329871 -0.070267335 0.0059853396
-0.08339125 -0.15219252 -0.058016118 0.20816067 -0.007330909 -0.08311831 -0.12979285 0.008185632
0.16713439 -0.021348218 -0.021797244 0.12254978 -0.22169039 0.09482954 -0.10270633 0.094748996
0.06404817 0.005970825 0.048016552 -0.15011406 -0.14560421 0.027327506 -0.06259651 0.46537697
0.14343879 -0.0030699896 -0.2600753 0.08758583 0.114721686 0.25675723 0.5613186 -0.36150214
0.10076033 0.034391604 0.007476995 0.18460944 0.04311943 -0.14091566 -0.10693629 -0.17410164
0.2544562 0.15399353 0.05784012 0.04202933 0.29840085 0.035362054 -0.21075162 0.108615555
0.1114514 0.6356648 -1.7659318e-05 -0.12385799 0.25776085 -0.0723204 -0.15363571 -0.14304219
-0.34121737 0.26731986 0.041591916 -0.21458146 -0.011494698 0.0627935 -0.3024506 0.20963673
0.27217293 -0.0969866 -0.094466306 0.17881063 -0.094247445 -0.17314033 -0.30391496 0.091302805
0.25632527 -0.11978656 0.15733966 0.109965645 0.03671247 0.29124495 -0.14263155 -0.065915
-0.23953827 -0.026393801 -0.43640837 0.08125608 0.014739283 -0.35206765 0.14088514 -0.11269525
0.14690766 -0.17080742 0.09317605 -0.009397507 0.028245898 0.12675013 0.17052193 -0.053416993
0.152125 0.22185822 -0.107889965 -0.12196442 -0.21846434 0.16118646 0.18193069 -0.053908616
-0.10615554 0.15515912 0.10758999 0.1288258 0.11612165 0.25179788 -0.002365176 -0.30873173
0.19724198 0.00018449097 0.0060508614 -0.14276466 0.4161437 -0.00042733474 -0.15679817 0.08666057
-0.32930169 -0.3099213 0.19776174 -0.009041194 0.056577682 -0.13235569 -0.640084 0.052505247
0.050850898 0.0032467444 -0.24586026 -0.15265538 0.026648216 0.29619512 0.15049331 0.19187579
-0.10159131 0.052347068 -0.18472904 0.2940981 -0.3286656 0.039669238 0.018552242 -0.29758948
0.066637054 -0.18321241 -0.1093401 -0.24993224 -0.1335727 0.19919519 0.004412439 0.14023088
-0.2629704 -0.096875235 -0.24686316 -0.28488082 0.16919127 0.30764645 0.33871245 0.032281112
0.11197986 0.028920898 -0.26000562 0.008039232 0.18825783 0.027638488 -0.022820028 -0.34064388

fc1.bias f4 [64]
00000000: 1780 07be b60c f4bd f45e 643d 0cf3 043e
00000010: b8a6 683c 48d5 7abd 85d6 293d 5256 f4bc
00000020: 2140 34be 400b 713d f3dd 18be 3347 6dbc
00000030: beb1 b13d 7e8a d1bd 40da 903d 7162 8e3b
00000040: 4b68 1ebc 2bfb 87be 1297 c33c 8b0d 583e
00000050: 05b2 3abd 9936 e2bd c457 dbba bd9f 4ebd
00000060: 5a0f 223d 23e0 c83d 7a23 0bbe eeb3 963d
00000070: 1874 103d 52f0 24be 52e3 3bbe d48d 43be
00000080: 2143 04be 6b59 1f3e fa10 f8bc 5b74 3cbe
00000090: 36f8 42be 5ada 0e3e 128d 59bd e676 06be
000000a0: cf46 de3d db05 d8bd 0379 3dbd e798 673d
000000b0: c830 1ebe 4297 763d 4874 cdbd dde9 f8bc
000000c0: cb77 57be 2511 cc3d 36c9 c03d 54bd 283e
000000d0: e1d8 26be a7c1 803d 427e 9abd 11d5 953d
000000e0: d456 033e 2902 0ebe 7fbf 94bc 3a38 33be
000000f0: 63b1 f73d c549 4d3c cbac e33d c805 8cbd
-0.13232456 -0.11916487 0.055754617 0.1298334 0.014199905 -0.061238557 0.041464347 -0.029826317
-0.17602588 0.05884862 -0.14928417 -0.014482307 0.0867648 -0.102314934 0.07072878 0.004345231
-0.00966842 -0.26558813 0.023875747 0.21098916 -0.04557993 -0.1104557 -0.001673453 -0.050445307
0.03956542 0.09808376 -0.13587752 0.073585376 0.035266966 -0.161073 -0.18348435 -0.19097072
-0.12916233 0.15561454 -0.030281533 -0.18403761 -0.19039997 0.13950482 -0.05311305 -0.13131294
0.108533494 -0.10547992 -0.046257984 0.056542303 -0.15448296 0.060202844 -0.100319445 -0.030384952
-0.21041791 0.099642076 0.09413378 0.16478473 -0.1629367 0.06286936 -0.07543613 0.0731603
0.12826091 -0.13868012 -0.018157719 -0.17501917 0.12094381 0.012529795 0.11116942 -0.0683704

fc2.weight f4 [64, 64]
00000000: 3e57 c5bd f762 453d 3a78 553d 3d53 473d
00000010: 0f57 ec3a b414 81bd 4723 23bc 6dec 563d
00000020: 2ef5 c2bc 3183 e33c 4a85 cfbd 44e8 4fbd
00000030: 5499 ccbd 34d2 41bd f1df 5abd 73f7 6dbd
00000040: 06ca 2ebd 07b9 bc3d 166c 4cbd c224 99bc
00000050: 7d7d 993d 8b8b 1d3c e1db cfbd 1817 16be
00000060: 1b9e 56bc 55bc 823d df26 2abd 89a0 ebbd
00000070: c885 4f3d 7074 823d c71c 163d 632b a03c
00000080: 3050 303b 88f1 7f3d 6961 94bd 2c3d dabd
00000090: da37 91bd df55 ab3d 75a2 acbc 3ca0 80bd
000000a0: 1459 09bd 0616 e1bd ea42 67bd af87 b5bc
000000b0: 0eb4 4abc ab5c 843d 188c e6bc d5c3 18be
000000c0: e650 653d a4bd a23d a28b 6ebd bb86 103b
000000d0: c909 a2bd 2063 303d 2d38 5ebd 186b 1dbe
000000e0: 314c d6bd 2c51 34bd cbdb a0bc 92ec bc3b
000000f0: 27f4 4b3d 24af 9cbd 650e 873c 9b79 193d
00000100: 0007 d5bc 2820 32bc b639 a7bd fe2a debd
00000110: 294e 233b c2a5 c5bd 42ed 9b3a 85c6 1abd
00000120: 2ce5 2f3d b144 b3bd f7ef a8bc 4017 f5bc
00000130: 3cca 883c c22e fdbd c54a 4cbd 9eb0 b8bd
00000140: 9345 07be 250b 973d e7b1 10be 0de1 0dbe
00000150: 3e14 2cbe dd42 1bbd ceb9 eebd dbf9 5f3c
00000160: c7e2 febd 9ded 05be 20a3 0a3d 00fc 21bb
00000170: a8a4 993c 49a1 2e3d 1a1a 36bc 308c 8e3d
00000180: 1617 593d 328f 763c fb57 3b3d 20a2 fcbb
00000190: c936 d1bd fe34 14be ce72 81bd 53c1 a1bd
000001a0: ba10 bebd 19a3 e13c 3a5d c23d 9e2b ab3c
000001b0: 1ad0 b43d 7cda 8fbd e0ed 9cbd 774a babd
000001c0: 8c6a 4a3d 5e95 c8bd 4a1e 08be 623f 97bd
000001d0: 8a64 abbd b612 30bd dbb9 c2bd 1ec9 4e3d
000001e0: 0e75 8dbd 344a 2e3d 3db5 d23c a0c4 3e3d
000001f0: efcf eabc cbb4 673c b60e d43d c8ea b8bd
00000200: 7082 37bd 5f0a 0e3c ee51 36bd d9b4 7abe
00000210: a489 c9bd 5afd f53a c964 37be 0705 02be
00000220: 70d6 65bc 6999 99bd cf4a 03be 0dbc 00be
00000230: 824b 153d b829 b43d de4e 31bb a7b4 a7bd
00000240: 42bb 8f3d 5057 a13d f084 3abd 4a9e 6bbd
00000250: 1df0 75bd 9d3c d8bc 5d5e a53d fbe9 96bd
00000260: 2267 983d 2ba3 cabd 8165 423d 46d1 b33d
00000270: c08e 23bc 6ec9 5a3d 5a44 6b3d 9bf8 29be
00000280: c44d 7cbd 6859 2abe 15bd e43c bace 5e3d
00000290: 74aa 093e 23ac 653c c4f4 10bd 53a1 0cbd
000002a0: 1e0d 29be 5d00 7bbd ad18 f7bd 728e 66bc
000002b0: a97d 15be f839 a6bc 1f5a ebbd 3616 673c
000002c0: ec01 0e3e 07d0 203e 0f1f 0d3e 8db3 9f3d
000002d0: 1ae2 6a3e 0a2b e93c d123 cebd e941 e2bd
000002e0: b075 30bd ce21 c33d 3958 2e3d cf25 5a3d
000002f0: 934f 09bc 481f 073e ee68 aabd 7a01 e93d
00000300: 8b97 a1bd 8467 40bd 9f14 b0bc 1e23 b9be
00000310: 9d6d 473d 3bcd 943d 67ca 4abe 015b d4bd
00000320: aabe 10bd c6c7 2b3c 5977 6e3d ecb4 423c
00000330: 7c1c e6bd 7642 303e ff75 21be 5bd9 823c
00000340: cc5a 1c3d b83c 5cbd 3740 313d 2f57 79bd
00000350: 47a6 4a3c 2b45 1c3b 9cf8 153e e94a 5ebd
00000360: 7628 d03d a7ac 06be 9776 b63d 731f 5e3d
00000370: e6da 9c3c 28cb 573b 7d87 abbd 1e68 2fbe
00000380: 1b3b 843d 9afb bfbd f422 92bc bb57 8a3e
00000390: c65f 47bd f3c0 b7bd 9371 aabe 1ad9 fb3d
000003a0: f758 99bd 50ca d73d 42a2 c3bd 987c f33c
000003b0: 996c 89bd 56aa d1bd 15bb a83c 32f3 3dbe
000003c0: 17a1 11bd f837 823e d93c 363e 7c3f 183d
000003d0: 22b8 f53c cdcd d3bc 166e e63d 992e a5bd
000003e0: 0424 423b 6d7c 0bbe ca56 57bc b092 16be
000003f0: 9e55 e2bd 0f24 9839 ae11 4abe 08fb 57bc
-0.09635781 0.048190083 0.05211661 0.048663367 0.0018031317 -0.06302777 -0.009957141 0.052471567
-0.023798551 0.027772518 -0.10132845 -0.050758615 -0.099901825 -0.047319606 -0.053436223 -0.058097314
-0.042673133 0.09214979 -0.049907766 -0.018694285 0.07494638 0.009615789 -0.101493604 -0.14657247
-0.013099219 0.06383578 -0.041540977 -0.11505229 0.050664693 0.06369865 0.036648538 0.019551938
0.0026903264 0.0624862 -0.07245142 -0.10656199 -0.07090731 0.08365988 -0.02107356 -0.06280562
-0.033532217 -0.10990529 -0.0564603 -0.022159426 -0.01237203 0.064629875 -0.028142974 -0.14918454
0.055985354 0.07946327 -0.058238633 0.0022052962 -0.079120226 0.043063283 -0.054252792 -0.15372884
-0.10463751 -0.044022724 -0.019636055 0.005765506 0.04979339 -0.07650593 0.016486356 0.037469488
-0.026004314 -0.010871924 -0.08165304 -0.10848044 0.0024918413 -0.096507564 0.001189627 -0.03778698
0.042943165 -0.08753336 -0.020622237 -0.029918313 0.016697995 -0.12362434 -0.049875993 -0.09018062
-0.13210134 0.073751725 -0.14130364 -0.13855381 -0.16804597 -0.037905563 -0.11656533 0.01367041
-0.12445598 -0.13078924 0.033846974 -0.0024716854 0.018755272 0.042634282 -0.011114622 0.069603324
0.053000532 0.015048789 0.0457382 -0.0077097565 -0.102155276 -0.1447334 -0.063207254 -0.07898202
-0.09280534 0.027543591 0.09490438 0.020894822 0.08828755 -0.070240945 -0.076625586 -0.09096234
0.049418017 -0.097941145 -0.13292804 -0.07385136 -0.08368786 -0.042986594 -0.09508105 0.05048477
-0.06907092 0.042551234 0.025721187 0.046574235 -0.028663604 0.0141422255 0.103543684 -0.09029156
-0.04480213 0.008669465 -0.044511728 -0.2448305 -0.09840706 0.0018767521 -0.1790954 -0.1269723
-0.014028177 -0.07499964 -0.12821506 -0.12571736 0.036448963 0.0879702 -0.0027055065 -0.081887536
0.070181385 0.07877982 -0.045536935 -0.057524003 -0.060043443 -0.02639609 0.08074639 -0.07368847
0.07441546 -0.09894403 0.047460083 0.0878015 -0.009982765 0.053414755 0.057438232 -0.16598742
-0.0615976 -0.16635668 0.027922193 0.05439637 0.13443929 0.014018091 -0.035389677 -0.03433354
-0.1650891 -0.061279643 -0.120652534 -0.014072048 -0.14598717 -0.020291314 -0.114917986 0.014104417
0.1386792 0.15704356 0.13781379 0.077979185 0.22937813 0.028462905 -0.10065425 -0.110477276
-0.043080986 0.09527932 0.042564604 0.053258713 -0.008380788 0.13195527 -0.08320795 0.11377235
-0.07890233 -0.04697372 -0.021494208 -0.36159605 0.04868852 0.07265707 -0.19803773 -0.1036892
-0.03533808 0.010484641 0.058219288 0.011883955 -0.11235902 0.17212853 -0.15767668 0.015972784
0.03817253 -0.053768843 0.04327413 -0.06087416 0.012368745 0.0023844938 0.14645618 -0.05427066
0.10163967 -0.13151799 0.08909338 0.05422921 0.019147348 0.0032927487 -0.08375452 -0.17129561
0.06456586 -0.09374161 -0.017838933 0.27020058 -0.04867532 -0.08972349 -0.33289775 0.12297268
-0.07487672 0.10536635 -0.095524326 0.029722497 -0.067101665 -0.10237567 0.02059702 -0.18549803
-0.035554018 0.25433326 0.17796649 0.03716992 0.029995028 -0.02585497 0.11251466 -0.080655284
0.0029623518 -0.13621683 -0.013143251 -0.14704394 -0.110514864 0.00029018565 -0.19733307 -0.013182409

fc2.bias f4 [64]
00000000: c366 b7bd eb3e 95bd 82bc f939 5866 733d
00000010: 754a 76bc 122a 283e 0815 12be f4ab 36bd
00000020: 5aef f03c 6116 fa3c 9abf abbd 73ab b83c
00000030: d377 0bbe c983 afbd 14df 91bd 5d51 01bd
00000040: 8c7d bf3d 3cd4 b53d aab0 83ba 3363 223c
00000050: 020a 393e 73ee c43d 189c b73d d680 80bd
00000060: 7119 55bd eb25 da3b a4c6 c9bc ca15 fb3a
00000070: d527 2dbd 4f55 1e3e d19e 87bc bcb4 85b9
00000080: 3dc1 ce3d d3a7 b73d d4c1 16be 2ea5 caba
00000090: 5325 dcbd ed02 37bc 935f 4abc fc6a ccbd
000000a0: eb24 843c e7e6 b83d 207b dd3d d3f2 4e3d
000000b0: 51a9 463e f1c6 49bd 5e61 0bbd 4f6a f73d
000000c0: aa9a 073d 8f76 a83d 82a5 f0b9 9116 7cbd
000000d0: c5b9 043d 3e0c 5fbd f8bd f8bd 5d19 babd
000000e0: 11cb 1fbc b8f0 b3bd f7a6 d63d 5ea2 ddbd
000000f0: b276 3abb d973 e8bd 66f1 e1bd a9fa 7dbd
-0.08955147 -0.07287391 0.0004763343 0.059423774 -0.0150324 0.16422299 -0.14265835 -0.04459758
0.029411007 0.03052825 -0.083861545 0.02254269 -0.13619928 -0.08570058 -0.07122627 -0.031571735
0.09350118 0.08878371 -0.0010047157 0.009911346 0.18070224 0.09615793 0.089653194 -0.062745735
-0.052026216 0.006657352 -0.024630852 0.0019156274 -0.042274315 0.1546223 -0.016555222 -0.00025502394
0.10095451 0.08967557 -0.14722377 -0.0015460604 -0.107493065 -0.011170131 -0.012351888 -0.09981343
0.016130885 0.09028416 0.108145 0.050524544 0.19400527 -0.04926199 -0.034028403 0.12080824
0.033106484 0.08225738 -0.0004589968 -0.06154496 0.032403726 -0.054455034 -0.12145609 -0.09086869
-0.009753005 -0.08786148 0.10481065 -0.10821985 -0.0028452096 -0.11350221 -0.11032371 -0.062006626

reg_head.weight f4 [1, 64]
00000000: e356 32bd 7237 d8bd 9c7f 42bc baac 7bbd
00000010: 1b16 823e bbea bb3d 1863 1dbc 739d a7be
00000020: cffa bebe 56d8 debe a607 8cbc ed71 3c3e
00000030: 1c6a aabe a777 9cbd 60e4 1fbe 2ea8 1ebf
00000040: fd04 bcbe f620 3c3e 2155 dfbd c35e d2bd
00000050: 1900 163e af23 73be 02ca 703c d441 cabe
00000060: 5c8c 15bd 722e 01bf 23f0 643d 4788 d23d
00000070: 6a91 febd ae36 a63d 0e56 04bf 3cd7 46be
00000080: 780a 6b3c 49d7 fd3d 62c2 9fbe da54 31bc
00000090: bfa8 0abe 1555 803e a755 cdbe 6484 04bf
000000a0: 34ac 3abe 7820 c4be 8e55 063d 4f7d b1be
000000b0: 4ef4 723d 57f7 b43d 664c a83e 754e 873d
000000c0: 4867 6bbd 899c b53d 77ed 93be 7dc6 c3be
000000d0: 954f da3d b9ec 693e 9822 8ebc 53d0 683c
000000e0: 1ef4 943e 9ccb c7bc f470 f73d 0ce1 12be
000000f0: fbe9 aabe 7442 a1bb 3dc4 da3d da7d 363e
-0.043539893 -0.1055745 -0.011871245 -0.06144402 0.2540749 0.09175631 -0.009606145 -0.32737312
-0.37300727 -0.43524426 -0.01709349 0.18402834 -0.3328408 -0.076400094 -0.15614462 -0.6197537
-0.36722556 0.18371949 -0.10904909 -0.102719806 0.14648475 -0.23744081 0.0146966 -0.39503348
-0.03651081 -0.50461495 0.055893075 0.10279899 -0.12430079 0.08115898 -0.5169381 -0.19418043
0.014345758 0.12394578 -0.3120299 -0.010823453 -0.13540934 0.25064912 -0.4010441 -0.5176451
-0.18229753 -0.38306022 0.032796435 -0.34665915 0.05931502 0.08836239 0.32870787 0.06606761
-0.057471544 0.08867747 -0.2889211 -0.38237372 0.1065971 0.22844209 -0.01735048 0.014209825
0.29092497 -0.02438908 0.12082091 -0.14343661 -0.33381638 -0.004921252 0.10681961 0.17821446
