grasp_placement/models/run_seed_8835/stability_net.pth (torch, 147208 bytes, 7 tensors)

fc1.weight f4 [128, 21]
000000 75 05 23 be db 12 bc 3c 85 30 55 bd 76 13 8e bd
       -0.1592005 0.02295821 -0.052048225 -0.06937306
000010 69 7f 5b 3d 2b 80 39 be 26 db f7 bd 96 69 d4 bc
       0.053588305 -0.18115298 -0.12102346 -0.025929254
000020 84 2e 19 be 3e b0 51 be 6b 97 be 3d 58 28 2d 3e
       -0.1495915 -0.20477387 0.093062244 0.16909921
000030 e5 8c 4f 3e 68 fb 24 3d d7 6f 5f 3e bf 11 41 bc
       0.20268591 0.040278822 0.21820007 -0.011784016
000040 d2 c1 19 3d d2 98 4b be 8a 06 a8 bd 85 7a 6e 3c
       0.037538357 -0.19882515 -0.08204372 0.014555578
000050 7a 06 53 3d e0 f7 29 3e 72 79 af 3d a4 9f bd bb
       0.05151985 0.16598463 0.08568086 -0.005786853
000060 f6 b4 86 bd df 74 9c bc ca 0e 42 3e 1b c3 0a be
       -0.06577484 -0.019098697 0.18950954 -0.1355099
000070 69 fb 43 be e2 57 cf 3d b3 f5 98 3d 3d dd 9f bc
       -0.19138874 0.10124184 0.074687384 -0.019514674
000080 d3 d0 73 3e cb cc 00 be 38 eb 1c be 44 22 01 3e
       0.23810129 -0.12578122 -0.15324104 0.12610728
000090 7b 20 42 3e 4e d2 fb bd 80 f0 2e be af 9d 4c 3d
       0.18957703 -0.12295972 -0.17083931 0.049955066
0000a0 9b a9 a7 3c c1 91 e8 bd 75 67 a4 3d 8c 0b 09 be
       0.020466616 -0.11355925 0.08027545 -0.13383311
0000b0 e9 da f6 bd b9 10 10 3d 52 47 17 3e 64 3d 81 3d
       -0.120534725 0.035172198 0.147733 0.063105375
0000c0 8a 46 32 3e 83 bb 2b 3e 2a 4a 4d 3e 16 71 01 be
       0.17409721 0.16770749 0.20047823 -0.12640795
0000d0 be d6 b2 3d bb fb 3b 3e d3 1d 53 be 8f a5 2b 3e
       0.08732365 0.18357746 -0.20616846 0.16762374
0000e0 4f 46 27 3e 4b 59 47 be 9f 41 13 bd 38 3f 50 be
       0.16335414 -0.19467656 -0.035951253 -0.20336616
0000f0 d4 5e 2d be c2 f5 1f 3e f3 7b 61 be 22 73 15 be
       -0.16930705 0.15621093 -0.22019939 -0.14594701
000100 b9 a4 90 bd 44 f3 9e 3d 57 44 a7 3d 75 04 a2 bd
       -0.07062668 0.07761243 0.08167332 -0.07911006
000110 9f ae 67 bd 89 3e 42 be 6a ed bf bc 49 2c 3b 3e
       -0.056563016 -0.18969168 -0.023428638 0.18278612
000120 84 a3 88 bc 9b fb 15 3e b1 24 91 bd 27 6c e8 3a
       -0.016679533 0.14646761 -0.070870765 0.0017732427
000130 e8 14 9e bd 06 63 c7 bd d6 8f be 3d 57 3a 21 3e
       -0.07718831 -0.09735684 0.09304778 0.15744911
000140 4f eb 23 be e5 c5 4e bd ca 1c 25 3e 14 fd 3e be
       -0.16007732 -0.050481696 0.16124263 -0.18651229
000150 5d 73 47 be e6 e2 39 3d 9d 13 d9 bd 5f 80 24 3d
       -0.19477601 0.045382403 -0.10599444 0.040161487
000160 87 db 4f bd 1a 18 61 3c 8e 2d 75 3d 7d 0a 22 3e
       -0.050746467 0.013738656 0.059857897 0.15824313
000170 f1 b0 de bd 69 e2 80 bc 1f ac cb bd 0b d0 76 3d
       -0.10873593 -0.01573296 -0.09944939 0.060257
000180 bd 43 41 bd d4 81 5b be 9f c0 27 bd 74 1b d5 bc
       -0.04718374 -0.21436244 -0.040955182 -0.026014067
000190 9d c5 3c be 06 4e 23 be 01 2e 14 be 10 11 4d 3e
       -0.18434758 -0.15947732 -0.14470674 0.2002604
0001a0 37 8e 2f bb 7e 1c 2f 3e 80 73 ed bd 9e c2 1b 3e
       -0.0026787648 0.17100713 -0.115942955 0.1521096
0001b0 39 74 81 3d 1f fa 07 bd 01 2a bc 3d cb 64 3a 3e
       0.06320996 -0.03319752 0.09187699 0.18202512
0001c0 30 05 2e 3e 18 38 08 3e f2 6a 65 bd 63 d5 08 be
       0.16994166 0.13302648 -0.056010194 -0.1336265
0001d0 79 cc 34 be c9 a4 1c be 8d 8c c2 3c 07 b2 2a 3e
       -0.17656125 -0.15297236 0.02374866 0.16669475
0001e0 76 52 2d be 01 e9 48 3e db e2 4c 3e 9a 31 30 3e
       -0.16925988 0.19620134 0.20008413 0.17206421
0001f0 6a 1c 12 bd 13 57 53 3e 6f 92 e9 bd af 2a 30 3e
       -0.03567163 0.20638685 -0.11404883 0.17203782
000200 a1 ef 8b 3d 56 ff 86 3d d4 ff 32 3e 6c 39 e3 3c
       0.06832815 0.0659167 0.17480403 0.027737342
000210 2f 18 3d be 28 06 9d 3d 8a 9f 22 3e 07 84 10 bd
       -0.18466257 0.0766719 0.15881172 -0.03528216
000220 91 f0 54 3d be 0c 36 3d 63 9c 8f 3d 58 5c dd bb
       0.051987235 0.044445746 0.0701225 -0.006755393
000230 de c0 1b 3d 62 4f cd 3d 04 a9 0d 3e b2 77 61 be
       0.03802573 0.10024907 0.13834006 -0.22018316
000240 c8 2a 77 bc 31 d8 30 3e 38 42 23 3e 8c f1 b8 3c
       -0.015085883 0.1726997 0.15943229 0.022576116
000250 05 33 1f 3e e9 62 21 be 20 9c 35 3c ea 41 00 be
       0.15546806 -0.15760387 0.011084586 -0.12525144
000260 7f 62 33 3e bd ad 9c bb c9 54 89 bd e6 87 03 3e
       0.17518042 -0.0047814534 -0.067056246 0.1284481
000270 8c ee 06 3e 40 23 0a 3d 10 60 a5 bd a2 71 f0 bc
       0.13176936 0.033725023 -0.08074963 -0.02935106
000280 cd 17 6d 3e e4 68 15 bc 67 56 da bb 55 94 e2 3c
       0.2315361 -0.009119246 -0.006663132 0.02765862
000290 84 43 97 3d 16 bb 03 3e d8 43 4e be 56 ff 59 3e
       0.073859245 0.12864336 -0.20143068 0.21288809
0002a0 ae 81 5e bd ab c4 46 be 76 4e 0f 3e e5 6d 10 be
       -0.05432289 -0.1941096 0.13994774 -0.14104421
0002b0 df 42 48 be 84 46 ea bd 3b d1 3f 3e 1a 6b b1 3c
       -0.1955676 -0.11439231 0.18732159 0.021657515
0002c0 2a d4 7e bd 71 e2 66 3d 8f bb 34 3e bf 81 73 3d
       -0.062214054 0.056368295 0.17649673 0.059449907
0002d0 b5 00 6a be dc fe 0e 3d 9e e3 ef 3d 2c 98 23 be
       -0.22851832 0.03491102 0.117133364 -0.15976018
0002e0 7a c4 82 3d bb 1e 40 be a9 54 12 be 8d 4e 52 3e
       0.06385131 -0.18761723 -0.14290108 0.20537777
0002f0 a1 83 3d 3e ab 6a 6f 3e 5e 28 fd bd 6d 9c e5 bc
       0.18507244 0.23380534 -0.12361215 -0.028028691
000300 3a 5b 65 be 3b 11 a7 bc e7 fc a6 3d 42 49 05 3e
       -0.22398081 -0.020393958 0.08153706 0.13016227
000310 eb 29 19 3d e7 d2 ae 3d a4 90 62 3e 49 fa a8 3d
       0.03739349 0.0853632 0.22125489 0.08250863
000320 ab b6 7e be 52 14 19 be 78 25 d9 bd e1 ba 38 3d
       -0.2487437 -0.14949158 -0.1060285 0.045100097
000330 55 6b db 3d 7e bd 03 be f2 40 84 3d 15 8d 9e bc
       0.10713831 -0.12865254 0.064577 -0.019354383
000340 fa 88 a4 3d 3a 79 e8 bd 89 cb 98 3d 60 4f 2e bc
       0.08033939 -0.11351247 0.07460696 -0.010639042
000350 86 30 73 be d6 78 9f 3d e0 ff 60 be 68 a7 40 3e
       -0.23748979 0.077867195 -0.21972609 0.1881386
000360 3a 5a ba 3d db 91 23 bc 15 6f 24 3e 64 13 93 3d
       0.090992406 -0.009983505 0.16058 0.07181433
000370 2c bd 2b 3c c5 bd 93 3d c5 73 92 3d 91 14 0c bd
       0.010482114 0.0721393 0.071509875 -0.0341993
000380 ac 49 82 bd 4b ba 0e 3e ce 59 43 3d 27 76 ff bd
       -0.06361708 0.13938253 0.047693066 -0.12473708
000390 68 67 83 be 12 37 f9 3d 4a 7a 4a 3e e4 07 96 bc
       -0.2566483 0.12168707 0.19773212 -0.01831431
0003a0 ab bc 98 bd 55 8c fa 3d f2 3f 6b be a5 d3 7b bc
       -0.074578606 0.122337975 -0.22973612 -0.015370284
0003b0 a1 a7 23 3e 45 ff e8 bd fc c1 0e 3e 41 08 39 bd
       0.15981914 -0.11376814 0.13941187 -0.045173887
0003c0 55 3e e0 3d ef ac 2c 3e 6d 83 1a be 31 08 b8 3c
       0.10949389 0.16862844 -0.15089197 0.022464843
0003d0 7e 2c 8c bd ba 54 d2 3b fe a1 0f be b0 c9 ae 3d
       -0.06844424 0.0064187916 -0.14026639 0.085345626
0003e0 ea 85 4a be e8 95 ce bd 5e 63 07 bd 7a 9a 11 3e
       -0.19777647 -0.10087186 -0.03305375 0.14219084
0003f0 34 58 b4 bd bb ed 7c 3d e7 90 1e bd ec 3d 41 3e
       -0.08805886 0.061750155 -0.03871241 0.18871278

fc1.bias f4 [128]
000000 ae 11 34 3e c2 21 20 3e cf 37 0d 3d 99 57 0c be
       0.1758487 0.15637878 0.03447705 -0.13705291
000010 ed 73 18 3e 03 80 12 3e 01 af d0 3d d0 64 49 3e
       0.14887972 0.14306645 0.10189629 0.19667363
000020 25 6b 8a bd 00 42 b9 3d 52 f6 18 3c 06 09 f4 bd
       -0.067587174 0.090457916 0.009336071 -0.119157836
000030 9a 99 4d bd e9 93 26 3e 5d 29 6a 3e 51 b4 a8 bd
       -0.050195314 0.16267361 0.22867341 -0.082375176
000040 a2 53 39 3c 69 40 63 bc 13 af 49 3e ff 06 1d 3e
       0.0113114435 -0.013870337 0.19695692 0.153347
000050 30 be 2f 3e 3c 37 d5 bd 9a bf 17 3d 69 cc 3e 3e
       0.17162395 -0.10410926 0.03704796 0.18632664
000060 52 d1 15 3e 52 67 2a bc ee 31 4b be f8 79 7c bd
       0.1463063 -0.01040061 -0.19843265 -0.061639756
000070 9e f3 8f bd 6e d0 35 3d a3 30 3f 3e 92 f2 e7 bd
       -0.07028888 0.044388227 0.18670897 -0.113255635
000080 cc 41 39 be 0d 67 a6 3d 13 e2 33 3c 19 93 8b 3c
       -0.18091506 0.08125124 0.010979193 0.017037915
000090 14 0e 10 be be eb c9 3c c6 ba ca bd d7 28 91 bc
       -0.1406787 0.024648543 -0.098989055 -0.01771967
0000a0 52 74 c5 bc 99 60 fd 3d 42 fc 46 3c 29 a8 4a 3e
       -0.024103317 0.1237194 0.012145104 0.1979071
0000b0 97 9f 2b 3d ca 1e 0d 3e 7d 45 e2 3c 12 47 41 be
       0.041900244 0.13781276 0.027621025 -0.18874767
0000c0 58 b3 48 be 42 ab 1e 3e 91 3f 6b bd 2d b8 d3 3d
       -0.19599664 0.15495017 -0.05743367 0.10337863
0000d0 15 f8 3e 3d 20 59 03 be dc d0 59 3d b5 7e 04 bd
       0.04662331 -0.12826967 0.0531777 -0.0323474
0000e0 fe 49 4f 3e 50 3d da bd 90 10 13 3e 13 3d 83 bd
       0.2024307 -0.10656226 0.14361787 -0.06408133
0000f0 30 f5 c9 bd f8 58 5b 3e d1 b6 39 3d fb a1 57 bd
       -0.09861219 0.21420658 0.045340363 -0.05264471
000100 23 03 11 be 96 c5 3b 3e 0e 9b 24 3e 50 39 15 be
       -0.14161353 0.18337092 0.16074774 -0.14572644
000110 75 80 38 3e 5e 26 29 be b1 24 34 be a7 d3 4c be
       0.18017752 -0.16518542 -0.17592122 -0.20002614
000120 cf 1c 8f 3d 5f e7 c1 3d d8 e4 a1 bd c1 2c d8 3d
       0.06987917 0.09467959 -0.079049766 0.10555411
000130 78 8e 08 bd 30 da 86 3d 79 49 32 3e 51 7d ac bd
       -0.033338994 0.06584585 0.1741084 -0.0842234
000140 dd aa 12 be f5 5f a6 bd 0c 1e 4a be 9a 43 25 bd
       -0.14322992 -0.08123771 -0.19738024 -0.040347673
000150 77 23 18 3e b8 b8 0e be 6a fe 68 bd 19 bd e8 bd
       0.14857279 -0.13937652 -0.056883253 -0.113641925
000160 7b 88 0a be 92 ac 7d bd 8c 1e 04 be ff c6 72 3e
       -0.13528626 -0.061932154 -0.12902278 0.23708723
000170 1f ef 14 3d 99 6f 7f ba 44 46 4c be 34 a7 fc bd
       0.036360856 -0.00097441074 -0.19948679 -0.12336579
000180 a5 7e cf 3d 2f 10 ac bd 6b ec 62 3e 05 c8 2a be
       0.101315774 -0.08401524 0.22160499 -0.16677864
000190 88 8f c1 bd 63 42 01 be 41 03 02 bd e6 e0 8c bc
       -0.094512045 -0.12622981 -0.031741384 -0.017197084
0001a0 fc 1d 05 3e 34 5b 3a bc 83 ff 28 3e f3 ed 7c 3d
       0.1299972 -0.011374284 0.1650372 0.061750364
0001b0 9a 55 72 bc 3a 27 bf 3d 09 08 81 bd fd 53 dc 3d
       -0.014790917 0.09333654 -0.06300361 0.10758207
0001c0 8d 9c 8a bd ef 57 a3 bd 45 ec 0d be f0 ee f1 bd
       -0.06768141 -0.079757564 -0.13859661 -0.11813152
0001d0 4d c7 3f be 07 7f 3e be f6 fd 25 3d d6 ec 2e be
       -0.18728371 -0.18603145 0.0405254 -0.17082533
0001e0 2d e4 53 be 5d 74 37 bd 09 f7 17 3e 03 cb 4f bc
       -0.20692511 -0.044788707 0.1484033 -0.012682679
0001f0 00 39 3e be f9 7c 42 3e 5c 6f 2a be 51 f9 c4 3b
       -0.18576431 0.18992986 -0.16644043 0.006011166

fc2.weight f4 [128, 128]
000000 bc bf 23 bc f0 85 6c 3d 22 a0 8e bd ca ab 02 be
       -0.0099944435 0.05774492 -0.06964137 -0.12760845
000010 81 78 03 3d 6a ab 4e 3d 8b 11 21 3d 4e a7 0b bd
       0.032097343 0.050456442 0.03932337 -0.0340951
000020 2e 4a c8 3d 90 dd bf bd a0 0e 9c bc 23 89 b6 bd
       0.09779774 -0.093684316 -0.019049942 -0.089128755
000030 57 57 26 bc 27 b7 da 3c 6c 9f b4 bd 62 bf ae bd
       -0.010152659 0.026698662 -0.0881947 -0.08532597
000040 65 34 3e bd a6 ef b2 bd ae 55 88 bc cd 68 91 bd
       -0.046436686 -0.087371156 -0.016642418 -0.07100067
000050 55 bd c2 3d 4a 29 50 3d eb 5e 17 3d 2d 00 3a 3c
       0.095087685 0.050820626 0.036955755 0.011352581
000060 74 7c 02 37 97 6a b0 bd d8 ed 3b bc 86 88 bc bd
       7.77758e-06 -0.086140804 -0.011470281 -0.09205727
000070 4c 70 b3 3c 41 e2 72 bc 64 87 f8 bc 29 2d 33 bd
       0.021904133 -0.014824451 -0.030337997 -0.04374424
000080 27 40 ba bc 89 73 bb 3d e5 51 83 bd 88 69 8a 3c
       -0.022735668 0.09152896 -0.064121045 0.016896024
000090 d2 9b 06 be 48 8b 36 3d c0 1c 5a bc c6 78 2c bc
       -0.13145378 0.044566423 -0.013312519 -0.0105268415
0000a0 19 8d 99 3b 97 d9 36 bd 6e 26 87 bd 57 30 88 3d
       0.0046860096 -0.044641104 -0.06599127 0.06649845
0000b0 23 d1 98 bd 4a 07 1a 3d 68 3d 82 3d ac 15 d3 bc
       -0.07461765 0.037604608 0.063593686 -0.02576717
0000c0 34 b5 6f bd 18 85 b6 bc e5 d6 6d 3d 7c de 84 bc
       -0.05852242 -0.02228026 0.058066268 -0.01621937
0000d0 80 e3 34 bd 25 0b bc bd 85 15 ce bd 5f 79 c4 3c
       -0.044162273 -0.09181813 -0.10062698 0.023983655
0000e0 a9 b7 ff 3a b5 58 15 3d dc 64 1a 3d 1b b0 6c bd
       0.0019509691 0.03646155 0.037693843 -0.057785135
0000f0 c4 37 6b bd 2a 20 32 bc d3 e9 85 3d e0 51 cf bd
       -0.05742623 -0.010871926 0.06538739 -0.10123038
000100 dc bb 68 bd 73 af f1 bc 0e 71 40 bd bf f2 2e bc
       -0.05681978 -0.029502606 -0.046982817 -0.010677992
000110 14 3b e6 bc 95 49 c2 3c 00 80 b2 bb e9 85 b8 bd
       -0.028104343 0.023716727 -0.0054473877 -0.09009916
000120 77 11 20 bc 08 10 df bd f0 34 5e 3d 96 a1 75 3c
       -0.009769789 -0.108917296 0.054249704 0.014992138
000130 44 d1 a4 bd 1d 30 c1 3c 7f c3 5e bd c5 65 52 3d
       -0.08047727 0.023582513 -0.05438566 0.051366586
000140 4b c0 d2 bc fe e1 a6 3c af c0 cd bd ea 26 0a 3d
       -0.025726458 0.020371433 -0.10046517 0.033728518
000150 13 14 1e bd 60 8d a2 bc 86 6b 91 3d ef 63 7f bd
       -0.038593363 -0.019842803 0.071005866 -0.062351163
000160 bf 9e b3 bd 1d b4 15 bc 29 ad 1c 3d 4d 69 0c bd
       -0.08770513 -0.009137181 0.038251076 -0.03428011
000170 b2 a5 37 bc d2 cd cf 3c d8 af be 3c af cb 9e bd
       -0.011208938 0.025366697 0.023277208 -0.07753693
000180 14 3a a1 3c 0f 29 a7 3d 6b f5 a3 bd ce 92 bd bb
       0.019681014 0.08162128 -0.08005794 -0.0057853227
000190 05 6e 3a bc b5 98 3b bd c3 1f a6 3d 63 29 25 3d
       -0.01137877 -0.04579993 0.08111527 0.040322673
0001a0 41 e7 d6 3d 27 e9 c6 bd 37 14 94 3d e6 63 7d 3d
       0.10493327 -0.09712439 0.07230418 0.06186285
0001b0 34 cb 87 bc ea 5b b1 bb db e8 ba bc 6b b9 be bc
       -0.016576387 -0.0054125683 -0.022816112 -0.023281774
0001c0 ec c0 d0 bd 62 f3 e4 3a c1 a9 78 3d b9 e0 b6 bd
       -0.10193047 0.0017467553 0.060708765 -0.08929581
0001d0 ed 92 d5 3c 3b ea 80 3c 96 65 50 3d 9b e4 92 bc
       0.026071036 0.01573669 0.05087813 -0.017931273
0001e0 2c 41 58 3c 0a 97 22 3d af 25 3a bc 2c 70 eb 3b
       0.013199132 0.039694823 -0.0113615235 0.007185003
0001f0 2b af 96 3d 80 74 92 bd f0 5a aa 3d 7d 55 57 bc
       0.073576294 -0.07151127 0.08318126 -0.013142941
000200 f6 f4 46 3d c4 0b 71 3d 02 78 21 3d d9 42 8f bd
       0.048573457 0.05884911 0.03942109 -0.06995172
000210 60 a7 1c 3d 8a 07 48 bd be 23 f5 3b f4 16 5e 3d
       0.03824556 -0.048835315 0.0074810674 0.05422111
000220 c1 ab 5f 3d d3 e5 71 3d 2e 2e dc 3c 28 32 54 3d
       0.054607157 0.059057068 0.026877489 0.051805645
000230 db 85 b0 3d ac 7f a1 3d ba 4e 9f 3c eb 54 86 3d
       0.08619281 0.078856796 0.01944672 0.065591656
000240 95 a8 97 3c 60 62 26 bc 35 2e 91 3b bf df 0f bc
       0.018513003 -0.01015529 0.004430557 -0.008781373
000250 42 16 90 bd a3 bb 4e 3d bb 46 8e 3d f9 a8 87 bb
       -0.07035495 0.050471913 0.069470845 -0.004140016
000260 79 f6 c3 3d 3d d9 97 bd ac 7f b1 3d ea af 45 3d
       0.09568495 -0.07414482 0.086669296 0.048263468
000270 e8 a9 0d bc b2 41 48 3b ff 8a 8e 3a ca 39 25 3d
       -0.008646466 0.0030556736 0.0010875164 0.040338315
000280 23 d2 29 3c bf e6 74 3d 49 27 90 3d 8f cf a1 bb
       0.010365042 0.05979037 0.07038743 -0.004938073
000290 de 88 18 bc 35 2b 26 3d 68 fd d4 bd 7c 31 00 bd
       -0.009309975 0.04056855 -0.10399896 -0.031297192
0002a0 04 f5 84 bc da fd 6b bd 44 c5 16 3b 06 14 e2 bd
       -0.016230114 -0.05761514 0.0023005763 -0.110389754
0002b0 97 21 9c bd 78 50 0f 3d ec 89 86 3d 25 76 82 3d
       -0.07623594 0.03498885 0.06569275 0.063701905
0002c0 26 fa c3 bd 6b 2a a5 3d d3 4a f2 bc c7 53 51 bd
       -0.095691964 0.08064731 -0.029576695 -0.051105287
0002d0 87 eb b0 3d ea 7c 76 3b f7 87 df bc a1 e0 0b 3c
       0.08638673 0.0037611076 -0.027286513 0.008537442
0002e0 e4 6c 61 3d e2 9e 68 bd f1 d0 91 bc 53 fc 6f bd
       0.055035487 -0.056792147 -0.017799826 -0.058590245
0002f0 ed 19 ea bd 3d 9e 0d bd 05 74 8c 3d 2b 83 a4 3d
       -0.11430726 -0.034574736 0.068580665 0.08032831
000300 5f 6f e3 bc 93 96 ec 3c 00 a7 26 bd c7 c5 16 bd
       -0.027763067 0.028880393 -0.040686607 -0.03680971
000310 03 84 f1 bc e5 57 20 bd 8c 7c e4 bc 32 84 e9 3c
       -0.029481893 -0.039146323 -0.02789142 0.028505418
000320 c6 d9 a7 bc db d4 65 bd 7e 71 82 3d 68 d2 b8 bd
       -0.020489585 -0.056111198 0.06369303 -0.09024507
000330 aa bb 19 3d d5 0d cb bc 4a 7f 28 3d 1b a5 a6 bd
       0.037532486 -0.024786869 0.041137017 -0.0813696
000340 49 c9 a7 bc f6 ae 9b 3b 56 b5 39 bc cc 99 60 bd
       -0.020481722 0.0047510816 -0.011334738 -0.054834172
000350 8c 92 09 bc 83 8b 89 bd 5d 84 a8 bd 77 d6 84 3d
       -0.008396756 -0.06716063 -0.08228371 0.064862184
000360 d0 38 aa 3d 78 cf a8 3d 59 eb 93 bd e0 77 18 bc
       0.083116174 0.082426965 -0.072226234 -0.009305924
000370 03 a5 be bb 79 1c 31 bd 09 35 d3 3c e0 86 0b 3d
       -0.005818011 -0.043240044 0.025782125 0.034064174
000380 ac 74 7c 3d 96 0e 0f bd ea d8 f3 3a bf 47 78 3d
       0.061634704 -0.03492602 0.0018604074 0.060615297
000390 f8 c5 bf bc 6f 7e e2 3c 9b 22 8c bd 8f 30 c2 3b
       -0.023409829 0.027648179 -0.06842538 0.005926199
0003a0 57 ff 18 bb 37 11 c4 3d 66 6c f0 3c 5c dd 47 3d
       -0.0023345554 0.09573596 0.029348563 0.04879509
0003b0 4b fb 80 bc 8c 4f 7f 3b a3 7e 00 3c e9 51 a5 3c
       -0.015744826 0.0038957326 0.007842693 0.02018066
0003c0 5e ca aa bd 9f 83 2c 3d 66 5c 64 3d 2e f7 77 bd
       -0.0833938 0.04211771 0.05575218 -0.060538463
0003d0 9a 1f a9 bd 62 54 b7 bd a9 1b b1 3c 27 42 d4 bd
       -0.08257981 -0.089516416 0.021619635 -0.1036418
0003e0 1a 57 ac 3d 52 45 50 3c b6 65 86 bc b9 3e a6 bd
       0.08415051 0.01271184 -0.016405921 -0.08117432
0003f0 de 19 8a bd ca 68 95 bd 48 31 a9 bd c4 0b 64 bc
       -0.06743215 -0.072953776 -0.08261353 -0.013918821

fc2.bias f4 [128]
000000 48 d2 a9 3d 6b 76 d9 3c bf 9e 2c 3d 46 0c ef 3c
       0.08292061 0.026545724 0.04214358 0.029180657
000010 64 f6 c8 3c 13 b2 21 bd 4c 2c 3c bd 6d 36 2f bc
       0.02453155 -0.039476465 -0.045940682 -0.010694128
000020 4f 96 a5 3d 37 73 11 bd 9f 5f 5e 3d 7f 7f 08 bd
       0.0808531 -0.035510268 0.05429041 -0.033324715
000030 a7 6a 6c 3d 5d ef 1e ba bf 3e 28 bc 4c 59 5f 3d
       0.0577189 -0.00060628896 -0.010268866 0.05452852
000040 72 07 b2 3d 1c 3e 52 bd f1 1e b7 3d de 7b 93 bd
       0.08692826 -0.051328763 0.089414485 -0.0720136
000050 a8 b4 96 bd b9 76 a0 bd 98 8b 7f 3d 42 26 90 3d
       -0.07358676 -0.078351445 0.062388986 0.07038547
000060 32 b3 a7 3c 06 6d 94 bd 5e 0c 66 3d 84 d8 43 bc
       0.02047119 -0.07247357 0.056164138 -0.011953477
000070 77 cf b0 3d c2 78 03 bd bc b9 11 bd d1 c7 60 bb
       0.08633321 -0.032097585 -0.03557752 -0.0034298787
000080 e9 ab 80 bb 8b 5e 94 bc 8b 26 b5 3d 56 69 6b 3d
       -0.0039267433 -0.018111488 0.08845242 0.057473503
000090 c9 81 fc ba 45 6b a1 3c c6 af a5 3d 94 14 92 bd
       -0.0019264753 0.01970447 0.08090167 -0.07132831
0000a0 14 c4 c0 bc 24 a2 36 3d bf 2f 8f bd ee d1 8d 3c
       -0.023530997 0.044588223 -0.06991529 0.017312016
0000b0 c7 ba ad 3d 67 81 3f 3d b1 23 8d bd 82 b5 9d 3d
       0.084828906 0.046754267 -0.06891573 0.077006355
0000c0 db 52 be 3d aa bb 0f bd 1a bd 0e 3d 18 70 cf bc
       0.09293147 -0.03509108 0.03484831 -0.025322005
0000d0 e8 99 5b 3d 20 ab 82 3b ec 54 3e bd 3b 14 8e 3d
       0.053613573 0.003987685 -0.046467707 0.069374524
0000e0 e6 59 1e bc 1c 6f 6c 3d aa 79 9b bd ca 46 87 bd
       -0.009664988 0.05772315 -0.07591565 -0.06605299
0000f0 fc 68 e8 bc 3c 49 5f bd c0 01 98 bd 89 80 af 3d
       -0.028370373 -0.0545132 -0.07422209 0.08569438
000100 8d d9 b0 3c 94 dc b4 3d d4 5f 44 3d c3 86 74 3d
       0.021588111 0.088311344 0.04794295 0.05969883
000110 6b f9 93 3d 3a f1 4b bd 8e f8 18 bd e5 58 94 3d
       0.07225307 -0.0497906 -0.037346415 0.07243518
000120 16 c1 b5 38 7d 47 6c 3d 21 b2 03 bd 04 97 08 ba
       8.6667176e-05 0.057685364 -0.0321523 -0.00052104914
000130 0b f9 8f bc 10 a8 b2 3d db 71 82 3c 12 75 4d bc
       -0.017574808 0.08723462 0.015923431 -0.012540119
000140 fd 32 94 3d 67 d3 8b 3d a1 82 81 3d ec 84 72 bd
       0.07236288 0.06827431 0.063237436 -0.059208795
000150 60 41 a1 bd 1b 18 6e 3d c6 fd 1b 3d f7 48 54 bd
       -0.078737974 0.058128458 0.038083814 -0.051827397
000160 0f 0c 6b 3c c1 b1 15 bd b8 ce 3b bd 2f c2 57 bd
       0.014346137 -0.036546472 -0.04585144 -0.052675422
000170 06 73 b6 3d dd b1 a2 bd b2 64 ad ba 25 82 03 3c
       0.08908658 -0.07944081 -0.0013228862 0.008026634
000180 05 92 d7 bc f6 ca d0 3b 58 8d 8c 3d b5 cb 9e 3d
       -0.026314745 0.006371851 0.06862897 0.07753698
000190 3f fe 08 3d 2a f4 44 3d 07 0b 00 bd 3e 56 ac bd
       0.033445593 0.048084415 -0.031260516 -0.08414887
0001a0 0d a1 12 bd 8e 82 87 3d c6 d1 8a 3d 69 d7 a7 bc
       -0.03579812 0.06616698 0.06778292 -0.020488458
0001b0 ac 08 3c 3d 83 83 81 3d 8a b4 0e bd 3b 31 e5 bb
       0.045906708 0.06323912 -0.034840144 -0.006994394
0001c0 f2 69 2e 3d 1d 40 35 bc 11 95 6c bd 38 be a4 bd
       0.042581506 -0.011062649 -0.05775935 -0.08044094
0001d0 d0 d0 9d 3c 8e bf 2b bd b6 a0 7f 3d 50 72 9e bb
       0.019264609 -0.041930728 0.062409125 -0.0048354045
0001e0 d6 3f b3 3d 74 30 6a bc ba 83 82 bd 44 20 6f 3d
       0.0875241 -0.014293779 -0.06372781 0.05838038
0001f0 c8 40 ea bb 2c 31 b1 3d 11 d4 5c 3d f6 d5 59 b8
       -0.007148836 0.08651957 0.05391318 -5.19361e-05

fc3.weight f4 [128, 128]
000000 4d c0 70 bd 6f 9c a3 3c de f4 37 3d 95 63 a5 bd
       -0.058777142 0.019972054 0.044911258 -0.080756344
000010 0a d1 22 bd 89 24 f1 bc f7 f4 94 bd 54 2c 8c bc
       -0.039750136 -0.029436367 -0.07273286 -0.017110981
000020 34 58 8a bd bd 11 5d bb c6 35 9b bd 7a 86 65 3d
       -0.06755105 -0.0033732497 -0.07578616 0.05603645
000030 69 f0 bf 3c 4d 52 73 bd f2 86 2c bd df de 3f 3d
       0.023430066 -0.05940466 -0.04212088 0.046843406
000040 4d d1 65 bd 0b de 4e bc 7b 9d 07 3c 14 a3 12 bd
       -0.056107808 -0.012626181 0.008277292 -0.035800055
000050 01 0d 8a 3d dc 44 c7 bd 9c c5 4b bd 0f 63 8a bc
       0.067407615 -0.09729931 -0.049749 -0.016892938
000060 33 14 91 3d 10 d7 d8 bb 57 05 1a 3d fd e7 06 be
       0.07083931 -0.0066174343 0.03760275 -0.13174434
000070 27 d4 0e bb 64 2c c9 bd b7 6a 87 3d f2 4f 92 bd
       -0.0021793933 -0.0982292 0.06612151 -0.071441546
000080 a0 3b 35 bd 2b 3b 90 bc 28 31 b6 bc 24 25 48 3d
       -0.044246316 -0.017606338 -0.022240236 0.048863545
000090 70 03 8f 3c 17 4f 5c 3c b3 a7 9a 3d 9d cc 5a 3d
       0.017457694 0.013446591 0.07551517 0.05341779
0000a0 a1 0f db 3b 31 ba e3 3c 4b 26 14 3d ae 2d fe bc
       0.0066852127 0.027798744 0.03616933 -0.031027641
0000b0 fa 14 1f 3d a4 b5 77 3d 4c 1a 97 bb ff d0 05 bd
       0.038838364 0.06047596 -0.004611289 -0.032670017
0000c0 13 c4 e1 3b f6 b5 28 bd 1c ac f9 3c 89 eb 00 be
       0.006889829 -0.041189156 0.030477576 -0.1258985
0000d0 f6 df b2 bd 57 1c ae 3c 82 d8 21 bd 1c 97 80 bd
       -0.087341234 0.021253748 -0.03951312 -0.06278822
0000e0 9c 70 a6 3d 25 c1 d2 3b 82 35 23 3d 6b 88 86 bc
       0.08126947 0.006431716 0.03984595 -0.016422471
0000f0 b8 17 7f bc b3 77 95 3d 95 1f 1b bd 73 a2 18 bd
       -0.01556962 0.072982214 -0.037871916 -0.0372643
000100 eb dd 92 3d bb d7 57 bd 7d fe 93 bd 48 cd a2 3d
       0.07171234 -0.05269597 -0.07226274 0.079493105
000110 dc 98 45 3d 25 0b 84 3d 65 b5 da bd ac 0e ad 3d
       0.04824148 0.06447438 -0.106791295 0.08450064
000120 5b 9a d1 3b 9c 50 42 3c da 15 50 3d 4e 47 1f bd
       0.0063965744 0.011860039 0.05080209 -0.03888636
000130 62 ca 12 bd d7 0d c3 3c c3 45 84 bd d6 b5 8f bd
       -0.03583754 0.02381031 -0.064586185 -0.07017104
000140 c4 93 5d 3d 73 3d 80 3c 05 97 87 3d 5d 3a 6a 3d
       0.054096 0.015654301 0.066206016 0.057184566
000150 b6 03 07 3d 40 09 f9 bc 5e 50 98 bd 6f 8d 35 bd
       0.032962523 -0.030399919 -0.07437204 -0.044324335
000160 37 da 3b bd 83 49 3f bc 5c 30 54 3d db 30 96 bd
       -0.045862403 -0.011675241 0.05180393 -0.07333537
000170 cb bf 02 bd 61 05 8c 3d 85 fe 52 3b fb f4 c9 ba
       -0.03192119 0.068369634 0.0032195162 -0.0015408093
000180 11 e2 55 bc 3a b1 00 bb b7 ec 94 3d 76 2f 29 bc
       -0.013054387 -0.0019636885 0.07271712 -0.010326257
000190 f0 02 53 3d 71 b5 94 bd fa 7b 5e 3d cf 2a 9b bd
       0.051516473 -0.0726117 0.054317452 -0.075765245
0001a0 9a c4 fa bc 05 e1 98 bc 5d 66 53 3c 0d d7 2e bd
       -0.030611325 -0.018661985 0.012902823 -0.042685557
0001b0 f2 68 2a bd f7 6f 3e 3c e2 64 46 bd 21 29 1d bd
       -0.04160399 0.011623374 -0.048436053 -0.0383693
0001c0 7f d5 4b bd 9f 84 29 3d f0 d4 ad 3c 30 46 14 3d
       -0.049764153 0.041386243 0.0212197 0.03619975
0001d0 b4 2b 77 bd 86 ea eb 3b f1 29 95 3d fe 95 b9 35
       -0.060344413 0.007199588 0.0728339 1.3827228e-06
0001e0 f4 d9 25 bc a3 9d a8 3d 4b 1e ab bd ce 55 a6 bd
       -0.010122765 0.08233192 -0.08355387 -0.08121835
0001f0 33 e3 99 bc d6 f9 aa bd 8f 73 5e 3d 30 58 3e 3d
       -0.018785095 -0.08348434 0.054309424 0.04647082
000200 a2 4a 45 3d e8 6b 3e 3c 00 aa a1 3d 24 0a f6 bb
       0.04816688 0.011622407 0.07893753 -0.007508533
000210 70 8a 9d 3c 78 4f 65 3d 4c 18 cc 3b c1 f0 23 3c
       0.019231051 0.05598399 0.0062284824 0.010006131
000220 f7 0b 12 3e c1 69 b9 3d 3d 20 d9 bd f2 21 4e bd
       0.14262377 0.09053374 -0.10601852 -0.05032534
000230 e5 8c 9b 3d 40 55 89 bb fb 6c c6 bd a1 79 1e 3c
       0.07595233 -0.004191071 -0.09688755 0.009672553
000240 1d 17 a8 3d dd c9 22 bc 02 2b 09 3d 8b 61 ec 3d
       0.082075335 -0.009935823 0.03348828 0.11542042
000250 96 63 b7 bd 64 8a f8 3c 97 28 6c bd f1 f1 3c 3d
       -0.089545414 0.030339427 -0.057655897 0.04612917
000260 b2 b8 03 3d c7 bd 87 3d a7 24 bb 3c 30 86 ab bd
       0.03215856 0.06627994 0.022844626 -0.083752036
000270 46 e5 1d bd 3b 9a c1 bc f8 20 f8 bd be cd a9 3d
       -0.03854873 -0.023633113 -0.12115663 0.08291195
000280 22 90 24 bd cd 6b 50 3d 82 53 ab 3c 6f 3f 1f 3d
       -0.04017652 0.050884057 0.020913843 0.038878854
000290 9e ab 82 3d 18 c4 99 3c a9 60 1a bc 49 86 80 bb
       0.0638039 0.018770263 -0.00942246 -0.003922258
0002a0 ac 10 a1 bd 21 d0 fb 3a 52 16 3e bd da 80 78 bd
       -0.07864508 0.0019211808 -0.046408005 -0.060669757
0002b0 56 b1 eb bd 80 a7 54 bc fd 7f 72 3d 96 b8 9c 3d
       -0.115084335 -0.012979388 0.05920409 0.076523945
0002c0 b3 bc 9b 3c c3 eb 7e bd 81 19 8c 3c 8d 45 b1 bc
       0.019010877 -0.06223656 0.017102005 -0.02163961
0002d0 2e 26 a9 3d f6 1e 4e 3d 46 06 31 3d 88 1f c8 bc
       0.08259235 0.050322495 0.043218873 -0.024429098
0002e0 30 7e 85 3c 21 1b 54 3d 9b 72 6d bd a2 e3 4d bd
       0.016295522 0.051783685 -0.057970624 -0.050265916
0002f0 98 59 44 3d ff e6 ea 3c 3b 75 0c bb f1 04 a2 3d
       0.047937006 0.0286746 -0.002143218 0.07911099
000300 4e b5 7a 3d 5f 41 3d bc cb 1c 22 bd cb 0e b4 3d
       0.061208062 -0.01155123 -0.03957824 0.08791884
000310 0e c4 51 3a a7 0a 62 bc 42 8d 6b 3d a5 f1 89 bd
       0.0008001932 -0.013796485 0.05750776 -0.06735543
000320 e2 7c a2 3d 88 9a b1 3c 34 ac 82 3c 8c 9a 09 be
       0.07933976 0.021680132 0.015951253 -0.13437861
000330 7a d8 8d 3d 20 6e 6c bc de dd 25 be ad e3 03 3d
       0.06926055 -0.014430553 -0.16197917 0.03219955
000340 37 ef 91 bc 9e 3a 5a bd 50 f6 ed bc fd b3 b8 3c
       -0.017814262 -0.053278558 -0.029048115 0.022546763
000350 80 4a 0a bc ba c0 4f 3d d0 ec ca 3d c2 ae 78 3d
       -0.008440614 0.050720908 0.0990845 0.060713537
000360 8e 15 8e bd 80 40 67 bc b3 11 a1 bd d4 37 aa bd
       -0.06937705 -0.014114499 -0.07864704 -0.083114296
000370 93 8a 47 3d 2e eb 83 3d 10 6c 17 bd 71 08 87 bd
       0.04871614 0.06441341 -0.03696829 -0.06593407
000380 99 da af 3d 61 0a 91 bd 3e cb ac bd ef fe 91 bc
       0.08586616 -0.07082058 -0.08437203 -0.017821757
000390 1d 7f 76 3d 52 04 c9 bc ce fa d5 3b 23 28 2c bd
       0.06017982 -0.024538193 0.0065301424 -0.042030465
0003a0 2c 82 14 bd 54 d7 d2 3d 07 c4 93 3a 22 6b 95 bd
       -0.036256954 0.10294977 0.0011273631 -0.072958246
0003b0 4b fd b1 bd d7 26 57 3d 62 4c 41 bd 55 86 0b 3e
       -0.0869089 0.052527275 -0.047191985 0.13625462
0003c0 ff 64 a9 bd cf 7d 08 3e c8 c9 0f be 57 a9 35 bd
       -0.082712166 0.13329242 -0.14041817 -0.04435095
0003d0 e8 26 bf bd 42 b4 21 bd 7f d5 74 bd 14 18 a6 3d
       -0.09333593 -0.039478548 -0.05977392 0.08110061
0003e0 ae 0c 90 3d 85 29 47 3d a6 e0 11 3e e3 74 ba bc
       0.070336685 0.04862358 0.14245853 -0.022760814
0003f0 14 81 cb bd 8d 7d 75 3d 0c 41 17 bd ce af 96 3c
       -0.09936729 0.059934188 -0.036927268 0.018394377

fc3.bias f4 [128]
000000 b5 a9 54 3d 9b 28 9d bd 03 19 18 bc ed 6a 14 3d
       0.051919658 -0.076737605 -0.009283307 0.036234785
000010 21 89 94 bd 65 8e 54 3d 95 a6 21 bd 8c 0f d2 bc
       -0.07252718 0.05189361 -0.039465506 -0.025642179
000020 b9 46 eb 3a 95 d0 25 3b 6c ed 83 bd 7d cd 4e 3c
       0.0017950154 0.0025301327 -0.06441769 0.012622234
000030 83 5e 5e 3d 15 04 a4 3d 8b 3f fb bb b3 df 88 bd
       0.054289352 0.08008591 -0.007667487 -0.06683292
000040 be 18 a2 bd 0a 54 64 bc a9 a9 4c bc 7f 73 58 3c
       -0.079148754 -0.013936052 -0.012491622 0.01321113
000050 58 d7 62 3b 58 e0 60 3d c5 97 33 3c 96 f6 56 bc
       0.0034613218 0.05490145 0.010961478 -0.013120314
000060 3c 13 0a bd a2 cd 66 bd a2 fc b1 bd 52 87 d4 bc
       -0.03370975 -0.05634845 -0.08690764 -0.025943432
000070 2c ba 25 bd 11 36 43 bd 63 43 70 bc 73 7c 46 3d
       -0.04046075 -0.047658984 -0.014664504 0.048458528
000080 ad 69 90 bd 7d 61 58 bd 70 a2 54 3d 2f 8b 24 3d
       -0.07051406 -0.052827347 0.051912725 0.0401718
000090 49 0c 28 3c eb d8 95 bd 80 d5 3b 3d 28 67 8f 3c
       0.010256835 -0.073167644 0.045857906 0.017505243
0000a0 af 24 d5 bc 97 9c ba 3d 6a e1 52 bd ea 6c 47 3d
       -0.026018469 0.091118984 -0.051484503 0.048687853
0000b0 c1 b4 8c 3d 54 7c f5 bb 53 90 a1 bb 05 9a 87 bd
       0.068704136 -0.0074916277 -0.004930535 -0.06621174
0000c0 c8 41 83 3d 77 5f 96 3d 43 27 e8 bc d6 c8 b0 3d
       0.06409031 0.07342427 -0.028339034 0.086320564
0000d0 8e 2b 34 bd 29 24 42 3d 5b 8f 04 bc 20 53 ae bd
       -0.04398685 0.047397766 -0.008090819 -0.085119486
0000e0 d3 b9 b5 3d 95 02 9f bd e4 4b 84 3d 7e fa b3 3d
       0.08873334 -0.07764164 0.064597875 0.08788012
0000f0 fc 75 cc bc 34 cd a5 bd c7 18 10 bd 4a ea 0b bc
       -0.024958603 -0.0809578 -0.03517988 -0.008539746
000100 93 32 ac 3d e5 6f 9c 3d 69 15 aa bd 7f 5a 8c 3d
       0.08408084 0.0763853 -0.08304865 0.06853198
000110 0b 67 26 3d 8b f2 96 bd 07 23 6c bd d7 b8 99 3c
       0.040625613 -0.0737048 -0.057650592 0.018764896
000120 d2 6c 98 3c ea 1f 66 3d 04 f9 a3 3d 6d 03 8f bd
       0.018606577 0.05618278 0.0800648 -0.06983075
000130 7d 74 18 bd f7 ec ef bb dd 0b 9d bd 0b 88 30 3d
       -0.037220467 -0.0073219496 -0.07668278 0.04309849
000140 44 9a 5a 3d 46 9a 80 bd ee 24 72 bc fe f8 18 3d
       0.053369775 -0.06279425 -0.014779313 0.037346832
000150 30 59 71 3d bb c7 a4 bb c9 99 06 3d ad 31 88 3d
       0.058922946 -0.0050286925 0.032861505 0.066501
000160 9a f7 ad 3c 0b 95 cd 3c 25 fa 85 3d 24 68 ff 3c
       0.02123623 0.025095483 0.06541852 0.031177588
000170 c0 39 07 bd 18 a4 47 3d cf 3b 2a 3d 81 b3 01 3d
       -0.03301406 0.048740476 0.041560944 0.03166533
000180 22 b6 18 bd 52 42 2c 3d 4d fe e7 3c 5b 03 fb bb
       -0.03728307 0.042055435 0.028319502 -0.007660312
000190 d8 3f a3 3b 36 6e 23 3c ad 03 00 3d dc f6 ff bc
       0.004981976 0.009975007 0.031253505 -0.031245641
0001a0 64 8e 6e 3d 5d 7a 99 bd 91 58 9c 3d 60 3b 47 3d
       0.058241263 -0.07494042 0.0763408 0.04864061
0001b0 05 91 91 bd 1e 99 a6 bd 9a 93 54 3d 64 e7 06 bc
       -0.071077384 -0.081346735 0.051898576 -0.008233879
0001c0 7e e0 9d bd d8 9f ba 3b 8d c8 a3 3d 99 26 e4 bb
       -0.07708834 0.0056953244 0.079972364 -0.006962609
0001d0 dd b3 af 3d 18 7b 84 3c 8d 3b 3f bc 4c e3 96 3c
       0.08579228 0.016171977 -0.011671913 0.01841893
0001e0 ac c7 3b 3d d4 75 59 3b 53 19 36 bd c6 41 88 3c
       0.04584472 0.0033181803 -0.044457745 0.016632926
0001f0 0e f4 ff bb 0c 28 2f 3c a3 d9 1e 3d ff b6 0a 3d
       -0.007811076 0.0106907 0.038781773 0.033865925

reg_head.weight f4 [1, 128]
000000 e5 ea cd bd 00 b1 1e be 93 12 85 bd 82 05 3f 3d
       -0.10054568 -0.15497208 -0.064976834 0.046636112
000010 43 0d 23 be 4c a3 80 3d 40 8e e8 3d ca 8f 03 be
       -0.15923028 0.062811464 0.11355257 -0.1284782
000020 86 16 bd 3d ec 1b d9 bd df 62 85 bd b7 fa 3d 3d
       0.09232812 -0.10601029 -0.06512999 0.04638168
000030 ce 28 75 3d 94 97 f6 3c db 0f da 3d b3 24 ed 3c
       0.059853368 0.030101575 0.106475554 0.028948164
000040 15 e6 39 3d 98 ac ee bd 42 25 96 3d 3c a0 c1 3d
       0.04538544 -0.116540134 0.07331325 0.094543904
000050 a9 52 08 be 64 b4 00 be 8e 1a d8 3d 4c b8 14 3d
       -0.13312782 -0.12568814 0.1055194 0.03630857
000060 8c 7a a1 3d ca 88 0e 3e e4 99 49 bd 2b b5 c5 3d
       0.07884702 0.13919368 -0.049219027 0.09653696
000070 8e 98 b3 bb a7 49 7d bd 92 fb 0c be 75 f5 a0 bd
       -0.0054808324 -0.06183782 -0.13767841 -0.07859317
000080 67 a3 a6 bd 2d d5 b8 3d 6b 7b fc bd 2d a7 fd 3d
       -0.08136635 0.09025035 -0.123282276 0.12385402
000090 96 24 4b 3d 5c ff 4b bd 38 96 37 3d 4b 86 e5 3d
       0.049595438 -0.049804077 0.044820994 0.11207255
0000a0 f8 4e 05 be 54 25 94 3d 86 d7 4e bd 7b a9 8e 3d
       -0.13018405 0.07233682 -0.050498508 0.069659196
0000b0 4c 03 75 3d e8 14 27 be 3e 1d f3 3d 2b 2b 4a bd
       0.059817597 -0.16316569 0.11870812 -0.049357574
0000c0 4c 03 69 bc d4 e7 9d 3d ee 49 82 3d 0f 39 d1 bd
       -0.014221977 0.07710233 0.06361757 -0.10215961
0000d0 ca 19 c3 bc dc 50 54 3d c4 27 b5 3d cc 1c ff 3c
       -0.023816008 0.051834926 0.08845475 0.031141661
0000e0 37 95 ff 3c 9f 48 fc 3d 96 a2 ae 3d 77 65 df 3d
       0.03119908 0.12318539 0.085271046 0.10908025
0000f0 a2 59 96 3d 78 a4 31 3d 8f a4 b5 bd e6 81 ba 3d
       0.07341315 0.04336974 -0.08869278 0.091068074
000100 97 9a 9c bd b5 34 9d bd 75 c5 c3 3c 34 84 90 bd
       -0.07646673 -0.07676069 0.023897866 -0.07056466
000110 34 64 bb 3d 52 16 52 bd fe 49 35 bc 44 3d 5d bd
       0.091499716 -0.051290818 -0.011065004 -0.054013506
000120 4e eb 05 3e d3 bf f1 3c 48 75 5d bd 5d 10 0a 3d
       0.13078043 0.029510414 -0.054066926 0.03370701
000130 db 06 d9 3d 4a b0 db bd ea 09 bc 3d 1a 44 c0 3d
       0.10597011 -0.10726984 0.091815785 0.09387989
000140 86 7f ad bd b8 55 a9 3d dd 4c 84 bd aa 6f ef bd
       -0.08471589 0.08268303 -0.06459973 -0.1169122
000150 a1 bf dc 3d a5 b9 4e 3d 5f 1d 1a 3d 4d 36 00 be
       0.10778738 0.050470013 0.037625667 -0.12520714
000160 41 3b de 3d 34 11 bf 3d df 45 01 be 96 14 ba bd
       0.108511455 0.09329453 -0.1262431 -0.09085958
000170 5d 19 a8 bd b3 0c 5c bd 7f 78 de 3c bc 5c 68 3d
       -0.08207963 -0.05372305 0.027157066 0.056729063
000180 6a 62 11 3d 92 39 21 3d cb b7 0f 3e 24 7e 5f 3d
       0.035494246 0.039361544 0.14034955 0.054563656
000190 62 bf 96 3d 88 c0 f7 bd 4e 95 22 3d 17 d3 28 be
       0.07360722 -0.12097269 0.03969317 -0.16486774
0001a0 92 7a a5 3c 0e 75 e6 3d 82 a3 09 be 16 15 68 bd
       0.020200048 0.11252795 -0.1344128 -0.056660734
0001b0 a9 bd 39 3c 53 65 2f bd 6b aa 89 3d 61 2a d9 3c
       0.011336722 -0.04282124 0.06721958 0.026509466
0001c0 b8 f8 ae bc 2a 62 8f bd 08 8e 63 3d 25 b8 32 be
       -0.021358833 -0.07001145 0.055555373 -0.17453058
0001d0 56 e7 7d 3d d5 86 01 be 93 4e 02 bd d5 2b b7 3d
       0.061988197 -0.1264909 -0.031813215 0.08943907
0001e0 0e bf 1f be a3 9b 1b be 80 aa 0f 3d 59 8c df 3d
       -0.15600225 -0.1519609 0.03507471 0.10915441
0001f0 52 75 04 3e b7 88 88 bd f5 8e cf bd 0a db 37 be
       0.12935379 -0.06666701 -0.10134689 -0.1795465
