grasp_placement/models/run_seed_8916/stability_net.pth (torch, 80580 bytes, 5 tensors)

fc1.weight f4 [128, 21]
-0.123394795 0.0817357 -0.05740521 0.016603403 7.872692e-05 0.11375704 -0.055243675 0.121729754
-0.027892008 -0.05719942 0.17807102 -0.050780457 -0.27422836 -0.13234504 -0.10320271 0.16442853
0.052799884 -0.1610972 0.15587851 0.018265504 0.14089933 0.038013212 0.05359937 0.07405679
-0.19774894 -0.030028064 -0.11230177 -0.23562904 0.16785398 0.038266774 0.13577296 0.10095284
-0.17351562 0.039844982 -0.031632584 0.122975945 0.11148331 0.18024048 -0.08478964 -0.047425587
-0.17467372 0.17700148 -0.16786341 0.11973542 0.14941515 0.2592529 -0.20428285 0.06741471
0.22689645 0.083820485 -0.1460593 -0.16331093 -0.12106452 0.0070368596 0.13753696 -0.061533332
0.11010874 -0.14399596 -0.08105808 0.046675377 -0.15915306 -0.25529304 -0.10790498 -0.18282424
-0.19310811 -0.041638337 -0.20411061 -0.19376637 -0.0044288198 0.05959644 0.030878616 -0.16436966
-0.059474397 -0.007191634 0.06975125 -0.059489526 -0.18576913 0.02454422 0.17880607 -0.031140307
0.18792881 0.18668686 0.028530043 -0.06995623 0.08772975 -0.103691496 -0.15896703 -0.13202213
0.03400684 0.032171123 -0.18498227 -0.20567808 -0.13007823 -0.04690278 -0.16022466 -0.12186706
0.1709883 -0.07824803 -0.14021964 -0.0140096275 0.02691424 0.24935026 0.24807541 -0.0687505
-0.04388634 -0.17279372 0.14114782 0.017131258 -0.067480154 0.028328268 -0.103864804 -0.22111349
0.059083857 -0.079913296 0.014937922 -0.15862468 -0.20065853 0.11152718 0.22724594 -0.10251723
0.054506294 0.040222745 0.10015759 0.038782723 -0.12531285 0.24446096 -0.02896893 0.15110128
0.052973993 -0.062267654 -0.011494383 -0.11168797 0.07292924 0.107238494 -0.19532228 0.16177689
0.16429693 0.1951993 -0.109253 0.14682786 0.13090637 -0.2029473 0.029696396 -0.07061621
-0.2602841 0.092718 0.20066611 -0.22774145 -0.04045133 0.23612106 0.24152352 -0.18834403
0.095013075 -0.13823767 -0.07954041 0.10026116 0.11067385 -0.113872916 0.039964803 -0.14963794
0.054880634 -0.11466389 0.104265556 0.13234703 0.20136067 0.05820203 -0.06659858 0.23056524
0.12909286 0.23815048 -0.07954504 0.20789775 0.12789053 0.05788624 0.095891714 0.058044173
0.24671397 0.2104566 -0.076502025 0.0011807104 -0.20498778 -0.075790584 -0.106200635 0.23648931
0.10575607 0.024021067 -0.09900608 -0.25621265 -0.1528058 0.17698246 -0.16551234 -0.016673325
0.23598088 0.16307627 -0.24036106 0.17411345 0.123403125 0.12947671 -0.119072445 -0.03371661
0.16529775 -0.071045205 0.048505127 0.13649537 -0.098062016 0.10613713 -0.2388865 -0.105733305
-0.10160326 -0.19796471 -0.16966881 -0.060827944 -0.038602665 0.05758074 -0.16538063 -0.17500758
0.027038231 0.06332242 -0.19949202 0.019535672 0.12917814 0.071435116 0.056986753 0.22425908
-0.18537776 0.043033678 0.0460687 -0.10491267 -0.12793991 -0.013717118 -0.21923815 0.0046228194
0.21008734 -0.2080266 -0.21258123 0.019456211 -0.12970957 -0.08746212 0.14632893 -0.13590805
0.20251194 0.04343908 -0.12582551 0.07657273 -0.06199595 -0.18815112 0.18563497 -0.14784491
-0.10398266 0.0020990572 0.1953623 0.14401898 -0.07677877 0.13815849 0.09558255 0.16310357
00000000: 69b6 fcbd 0c65 a73d ba21 6bbd dc03 883c
00000010: 311a a538 73f9 e83d 3147 62bd 734d f93d
00000020: c87d e4bc f049 6abd 4058 363e 2bff 4fbd
00000030: a967 8cbe 7585 07be f15b d3bd f45f 283e
00000040: b144 583d aaf6 24be 9e9e 1f3e 8aa1 953c
00000050: ea47 103e beb3 1b3d 038b 5b3d 16ab 973d
00000060: b37e 4abe 6afd f5bc 78fe e5bd bd48 71be
00000070: eae1 2b3e 9fbd 1c3d 1108 0b3e 5dc0 ce3d
00000080: 14ae 31be 7e34 233d 2b91 01bd d0da fb3d
00000090: 5d51 e43d f690 383e 31a6 adbd 5541 42bd
000000a0: abdd 32be e03f 353e 63e4 2bbe d837 f53d
000000b0: 4900 193e ccbc 843e 862f 51be b910 8a3d
000000c0: 8b57 683e 13aa ab3d 9290 15be fb3a 27be
000000d0: adf0 f7bd 7595 e63b 7dd6 0c3e 600a 7cbd
000000e0: b180 e13d ad73 13be c701 a6bd ae2e 3f3d
000000f0: 05f9 22be c5b5 82be 49fd dcbd 4736 3bbe
00000100: 22be 45be f68c 2abd 5f02 51be b16a 46be
00000110: a21f 91bb 661b 743d 27f5 fc3c 8550 28be
00000120: 6d9b 73bd cca7 ebbb bed9 8e3d 4aab 73bd
00000130: 433a 3ebe f610 c93c f018 373e f519 ffbc
00000140: 6970 403e d72a 3f3e d6b7 e93c 3645 8fbd
00000150: a8ab b33d 355c d4bd 41c8 22be cf30 07be
00000160: c24a 0b3d dec5 033d fe6b 3dbe 469d 52be
00000170: 3a33 05be 211d 40bd ef11 24be 7095 f9bd
00000180: 8f17 2f3e 8140 a0bd bd95 0fbe a388 65bc
00000190: 417b dc3c ad55 7f3e 7b07 7e3e 10cd 8cbd
000001a0: 2ac2 33bd d6f0 30be 0e89 103e da56 8c3c
000001b0: 0933 8abd af10 e83c 12b7 d4bd 936b 62be
000001c0: ea01 723d 95a9 a3bd 30be 743c 826e 22be
000001d0: 6e79 4dbe 5d68 e43d 29b3 683e 8ef4 d1bd
000001e0: fe41 5f3d 9bc0 243d 6c1f cd3d a2da 1e3d
000001f0: 0352 00be f953 7a3e 4050 edbc 4bba 1a3e
00000200: 42fb 583d 5e0c 7fbd f052 3cbc aabc e4bd
00000210: ed5b 953d db9f db3d 9002 48be d7a8 253e
00000220: 743d 283e 53e2 473e 09c0 dfbd 0b5a 163e
00000230: 520c 063e 6bd1 4fbe db45 f33c 3b9f 90bd
00000240: f543 85be efe2 bd3d 6b7b 4d3e 0e35 69be
00000250: 4bb0 25bd b8c9 713e f151 773e 42dd 40be
00000260: 3796 c23d 2d8e 0dbe 15e6 a2bd b955 cd3d
00000270: f9a8 e23d 3436 e9bd 22b2 233d b03a 19be
00000280: 84ca 603d e7d4 eabd 2e89 d53d fb85 073e
00000290: 7e31 4e3e 4065 6e3d d664 88bd 4b19 6c3e
000002a0: eb30 043e b8dd 733e 83e8 a2bd 26e3 543e
000002b0: bcf5 023e 1f1a 6d3d e062 c43d babf 6d3d
000002c0: 96a2 7c3e ef81 573e 18ad 9cbd 11c2 9a3a
000002d0: 51e8 51be 1838 9bbd b87f d9bd 412a 723e
000002e0: a396 d83d d4c7 c43c b3c3 cabd 4e2e 83be
000002f0: 2079 1cbe e43a 353e 117c 29be 7f96 88bc
00000300: f9a4 713e 77fd 263e 3621 76be cc4a 323e
00000310: c7ba fc3d 8b95 043e 41dc f3bd 6e1a 0abd
00000320: d043 293e 2680 91bd 50ad 463d 71c5 0b3e
00000330: bdd4 c8bd 6c5e d93d aa9e 74be b48a d8bd
00000340: 5f15 d0bd 43b7 4abe a9bd 2dbe b926 79bd
00000350: d41d 1ebd c8d9 6b3d 8a59 29be 3035 33be
00000360: 487f dd3c 2faf 813d a347 4cbe 4609 a03c
00000370: 4647 043e 934c 923d f16a 693d 2ca4 653e
00000380: abd3 3dbe 1544 303d 88b2 3c3d 74dc d6bd
00000390: ae02 03be c3bd 60bc f77f 60be 057b 973b
000003a0: 2321 573e ed04 55be e5ae 59be a262 9f3c
000003b0: 96d2 04be 571f b3bd 40d7 153e 7b2b 0bbe
000003c0: 4a5f 4f3e 2ded 313d 67d8 00be 2ad2 9c3d
000003d0: 77ef 7dbd b0aa 40be 1817 3e3e a864 17be
000003e0: dcf4 d4bd 5690 093b 0e0d 483e b679 133e
000003f0: 303e 9dbd 6b79 0d3e c9c0 c33d 9f04 273e

fc1.bias f4 [128]
-0.17534205 0.09940543 -0.08874749 -0.10359973 0.13814919 -0.034648653 0.029952694 0.042199474
-0.04660088 -0.1222583 0.16015434 0.17495075 0.06781371 -0.0024779506 -0.18937314 0.04944653
0.14387947 0.031035013 -0.13348113 -0.08666885 0.064781114 0.12876232 -0.1912026 0.16666698
0.21515608 0.07997414 -0.00872378 0.20686041 0.021207564 -0.091607325 -0.12028096 0.15031987
-0.0039427145 -0.15390326 0.22740275 0.103151456 -0.09074632 -0.0973168 -0.031943824 -0.044636954
-0.1044298 0.10089497 -0.10240542 -0.02661491 -0.10497295 -0.14247093 0.042267818 -0.20131762
0.11454499 -0.16698694 0.19426826 0.15540825 -0.12954777 -0.10687135 -0.1277697 -0.112738386
0.102321185 -0.043354556 0.18905069 0.14148937 0.1837219 0.09754255 -0.17876029 0.1442239
-0.17860751 0.09940393 -0.11191796 0.09282321 0.100590944 0.13615294 0.06348152 0.22018318
-0.040205464 -0.0097490605 -0.016858036 -0.21132246 -0.08234579 -0.12420634 -0.106680624 0.1030125
0.0804073 0.20903227 -0.011456792 -0.0827561 0.03767776 -0.016029917 0.15946786 0.13025448
-0.092322886 -0.025876291 -0.06737998 0.087935224 0.0924767 0.016239548 0.07628735 0.031817563
-0.13176464 0.03691838 -0.14755473 0.081405886 0.121684685 -0.02550467 0.13605368 0.062920734
0.014111749 0.20458776 0.20639619 -0.20179427 -0.1500076 0.04108568 -0.048678204 -0.033689413
0.17627554 0.08361225 0.1721388 0.15401496 -0.12316488 -0.08915519 0.04039232 -0.017626297
-0.13515604 0.17889178 0.00079602795 -0.020971218 0.08704338 0.21320327 -0.047181286 0.17643973
00000000: de8c 33be 1395 cb3d 3ec1 b5bd 182c d4bd
00000010: fb76 0d3e bfeb 0dbd 5a5f f53c 5bd9 2c3d
00000020: 90e0 3ebd 8f62 fabd 80ff 233e 4a26 333e
00000030: eae1 8a3d 1d65 22bb 08eb 41be 7288 4a3d
00000040: 2455 133e 243d fe3c 47af 08be 707f b1bd
00000050: f6ab 843d 45da 033e 9dca 43be c0aa 2a3e
00000060: e051 5c3e 7bc9 a33d 2fee 0ebc 37d3 533e
00000070: 7cbb ad3c 9f9c bbbd dd55 f6bd 74ed 193e
00000080: e331 81bb d198 1dbe 44dc 683e 1241 d33d
00000090: 35d9 b9bd 084e c7bd 87d7 02bd 3dd5 36bd
000000a0: 4adf d5bd 06a2 ce3d efb9 d1bd 8307 dabc
000000b0: 0ffc d6bd e6e3 11be 0521 2d3d 3526 4ebe
000000c0: 9096 ea3d a0fe 2abe 42ee 463e 5723 1f3e
000000d0: 2ca8 04be 5edf dabd 0fd6 02be 62e3 e6bd
000000e0: c58d d13d 8c94 31bd 8196 413e 97e2 103e
000000f0: 9821 3c3e 63c4 c73d f00c 37be 6eaf 133e
00000100: e3e4 36be 4a94 cb3d 3e35 e5bd 181a be3d
00000110: a002 ce3d ad6b 0b3e 9902 823d b377 613e
00000120: 7cae 24bd 86ba 1fbc dd19 8abc ea64 58be
00000130: e9a4 a8bd e55f febd 5f7b dabd 38f8 d23d
00000140: 95ac a43d 8e0c 563e 45b5 3bbc 087c a9bd
00000150: ff53 1a3d 2c51 83bc 8b4b 233e 6e61 053e
00000160: c813 bdbd 84fa d3bc 84fe 89bd 6217 b43d
00000170: 6d64 bd3d cd08 853c 8b3c 9c3d 2253 023d
00000180: 4fed 06be ba37 173d 9618 17be 21b8 a63d
00000190: d235 f93d 2bef d0bc a851 0b3e 96dc 803d
000001a0: f734 673c 747f 513e 8659 533e 28a3 4ebe
000001b0: 989b 19be 7549 283d cc62 47bd e9fd 09bd
000001c0: 9381 343e e63c ab3d 2745 303e 19b6 1d3e
000001d0: de3d fcbd ff96 b6bd 6b72 253d 0665 90bc
000001e0: 5866 0abe 682f 373e 88ac 503a d5cb abbc
000001f0: cd43 b23d f551 5a3e 2a41 41bd 9eac 343e

fc2.weight f4 [128, 128]
-0.057385646 0.07826185 0.052404054 -0.019769084 -0.049352523 -0.013849461 0.022060575 0.043983754
0.034425788 -0.010645938 0.078697205 0.052142944 0.07768474 0.069415286 -0.10397363 0.033113845
0.06691943 0.07251168 -0.010794969 0.07932686 -0.086597726 0.039964087 -0.07242262 -0.03212766
0.025914095 0.009146727 -0.016596405 0.018192634 0.08700734 -0.0020115743 0.0584497 0.058221534
0.060405225 0.04372257 -0.02304088 -0.0014341492 0.14988771 0.0047958298 -0.01816859 0.055813476
0.07991736 0.026490433 -0.042074457 0.0074427035 -0.059781577 -0.019665167 0.03990078 -0.15115465
-0.059185248 -0.019259963 -0.061861616 0.026918892 0.009454709 -0.007850867 0.09186734 -0.026692942
-0.06158841 0.052677076 0.06569896 -0.03685309 -0.053680133 0.047811825 0.03256424 -0.027563957
0.0126696965 0.071063764 0.07162543 0.0871661 0.020846784 -0.00442028 0.021543734 0.09059029
-0.075613104 -0.0534143 -0.0015568248 -0.0039455653 -0.019099776 0.11086443 0.08822246 0.040810477
0.07483855 0.08889618 0.082276024 -0.08011686 -0.05456598 -0.071473055 0.0061378735 0.017863808
0.03747971 -0.053089462 -0.06092054 0.050351806 0.07981134 -0.038839187 0.00748133 0.07594436
0.14263564 0.024176467 0.14770137 0.04924315 -0.030910375 -0.03874236 -0.00296836 -0.03632489
-0.057033837 0.013621273 0.09381555 -0.03571702 0.09976458 0.09490723 -0.09970626 -0.07507522
0.06299878 0.058284953 -0.07660728 -0.06146407 0.06148228 0.018981503 0.055322792 0.07812497
-0.0495271 -0.046213184 0.09094713 -0.0582394 -0.021127224 -0.078844674 0.075273015 -0.015847525
0.09913894 0.00781942 0.0026271788 -0.06798797 0.071593754 0.06362859 0.08316306 0.016536485
-0.013385562 -0.08241651 -0.062168714 -0.059408545 0.033683944 0.053977992 -0.06360271 0.0015560682
0.008739909 0.09855575 -0.02795797 0.038331233 0.012904966 0.05321058 -0.14368525 0.04550242
0.06819421 -0.08801506 -0.036814336 0.047199845 -0.03211128 -0.0431661 0.022822928 -0.03877507
0.027982088 -0.0010744975 0.091903284 -0.08499267 0.085711986 0.07514486 -0.05934664 -0.07309333
0.059309807 -0.0057038795 0.05254858 0.07841608 0.05621072 0.056242254 0.09003805 -0.08213879
0.022034487 -0.030978467 0.08566522 0.00064811314 0.07971183 -0.12663764 0.08499044 0.045820422
0.046841346 0.022138052 0.05601123 0.040417276 0.060303345 0.0068350276 0.1361461 -0.07447262
0.011152896 -0.009924181 -0.073335245 0.10586518 -0.039941385 -0.03477257 0.1783976 -0.03565732
0.016515944 -0.016648227 0.016774261 0.015817853 -0.0389363 0.017965082 0.08540569 0.023517467
0.052888203 -0.05955708 0.023798058 -0.040828295 -0.102248706 -0.0050855214 0.10741758 -0.08992541
0.025950579 -0.013658897 -0.057551384 0.08820577 -0.0057073333 -0.10980096 0.0067801094 0.024850883
0.04691282 0.022057228 0.09240128 -0.08911249 -0.027988294 0.07553694 -0.0061153355 -0.0049567795
-0.040086668 -0.010671042 -0.014520391 -0.013078044 -0.09597092 -0.0050862115 -0.13152748 0.03640383
-0.03974794 0.09749084 0.056747794 -0.050744895 0.056723755 -0.0120058935 0.023022227 -0.043325063
0.05106727 -0.10327247 -0.015099929 -0.011870895 0.036471862 0.065578654 0.07807688 0.11163732
00000000: 360d 6bbd c047 a03d a2a5 563d c6f2 a1bc
00000010: df25 4abd dae8 62bc 61b8 b43c 4f28 343d
00000020: 0e02 0d3d 4d6c 2ebc 002c a13d d793 553d
00000030: 2d19 9f3d 9a29 8e3d 20f0 d4bd 62a2 073d
00000040: 0e0d 893d 0181 943d 62dd 30bc 1f76 a23d
00000050: 265a b1bd 62b1 233d 5052 94bd 4b98 03bd
00000060: cc49 d43c 27dc 153c 2ff5 87bc b808 953c
00000070: e730 b23d 9ed4 03bb f468 6f3d b479 6e3d
00000080: 786b 773d 7016 333d 3ac0 bcbc 10fa bbba
00000090: 2a7c 193e 5626 9d3b 4bd6 94bc ac9c 643d
000000a0: b6ab a33d 7702 d93c 4456 2cbd ece1 f33b
000000b0: 87dd 74bd d818 a1bc 006f 233d 49c8 1abe
000000c0: 3b6c 72bd 12c7 9dbc 9b62 7dbd 0285 dc3c
000000d0: ece7 1a3c eca0 00bc f224 bc3d 28ab dabc
000000e0: 2144 7cbd ebc3 573d 2d8d 863d 44f3 16bd
000000f0: b3df 5bbd 55d6 433d 1562 053d cfcd e1bc
00000100: 8f94 4f3c e189 913d 5ab0 923d 2484 b23d
00000110: e0c6 aa3c ffd7 90bb 7c7c b03c 6787 b93d
00000120: 0bdb 9abd f4c8 5abd 5f0e ccba cd49 81bb
00000130: 2277 9cbc e40c e33d faad b43d e328 273d
00000140: f444 993d 330f b63d 5580 a83d 4f14 a4bd
00000150: 9480 5fbd 7760 92bd 3720 c93b 1f57 923c
00000160: 5384 193d 5674 59bd d187 79bd b23d 4e3d
00000170: 2174 a33d d715 1fbd f225 f53b b788 9b3d
00000180: 140f 123e ba0d c63c 073f 173e 2fb3 493d
00000190: c137 fdbc 4fb0 1ebd d188 42bb 68c9 14bd
000001a0: 509c 69bd c32b 5f3c 5e22 c03d 034c 12bd
000001b0: 5f51 cc3d b95e c23d cc32 ccbd 09c1 99bd
000001c0: 8105 813d 34bc 6e3d 47e4 9cbd c0c1 7bbd
000001d0: d8d4 7b3d 197f 9b3c 279a 623d fcff 9f3d
000001e0: eedc 4abd 094a 3dbd 7d42 ba3d 708c 6ebd
000001f0: 0013 adbc 5179 a1bd bd28 9a3d abd2 81bc
00000200: 5b09 cb3d 061d 003c bf2c 2c3b 473d 8bbd
00000210: bf9f 923d b54f 823d 6551 aa3d 8677 873c
00000220: 1e4f 5bbc fdc9 a8bd 9fa4 7ebd 6056 73bd
00000230: 2df8 093d 0718 5d3d 2342 82bd fcf4 cb3a
00000240: d631 0f3c 99d7 c93d 1d08 e5bc 3601 1d3d
00000250: 5a6f 533c 56f3 593d 3a22 13be bf60 3a3d
00000260: 68a9 8b3d 3d41 b4bd a1ca 16bd a054 413d
00000270: 1e87 03bd f0ce 30bd 26f7 ba3c 9cd2 1ebd
00000280: b13a e53c 27d6 8cba ca37 bc3d a310 aebd
00000290: c489 af3d 8ce5 993d 7615 73bd f5b1 95bd
000002a0: d7ee 723d 9ce7 babb 2e3d 573d 9c98 a03d
000002b0: 363d 663d 475e 663d df65 b83d 6238 a8bd
000002c0: ab81 b43c 8ec6 fdbc 3f71 af3d 23e6 293a
000002d0: f53f a33d 4cad 01be 780f ae3d 32ae 3b3d
000002e0: b6dc 3f3d dc5a b53c 086c 653d 968c 253d
000002f0: a400 773d 5ef8 df3b e269 0b3e 1a85 98bd
00000300: a3ba 363c 0899 22bc ca30 96bd d8cf d83d
00000310: 9499 23bd af6d 0ebd dcad 363e 690d 12bd
00000320: 724c 873c dd61 88bc 2d6a 893c 7194 813c
00000330: ab7b 1fbd 822b 933c 2ee9 ae3d b4a7 c03c
00000340: 4da1 583d 20f2 73bd 25f4 c23c 923b 27bd
00000350: c567 d1bd 72a4 a6bb c0fd db3d d02a b8bd
00000360: 4f96 d43c 91c9 5fbc 00bb 6bbd 3aa5 b43d
00000370: 9504 bbbb 53df e0bd ae2b de3b 1494 cb3c
00000380: a827 403d 5cb1 b43c e23c bd3d 9c80 b6bd
00000390: b547 e5bc 1cb3 9a3d 2763 c8bb 7b6c a2bb
000003a0: eb31 24bd 98d5 2ebc efe6 6dbc 4b45 56bc
000003b0: 678c c4bd 3caa a6bb 24af 06be 2f1c 153d
000003c0: bcce 22bd 47a9 c73d 6070 683d e1d9 4fbd
000003d0: 2b57 683d 5eb4 44bc 1c99 bc3c 9f75 31bd
000003e0: ea2b 513d 8480 d3bd b165 77bc 247e 42bc
000003f0: 8563 153d 1a4e 863d c5e6 9f3d 1ba2 e43d

fc2.bias f4 [128]
0.085160255 -0.07360656 0.0582872 -0.032533173 -0.008362155 0.07397721 0.0057321354 -0.071350105
-0.07164766 0.07275788 0.015746202 0.0021338826 0.008738022 0.066309735 0.05614027 0.010677757
0.058722135 -0.027151246 0.007805389 -0.071070656 -0.06631862 0.058105767 0.010643816 0.054314967
0.068491966 -0.07560788 -0.077070616 -0.057242643 0.05169418 0.06285149 -0.022544865 0.08826937
0.08266188 -0.031378463 -0.06415668 -0.035947315 0.075968914 0.09268038 -0.08508427 0.06257637
0.06139348 -0.021382995 -0.013996051 -0.031226613 0.059866805 -0.05716769 -0.068357445 -0.060683947
-0.08639204 0.07713718 -0.06044102 -0.02098961 -0.076019794 -0.012845878 -0.060345225 0.01852521
0.04225904 -0.014382412 -0.032771382 0.0838957 0.03760649 0.08241617 -0.03513323 -0.060494047
0.078548834 -0.040897567 -0.06201469 -0.054616544 -0.01653607 -0.015001793 0.06652471 -0.017446585
0.012982264 -0.06795518 0.06656186 -0.039421815 0.07501449 0.025210151 0.06238074 0.041290484
0.029081086 -0.0313802 -0.023550296 -0.04379372 0.006185678 -0.00018853853 -0.06555551 -0.006375533
0.05594018 0.0773457 0.030596478 -0.06685312 0.00014456431 0.08170579 0.08339346 -0.0335515
-0.079966396 0.026813388 0.042285323 -0.04245773 0.011242966 0.038429752 -0.00041892737 -0.021634465
-0.028212914 0.039499708 0.027652394 -0.051274706 0.013063091 0.0038012986 -3.4032622e-05 0.085157976
0.07375804 0.062407408 0.020518044 -0.023673598 -0.013214795 0.08067823 0.04200632 0.05358899
-0.072907776 0.011990994 0.011359089 -0.07301537 -0.08563548 0.08172557 -0.043990567 0.07780647
00000000: 8068 ae3d 09bf 96bd 8fbe 6e3d 8141 05bd
00000010: 6c01 09bc 5d81 973d a3d4 bb3b 0120 92bd
00000020: 02bc 92bd 1502 953d 2efe 803c 9cd8 0b3b
00000030: ec29 0f3c 66cd 873d 57f3 653d c2f1 2e3c
00000040: 9f86 703d 4a6c debc 59c4 ff3b 7e8d 91bd
00000050: 0fd2 87bd 5000 6e3d 6663 2e3c 5f79 5e3d
00000060: 8445 8c3d 4ed8 9abd 33d7 9dbd 4377 6abd
00000070: 47bd 533d 48b8 803d 02b0 b8bc 92c6 b43d
00000080: a24a a93d b486 00bd 9464 83bd 7e3d 13bd
00000090: 9795 9b3d 36cf bd3d a940 aebd 0a28 803d
000000a0: bb77 7b3d 642b afbc b14f 65bc f4ce ffbc
000000b0: e536 753d ab28 6abd fdfe 8bbd bb8f 78bd
000000c0: 4fee b0bd 19fa 9d3d 0191 77bd 67f2 abbc
000000d0: 44b0 9bbd 8477 52bc 8e2c 77bd 2ec2 973c
000000e0: d117 2d3d 35a4 6bbc 493b 06bd 82d1 ab3d
000000f0: 4309 1a3d cfc9 a83d dde7 0fbd 9bc8 77bd
00000100: 36de a03d 3584 27bd 1e03 7ebd 99b5 5fbd
00000110: a776 87bc 15ca 75bc 1b3e 883d 24ec 8ebc
00000120: 90b3 543c 162c 8bbd 9651 883d c578 21bd
00000130: 32a1 993d 8585 ce3c f282 7f3d 3620 293d
00000140: 753b ee3c 8688 00bd 8dec c0bc 0b61 33bd
00000150: 3ab1 ca3b 6db2 45b9 f841 86bd d9e9 d0bb
00000160: 8821 653d 6c67 9e3d 77a5 fa3c 4aea 88bd
00000170: 3096 1739 5d55 a73d 31ca aa3d 4c6d 09bd
00000180: 6cc5 a3bd c0a7 db3c 6033 2d3d 28e8 2dbd
00000190: 6b34 383c 8468 1d3d 7ba3 dbb9 c33a b1bc
000001a0: c51e e7bc 72ca 213d 4687 e23c 6d05 52bd
000001b0: 9306 563c 351f 793b 40be 0eb8 4e67 ae3d
000001c0: 750e 973d e99e 7f3d 7515 a83c 22ef c1bc
000001d0: de82 58bc a13a a53d d20e 2c3d 2180 5b3d
000001e0: ac50 95bd e075 443c 791b 3a3c 1589 95bd
000001f0: a861 afbd bc5f a73d 742f 34bd 0059 9f3d

reg_head.weight f4 [1, 128]
0.073065616 0.11776053 0.08393254 0.059339844 0.10201164 -0.12482221 0.06397865 0.035484694
-0.023857284 0.061974775 -0.091585435 -0.14512323 -0.12314315 -0.09571775 0.092110544 0.11971463
0.050110944 0.0677018 -0.07175853 0.05257955 -0.18111163 0.024267452 0.13367076 -0.17081615
-0.086238205 0.020174908 0.027472666 -0.11828701 0.04389939 -0.123460025 0.10292629 0.054285754
-0.08313237 -0.15850906 0.08479442 0.09377071 0.018012328 0.038362917 0.06981599 -0.17828411
0.116953224 -0.1972902 -0.14606768 0.049348976 0.06913443 -0.1783495 -0.17053759 0.029890513
0.08284575 0.046347972 -0.12281638 0.075365804 0.0936307 0.04156227 -0.060087938 -0.14610448
-0.12752736 -0.08724747 0.099536374 0.03829113 0.1558551 -0.12615752 -0.13345236 -0.11702278
0.057794575 0.08152911 -0.1749842 -0.11288794 -0.14198002 0.104722895 0.08015402 0.13058247
0.035701443 0.04488096 -0.07673605 0.04243782 -0.08864416 0.12715295 0.10383453 -0.12724507
-0.19406237 -0.18216206 -0.07133846 -0.17514566 -0.013252829 -0.10647439 0.15862437 0.061242446
0.097237036 0.089671254 -0.040069833 0.071061485 0.12094443 0.0329692 -0.09823943 0.06605026
-0.061751343 0.08697674 0.024866039 0.034149095 0.15540178 -0.09601399 0.029405624 -0.14753935
0.093933195 -0.13201986 -0.164753 0.11097031 -0.21691196 -0.13683097 0.111026905 0.09985781
-0.11214944 -0.041325063 0.075441144 0.10506061 -0.019655464 0.053998124 -0.13049065 -0.1154953
-0.08541888 0.09037435 0.109365284 0.11821707 0.08596888 0.04259653 0.09660846 -0.058084097
00000000: 6da3 953d 6f2c f13d d3e4 ab3d 560e 733d
00000010: 7beb d03d c9a2 ffbd 3d07 833d 6658 113d
00000020: 5a70 c3bc 43d9 7d3d 2591 bbbd 2f9b 14be
00000030: 7a32 fcbd ab07 c4bd 74a4 bc3d f22c f53d
00000040: 2241 4d3d 3ea7 8a3d 23f6 92bd a75d 573d
00000050: 5475 39be 89cc c63c fde0 083e 6eea 2ebe
00000060: a89d b0bd d945 a53c 5b0e e13c 7640 f2bd
00000070: d9cf 333d 9cd8 fcbd 05cb d23d bd5a 5e3d
00000080: 4e41 aabd 3350 22be b2a8 ad3d dc0a c03d
00000090: 978e 933c 6f22 1d3d b0fb 8e3d 1c90 36be
000000a0: 2c85 ef3d 7106 4abe c492 15be 2722 4a3d
000000b0: 5a96 8d3d 40a1 36be 68a1 2ebe f3dc f43c
000000c0: 08ab a93d 5fd7 3d3d 2787 fbbd 6359 9a3d
000000d0: 74c1 bf3d 333d 2a3d c51e 76bd 6a9c 15be
000000e0: 8896 02be cdae b2bd bad9 cb3d 29d7 1c3d
000000f0: 7b98 1f3e 702f 01be bca7 08be a4a9 efbd
00000100: 01ba 6c3d bcf8 a63d 0f2f 33be cb31 e7bd
00000110: 3663 11be f578 d63d ca27 a43d 69b7 053e
00000120: ad3b 123d 19d5 373d ca27 9dbd 48d3 2d3d
00000130: 128b b5bd 6234 023e 33a7 d43d 884c 02be
00000140: 49b8 46be b188 3abe e619 92bd 6259 33be
00000150: 6522 59bc 3f0f dabd 6d6e 223e 5cd9 7a3d
00000160: 3624 c73d 90a5 b73d 4420 24bd af88 913d
00000170: b7b1 f73d b60a 073d c131 c9bd 5c45 873d
00000180: faee 7cbd dc20 b23d ddb3 cb3c ecdf 0b3d
00000190: a521 1f3e fca2 c4bd 10e4 f03c 8e14 17be
000001a0: 0c60 c03d 3730 07be 03b5 28be 6744 e33d
000001b0: 2b1e 5ebe 6b1d 0cbe 1362 e33d 4082 cc3d
000001c0: 9bae e5bd 7844 29bd e380 9a3d 042a d73d
000001d0: 7f04 a1bc 232d 5d3d 579f 05be cd88 ecbd
000001e0: 18f0 aebd 3016 b93d e8fa df3d cb1b f23d
000001f0: 7410 b03d b379 2e3d a8da c53d 97e9 6dbd
