grasp_placement/models/run_seed_6749/stability_net.pth (torch, 25284 bytes, 5 tensors)

fc1.weight f4 [64, 21]
0.07427979 0.119581096 -0.22611684 0.09736403 0.13819188 0.15958105 -0.103349164 -0.028472861
0.0885049 -0.17458199 -0.15042996 0.23047747 -0.25490522 0.017810382 0.0127543 -0.06435197
0.056195043 0.082895204 0.04478655 -0.39099666 -0.16050516 0.12981671 0.1477884 -0.36901093
-0.12805298 0.05041572 -0.091168724 0.17155957 0.0045940736 0.14308697 -0.052578155 -0.14807719
0.15321109 0.058753703 0.22743039 0.30739662 0.19343582 0.0041419305 -0.17797053 -0.23513879
0.08579224 0.096572466 0.049415175 0.06672282 -0.24472488 0.107568145 -0.112917244 0.2209799
-0.32998824 0.09492255 -0.14611489 -0.04684403 0.18363318 0.08781586 -0.053575244 -0.025165193
-0.21141365 0.24671933 -0.0707944 0.036435775 -0.053037483 0.010520126 0.25406533 -0.1026669
-0.10449252 0.053853195 -0.08890231 0.19813094 -0.14310724 0.29550707 0.115535505 -0.13023414
-0.10260049 -0.096248105 0.3517732 0.25405255 0.2796189 -0.0146725215 0.07868288 -0.07989779
-0.34549195 0.032345045 -0.07594778 -0.19655702 0.0471156 -0.059775062 -0.10903103 0.05976009
0.028952034 -0.20340432 -0.27061358 -0.11009413 0.071833834 0.01434385 0.2181774 -0.2681427
-0.046983395 0.22855912 0.031281922 -0.036707092 0.12991197 -0.1943887 0.1802697 0.17976353
-0.057267193 -0.2517164 0.11409038 -0.02803456 -0.03395508 0.03968802 0.05781472 0.07858132
-0.16904217 0.15858947 -0.08687351 -0.003205209 -0.08787961 -0.095633015 -0.066562966 -0.066979155
-0.09263725 0.23528871 0.036442067 -0.06296005 0.26059327 -0.42475262 0.046992756 0.14395891
-0.07620909 0.09967327 -0.13384973 -0.0653282 0.10153607 0.0045535536 -0.15294823 0.056279905
0.02608448 0.16930224 0.075991325 0.2339712 0.064410456 -0.11865294 -0.17113978 -0.009346029
0.26730955 -0.27787647 0.12894414 0.11052138 -0.08255585 0.0041798996 0.19992428 -0.025945973
-0.2177423 0.10663442 -0.14987974 -0.26944384 0.20634215 -0.05208672 0.090509646 0.23400822
0.23021425 -0.08680337 0.15839283 0.22225232 0.024674768 -0.10616053 -0.21422563 -0.24325195
0.097796865 -0.102020614 -0.19448599 -0.3110014 0.14729783 -0.065461345 0.1241227 -0.20924734
-0.058508 -0.24586114 0.037381884 -0.27672136 0.07584279 0.3504629 0.023199216 0.19288267
-0.046921875 0.29070765 0.257039 0.0002116969 0.013759161 -0.020446578 -0.08249285 -0.05335073
0.22940326 0.098085895 0.03027389 0.1562453 -0.06315525 -0.12281391 -0.07184094 -0.0898021
0.30591094 0.04676484 -0.31360066 -0.27441674 -0.118657514 -0.15142332 -0.14532171 0.022674829
0.1896886 -0.2703248 -0.1109968 0.22550924 -0.05135584 0.1168993 -0.09835982 0.25296783
0.095968395 0.02669752 -0.006639478 -0.060331713 0.030724648 -0.1513264 -0.26625252 -0.032099597
-0.1439143 0.04485016 -0.055299044 -0.26403004 0.10618167 0.12101277 0.2812656 0.15397236
-0.06341585 0.062710695 0.2059681 -0.17493533 0.18083005 -0.16368799 -0.1398781 0.035551112
-0.07731988 0.11800273 -0.13371766 -0.1227663 -0.07912995 0.05194112 -0.055274762 -0.072791144
-0.01466804 -0.09413285 -0.0814839 0.42958444 0.1942002 0.008902497 0.21390228 -0.21128425
00000000: 0120 983d efe6 f43d 2c8b 67be cb66 c73d
00000010: 2c82 0d3e 3769 233e baa8 d3bd eb3f e9bc
00000020: 0f42 b53d 9fc5 32be 500a 1abe 4902 6c3e
00000030: f082 82be 14e7 913c 69f7 503c f7ca 83bd
00000040: c62c 663d f6c4 a93d 1a72 373d b730 c8be
00000050: 775b 24be acee 043e d855 173e 00ef bcbe
00000060: 5220 03be b780 4e3d abb6 babd 50ad 2f3e
00000070: e289 963b 6485 123e 315c 57bd 8ca1 17be
00000080: 5ee3 1c3e b9a7 703d 83e3 683e 1763 9d3e
00000090: 0a14 463e 08b9 873b e83d 36be 39c8 70be
000000a0: d8b3 af3d c9c7 c53d 9167 4a3d f9a5 883d
000000b0: 2999 7abe b04c dc3d 2841 e7bd 8e48 623e
000000c0: 38f4 a8be c166 c23d 249f 15be 87df 3fbd
000000d0: 560a 3c3e cdd8 b33d b771 5bbd 3c27 cebc
000000e0: d27c 58be fea3 7c3e a8fc 90bd ae3d 153d
000000f0: d53d 59bd 9b5c 2c3c da14 823e 0643 d2bd
00000100: 2d00 d6bd 2b95 5c3d 6a12 b6bd d6e2 4a3e
00000110: b48a 12be b44c 973e e19d ec3d 195c 05be
00000120: 3520 d2bd ba1d c5bd 9e1b b43e 2d13 823e
00000130: 352a 8f3e 0465 70bc 7d24 a13d 74a1 a3bd
00000140: 52e4 b0be 3d7c 043d 828a 9bbd 3e46 49be
00000150: 4afc 403d b2d6 74bd a94b dfbd ffc6 743d
00000160: d12c ed3c 3949 50be dd8d 8abe 0879 e1bd
00000170: 9e1d 933d 7802 6b3c e569 5f3e 004a 89be
00000180: a971 40bd 670b 6a3e 7921 003d 2d5a 16bd
00000190: a507 053e d50d 47be 9f98 383e ee13 383e
000001a0: 0191 6abd f9e0 80be 38a8 e93d bca8 e5bc
000001b0: 7b14 0bbd e88f 223d 21cf 6c3d 3eef a03d
000001c0: 6419 2dbe 4765 223e bdea b1bd 7c0e 52bb
000001d0: 3afa b3bd 3edb c3bd 2a52 88bd 5e2c 89bd
000001e0: 99b8 bdbd 86ef 703e 4744 153d 33f1 80bd
000001f0: 7b6c 853e 2d79 d9be 7a7b 403d f769 133e
00000200: 8313 9cbd 8021 cc3d e70f 09be cbca 85bd
00000210: 25f2 cf3d fa35 953b 769e 1cbe c285 663d
00000220: 1faf d53c 915d 2d3e 57a1 9b3d 2596 6f3e
00000230: a1e9 833d 5000 f3bd 443f 2fbe 1620 19bc
00000240: ccdc 883e d345 8ebe ef09 043e 0959 e23d
00000250: 0b13 a9bd 8af7 883b f3b8 4c3e a68c d4bc
00000260: d6f7 5ebe 2663 da3d 137a 19be 8bf4 89be
00000270: 5b4b 533e e258 55bd 1f5d b93d da9f 6f3e
00000280: 49bd 6b3e f7c5 b1bd bb31 223e 1d96 633e
00000290: bd22 ca3c b16a d9bd f75d 5bbe 0a17 79be
000002a0: b949 c83d 2ff0 d0bd 5627 47be 933b 9fbe
000002b0: 3ed5 163e 9910 86bd 0b34 fe3d ef44 56be
000002c0: 16a6 6fbd 06c3 7bbe bf1d 193d 6cae 8dbe
000002d0: 7753 9b3d e06f b33e 480c be3c 0983 453e
000002e0: 2731 40bd a2d7 943e 9e9a 833e f4fa 5d39
000002f0: 1b6e 613c 957f a7bc 03f2 a8bd 4c86 5abd
00000300: b0e8 6a3e 42e1 c83d f300 f83c c5fe 1f3e
00000310: 8a57 81bd dc85 fbbd 5821 93bd 2aea b7bd
00000320: 5ca0 9c3e 7d8c 3f3d 4490 a0be 5a80 8cbe
00000330: b602 f3bd b70e 1bbe 37cf 14be 90c0 b93c
00000340: ba3d 423e 0368 8abe 4a52 e3bd e5eb 663e
00000350: 805a 52bd e668 ef3d e070 c9bd 0085 813e
00000360: 148b c43d c2b4 da3c fa8f d9bb 631e 77bd
00000370: 42b2 fb3c 4ff5 1abe 4052 88be de7a 03bd
00000380: 455e 13be cdb4 373d 4081 62bd f22e 87be
00000390: c775 d93d 8bd5 f73d 0b02 903e eeaa 1d3e
000003a0: 2be0 81bd 776e 803d 4de9 523e 3f22 33be
000003b0: 832b 393e d39d 27be 343c 0fbe 0b9e 113d
000003c0: e359 9ebd 6aab f13d 48ed 08be e66c fbbd
000003d0: e20e a2bd 36c0 543d ca67 62bd 8613 95bd
000003e0: 3852 70bc b9c8 c0bd 08e1 a6bd 7ef2 db3e
000003f0: 6bdc 463e c7db 113c 3309 5b3e e65a 58be

fc1.bias f4 [64]
0.05001847 -0.08007107 -0.062162645 -0.10989385 -0.025531232 0.013221434 0.060003825 -0.03545937
-0.052332 -0.031056345 0.24825493 0.06001767 0.16574927 0.13292281 -0.0437434 -0.16208713
0.081315294 -0.10613765 -0.14933947 -0.15646465 0.019243663 -0.06721919 -0.021028327 0.14396363
0.123246126 0.041259732 0.12584585 -0.12528671 -0.11469796 0.1240713 -0.041293655 -0.2103072
0.0063017574 -0.13714805 0.012044572 0.17185156 -0.045361184 0.110940196 0.14333232 0.10340779
0.08164999 0.06283934 -0.029117547 -0.13495353 0.030285703 0.00904808 0.19932652 0.015835317
0.10509986 -0.13679916 -0.15792474 -0.12402089 0.038836323 -0.18975784 0.022530092 -0.07202195
0.028810922 -0.027999135 0.051324796 -0.030556373 -0.13555244 0.17365862 0.18748313 0.08422506
00000000: 2be0 4c3d 4dfc a3bd 429e 7ebd 0710 e1bd
00000010: e026 d1bc b79e 583c 92c6 753d d83d 11bd
00000020: 145a 56bd e069 febc 8a36 7e3e 17d5 753d
00000030: 2dba 293e eb1c 083e 482c 33bd 2bfa 25be
00000040: a288 a63d b25e d9bd 72ec 18be 4538 20be
00000050: e3a4 9d3c 37aa 89bd 9943 acbc 346b 133e
00000060: 7768 fc3d f7ff 283d bcdd 003e 294b 00be
00000070: c4e6 eabd 1819 fe3d 8923 29bd c55a 57be
00000080: f97e ce3b 8a70 0cbe 9956 453c dbf9 2f3e
00000090: a6cc 39bd 9d34 e33d b5c5 123e 77c7 d33d
000000a0: 1c38 a73d e9b1 803d ec87 eebc 4231 0abe
000000b0: b919 f83c 663e 143c 401c 4c3e 11b9 813c
000000c0: 983e d73d 1415 0cbe 06b7 21be aafe fdbd
000000d0: d612 1f3d e14f 42be 0791 b83c 3e80 93bd
000000e0: e204 ec3c 715e e5bc f339 523d 5c51 fabc
000000f0: 42ce 0abe 91d3 313e 94fb 3f3e 307e ac3d

fc2.weight f4 [64, 64]
0.11997607 -0.033146586 0.13301007 0.15288658 -0.038580906 0.055851 -0.06306079 0.0073557086
0.11372012 -0.015645089 -0.08750547 0.12713096 -0.023934929 0.16055728 0.01287889 0.032879952
-0.064589955 0.0714239 0.12707229 0.07894633 0.11004686 0.08770989 0.08367798 0.06624698
0.04018947 -0.046576902 -0.06877336 0.18887623 0.18860835 0.03998328 0.026905041 -0.012948353
-0.10741785 0.04982345 0.08480309 0.11301952 0.1498719 0.13264033 0.09758736 0.10488024
-0.092228174 0.056637388 0.13538359 0.14760892 0.04247846 -0.17132017 -0.047140807 0.11017904
0.09938902 0.0568059 0.05321254 0.076244354 0.098986514 -0.10973142 -0.006623077 0.061445154
-0.10673759 0.15072234 -0.086257756 0.08293706 0.14697301 -0.07002645 -0.047557663 -0.07157364
-0.0022464048 0.059586126 -0.061002165 0.18556719 0.13513157 0.052982274 0.14564349 0.06816715
0.17082095 0.18567502 0.1521628 -0.013390375 -0.10567279 0.1338601 0.05281616 0.15186852
0.089231156 0.028300056 0.06245309 -0.002990626 -0.031083643 0.20144966 0.1543887 -0.036872286
0.027595088 0.09645883 0.117799625 0.21909593 0.18997662 0.014971481 -0.08238758 0.18479413
-0.120639056 0.15808883 -0.04665621 0.14512512 0.18634601 -0.07896209 0.13814251 -0.037919838
0.102903225 -0.07385267 0.040568408 -0.012068577 0.071365975 -0.062468313 0.15149322 0.097698756
0.058889367 -0.015947232 -0.071100846 0.06604123 0.13688624 -0.0020218194 0.14145514 0.13478419
-0.03279339 0.1567654 -0.018188247 0.053285286 0.2088818 0.03154808 0.12832484 0.055663228
0.044935048 0.0153410435 0.09017266 -0.109729275 0.08793558 -0.0108843595 -0.0005813539 -0.10797912
-0.028302863 -0.0371314 0.04911019 0.09054658 0.09760964 -0.027006999 0.097952664 0.09197815
0.07266468 -0.080674395 -0.03592436 -0.03433965 -0.11121826 -0.08023609 -0.015174121 -0.12231465
-0.019685477 -0.075659186 -0.09032251 0.07367338 0.002477184 -0.045767814 0.02040331 -0.0069847703
0.021037191 0.037491098 -0.11400682 -0.073201105 -0.040867373 -0.033950225 -0.027402341 -0.08216487
-0.12348685 0.0051105022 -0.05156374 -0.09404726 -0.058175474 0.07182346 -0.07491569 -0.0020142943
-0.11399341 -0.10166551 -0.08770147 0.0916812 -0.019817248 -0.1111815 0.031889707 -0.039947942
0.05673769 -0.0012883991 0.11068727 -0.06812894 -0.055357784 0.0067966133 -0.036710814 -0.04993926
0.0992951 0.08417862 0.01707094 0.034828797 0.069636546 0.060117517 -0.008864025 -0.09287854
-0.0027121555 0.10950142 0.06573265 0.08066433 -0.1661663 0.023184065 0.14217871 0.15362711
0.03313811 0.16179264 0.009695889 0.05457309 0.10912458 0.1562118 -0.0024208853 -0.08972578
0.1320497 0.036391485 0.035256542 0.17273094 0.015382829 0.07086353 0.022080604 0.024273735
-0.11374705 0.015334083 -0.02082368 0.1633946 0.19740832 -0.011875808 0.021943865 -0.0991719
-0.048895113 0.041363936 0.07356892 0.12416245 0.059780527 -0.10263464 0.15697396 0.028359538
0.054708805 -0.001882056 -0.066622086 0.051210824 0.12913884 -0.04295264 0.08197395 -0.040800035
-0.093596786 0.098991364 0.066814214 0.16845037 0.06021873 0.034125913 -0.0069731525 -0.06563301
00000000: 04b6 f53d b7c4 07bd cb33 083e 4d8e 1c3e
00000010: 0307 1ebd 05c4 643d 0426 81bd 2808 f13b
00000020: 18e6 e83d 212a 80bc 1136 b3bd 9e2e 023e
00000030: 2f13 c4bc 2169 243e fb01 533c 21ad 063d
00000040: bd47 84bd b246 923d 3d1f 023e 9dae a13d
00000050: 4060 e13d 3ea1 b33d 5c5f ab3d 7fac 873d
00000060: b79d 243d 6cc7 3ebd 0cd9 8cbd c568 413e
00000070: 8c22 413e 82c5 233d f667 dc3c 5425 54bc
00000080: e4fd dbbd ad13 4c3d 3ead ad3d c776 e73d
00000090: 0578 193e ded2 073e e2db c73d 74cb d63d
000000a0: 20e2 bcbd 9bfc 673d ffa1 0a3e cb26 173e
000000b0: e5fd 2d3d 8e6e 2fbe b816 41bd 8ca5 e13d
000000c0: 788c cb3d 4ead 683d 64f5 593d 0026 9c3d
000000d0: 71b9 ca3d deba e0bd 6606 d9bb eaad 7b3d
000000e0: 3d99 dabd f556 1a3e e8a7 b0bd e8da a93d
000000f0: 1880 163e 076a 8fbd d3cb 42bd 3395 92bd
00000100: 6b38 13bb 9510 743d 68dd 79bd 5305 3e3e
00000110: ee5f 0a3e f103 593d 9123 153e 389b 8b3d
00000120: b0eb 2e3e 9821 3e3e 91d0 1b3e 4e63 5bbc
00000130: fa6a d8bd 9f12 093e c255 583d 6c83 1b3e
00000140: d3be b63d 85d5 e73c d0ce 7f3d 61fe 43bb
00000150: 20a3 febc d248 4e3e 1218 1e3e 6507 17bd
00000160: 180f e23c 358c c53d ee40 f13d af5a 603e
00000170: 3b89 423e f14a 753c d2ba a8bd ac3a 3d3e
00000180: 9c11 f7bd 0ae2 213e 951a 3fbd ae9b 143e
00000190: 7dd1 3e3e e0b6 a1bd 3b75 0d3e d551 1bbd
000001a0: edbe d23d 1240 97bd 0f2b 263d 48bb 45bc
000001b0: 5328 923d c6de 7fbd 0a21 1b3e 4916 c83d
000001c0: fa35 713d c5a3 82bc 529d 91bd a040 873d
000001d0: e82b 0c3e 8080 04bb 9ed9 103e de04 0a3e
000001e0: 5d52 06bd 1c87 203e 85ff 94bc ac41 5a3d
000001f0: 1ce5 553e 8f38 013d 9667 033e 20ff 633d
00000200: d00d 383d 0059 7b3c 72ac b83d beb9 e0bd
00000210: 9217 b43d 5054 32bc 0066 18ba 2824 ddbd
00000220: 68db e7bc 1817 18bd c427 493d 7c70 b93d
00000230: 90e7 c73d c83d ddbc 689b c83d 0a5f bc3d
00000240: 38d1 943d 9e38 a5bd 6c25 13bd bca7 0cbd
00000250: 66c6 e3bd d252 a4bd e09c 78bc 1a80 fabd
00000260: 7043 a1bc 34f3 9abd 02fb b8bd 12e2 963d
00000270: 4058 223b 0877 3bbd d824 a73c 80e0 e4bb
00000280: 3056 ac3c 4490 193d 687c e9bd 76ea 95bd
00000290: 8c64 27bd 640f 0bbd e07a e0bc 0e46 a8bd
000002a0: ace6 fcbd 0076 a73b 8034 53bd da9b c0bd
000002b0: 6849 6ebd 2e18 933d 666d 99bd 4002 04bb
000002c0: 6075 e9bd 0236 d0bd d49c b3bd 5ac3 bb3d
000002d0: c857 a2bc 20b3 e3bd c89e 023d 74a0 23bd
000002e0: c865 683d 80df a8ba 02b0 e23d 3087 8bbd
000002f0: d8be 62bd 20b6 de3b 145e 16bd 1c8d 4cbd
00000300: 3b5b cb3d d765 ac3d 5bd8 8b3c a4a8 0e3d
00000310: 9b9d 8e3d c93d 763d 6a3a 11bc 1b37 bebd
00000320: 6bbe 31bb 4842 e03d d79e 863d 5733 a53d
00000330: 8027 2abe 82ec bd3c 4c97 113e 6d50 1d3e
00000340: d4bb 073d f8ac 253e 82db 1e3c 0888 5f3d
00000350: b57c df3d fcf5 1f3e b7a7 1ebb 26c2 b7bd
00000360: 0938 073e 3d0f 153d 2a69 103d 61e0 303e
00000370: 4308 7c3c e620 913d 62e2 b43c b6d9 c63c
00000380: 37f4 e8bd ce3b 7b3c 6c96 aabc ea50 273e
00000390: 6825 4a3e c092 42bc 9fc3 b33c a31a cbbd
000003a0: 3e46 48bd 3b6d 293d 4dab 963d e248 fe3d
000003b0: 6ddc 743d 1c32 d2bd c8bd 203e 4352 e83c
000003c0: 5716 603d 52af f6ba 2971 88bd 71c2 513d
000003d0: f93c 043e 1cef 2fbd f5e1 a73d f01d 27bd
000003e0: acaf bfbd fcbb ca3d e4d5 883d 417e 2c3e
000003f0: eaa7 763d 9dc7 0b3d 0b7f e4bb 996a 86bd

fc2.bias f4 [64]
-0.04558357 -0.07428897 -0.1209352 0.06365203 -0.04649934 0.047009032 0.084945776 0.061531898
0.04744296 0.1287126 0.04778712 0.019444296 -0.037590172 4.8690075e-05 0.05963382 -0.022871418
0.059133295 -0.0220985 0.044886675 -0.072167754 -0.06590305 -0.023458049 -0.11288349 -0.05633848
-0.08582651 0.019833168 -0.0015778245 0.022553165 0.016321084 0.09234156 0.09800392 0.0112057645
0.019513628 -0.0076350854 0.09066965 -0.1190178 0.03886152 0.060095605 -0.06206318 -0.115463205
0.0033314726 0.05071179 -0.047840815 -0.06747755 -0.034081534 0.024750672 -0.068063214 0.11431828
0.046615895 -0.020923523 -0.12020074 -0.02030576 0.04356226 -0.10888623 0.013187283 -0.1509582
-0.062339764 -0.09976212 0.038538065 -0.060458936 0.047315817 0.06353456 -0.11142483 -0.08189847
00000000: d6b5 3abd d124 98bd e0ac f7bd ff5b 823d
00000010: 1876 3ebd 8b8c 403d 0df8 ad3d df08 7c3d
00000020: 8d53 423d 3ccd 033e 6dbc 433d a549 9f3c
00000030: 27f8 19bd 9238 4c38 9842 743d d75c bbbc
00000040: c135 723d ea07 b5bc 17db 373d b0cc 93bd
00000050: 2ef8 86bd 182b c0bc 762f e7bd 2ec3 66bd
00000060: cfc5 afbd 2b79 a23c 01cf ceba 6ac1 b83c
00000070: cbb3 853c 921d bd3d 47b6 c83d 6298 373c
00000080: 0bdb 9f3c bd2f fabb 02b1 b93d 9bbf f3bd
00000090: 422d 1f3d cf26 763d f635 7ebd f977 ecbd
000000a0: d654 5a3b 2ab7 4f3d bbf4 43bd ab31 8abd
000000b0: 1499 0bbd ecc1 ca3c ba64 8bbd b41f ea3d
000000c0: 4ff0 3e3d cf67 abbc ce2b f6bd 4458 a6bc
000000d0: 576e 323d beff debd 790f 583c c994 1abe
000000e0: fb57 7fbd 1550 ccbd 17da 1d3d caa3 77bd
000000f0: 3bce 413d 681e 823d b432 e4bd 63ba a7bd

reg_head.weight f4 [1, 64]
0.10043225 0.170418 0.04835093 0.13970098 -0.5988523 -0.27565053 0.12798445 -0.24293965
-0.391728 0.12792479 -0.56439006 -0.32200485 0.038169976 0.07306788 0.10361126 -0.2508583
0.11628857 0.14419644 0.16738248 0.06738612 -0.4460411 -0.28757435 -0.118646994 0.09440859
0.05781983 0.24442075 0.07261187 0.0803622 -0.25119618 0.11879021 0.031042356 -0.32617584
-0.2523313 -0.4113248 0.13832763 -0.27898863 -0.22242528 0.073954515 -0.38437015 -0.36196747
-0.34674254 -0.16227083 -0.103480384 0.18395564 -0.22270827 0.08953631 0.2535516 0.04028309
0.07331692 0.08354018 -0.092820935 0.1795181 -0.2519656 -0.29480827 0.048940934 0.41930297
0.05557284 -0.023846911 0.37720433 -0.42724594 0.14624704 0.124668464 -0.45908365 0.39280346
00000000: 6caf cd3d 0e82 2e3e a00b 463d c60d 0f3e
00000010: 624e 19bf 1122 8dbe 5b0e 033e 2cc5 78be
00000020: 9390 c8be b7fe 023e de7b 10bf d2dd a4be
00000030: 1f58 1c3d 9da4 953d 2432 d43d 8070 80be
00000040: b428 ee3d 3ba8 133e 5066 2b3e bc01 8a3d
00000050: 805f e4be f23c 93be 32fd f2bd 4a59 c13d
00000060: 7cd4 6c3d 6f49 7a3e 88b5 943d f094 a43d
00000070: c99c 80be 4848 f33d 8a4c fe3c 8500 a7be
00000080: 9131 81be 2a99 d2be c2a5 0d3e 99d7 8ebe
00000090: 74c3 63be 7775 973d 2acc c4be cd53 b9be
000000a0: 3d88 b1be 532a 26be 86ed d3bd de5e 3c3e
000000b0: a30d 64be d05e b73d 84d1 813e e2ff 243d
000000c0: 2e27 963d 1d17 ab3d e718 bebd 98d3 373e
000000d0: a301 81be 1cf1 96be 4a76 483d e1ae d63e
000000e0: 59a0 633d 995a c3bc ed20 c13e fbbf dabe
000000f0: c9c1 153e 2e52 ff3d 030d ebbe 891d c93e
