grasp_placement/models/run_seed_8330/stability_net.pth (torch, 816972 bytes, 9 tensors)

fc1.weight f4 [256, 21]
00000000: 16bb 37be 3e37 0ebe be86 a2bc b67f 5dbc
00000010: 0976 d7bd 2962 513e 5e20 3bbe 0ec0 15be
00000020: fa97 bf3d 6241 60bd 7f0a c6bd d94d 31be
00000030: 4bd2 cfbc 854b d83d 9333 2abe bc4e 6fbe
00000040: b038 563e 9e76 eebd 49f4 67bd da4f 683e
00000050: da41 b33d e5ac bebd bab2 34be 2792 63be
00000060: 952a 35be e208 58be 74c8 ccbb fa48 8b3d
00000070: 58b1 94bd 343a ffbd 05a4 2a3e b2a3 413e
00000080: 9b35 57be 1952 d53d 074a 423e 35c8 fa3b
00000090: 3c46 17be 23dc 05be ab6b 6e3d ff15 54be
000000a0: a229 173c 9220 d53d 42c5 c2bc b779 2cbd
000000b0: 50e0 103e bfa4 28be f1a4 943d 224e 4f3e
000000c0: 3404 b13d 8590 e83d 9095 a33c 8811 5abd
000000d0: 65bc dbbd 6f40 083d 38f2 ac3d 706e 4d3e
000000e0: cb2c 28be 1777 1abe 582d 62bd 762d 213e
000000f0: a5b6 03be 6dd0 013e 1462 903d e6c4 b9bd
00000100: b768 99bd dcb8 33bd 383b e6bd 38dc 523e
00000110: 3280 2a3e e2ab 5cbe 2e54 f53b dc08 0b3e
00000120: 1985 503e b8ac 053e 8b59 7c3b 758e 6c3d
00000130: 4ff6 0f3e 0e48 523e b46e 22be 1369 b03d
00000140: 8b89 a3bd 20d7 593d 2f97 cb3d 062f 8d3d
00000150: 6509 34be a4b6 31be 20b5 ffbd baa5 603e
00000160: db5e 36be 2a99 503e e293 483e cdd0 303e
00000170: 4793 0fbe e22c 913c 8b2d a1bd 5456 403e
00000180: 7916 10be 8d48 db3d 4324 fc3d 7c05 af3d
00000190: 2087 1a3e 6bc1 36bd 2ddc cc3c 6973 cfbd
000001a0: 4811 213e 920b c83d e242 19be 5e87 273e
000001b0: 3a9e 033e 73f2 d4bd d75e 473d d859 0abe
000001c0: 1fcb 3d3e 0940 c03d dfe1 943d 4729 153e
000001d0: b86b 40be 88d6 173e a05f bd3d 6c0d c83c
000001e0: 05ac 4a3e c34b 843d e1a1 113e 46fe 2f3e
000001f0: ffe4 08be afba 1bbe 2da7 133e 57f8 29bd
00000200: ecef 02be f91b 1f3e e23b d63d d813 84bb
00000210: 4cd1 80bc 713c 31be 22d9 27be 3a51 2a3e
00000220: 338d 81bd 7138 7d3e 1cfa fa3d 19d8 df3d
00000230: 1b72 4fbe 1427 303e a135 553e 7204 f83d
00000240: daf0 40be 7d5b 1e3e 932f 2c3d 019f 36bb
00000250: 4172 26bd 1a3d 4fbd 7fb4 5f3e d719 60be
00000260: c936 313e a2ff a0ba 8a20 223e e3c9 7abd
00000270: d180 08be 5574 c23b b6d9 ad3d a116 8cbc
00000280: 0e38 3d3c 3c0a 603e 0d6a 3a3e 831d 98bd
00000290: 05d9 3d3e 840f 21bd e9c2 25be 8779 783d
000002a0: 10a2 3bbe eede 7e3d 1d8d 9bbb 01a4 dcbd
000002b0: 737f ebbd 8094 57be 923b 553e d28e 7a3d
000002c0: 03ad 9a3d 1227 273d 9a17 43bd 05a2 e5bd
000002d0: 87c7 483e 5390 9abd 3585 3b3e 0484 263d
000002e0: 7601 3e3e 5c05 08be 815c 8abb e70f 773d
000002f0: a2a0 debc dfac cb3c e7c3 7a3c fd50 7cbd
00000300: 1530 e5bd 40fb 39be ac05 0d3d d05a 353e
00000310: 38b7 fbbd 610c b53d c099 2abe fd04 3ebe
00000320: 05f5 9e3d ebc6 223e dc8f e5bd b708 363e
00000330: 5d88 58be 1dde 4abe 3825 9c3d 5dbe 4ebe
00000340: 453b 923d 1cb2 8bbd 6ab7 56be b005 38be
00000350: 0b58 93bd 8ced 263b 950b 60bd 365b 153e
00000360: 85ff 003e a5df 2f3e e61e 1abe 4bf3 ffbc
00000370: 8b2d f0bd c8ed 963d cfdb 393e 0fc5 01be
00000380: d8da 3a3d 2b43 1cbe d51d d93d 5a6f a63d
00000390: 33e0 6e3d 3bc7 263e 8c3c e6bd e6ed b63d
000003a0: 4359 2a3a cb34 cfbd 2a7c 57be bfe3 07be
000003b0: 425e 89bd d5f2 55be b78c dfbd 9203 a4bc
000003c0: 30ae 36bb 71ce dc3d c437 57bd b066 333e
000003d0: 4be5 6d3e a0fe 32be 638d c63c 888d 1f3e
000003e0: c222 133e d96d d63d e712 2abe 1335 40be
000003f0: ce2f 313e 1ea6 febd 6734 b43d 2c3b ac3d
-0.17942461 -0.1388826 -0.01983964 -0.013519218 -0.1052056 0.20447601 -0.18274066 -0.14624044
0.09355159 -0.054749854 -0.09669971 -0.17314853 -0.02536883 0.10561279 -0.16621237 -0.23369879
0.20920062 -0.11643718 -0.056629453 0.22686711 0.087527946 -0.09310321 -0.17646304 -0.22223721
-0.17692025 -0.21097139 -0.006249482 0.068010285 -0.07260388 -0.12462273 0.16664131 0.18910101
-0.21016543 0.104160495 0.18973552 0.007653261 -0.14772886 -0.13072257 0.05820815 -0.20711516
0.009226235 0.10406603 -0.0237757 -0.042108264 0.14148068 -0.16469096 0.072580226 0.20244649
0.0864338 0.1135569 0.019968778 -0.053239375 -0.10729293 0.033264574 0.08444637 0.2006166
-0.16423337 -0.15084492 -0.055219024 0.15739998 -0.12862642 0.12677164 0.07049957 -0.090707585
-0.07490676 -0.043877468 -0.11241764 0.2059182 0.16650465 -0.21549943 0.0074868416 0.13577598
0.20363273 0.13054168 0.003850552 0.057753045 0.14058803 0.20535299 -0.15862542 0.08613791
-0.079852186 0.053183675 0.09940945 0.06893735 -0.17581709 -0.17354828 -0.12485719 0.2193822
-0.17809622 0.20370927 0.19587663 0.17267151 -0.14021026 0.017721597 -0.07870015 0.18782932
-0.14071073 0.10707197 0.12311604 0.08545968 0.15090609 -0.04461805 0.025007332 -0.101294346
0.15729249 0.09767832 -0.1496692 0.16360232 0.12853327 -0.10397806 0.04867443 -0.13510835
0.18534516 0.09387214 0.07269644 0.14566527 -0.18791091 0.14827931 0.09246755 0.024420463
0.19792183 0.06459763 0.14221908 0.17186841 -0.13368605 -0.15207933 0.14419241 -0.0414966
-0.12786835 0.15538014 0.104606405 -0.004030686 -0.0157248 -0.17308213 -0.16391423 0.16632548
-0.0632576 0.24728562 0.12254736 0.10929889 -0.20258372 0.17202407 0.20821239 0.12110223
-0.18841878 0.15464588 0.042037558 -0.002786577 -0.040636305 -0.05059538 0.21846198 -0.21884857
0.17306055 -0.0012283216 0.15832725 -0.06122769 -0.1333039 0.005934278 0.08488791 -0.017100634
0.011549009 0.21878904 0.18204518 -0.07427504 0.18539818 -0.039321437 -0.16187634 0.060662773
-0.1832354 0.06222432 -0.0047470466 -0.10773469 -0.114989184 -0.21052742 0.20823506 0.06117136
0.075525306 0.040808745 -0.04762993 -0.112125434 0.19607364 -0.07547059 0.18312533 0.040653244
0.18555245 -0.13283294 -0.004222453 0.0603179 -0.027176205 0.024862705 0.015305496 -0.061600674
-0.111908115 -0.1816225 0.034429237 0.17710423 -0.122908056 0.08840252 -0.16660213 -0.1855659
0.077615775 0.15896194 -0.112090796 0.17776762 -0.21145768 -0.19811292 0.076242864 -0.20189805
0.07140211 -0.06821081 -0.20968404 -0.1797092 -0.07194527 0.0025471179 -0.054698545 0.14585575
0.12597473 0.17175157 -0.1505085 -0.03124394 -0.11727437 0.07369572 0.18150257 -0.12672828
0.045618862 -0.15259998 0.10601393 0.081267074 0.05831928 0.16286938 -0.11242017 0.08932094
0.00064982864 -0.10117491 -0.21043459 -0.13270472 -0.067074314 -0.20893414 -0.10915511 -0.020021234
-0.002787482 0.10781563 -0.052543417 0.17519641 0.23232 -0.17479944 0.02423734 0.15581334
0.14368728 0.104701705 -0.16608773 -0.18770246 0.17303392 -0.12434028 0.087990575 0.08409724

fc1.bias f4 [256]
00000000: 1048 1abe 962b 903d 4bf4 e6bd fcdf 8fba
00000010: c612 233c e3ac 80bd 1bd7 1cbe 76b7 283e
00000020: cb63 aa3b e54a 343e a0d6 353e 7ab7 2abe
00000030: 9a9f 4a3d 1539 72bd 5598 073d 66c1 31be
00000040: 9fc2 59bd 2c8e 993d 7d0f 66bd 5faf 283e
00000050: 6650 5d3e d9d8 d8bd 82cb 0a3e 539d 5cbc
00000060: 4128 0f3e 8b5b 093d 14b5 c1bd 484b aabc
00000070: cd98 0fbd fb61 a9bb 1675 243e 626e 39be
00000080: 9471 b13d a1eb 773d b240 643e 504f 9f3d
00000090: 1fba 5e3e c695 27be b7f8 2b3d d661 373e
000000a0: 1a42 2bbe 33b1 2e3e fd84 2abe 2986 adbd
000000b0: ec1a e8bc 7214 ae3d b737 21be 0e87 2c3e
000000c0: 9b17 153e a4f0 d0bd dcad 57bd 3ffe cabd
000000d0: 0672 33be cab9 a63d e8cf 7dbd 6add f8bd
000000e0: 0ef8 3abd 4c03 3b3e 0022 0bbb 57ed 93bd
000000f0: d8c2 383c 16b7 52be b45f 8dbd 98a2 303e
00000100: 2560 123d 43c6 933d 206f 523e 8866 093e
00000110: b165 01be 646f 873d 22dd 8a3d cb16 a7bc
00000120: bc17 0cbe f3fb 94bd 45d3 023e 4eda 693b
00000130: 2e3e 3fbe 749a b53b f445 4f3c fc3f c8bd
00000140: 7552 43be 633a 263e facd a13d fb3b d5bd
00000150: 274b 97bd 707f 14be 1d07 3f3e b6be 3abc
00000160: de90 143e 353e ecbc 2a0e 21bc 0c6f 383e
00000170: f993 3b3e 3157 4bbe e0c9 11bc 749f 8a3c
00000180: 2780 1ebe 635c 04be bcff 4e3e 421c b8bd
00000190: 8a0f c3bd d0ca 0f3e 8bc4 36b9 44da 24be
000001a0: 6123 ed3d 52b8 59be 4022 253d 80bd f53d
000001b0: 5dba 013e 4bde a5bd b271 1d3e 550e 8dbd
000001c0: c938 a03a 3ae8 44be ba02 963d 42d6 473e
000001d0: 8ed0 14be 16f3 813d 3c64 07be 53f7 2e3e
000001e0: aff1 f73c 786d 70bd 1830 a1bd d2c4 6cbd
000001f0: 8c1f 70bd 6d4c b23d 93d4 b63d b189 5e3d
00000200: 507b 4c3e 05dd a73c fc2e d0bd f15c 37be
00000210: d7ef 5a3e 4648 c3bd 0b18 43be 4408 0bbd
00000220: 280a 563e 6c0a 493e 8490 953b 99c0 0bbd
00000230: 893e dabd 5da2 51be e411 4e3e e5b8 433e
00000240: 30e8 df3d 89db fa3d 5c91 013e 1265 b53c
00000250: 1afa b63d f059 b13d e5d0 03bb 5bfd 0cbe
00000260: 7228 5a3d da5a a9bd 5637 423c 2a15 49be
00000270: 2328 17be fc37 a1bd f7cb 46be b8e1 0a3e
00000280: 7784 013c 92c4 1bbc c6a8 5f3d 9b6a 0cbe
00000290: 2802 fc3d 337b 293d 415b aa3d feaa 443e
000002a0: eeb6 29bd 0991 acbd 73c4 0abe f686 3d3e
000002b0: e1df 553d 52d3 9e3d 0ab6 643b 7eb2 db3d
000002c0: fdb2 dcbd dc5c 273e 438f c73b 24b5 1fbe
000002d0: be01 e83d eb0d 603e 7e54 f6bd 7b80 323e
000002e0: 297d f93c 211e 39be ae65 bebc e175 563e
000002f0: a8d0 0e3e b130 d03d a990 8d3d 5988 a93d
00000300: 3732 44be fea9 c63d c727 113d ef63 ba3d
00000310: 43ed cfbd 12e2 5f3b b41a 2bbe 54d5 95bb
00000320: 7c32 d7bd 32b0 943d 639f a13d e6b9 383e
00000330: 7cbd 2c3d ee6f 833c 9d92 013e 5355 403d
00000340: ecd2 e23d 4477 a43c 731b 153e f553 e1bd
00000350: 9dbc 4fbe acdc 4fbb 716a 463d 9965 3ebe
00000360: 8aca d0bd a3b1 36be 5041 0abd 7dd7 4bbc
00000370: 614d adbd 3826 3b3d 45e9 173e 9451 15bd
00000380: 23d1 bc3d fa9b 25be bab7 00be 1a77 dc3c
00000390: 1a21 3abd 9bb7 32be 39d1 0cbd 3f11 fb3d
000003a0: 13d3 0ebe 1f95 213e bfaa 15bd 8046 d0bd
000003b0: 16b8 81bd 0496 633e 8d03 b3bc ecdf 193e
000003c0: 8433 b4bc 3441 853d 96ff c03d c236 21be
000003d0: ca2a 363e 0ae1 03bd d112 aebd e102 4dbe
000003e0: ef58 e4bd 5a05 d13b e0a3 183e c10f 1bbe
000003f0: ff02 57be e2eb 8ebd fb68 2f3e 8cd9 0dbe
-0.15066552 0.07039563 -0.11277064 -0.0010976787 0.009953206 -0.062829755 -0.15316431 0.16476235
0.0051998845 0.17606695 0.17757654 -0.16671553 0.049468614 -0.05913647 0.03310426 -0.17358932
-0.05316412 0.0749782 -0.056167115 0.16473149 0.21612701 -0.105882354 0.13554195 -0.013465243
0.139802 0.033534568 -0.09458366 -0.02078785 -0.03505783 -0.005169151 0.1606029 -0.18108514
0.086642414 0.060527448 0.22290304 0.077787995 0.21750687 -0.16365728 0.04198524 0.17908415
-0.16724434 0.17059784 -0.16652294 -0.08472855 -0.02833315 0.084999934 -0.1574391 0.16848394
0.14559786 -0.102021486 -0.05265604 -0.09911775 -0.17523965 0.08140905 -0.061965853 -0.121516064
-0.04564672 0.18262976 -0.0021229982 -0.07223003 0.011276923 -0.20577654 -0.069030195 0.17249525
0.03573622 0.0721555 0.20550203 0.13418019 -0.12636448 0.06613043 0.06780459 -0.02039661
-0.13680929 -0.07274618 0.12775905 0.0035683098 -0.18676063 0.005542094 0.0126509555 -0.09777829
-0.19074424 0.1623321 0.07900615 -0.10411831 -0.07387381 -0.14501739 0.18655057 -0.011398008
0.14508387 -0.028838256 -0.009830037 0.18011111 0.18318166 -0.1985748 -0.008898228 0.016921736
-0.15478574 -0.12925868 0.20214742 -0.08989765 -0.09524448 0.1404221 -0.0001743009 -0.16098887
0.115790136 -0.21261719 0.040315866 0.11999035 0.12668748 -0.0809904 0.15375403 -0.06887499
0.0012223955 -0.19229212 0.07324739 0.19515327 -0.14532682 0.06345193 -0.1322183 0.17086534
0.03026661 -0.058698148 -0.07870501 -0.05780489 -0.058623835 0.08705983 0.08927264 0.05433053
0.19968915 0.020491133 -0.101652116 -0.17906548 0.21380554 -0.095352694 -0.1905214 -0.03394343
0.20902312 0.19632882 0.0045643467 -0.034119222 -0.10656459 -0.20472093 0.20124012 0.191135
0.10932958 0.12248904 0.12653106 0.02214292 0.08934422 0.08659732 -0.0020113525 -0.13768522
0.053261228 -0.08269282 0.011854013 -0.1963698 -0.14761405 -0.07872006 -0.19413744 0.13562667
0.007905117 -0.009507315 0.054604314 -0.13712542 0.12305099 0.041377258 0.083181866 0.19205853
-0.04143422 -0.08426101 -0.13551502 0.18508515 0.05221546 0.0775515 0.0034898543 0.10727404
-0.10776327 0.16344017 0.006090076 -0.15596443 0.11328457 0.2188031 -0.12027834 0.17431824
0.030455189 -0.180779 -0.023241844 0.20943405 0.13946784 0.10165537 0.06912357 0.082779594
-0.1915978 0.09700392 0.035438325 0.09101092 -0.10152676 0.0034161848 -0.16709405 -0.00457255
-0.10507676 0.07260169 0.07891729 0.18039665 0.042172894 0.016044583 0.12653585 0.04695637
0.110753864 0.020076402 0.14561252 -0.11002342 -0.20286794 -0.0031717224 0.048441354 -0.18593444
-0.10194881 -0.178412 -0.033753693 -0.012441513 -0.084620245 0.045690745 0.14835079 -0.036454752
0.09219577 -0.16172782 -0.12570086 0.02691226 -0.045441724 -0.17452852 -0.034379218 0.12259149
-0.13947706 0.15779541 -0.03653979 -0.10169697 -0.0633394 0.22225195 -0.02185228 0.15026826
-0.02199722 0.06506577 0.09423749 -0.15743545 0.1778976 -0.032197036 -0.08499683 -0.2002063
-0.11149775 0.006378812 0.14906263 -0.15142728 -0.20997237 -0.06978585 0.1712989 -0.13852519

fc2.weight f4 [256, 256]
00000000: 8c0a bdbc 8258 52bd ad0b 62bd ee80 d3bc
00000010: c848 c43c 37fa dfbc 6e13 3a3b aa80 82bb
00000020: 576f 42bd 200f 7b3c a4ee 543d 048c 8e3d
00000030: 28bd a33c 043f 79bc ce45 5abb 1e40 a9bc
00000040: b54a 623d 9954 b3bc 0d34 2cbd b974 b33c
00000050: d450 4cbd 8373 8ebc a4b4 123d be12 d73c
00000060: 8359 48bd 2563 4f3d 6e74 453d b0e0 a93a
00000070: c0b0 31bd fbd6 1a3d 5c98 7e3d 78d8 91bc
00000080: baf2 29bd af20 193d 58de e9bc 2c20 0cbd
00000090: f3a6 55bc bc8e ba3c 0206 59bd b995 39bd
000000a0: af71 58bd 9c09 aebc 5790 a23c 535f dc3c
000000b0: ae02 92ba 3698 66bd bc4d 183c 68a6 483d
000000c0: 937b 6e3c 8b30 cbbc d728 753d e75b 2c3d
000000d0: f892 40bc 1b71 4f3c d0b4 f4bc fa2c 92bc
000000e0: 1dc1 f6bc bd1c 5a3c fdf7 8e3c 538d 83bc
000000f0: 2da0 373d b6b0 80bd d5b4 053d 8159 2d3d
00000100: 14bb 9dbc fc90 7abc 628a b9ba d575 cb3c
00000110: fa83 0c3d 0131 34bd 681a c2bc 9477 6c3d
00000120: bf84 cbbc a912 b73c d53a a6bb b676 7d3d
00000130: d87e 48bd c0e2 f23b 6026 733d 2725 3d3d
00000140: c327 a63b 4e5d 4cbd 8b8b a7bc 1afa 8a3d
00000150: 4f5e 823c dca8 49bd 820c 0d3d 2804 343d
00000160: 0a03 11ba 2781 a3bd 230a e4bc a5f6 9bbb
00000170: a1bd 593d 0645 1abd 07fc d43c fae4 843d
00000180: 9db1 51bc ee6d 5e3d e3a8 bcbc 6d68 05bc
00000190: 484e 0ebd 5c61 9cbc 7804 133d 3f4e fc3b
000001a0: 2c6b 34bd ce38 8f3c f6f6 3dbc 322f 1d3d
000001b0: 6161 d3bc ac69 6a3d c7d7 2dbd 6030 89bc
000001c0: 02d9 5dbd 4008 f13c 08aa 763c cfba 84bd
000001d0: 5b3d 553d 8ce5 593d b414 12bc 4b46 413d
000001e0: 62b7 66bb d9cc 9a3c 53f3 8ebd 8d5a c0bc
000001f0: 1808 7fbc 5dbf 2ebd 9256 da3c c886 11bd
00000200: bb3d 14bd bd73 6cbd 68fd 6f3d d1b5 a63c
00000210: 2c07 d33c 5e50 59bc 100e f63b 3758 413b
00000220: af14 203d a892 a7bc b624 5abd 8aff 613c
00000230: 72f4 c03c cf6b 2dbd 3b6f 423d 5f44 5d3c
00000240: 16e7 c33a e164 a83b fd7f 1cbd f6ac 863d
00000250: cf84 a9bc 43e5 353d a763 6e3d 8742 8dbd
00000260: 6309 1c3c 747d 36bc 14a1 8e3c e167 2fbd
00000270: f9d1 97bc 058e 9a3c 5508 65bd 6002 4fbd
00000280: 4fbc ac3c 5ce1 8abd 91e2 5cbc bf15 8e3b
00000290: 859b 9b3b ede9 c23c 602f 06bd 0f66 133d
000002a0: 0a0f ab3c e6f4 013d 1a8a 94bd 5b45 bbbc
000002b0: 44ba 7f3d d4e6 3ebd 742f 08bd d24a 0b3d
000002c0: 3721 453d 82bc 25bd 0e35 93bb abf9 74bd
000002d0: 702e 3cbd ed41 e4bc 080f 49bd b1b1 23bc
000002e0: 9b2a 25bd 3bb0 35bc 9b12 4abc 7e9b 03bd
000002f0: 05db f4bc aae2 a6bc c812 5cbd c2af 2f3c
00000300: b2be 41bd 31a5 10bd 5013 4e3d 8acc c03c
00000310: 47eb b6bc 8126 253c 42cc 173d 5b85 1cbd
00000320: 6a39 3abd c403 b7bc 5088 4b3d f2ab 11bd
00000330: a330 823c 3b61 0f3d fa83 79bd 2605 2b3d
00000340: e328 6bbb 7bde 90bd be83 363b d9d0 0b3b
00000350: 5309 c8bc 8382 3bbd 3541 4abd 62ef c23d
00000360: a811 68bd abdc 3b3c 3722 f33c 0932 1d3d
00000370: 690e 223d 3c39 8d3c 03bb 7a3c 4445 efbc
00000380: 9319 413d 4242 37bd fd99 aabb f6a9 a6bc
00000390: 7e05 c838 7c21 b53c 0e2e b8bc 8298 22bd
000003a0: f035 8ebd 3fa9 36bd 4c8b 95bc c4f1 9b3d
000003b0: e19d 493b 31cc 46bb bc51 babb 6ec3 883d
000003c0: 3625 5cbd d5f5 873b 9ecc 3bbd 02e9 62bd
000003d0: 52b4 433d e463 ccbc fa51 57bb 4ac0 27bd
000003e0: d4e6 08bc fc38 98bb 1043 403d 2a9d d5bb
000003f0: 558e 40bb a130 88bb 3ae3 09bd 9406 523d
-0.023076318 -0.05135394 -0.055186916 -0.025818314 0.023960486 -0.027340991 0.0028392929 -0.003982623
-0.047469463 0.01532343 0.051985398 0.069602996 0.019987658 -0.015212778 -0.0033305767 -0.020660456
0.055247027 -0.021890925 -0.042041827 0.021906244 -0.04988177 -0.017389065 0.035816804 0.026254054
-0.04891349 0.05063166 0.04820674 0.0012960639 -0.043381453 0.037802678 0.06215702 -0.017803416
-0.041491248 0.037384685 -0.028548405 -0.03421037 -0.013040292 0.02277314 -0.052984245 -0.045308802
-0.052842792 -0.021244816 0.019844217 0.026900923 -0.0011139715 -0.056297503 0.009295877 0.048986822
0.01455583 -0.02480342 0.0598534 0.042079832 -0.01175379 0.012661244 -0.029871374 -0.017843712
-0.03012138 0.013312516 0.017452234 -0.0160586 0.04483049 -0.06283705 0.032643158 0.042321686
-0.019254245 -0.015293356 -0.0014155621 0.02483646 0.03430555 -0.043992046 -0.023694232 0.057731226
-0.024843572 0.022347765 -0.0050729313 0.06188079 -0.048949093 0.0074122846 0.05936277 0.04617801
0.005070658 -0.04989367 -0.020452281 0.06785984 0.01591411 -0.049233302 0.034435757 0.043949276
-0.0005531764 -0.07983618 -0.027836865 -0.004759627 0.05315936 -0.037663482 0.025999082 0.06488986
-0.012798694 0.054304056 -0.02302975 -0.008142573 -0.034742624 -0.019089393 0.035892934 0.0076997573
-0.04404752 0.017483141 -0.011594525 0.038375087 -0.02580327 0.057229683 -0.04244211 -0.0167467
-0.054162033 0.02942288 0.015055187 -0.064809434 0.052060466 0.05319743 -0.008916069 0.047186177
-0.003520452 0.018896507 -0.06980004 -0.023480678 -0.015565895 -0.042662967 0.026652608 -0.035528928
-0.036191683 -0.057727564 0.058591276 0.020350369 0.025760256 -0.01326379 0.0075090006 0.0029502043
0.039082225 -0.020455673 -0.053257667 0.013793835 0.02355406 -0.042339142 0.04746936 0.0135050705
0.0014946188 0.005138979 -0.038207997 0.065759584 -0.02069321 0.044408094 0.058200505 -0.06897455
0.009523722 -0.011138309 0.017410792 -0.042823676 -0.01853274 0.018866548 -0.05591615 -0.050539374
0.021085886 -0.06781265 -0.013481752 0.0043360884 0.004748764 0.023793185 -0.032760024 0.035986003
0.020881195 0.031727694 -0.07252903 -0.02286022 0.062433496 -0.046606854 -0.03324838 0.0340069
0.04812738 -0.04046298 -0.0044924086 -0.059808414 -0.045942724 -0.027863467 -0.0490866 -0.009991095
-0.040323835 -0.01108938 -0.012333537 -0.03213071 -0.029889593 -0.020371754 -0.05372885 0.010723056
-0.047301 -0.03531379 0.050311387 0.023535032 -0.022328986 0.010079981 0.03706003 -0.038213115
-0.04546491 -0.022340663 0.049690545 -0.03556437 0.015892332 0.035004836 -0.06091688 0.041752957
-0.0035882525 -0.07073685 0.002784952 0.00213342 -0.024418509 -0.045778763 -0.049378593 0.09518315
-0.056657463 0.011466186 0.0296794 0.038377795 0.039564524 0.017239206 0.015303376 -0.029207833
0.04714353 -0.044740923 -0.005206345 -0.020344716 9.537766e-05 0.022110693 -0.022482898 -0.039696224
-0.069438815 -0.044595 -0.018254898 0.076144725 0.003076427 -0.003033411 -0.005686013 0.066779
-0.053746425 0.0041491785 -0.045849435 -0.055397995 0.04777939 -0.024949975 -0.0032855258 -0.040954866
-0.008355815 -0.004645465 0.046938956 -0.0065189796 -0.0029381712 -0.0041561876 -0.033663966 0.051275805

fc2.bias f4 [256]
00000000: 820b 6abd 1352 733c 85ef 3cbd 3e84 33bd
00000010: 6786 d1bc fd7c 9d3c 2dec d0bc 8918 97bc
00000020: 8b05 14bd 39f9 7dbc 85e1 763c 4ec3 4c3c
00000030: ef95 82bc 6348 21bd cfa2 13bd 2dae 823b
00000040: ce98 7e3d fa70 54bc bdc8 48bd c91f 6c3d
00000050: 123e 633d c1cf 023d 626f ac3c 1c8e 9cbc
00000060: 7c80 463d e4b1 0b3d 8679 503d 7857 79bc
00000070: 5243 31bd 9427 2c3c c637 6a3d 8613 ce3c
00000080: da14 2abd ce78 863d 2c41 3c3d 93a9 3d3c
00000090: 5b86 3e3d c330 cb3c 8b1e 70bd 8e3e b73c
000000a0: 4319 51bd 60df 4f3d 4160 513d 0949 44bc
000000b0: 3246 233d 0146 7dbd b444 55bd 8478 13bd
000000c0: eb9c 26bd 8c7d 5b3d 1694 56bd 4f44 2cbd
000000d0: d22e 1ebd cf77 0a3c 9b9f a83a e4d5 be3c
000000e0: cc0a cd3c 4235 303c bc1c 103d 05bf 31bd
000000f0: 52b7 86bc 85d0 593b b3ed 2dbd ca03 ec3c
00000100: 4219 4b3d f406 283d 83a2 3abd d16a 4d3d
00000110: 64ee c0bb e27e 0e3d 1d0f 5ebc a509 4ebb
00000120: 74ac 6e3d 7d42 1b3d 5e1a b1bc 9e1f 19bd
00000130: d342 3c3d 6d27 63bd b53c 84bb 96d9 3ebc
00000140: d743 6ebc 0d6e 3cbd 37af 54bd 3df2 193d
00000150: a5b3 373c 88d9 1bbd effd b03c 1db8 76bd
00000160: d358 9abb 2121 1fbd a199 0a3c e821 85bc
00000170: dda4 6fbc 68c1 1bbc 6cf0 383d 123f 013d
00000180: c221 5d3c a856 743d 6691 0fbd 62b8 50bd
00000190: 5094 6fbd 3bcf 0e3d f695 cc3c 07dc 2d3d
000001a0: 6541 e7bc cb05 d73b 094e 6e3d 18ec 11bd
000001b0: c6a6 79bc 99c4 a3bc dac5 64bd 59a0 e83c
000001c0: e0b8 493d 2202 a5bc 60f3 1dbc 9e09 94bb
000001d0: 604e 54bd ffb9 103d 9d4d 823c ec67 9d3a
000001e0: 5b33 02bc cccc 62bd 670b 1a3d 197c a5bc
000001f0: e6e3 88bc 84d6 46bd 04c2 5339 c42a 673d
00000200: f409 57bd b77f 6a3d 8e43 633b a9e9 803c
00000210: be2a 97bc 5e6b 6f3d 54eb 9c3c 2322 463d
00000220: 3cfd 8e3c eb70 0c3d db65 313d 40f6 32bd
00000230: ea0e f1bc 21a4 543d 535c 26bd ca72 25bd
00000240: 45a7 703d 9f42 f13c 5815 1bbd 2f81 15bb
00000250: d73c 843c a43a 32bd 66c6 5e3d ac30 58bd
00000260: 4d14 d23b 2ca5 473c 362b cabb d0f1 433c
00000270: 006c 5cbd 62b0 3cbd 019b 2abd 0b5a f8bc
00000280: f72f 563c 37cd 573d 9374 423d bd24 313d
00000290: c4a7 9e3b c180 a5bc 79b7 9f3c 1e07 d93c
000002a0: 1b22 b2bc 4784 6a3d d976 f83c 0ab0 0d3b
000002b0: 7ea9 dd3c 7724 683d 6063 543b 4b44 0f3d
000002c0: fcfe 973c 7800 173c 597b 87bc c6aa 4ebd
000002d0: 1e4a 6d3d a6e6 d4bc 4f36 073d b43b b93c
000002e0: bfe9 16bd a37e 593d aee5 64bd b432 f2bb
000002f0: 8952 b13b c957 ba3c ddf8 37bd b17d 31bd
00000300: 64e2 153d 252b e73b e1fb 42bd 6973 dbbc
00000310: 9d92 f8bc f21c 473c 1457 09bd ad5e e73c
00000320: 9fc4 e03c 16e8 76bc 0066 a43c b89d 5d3d
00000330: 6a72 57bd 0bfa 6abc 51f1 eabb f960 a23c
00000340: e2a3 5f3d 6431 b8ba ec80 7c3d edeb 78bb
00000350: 6998 1b3c ab4c a1bc cecc 2fbc 714d 193d
00000360: 9f04 4b3c e0f2 fc3c 185a 3abc 9650 353d
00000370: 9d36 acbc dad6 123d 44f6 493d 6050 5f3d
00000380: 600a a83c 91f6 3dbd 9337 bc3c ac23 09bd
00000390: 521b ea3c 8f5c 28bd 9048 d7bc b8de bfbb
000003a0: 9b28 febc 8e7d 8c3d 3247 40bd d1a2 673d
000003b0: 3d06 613d b4f7 eabc 4845 503d aeb6 07bd
000003c0: 8528 0e3d bcf9 863c f7fa 793d a9bc 46bd
000003d0: 4790 55bd e4bd 283d 875a 5b3c e7ef 5b3d
000003e0: aef4 713d 1bc7 223c 095d 343d 78c1 9ebc
000003f0: 9d1f ae3c 6219 c5bb bc90 cdbc 75db 5fbd
-0.05713988 0.014851111 -0.04612686 -0.043827288 -0.025576783 0.019224638 -0.025503242 -0.018444316
-0.0361381 -0.015501314 0.0150684165 0.012497736 -0.015940635 -0.039375674 -0.03604394 0.0039880485
0.062157445 -0.012966389 -0.049019564 0.0576475 0.055479117 0.03193641 0.021049205 -0.019110732
0.048462376 0.034105197 0.050897144 -0.015218608 -0.043277092 0.010507483 0.057182096 0.025155794
-0.04152379 0.065660104 0.04596059 0.011576074 0.04651485 0.024803525 -0.058622878 0.022368696
-0.051049482 0.050750136 0.051117186 -0.011980304 0.039861865 -0.06183434 -0.052067474 -0.036003605
-0.040676992 0.053586528 -0.05238732 -0.04205733 -0.03861887 0.008451416 0.0012864949 0.02329535
0.025029562 0.010754885 0.035183653 -0.04339506 -0.016444836 0.003323586 -0.042463016 0.0288104
0.049584635 0.041022256 -0.04556514 0.050150696 -0.0058877934 0.034788974 -0.013553408 -0.0031438854
0.058269933 0.037905205 -0.021619018 -0.037383668 0.045962166 -0.05545752 -0.004035557 -0.011648556
-0.0145425415 -0.04600339 -0.05192491 0.037584532 0.011212264 -0.03804925 0.02160546 -0.060234178
-0.0047102957 -0.038849954 0.00845948 -0.01625152 -0.014626709 -0.009506561 0.04515116 0.03155429
0.013496818 0.059652954 -0.035050772 -0.05095709 -0.05849105 0.0348656 0.02497385 0.042446163
-0.028229425 0.00656197 0.05817989 -0.035625547 -0.015237516 -0.019991206 -0.05585275 0.028396772
0.049248576 -0.020142619 -0.009640545 -0.004517748 -0.051832557 0.03533363 0.01590615 0.001200912
-0.007946814 -0.05537109 0.03760853 -0.020200776 -0.016710233 -0.04854442 0.00020194805 0.05643727
-0.052499726 0.057250705 0.0034677717 0.015736418 -0.018452998 0.058452003 0.019155182 0.0483724
0.017454736 0.034287374 0.043310028 -0.043691874 -0.029426057 0.051914338 -0.04061539 -0.040392675
0.05875327 0.029450713 -0.03786215 -0.0022812595 0.016142292 -0.043512955 0.054388426 -0.052780792
0.0064111114 0.012185376 -0.006169702 0.011959508 -0.053813934 -0.04606665 -0.04165173 -0.030316373
0.013072959 0.052685943 0.047474455 0.043247927 0.0048417766 -0.020202996 0.019496666 0.026492652
-0.021744778 0.057255056 0.030330108 0.002161982 0.02705836 0.0566754 0.0032407865 0.03497724
0.018554203 0.00921642 -0.016538309 -0.05045583 0.05793201 -0.025988888 0.033010777 0.022611476
-0.03684401 0.053099286 -0.055883102 -0.007391298 0.0054114503 0.022746937 -0.04491507 -0.04333276
0.036592856 0.007054704 -0.04760349 -0.02678843 -0.030343348 0.012152897 -0.03353031 0.028243387
0.027437506 -0.015069982 0.020068169 0.05410549 -0.052599348 -0.014341841 -0.0071698804 0.01982163
0.05459965 -0.0014052805 0.061646387 -0.003798242 0.009496787 -0.019689878 -0.010729982 0.03742737
0.0123912385 0.03087753 -0.011374019 0.044266306 -0.021022135 0.03584943 0.049307123 0.05452001
0.02051276 -0.046377722 0.022975719 -0.033481285 0.02857748 -0.041103896 -0.026279718 -0.0058554076
-0.031025222 0.06859885 -0.046942897 0.05655176 0.05493759 -0.028682567 0.05084732 -0.0331332
0.03470661 0.016476505 0.061030354 -0.048519764 -0.052139547 0.04119672 0.013388283 0.053695586
0.059071235 0.009935166 0.044034038 -0.019379362 0.021255309 -0.0060149888 -0.025093429 -0.05465265

fc3.weight f4 [256, 256]
00000000: aa27 34bd 362c 2c3d 1293 b3bc 1f7f 803d
00000010: 6738 95bd 821a 033d 689a 463d 5b48 30bd
00000020: ce9b 0ebd 9d65 473d b7f9 a43a 0376 21bc
00000030: a674 12bd 38ee 14bd 1af7 a1bd 90e0 f43b
00000040: 5b97 4fbd 6441 68bd e032 313c 8cf3 4f3d
00000050: b70a 5fbd 154a 66bd 3313 853c dea8 0e3d
00000060: 12ef 2a3d 9411 6fbc 9429 ae3d 454d 5abc
00000070: 4985 873c df75 e9bc 73cb 273d 741d 4c3d
00000080: 1d06 2dbc 2cd0 80bc aca4 053d 614f 2e3d
00000090: ebba 84bc fa5c 053d 2257 2e3d bca8 8d3c
000000a0: 42c8 1ebd 6ba3 853d 49f2 0f3d 48dd 43bd
000000b0: fe81 7bbc c32f 2c3c 9fa1 493d 763c 37bd
000000c0: 1977 393d dd60 f6bc 5ca3 26bd ec02 21bc
000000d0: 0302 0fba 228e ac3c 662c 533d b9cc 15bd
000000e0: 2d94 c7bc 6a29 a7bb de9e 5c3a 5b31 463b
000000f0: 4d63 643c 121f 3e3d 582d 5d3d 736e 87bb
00000100: 749b aa3b a871 bb3c 7c91 583b 471d 27bc
00000110: 88c3 86bc ef6d b6bc 67d0 e1bc 20be 07bd
00000120: f7f2 e0bb 16a5 183d 6cd4 edbc ddfa c53c
00000130: 48e2 793d 63a5 1cbd cf38 6e3c 86be e33c
00000140: 37e6 ba3d 1844 ae3c 75ae a0bb 0e47 8fbc
00000150: 4778 ff3b 2047 513d 9a12 033d 771c 423c
00000160: 3bbc 2b3b 6b6e efbb ed26 623d 19f2 17bd
00000170: c19b db39 d3c5 c23c 036d fabc e9fb 4cbd
00000180: e1e6 8f3d e7c6 8f3c e0a7 08bd 3a52 3fbd
00000190: 8d3a 2c3d 805b a93b bbfd 10bd eb0f 743d
000001a0: b585 03bd 968b 3f3d a0b5 0c3d 4483 423d
000001b0: ada3 8a3d 9371 8c3c fb2e d1bc 968a 90bd
000001c0: a7ea 9a3b c766 a73c 8143 323d f584 4dbd
000001d0: 72a4 bcbc 5779 44bd 2e2f 95bc 6557 923d
000001e0: 9d63 cdbc 1005 293d b285 e43c b87f 593d
000001f0: e3e0 01bd a4ff 723c a23a 60bd d4cf d5ba
00000200: 0afa 803d 5130 983c 8576 82bd 679a 2abd
00000210: 03bb 7b3d 6315 4c3d 7751 c23c b369 4fbd
00000220: a8fd 09bd b402 e23b 50c2 ef3c 1304 e53c
00000230: ac0c ad3d 2d89 86bb 5f42 c13c 6354 71bb
00000240: 19ad a8bc 3009 9abb c8ca 7a3c 2ed0 dcbc
00000250: 7ecd 723d 6a87 6c3d df39 8e3d f06b 163c
00000260: 7a5d 04bd 5d6a 7c3d 1e13 62bc a76b 61bc
00000270: d12d c9bc 546b 06bd a5f1 6abd f987 9fbd
00000280: 5d78 a53c a083 4f3d 8800 4d3c 9ab9 2fbc
00000290: 1563 69bd cd01 113d 6440 ae3c cf37 ccbb
000002a0: d865 e93c 66a3 093d 733c 943c 8e2d 183c
000002b0: 9c14 583b 2892 09bd 266a a2bc 3c73 dab8
000002c0: c7c8 f0bc 58e4 763c 13ff ce3c 9f2a 093c
000002d0: 894f 853c 983a 2e3c 3c11 1d3c 321a 2d3d
000002e0: 0f3f 22bd 0879 543d caa7 04bc 0f0f 4dbd
000002f0: 0b14 4cbd 7f80 0a3d e479 52bc bd16 4fbc
00000300: 9fc6 193d f1f8 83bc 7540 45bd 8cb7 6cbc
00000310: 72de 8cbc b08d ddbb 77c2 263c d399 6d3d
00000320: f3fe 6abd 85c8 1abd 7045 45bd 72e7 3dbd
00000330: bcde 01bd 2ad6 7abd 4eba 53bd 3074 18bd
00000340: a9cf 01bd 8e3c 0d3d 80a7 abbd 08ac 333d
00000350: b066 e43c 562e 68bd 2719 673d 3803 8e3d
00000360: 311c f8bc 61c0 d3bb 2080 75bd f613 ac3d
00000370: a0d2 e9bc f07d c93c 48d4 213d 50ab 8e3d
00000380: d38e 2d3c 96e7 e239 32e5 3abd a696 1b3d
00000390: 8e04 553d a475 50bc 8c2f 5b3d 471b 4ebb
000003a0: 767f 1abd 31d2 20bc 370e 84bc 7900 14bd
000003b0: 84c8 4b3c 261f 09bc 460a 6c3d b365 393d
000003c0: 3eef 013c d85f 44bb 11d6 ebbc db8a 27bd
000003d0: c0f8 133d 487a 30bd f8eb f53c e897 68bd
000003e0: 5c9a b4bb 715e 8d3d f839 1c3b 0750 69bd
000003f0: 789d 5d3d ba55 1cbd 709b 7fbc d370 df3c
-0.04398314 0.04203435 -0.021920715 0.062742464 -0.072861485 0.0320077 0.048487097 -0.043037754
-0.034816556 0.04868089 0.0012586628 -0.009854796 -0.035755776 -0.036359996 -0.07908459 0.007473059
-0.050681453 -0.056702986 0.010815352 0.050769374 -0.054453578 -0.056222994 0.016244506 0.034829013
0.0417319 -0.014591593 0.08504024 -0.013324087 0.016543048 -0.028498588 0.04096551 0.049832776
-0.01056054 -0.015724264 0.032627746 0.04255617 -0.01620241 0.032559372 0.042563565 0.017292373
-0.0387652 0.0652531 0.03514317 -0.047818452 -0.015350817 0.010509434 0.0492264 -0.044735394
0.045279596 -0.030075485 -0.040683135 -0.009827357 -0.0005455317 0.021063868 0.051556014 -0.036572192
-0.024362648 -0.0051013725 0.0008416007 0.003024182 0.013939691 0.04641635 0.05399832 -0.0041330396
0.0052065197 0.022881344 0.00330457 -0.010199851 -0.016450658 -0.022269217 -0.027565194 -0.0331403
-0.006864901 0.037266813 -0.029031955 0.024167472 0.061006814 -0.038243663 0.014539911 0.02780081
0.09125941 0.021272704 -0.0049036094 -0.017489936 0.0077963206 0.05109322 0.03200016 0.011847607
0.0026204723 -0.007306864 0.055212904 -0.037096117 0.0004188698 0.02377597 -0.030569559 -0.050044928
0.070264585 0.017550899 -0.033363223 -0.046709277 0.042048026 0.0051683784 -0.035398226 0.059585493
-0.032109935 0.04676398 0.0343529 0.047488466 0.067695 0.017144 -0.025535097 -0.07057683
0.00472768 0.02043475 0.043521408 -0.050175626 -0.023027632 -0.04796728 -0.018210974 0.071455754
-0.025071913 0.041264594 0.027895782 0.053100318 -0.03170861 0.014831457 -0.054743417 -0.0016312548
0.06297691 0.018577727 -0.06370262 -0.041651156 0.061457645 0.049825083 0.023720486 -0.050637912
-0.03368917 0.006897295 0.02926746 0.027956044 0.084496826 -0.004105708 0.023591219 -0.003682398
-0.020590352 -0.0047008023 0.015307136 -0.026954737 0.059278004 0.05774633 0.06944632 0.009181008
-0.03231571 0.061624873 -0.013798503 -0.0137585765 -0.02455798 -0.0328172 -0.057359356 -0.077896066
0.020198995 0.050662637 0.012512334 -0.010725403 -0.056979258 0.035402108 0.021270938 -0.006232239
0.028490946 0.033603095 0.01809523 0.009288205 0.0032971269 -0.03358665 -0.019826006 -0.00010416514
-0.029392613 0.01506909 0.025268113 0.008371978 0.016273277 0.010634087 0.0095866285 0.04226131
-0.03961092 0.051873237 -0.008096645 -0.05006319 -0.049823802 0.03381395 -0.012846444 -0.012639699
0.037542935 -0.016109915 -0.048157174 -0.014448058 -0.017195914 -0.006761275 0.0101782 0.058008026
-0.057372045 -0.037788887 -0.048161924 -0.0463633 -0.031706557 -0.0612394 -0.051691346 -0.03722018
-0.03169218 0.034481578 -0.083815575 0.043865234 0.027880996 -0.056684814 0.05642047 0.06934208
-0.03028688 -0.0064621423 -0.059936643 0.08402245 -0.028542817 0.024596184 0.039509088 0.06966269
0.010593134 0.00043278624 -0.045628734 0.037985466 0.052006297 -0.01272336 0.05351214 -0.0031449364
-0.037719212 -0.009815739 -0.01612006 -0.036133263 0.012437943 -0.008369243 0.057626985 0.045263004
0.007930575 -0.0029964354 -0.028788598 -0.040903907 0.0361259 -0.043085366 0.030019745 -0.056785494
-0.005511565 0.06902779 0.0023838263 -0.056961086 0.054105252 -0.038167693 -0.015601024 0.027275478

fc3.bias f4 [256]
00000000: aef3 9f3c 1b6c 8e3c 8f72 5dbd e4ec 5cbd
00000010: c346 423d a4e2 ce3a e94a 4dbd bc65 2abd
00000020: 81e9 14bd fd88 c63a 9701 343d 970b bfbb
00000030: ba3e 3fbd 7612 4f3b 26c7 78bd 6524 e5bb
00000040: d7ac 0abd 0da1 a4bc 1588 933c 8a9b 1b3d
00000050: 46d5 293d 0026 2f39 bbf7 1a3d 5fb1 453d
00000060: 64b6 26bc c119 3c3c c1df 2ebb 06ce 1ebd
00000070: 57b9 283d 3e9f c43c b783 333d 5544 0dbb
00000080: 315c 03bc 2ba7 25bd 0a91 563d 1cbf da3c
00000090: 5fa7 2d3d 4ea4 a93c a10f 4dbd 5a2f 0c3d
000000a0: 85e8 4c3d 10a9 52bd ebeb 38bd 3536 293d
000000b0: 97b6 cfbc 2c5a 2dbd e964 813d 33e4 e23c
000000c0: 6345 483b b387 3fbd 0a80 9d3c 2b07 49bd
000000d0: b520 363c bd65 cf3c f6b7 39bd 0cf2 1bbd
000000e0: 58ad 20bc 9e9e 1e3c 9a3c 7ebb df26 023d
000000f0: 1bcd 023c 4a43 55bd a9ca 30bd fe5c 84bc
00000100: 6b33 32bd 534e 4f3d c60e 00bd 4208 453c
00000110: 082f bcbc f87c cfbc d471 83bc 2d7e d63c
00000120: f47a 2dbd 88fc 5abc 8c6a 2abc 1c0c d6bb
00000130: c437 4cbd ceff 36ba 1465 8bbc 924a 623d
00000140: 1bfe dfbc 50c4 083d e1d1 5dbd 61c4 50bd
00000150: c23d 47bd b92a c2bc 1eca 50bd 506f 763d
00000160: 9ada 203d 5c07 2dbc 5456 f3bc a359 0c3d
00000170: e301 653d 8090 cd3b d9ab bd3c 1f6f 873c
00000180: 2d15 7d3d f1f1 403d 7a75 37bd 6fb8 a0bc
00000190: 4506 80bc 0be8 cbbb 26d0 1fbd a55e 613c
000001a0: 70db 09bd 364d b5bb a1f5 87bc 6779 733d
000001b0: 383b 1bbd c2e7 ec3b 2bdd 12bd 2d8a 023d
000001c0: 3d41 aebc a322 be3c 13b3 27bd c861 9cbc
000001d0: 4fc4 a5bc 80aa 27bd caf1 cdbc c468 443d
000001e0: 9dc8 fd3c aec2 97bc ff8a 03bd 20d2 4a3d
000001f0: c107 703d de8d 71bb bcf5 e9bc d2f1 393d
00000200: 528b c13c 131c 4a3c a436 893c 9477 42bd
00000210: 186e 043d 7043 493d e20c 12bd baed 05bc
00000220: a49e 81bc c86d 39bd 972b 3ebc 83ec 6f3d
00000230: 1a28 243d e51a 3b3c 4433 dcbc 62db a83c
00000240: 4759 5b3d 8913 753d d3b5 61bd 521a 8a3c
00000250: 0026 afba 0b98 073c 8852 88bc b9f5 d6bc
00000260: 97e0 0f3d fd78 663d 8201 1f3d 4fc7 7ebc
00000270: fd03 2b3d c99b 02bd 663f cd3c a36b 553d
00000280: d4fb cc3c 24f1 9c3c 00da 463c 4287 1abd
00000290: 19f1 cc3b bd82 283d 374e 853b 0b6f 873d
000002a0: fac0 c8bc 84ec ee3c 56ec 5fbd ddd2 823d
000002b0: 00bc 07bd b5c6 fc3c 34e6 a6bc 0451 2bbd
000002c0: 3ec5 8abc 5e88 3438 3799 6cbb 2573 dd3c
000002d0: ae45 4dbc 380d a3bc c0fc 3c3d 3558 4cbd
000002e0: 3c30 d23c d8cb a7bc 4f94 023d c1bb 013c
000002f0: 3187 81bc 44d0 243d d3d4 bd3c 400a 783d
00000300: c4a2 10bd 8699 87bc 0eb0 71bd 07db fa3c
00000310: a174 f8bb abfa ddbb f54b 9b3c 4e04 313d
00000320: 412c b03c ddaf c83b 37c8 0d3c ba5d 09bd
00000330: 338a 123d 888c 54bc f163 9dbc 22a9 23bd
00000340: 9a79 bdbc d5cf 59bd 80c8 64bc 9f6d c1bc
00000350: ad05 d53c cdcf b1bc cc5b 4cbd 68db e63c
00000360: 627e 8ebb bbb1 9abc 6cc5 a43c 617e 5b3d
00000370: a2a7 863d 7a18 083d 4de6 0c3d cb09 813d
00000380: ea80 523d de42 fb3c 064a b7bc a34e 57bd
00000390: a993 773d 3f5a 523d 5e93 a0bc a072 0ebd
000003a0: 001e 553d f97f 313d 101b 3dbd 8228 dabc
000003b0: baf6 de3c 0e0d 45bd e98f d8bc c2d7 ec3c
000003c0: 3b82 08bd 6106 43bd 9f35 963c 118f 69bc
000003d0: 75c4 d139 3b75 5d3b 8129 123d d1a5 403c
000003e0: 38dd 19bd f605 e8bc a111 0cbb 33d1 2bbd
000003f0: 172c e8bc 4ed9 483d 2ec6 06bd 3447 483d
0.019525375 0.017385533 -0.05406433 -0.053936854 0.047430765 0.0015784097 -0.050120268 -0.041600928
-0.0363555 0.0015147027 0.04394683 -0.005830239 -0.04669068 0.0031596697 -0.060736798 -0.006992864
-0.03385624 -0.020096326 0.018009225 0.03799013 0.04146316 0.00016703457 0.03783391 0.048264857
-0.010175321 0.01148075 -0.002668366 -0.038770698 0.04119238 0.024001714 0.043826785 -0.0021555622
-0.008017586 -0.040442627 0.052384414 0.026702456 0.042395946 0.02070823 -0.050063733 0.034224845
0.050026435 -0.05143076 -0.045146864 0.04131146 -0.02535562 -0.042322323 0.06318075 0.027696704
0.0030558936 -0.046760272 0.019226093 -0.0490791 0.011116196 0.025317067 -0.045341454 -0.03807263
-0.009806953 0.009681372 -0.0038793446 0.03177535 0.007983471 -0.052066125 -0.04316202 -0.016157623
-0.043506067 0.050611805 -0.03126409 0.012025895 -0.022971645 -0.025328144 -0.016045488 0.026183212
-0.042353585 -0.013365872 -0.010401379 -0.0065322053 -0.04985787 -0.0006980867 -0.017015971 0.055246897
-0.027342847 0.033390343 -0.054155234 -0.05096853 -0.04864288 -0.023702012 -0.050974004 0.06016475
0.039270975 -0.010560837 -0.02970425 0.03426517 0.055910002 0.0062733293 0.023153232 0.016532479
0.061787773 0.047105733 -0.04478977 -0.019619195 -0.01562799 -0.00622273 -0.039016865 0.013755475
-0.033656538 -0.005532886 -0.016596617 0.05944195 -0.037898272 0.007229776 -0.035855453 0.031870056
-0.021271342 0.023209875 -0.040942263 -0.019089594 -0.020235209 -0.040934086 -0.025139708 0.047951475
0.030979449 -0.018525448 -0.03211498 0.049516797 0.058601145 -0.003685824 -0.028559558 0.045396633
0.023626003 0.012335795 0.016749687 -0.04747732 0.032331556 0.04913658 -0.035656817 -0.008174354
-0.015822716 -0.04527071 -0.011607072 0.058575165 0.040077306 0.011419986 -0.026879914 0.020612422
0.05355194 0.059833083 -0.05510504 0.016858254 -0.0013362765 0.008275996 -0.016640916 -0.026240217
0.035126295 0.056267727 0.038819797 -0.015550449 0.04175185 -0.03188685 0.025054645 0.052104603
0.025022425 0.019157954 0.012136936 -0.03772665 0.006254327 0.041140307 0.004068162 0.06612977
-0.02450608 0.029165514 -0.054668747 0.06387875 -0.033138275 0.03085647 -0.020373441 -0.04182531
-0.016939756 4.3042346e-05 -0.0036102065 0.027032444 -0.01252882 -0.019903764 0.04613948 -0.04988881
0.025657766 -0.020482942 0.03187972 0.007918299 -0.015811535 0.04023768 0.023172772 0.06055665
-0.035311475 -0.016552698 -0.05900579 0.030622019 -0.0075822626 -0.0067742667 0.018957118 0.043216996
0.021505477 0.00612448 0.008653692 -0.03353665 0.03577633 -0.012972958 -0.019212695 -0.03995622
-0.023129273 -0.05317672 -0.013963819 -0.023611842 0.026003683 -0.021705532 -0.04989223 0.028180793
-0.004348562 -0.018883577 0.02011367 0.05358732 0.06574942 0.033226468 0.03439932 0.06300696
0.051392473 0.030671533 -0.022374164 -0.05256523 0.060443554 0.051355597 -0.01960152 -0.034777284
0.052030563 0.043334935 -0.046168387 -0.026630644 0.027217258 -0.048108153 -0.02643581 0.028911475
-0.033327322 -0.047613505 0.018336115 -0.014255301 0.00040009958 0.0033791799 0.035684112 0.011758284
-0.037564486 -0.028323155 -0.0021372812 -0.041947555 -0.028341336 0.049035363 -0.032903843 0.04889603

fc4.weight f4 [256, 256]
00000000: dc67 403c da9c 913d 8abc df3b f619 803d
00000010: f2c8 2c3d 9013 adbb 3e57 443d 1a9e 173d
00000020: be72 86bd 18bf 39bd 8cec 1fbd 817e 5abd
00000030: ec60 4cbc ffb9 dc3c bde7 0dbb 4143 803c
00000040: 5e4e 543d 6f58 78bd 8066 043d a4d5 bc3c
00000050: 9dbe e73c 207c 023b 9073 d63c c833 233d
00000060: 50f7 553d 5c9a c9bc 28fc cfbc f2b2 52bd
00000070: abe3 bd3b c013 1cbd 1b79 20bc 8b02 d6ba
00000080: 64d3 6bbd 1f13 433c ab17 c9bc 83ae babc
00000090: 9b55 01bd e40c d7bc ede2 bcbc b9e8 ccbc
000000a0: 5184 8fbc 986c 1c3c 1938 ea3b 1b44 e2bc
000000b0: 707a 573d 8071 b33c 3c23 a9bc b145 613d
000000c0: c665 a0bc 2811 f2bc 4b54 ec3c 3021 7b3d
000000d0: 7c98 173c 3024 2e3d 8f9d 78ba 7eb1 11bd
000000e0: ec9d fe3c 8f73 813d b8c7 743c e3b9 653d
000000f0: 1cce 8dbd a000 a7bb ae03 903d a83b 743d
00000100: 091d 993c 7c72 76bd 4fd5 9c3d 9be4 e63c
00000110: b8a4 f93c af84 3abd 90e8 a53c 9d16 503c
00000120: e289 8a3d e434 81bc 6192 643a 7202 9ebc
00000130: 089d a9bc 6cf8 31bd 4444 f73c 6ea0 723d
00000140: bc3e dbbc cd83 823d 6b96 b8bd 158b 4c3c
00000150: 36ee 20bc f8d8 503d 64d1 fbbc 5682 29bd
00000160: 821f 08bd 15b3 2abb d4d3 e03c b153 363d
00000170: 9509 18bc 052e 7d3d 59b1 7e3c 072f 003d
00000180: acb4 9bbc 6d76 003c 4623 8dbd 4235 84bd
00000190: 79a4 bcbc 43d5 45bd d81e c2bc 0dac 533d
000001a0: b86f 0d3c 5785 9b3b 0b60 913d cb45 c53a
000001b0: bc9c eabc ba16 a63b c3f7 523c 9519 3b3d
000001c0: 5c50 853d 490c 1dbc d774 6abc 20c5 943c
000001d0: 7aae 84bd bd5d 913c 322c afbc 2da0 f7bc
000001e0: fcf9 1cbd 0230 703d f554 11bd e2c2 ad3c
000001f0: 8abb fd3c f9c1 7bbc 80e1 1dbb ab29 49bd
00000200: 8760 823d a30b 7abd f704 a8bc db84 8c3d
00000210: 7c04 dc3c 0108 41bd 3f5c 23bd 7d0c 28bd
00000220: c929 44bd 9196 673d 3f01 5dbd 3701 7cbc
00000230: 7008 dcba ff76 2fbd 915c f6bc 3daf ddbc
00000240: 11b6 fe3c 0e47 663d 18b8 a23c 5238 24bd
00000250: 2e7b 683d d5d3 803d 8068 923d 0407 bf3c
00000260: ba6e 173d ab24 7dbb c739 893d 64c5 503d
00000270: 59e2 8ebd b6e5 45bd a383 353d f79e 833d
00000280: 4a28 ca3c 2b67 723d b553 26bd 105d d83c
00000290: 03d8 debc 972e 35bd f3ff 013d 9601 ef3c
000002a0: 1b31 1e3d 25d8 2e3d 1d05 29bc 0c56 093c
000002b0: c84a 68bd 2485 5ebd 204a 09bd da46 703d
000002c0: 285e 19bc 7117 173d 6f8e 893c 4e17 95bb
000002d0: 1092 20bd 5526 9c3d 3c52 21bd 5a66 233d
000002e0: 1381 883d fd24 10bd 22dc 153d a16f 353d
000002f0: 539c 363d e86c 0bbd 8729 703d 7a71 443c
00000300: 5f4c 2b3c 328b 5eba 2a0a 3dbd 659a 793c
00000310: c1fa 13bd 5d79 83bd 6166 933d 9910 dcbc
00000320: fea3 2b3c 8a63 7cbd e702 53bd 34ed 1cbd
00000330: 0219 f9bb e085 d13b 5fb7 973c f8f2 69bc
00000340: 4e80 10bd 00ff 21bd b03b 1b3d e70a 21bb
00000350: 0217 503c b47b 4d3d 6fcb a5bc af52 613d
00000360: f3c7 3b3d 541e fa3b 501e e2bc c10e 13bc
00000370: 546c 0fbd 3792 983c 7e7f 0cbd c97e 863c
00000380: dd72 fbbb 3b1a ef3c 03e6 253d 8735 8f3d
00000390: 154b 443d ef26 833d f168 4abd b8da 613d
000003a0: 0366 773d 4332 08bd f0d7 9bbb d344 26bd
000003b0: d483 163d ded3 3cbd 45db eabc 7c99 b7bc
000003c0: bc4f b23c b49e 67ba 267f 933c 0f14 aa3d
000003d0: f779 1abd c5f8 d13c 0ce9 4e3d 4f8d d8bc
000003e0: 165a 0dbc 771a 5b3d 8f14 a6bc e531 a63c
000003f0: ec11 e1bc 8263 4cbd 8fab 813d 3233 d53c
0.011743512 0.07109995 0.0068278955 0.06254952 0.042183824 -0.005281873 0.047934763 0.03701601
-0.06564854 -0.045348257 -0.039043948 -0.0533433 -0.01247428 0.026944159 -0.002165302 0.01565707
0.05183255 -0.06063121 0.032324314 0.02305109 0.028289134 0.001991041 0.026178151 0.039844304
0.05223781 -0.024609737 -0.025388792 -0.051440187 0.0057949624 -0.038104773 -0.009794499 -0.0016327662
-0.057574645 0.011906414 -0.024547419 -0.022788292 -0.03157578 -0.026251264 -0.023057425 -0.025013315
-0.017519148 0.009547375 0.0071478006 -0.027620366 0.052607 0.021904707 -0.020646684 0.054998104
-0.01957978 -0.029549196 0.028848788 0.061310947 0.009252664 0.04251498 -0.0009483927 -0.03556966
0.031081162 0.06320869 0.014940195 0.05608548 -0.06924078 -0.00509651 0.07031952 0.059627205
0.018690603 -0.060167775 0.07657873 0.02818518 0.030474052 -0.045536693 0.020252496 0.012700704
0.0676458 -0.01577229 0.0008719322 -0.019288275 -0.020704761 -0.043449804 0.030183919 0.05923503
-0.026763313 0.06372795 -0.09013065 0.012484332 -0.009822419 0.050988168 -0.030739494 -0.041384064
-0.033233173 -0.0026046683 0.027444758 0.044513408 -0.009279628 0.061811466 0.015545213 0.03129485
-0.01900705 0.007840735 -0.068914935 -0.064554706 -0.023027645 -0.048299085 -0.023696348 0.051677752
0.008632593 0.00474612 0.07098397 0.0015050707 -0.02863919 0.005068627 0.012876454 0.045678694
0.06509468 -0.009585449 -0.014310083 0.018160403 -0.06478591 0.017744893 -0.021383379 -0.030227745
-0.03832434 0.058639534 -0.035481412 0.021211091 0.030973215 -0.015366071 -0.0024090707 -0.049112003
0.063660674 -0.061046254 -0.02051018 0.06861278 0.026857607 -0.047126774 -0.039882895 -0.041027535
-0.047891412 0.056540076 -0.053956266 -0.015381149 -0.0016787183 -0.042838093 -0.030073436 -0.0270611
0.031092675 0.056220107 0.019863173 -0.040092774 0.0567581 0.06290404 0.07148838 0.023318775
0.03697083 -0.0038626592 0.06700473 0.050969496 -0.06976766 -0.048314773 0.04431499 0.064268045
0.024677414 0.05918042 -0.040607173 0.026411563 -0.027202612 -0.044233885 0.031738233 0.02917556
0.03862105 0.0426866 -0.0103161605 0.008382332 -0.056711942 -0.05432619 -0.033517957 0.05866132
-0.0093608275 0.03688759 0.01679155 -0.0045498973 -0.039201796 0.07624499 -0.039385065 0.039892532
0.06665244 -0.035191525 0.036586888 0.04429591 0.044582676 -0.034039408 0.058633354 0.011989946
0.01045522 -0.00084893696 -0.04615227 0.015234564 -0.03612781 -0.064196326 0.071972616 -0.026863383
0.0104761105 -0.061618365 -0.05151644 -0.038312152 -0.007601858 0.006394133 0.018520055 -0.01427912
-0.03527861 -0.039549828 0.03789872 -0.0024573149 0.012700798 0.0501668 -0.020238606 0.055010494
0.045844983 0.00763301 -0.027602345 -0.008975686 -0.03501542 0.018624408 -0.034301274 0.016417878
-0.007673605 0.029187312 0.04050256 0.069926314 0.047923166 0.0640391 -0.049416486 0.055140227
0.06040002 -0.03325106 -0.0047559664 -0.04059298 0.036746815 -0.04610049 -0.028669009 -0.022412054
0.021766536 -0.00088355993 0.018004965 0.08304607 -0.03771397 0.025631318 0.05051522 -0.026434569
-0.008627435 0.053492036 -0.020273475 0.020287463 -0.027474366 -0.049899586 0.0633155 0.026025388
