grasp_placement/models/run_seed_1398/stability_net.pth (torch, 42504 bytes, 7 tensors)

fc1.weight f4 [64, 21]
00000000: 7f0b 6bbd 0dca d13d 1758 18be 6f2a 893c
00000010: 4a1d 0c3c 7249 923e ebff 13be 6a44 4dbe
00000020: 00d6 cf3c b824 38be 7aad 233e 8fb0 0f3e
00000030: 0b3a 80bd 3f8b 813e 3702 803b 2477 e1bd
00000040: 81f6 2f3e 4733 093d bc5f 5b3e e635 adbd
00000050: 5c9b 4bbe a677 8fbd 49a9 adbd c7fe 2cbe
00000060: fdc7 04be f8b4 fc3d 24f5 c23d 24d3 15be
00000070: e3da f7bd aa37 713d 44bf 8dbe 9d82 a6bd
00000080: 9ed5 5d3d 1212 0ebe bf7d afbd 1044 05bd
00000090: a166 f9bd e924 69be 28a6 6a3e d7ec 29be
000000a0: df72 ab3b a9cf 383e aae1 d93d 1a59 edbd
000000b0: 5e2e 61bd 3723 1cbe 13dd 06bd eaf1 78bd
000000c0: cb76 7a3e 8594 273e 35cd daba 1ad9 4cbe
000000d0: 41f3 983d 649b 323e dc37 f5bd 8b05 16be
000000e0: 61a8 7e3d 3bb3 1a3e 61b3 88be 801f bd3d
000000f0: 1c39 28be 49ec a9bd c1d6 5cbc 211a 7a3e
00000100: 7e9f c4bd 0d98 8ebc 95d6 a43e f416 c5bd
00000110: 4480 173e b518 d63d ed87 cbbd e08b 273e
00000120: 6873 21be b901 003e 1f29 f83d 0b64 24bd
00000130: 7e50 43be 49eb 1c3e 9993 2b3e ede1 3e3d
00000140: f476 1abe 7b12 7abb 20b7 fa3d f2e2 6d3e
00000150: c6bf 87bc 6f5b 363d 082a 61be 5f98 8d3d
00000160: 1da8 103e 7e47 903d 5d5a cf3d 07c6 11bc
00000170: 051e 8b3d 4dc8 0dbe bfe5 a7bd cfe9 533e
00000180: 5429 7ebe 4fd8 3d3e 054f 51bd c12d 233d
00000190: 7b71 c1bd 525d 82be b973 4e3d 2884 56be
000001a0: ec44 893e 1abe cdbd ec9f 16be 38f9 a9be
000001b0: 1b52 db3c e6cd 10be 2339 babd 86b8 32be
000001c0: e55b b5bd a342 ecbd 3159 3fbd 9ac2 3e3e
000001d0: 0e52 ecbb c4f9 cb3d ef15 363e f6b9 123c
000001e0: 4176 7cbd 9e52 803d 35f4 58be c161 f83c
000001f0: bce1 dabd 2e46 9e3d a5c2 0abe e4cf 91be
00000200: bf20 323d 14cd 133e 833a e53d 2261 5d3e
00000210: ed1d 0f3e c18e 51be 708d 92bd bc0c 293e
00000220: 86c3 273e 9467 85be 61fb 6ebe c295 96be
00000230: 7cdb 463e bf59 f9bd 4001 f83c 82c3 bf3d
00000240: af63 44be e742 a13d 615e aa3d fa49 50bd
00000250: 2802 003e 4af4 583e b832 623b 1b93 0a3d
00000260: bb81 60be f7b2 2a3d bced b1be 1243 4abd
00000270: 0fa5 42be 980d 37be beb5 943d 2bda 3ebe
00000280: d8a6 9e3c 80fb 1f3e 9755 a53c 178a e13d
00000290: 7d36 69be 0be2 433e 81f6 3bbe 040f 8b3e
000002a0: 2bf0 2fbe c102 3e3e 5bbc 0b3e 2c03 683e
000002b0: 98db 253e a72b ae3d 9ce0 43be 9b11 2b3e
000002c0: 872d bfbd ffb0 27bd 1c7f 67be 0dac 8dbc
000002d0: d5ba 5abe c5fe 123e 64d2 d13a 34c6 36bd
000002e0: 508c 7739 fe53 54bd a0dd b53e 50fa 973d
000002f0: 94f7 433e ed1d 363d 1473 763d 934e 55be
00000300: 1e84 203d 88de 353d 9bc4 113e 345e 12be
00000310: 6045 c2bb 550c 81bd 33e1 a43d b356 3bbe
00000320: aef1 c5bd 3317 b73a 478e 833d 4984 2cbe
00000330: ad9b f83d c63d 113e 6b28 b63d 0c38 673c
00000340: 5e5b 97be 9261 84be 38dd d23d c26f 27be
00000350: c7f5 09bd 5a76 d63c 25d7 773e 5f2c 6e3d
00000360: f111 67be fae1 1cbe b587 35be 079f 93bd
00000370: faba 4cbe dc87 7bbd 8d0c c1be 4c85 953e
00000380: b3db bebd 96f7 743e a975 073e 1001 d43b
00000390: da90 393e 15d8 823b 82f6 733d a640 463e
000003a0: 9b5a 6bbd 47eb e8bd 4aa9 203e a13a 253e
000003b0: ef45 283e 6144 67be 642d 25be fb3a 86bd
000003c0: 565c be3d d85f 473c fc65 bb3e 58e9 763d
000003d0: db18 f5bd 8c34 f0bd 36be 0bbe b9e5 94bd
000003e0: a88a b9bd 3bb6 c53d 4086 5bbc 863d bc3a
000003f0: 1433 debd 8e58 35be 6dc2 57be b023 813e
-0.05738401 0.10243616 -0.14877354 0.016743867 0.008551905 0.2857166 -0.14453094 -0.20045629
0.025370598 -0.17982757 0.15984145 0.14032196 -0.06261071 0.2530155 0.003906514 -0.110090524
0.17183878 0.033496168 0.21423239 -0.08457546 -0.19883484 -0.07005243 -0.08479554 -0.16894065
-0.12966914 0.123392045 0.09519413 -0.14631325 -0.12102296 0.058890976 -0.27684987 -0.08130381
0.0541588 -0.13874081 -0.08568906 -0.032535613 -0.12177778 -0.22767986 0.22914946 -0.16594253
0.0052321996 0.18047966 0.10638745 -0.115892604 -0.05497586 -0.15247808 -0.032925677 -0.060777582
0.24459378 0.1636525 -0.0016693237 -0.20004693 0.07468272 0.1744209 -0.11973545 -0.14650552
0.062172297 0.15107433 -0.26699355 0.09234524 -0.16428035 -0.08297021 -0.013478936 0.2442403
-0.09600733 -0.017406488 0.32194963 -0.096235186 0.14795023 0.10453931 -0.09938035 0.16361952
-0.1576668 0.12500657 0.12117218 -0.04013447 -0.19073674 0.15324129 0.16755523 0.04660218
-0.1508444 -0.0038157988 0.122419596 0.23231104 -0.016570937 0.04452079 -0.2198869 0.06913828
0.1412663 0.07044886 0.10124657 -0.008897311 0.06792835 -0.1384594 -0.081981175 0.2069466
-0.24820453 0.18539546 -0.05110075 0.039838556 -0.09445473 -0.25461823 0.05040333 -0.20948851
0.26810396 -0.100460246 -0.14709443 -0.3319795 0.02677255 -0.14141044 -0.09092929 -0.17453203
-0.08855418 -0.115361474 -0.04671592 0.18628922 -0.00721193 0.099597484 0.17781805 0.008955469
-0.061636213 0.06265758 -0.21186908 0.03032005 -0.10687587 0.077282295 -0.13550813 -0.2847892
0.04348826 0.144337 0.11192801 0.21619084 0.1397626 -0.20464613 -0.07155883 0.16508764
0.1638318 -0.26055586 -0.23338081 -0.2941113 0.19419664 -0.12175321 0.030274034 0.09363462
-0.19178651 0.07874089 0.083187826 -0.0508518 0.12500823 0.21186939 0.0034515094 0.033831697
-0.21924488 0.04167458 -0.3475169 -0.04938037 -0.19008277 -0.1787628 0.07261227 -0.18637912
0.019366667 0.15623283 0.020182414 0.11012667 -0.22774692 0.19129197 -0.18355753 0.27159894
-0.1718146 0.18555738 0.1364607 0.2265746 0.1619705 0.0850442 -0.1912865 0.16705935
-0.093348555 -0.04094028 -0.22607082 -0.017293954 -0.21360333 0.14355 0.0016008136 -0.044622615
0.00023608026 -0.051837914 0.3552065 0.0742079 0.19137412 0.044462133 0.06016834 -0.20830755
0.039188497 0.044401675 0.14235155 -0.14293748 -0.0059286803 -0.0630118 0.08050766 -0.18294792
-0.09665237 0.0013968706 0.064236216 -0.16847338 0.12139068 0.14183721 0.08894428 0.014112484
-0.29561895 -0.2585569 0.102961004 -0.16351226 -0.033681657 0.026179481 0.24203165 0.058147784
-0.22565438 -0.15320578 -0.1772755 -0.072080664 -0.19993201 -0.061408862 -0.37704888 0.2920326
-0.09319248 0.23922572 0.13228478 0.006469853 0.18121663 0.003993044 0.05956126 0.19360599
-0.057459455 -0.113730006 0.15689579 0.16135646 0.16432928 -0.22584678 -0.16130596 -0.065542184
0.092949554 0.012168847 0.36601245 0.060281128 -0.119676314 -0.117287725 -0.13646778 -0.072703786
-0.0905965 0.09653898 -0.013398707 0.0014361597 -0.10849586 -0.17709562 -0.21070261 0.2522254

fc1.bias f4 [64]
00000000: 771d 60be 8e64 e83c c7de 463b 84ba d7bd
00000010: 600a 3f3e 12bb 2c3e 85a0 b6bd 36d5 e9bd
00000020: e6bc 04be 1ecd dabd 27da bf3c f0f4 8c3c
00000030: db87 0b3e 88c9 90bd 4d0b 123e 2638 98bd
00000040: 2555 653e 4ee9 183e 49ed c73c 963d 2dbe
00000050: 00a0 b43d 1ff8 a23d d0e1 d63d 5401 e6bc
00000060: 832a 463e 4d58 75bb 1485 20be dd1c 19be
00000070: d166 2abe f7a4 743d f5c2 183e 3ddc 55be
00000080: e2df 9c3d 6d16 7b3d 9f09 2dbe 2266 24be
00000090: 06f4 2cbe 399f 45be 3ef4 47be 0ff4 9abb
000000a0: 3ebf 6cbe ac7d 113e de77 11be 6dee 3fbe
000000b0: 4490 fcbd 9f4d 33be f24c d9bd bf3f 193d
000000c0: 39d5 a4bd aaee bf3c df35 59be f244 13be
000000d0: 0502 19be 30d8 f63d cf1d 403d cf2e 36be
000000e0: 1033 4bbd 7310 3ebe 58bd efbd 6d09 fbbd
000000f0: 0788 11be 1451 023c 7938 3abe 2340 0d3e
-0.2188624 0.02836826 0.0030345188 -0.10533622 0.18656301 0.16868237 -0.089173354 -0.1141762
-0.12962684 -0.10683654 0.023419453 0.017206639 0.13626043 -0.07069689 0.14262123 -0.074325845
0.22395761 0.14932749 0.024405139 -0.16918024 0.0881958 0.079574816 0.10492289 -0.028076805
0.19352154 -0.0037436665 -0.15675765 -0.14952417 -0.16640784 0.059727635 0.1491812 -0.20884795
0.0765989 0.061300684 -0.16898201 -0.16054586 -0.16889963 -0.1929902 -0.19526765 -0.004728801
-0.23119828 0.14208096 -0.14205882 -0.18743296 -0.12332204 -0.17510079 -0.10610379 0.03741431
-0.080484815 0.023429234 -0.21211956 -0.1438177 -0.14942177 0.12052953 0.046903428 -0.17791294
-0.049609244 -0.18560962 -0.11706036 -0.12257657 -0.14212047 0.007953901 -0.18185605 0.13793997

fc2.weight f4 [64, 64]
00000000: 7f7f 1fbd ff53 a0bd d41d 623d d280 bf3d
00000010: 19b8 363e a539 ce3c 0b34 41bd 3043 4a3e
00000020: 7af9 97be e976 1a3e 71a1 65be 6d3f ecbd
00000030: 5be0 d5bd 86c4 c7b9 bd3b d63d 76c6 ae3b
00000040: 8052 b13c 8d82 72be 70ac 3e3e a171 efbd
00000050: 41b1 6b3a 5ccc 3ebd 9566 adbd c3ff 59be
00000060: 2da2 e8bd f843 c4bd bbf7 123e 17a2 f93d
00000070: 1c75 253e 5962 84bc 46f5 333e e645 b8be
00000080: 16d2 143e 0657 84bc 16c5 e13d 865d 0ebd
00000090: 2041 003e d7b5 43be dcb2 163e 7773 a9bd
000000a0: 754d 523e 1156 013e b898 bdbd 3ece 8f3e
000000b0: 4369 a7be 244a 653d 9793 d43b 288e 2dbd
000000c0: c6e7 f53c ca6d 25bd 8aa4 6d3c c0c1 853d
000000d0: bd5b 573e 434d 93bd 4cb9 ac3d 86d3 f03d
000000e0: e5cf 373e 3c13 be3d 6cd8 fc3d 0464 a93c
000000f0: 9104 003d 55e3 2ebd 72b8 b3bb 00b3 f5bb
00000100: 1e26 92bd 7057 b23d b520 c03b 50ea 0cbe
00000110: b626 03be f7e6 ae3c 48b8 e9bd 669f 4b3d
00000120: 1913 4dbd 4db4 79be ebd8 94bd 3e1d 31bc
00000130: 8ce5 b33c c374 48be ff63 473e 5949 493d
00000140: 2cef 82bd cb23 e5bd 968e 603d 608e f8bd
00000150: 3c17 27bd f5f2 bb3d 35cc 09bd 48cf 3a3d
00000160: c8e0 043c 6b0a f73d 0fb7 223e eca2 013e
00000170: 1ffd f4bd 4435 803d 294a 853d d405 3b3d
00000180: 3632 87bd 3bdc 413e c538 223e 5a27 173e
00000190: ab54 9dbd a007 55be 2df4 3a3e f040 15bd
000001a0: a16c 923b 7d90 093d 2a8f eb3d 3e0f d7bd
000001b0: 4799 8dbd 677e acbc 2aa8 d83c 3c98 4bbe
000001c0: 6849 913d 434b 0bbe 8688 3cba af93 913d
000001d0: eda3 103e cca1 333d 8786 a6bd b066 1dbd
000001e0: 321f c63c 1d36 de3d 1df6 613d 26e8 0c3d
000001f0: 2145 353c dd5b a1bd f272 14be 9af9 82bd
00000200: 1de5 983d 5de4 0e3d 0420 4abc f5b4 6e3d
00000210: a6af 1bbd def6 ae3d ee05 a23c e466 52be
00000220: 7777 063e 71fb f8bd 19ff f2bc eeb1 193e
00000230: e232 343d 12e1 0c3c e139 83bd 43f5 583d
00000240: d962 933c 88c0 17be 1ce1 233d 964c 3538
00000250: 604e 103d 1851 e83d 758e 6e3c 13ab 2b3a
00000260: 4451 a2bd de43 893c 5d2a 79bc 30b7 35ba
00000270: 0557 1cbd 5f06 0d3e e631 a6bd bbc3 32be
00000280: 2ad0 183e 2d69 3abe 2821 84bd 71aa debc
00000290: 5a44 1b3d ba9c 4e3d 4c2a 863c 0102 b63d
000002a0: f35d 623d 6c92 853a 52aa cb3d b2ec b9ba
000002b0: f217 54be 94ce 27bd 791b 313d 570b 30bc
000002c0: dfd6 a7bd d686 983c 7380 3f3e 300e c53d
000002d0: f9f7 40bd 25ec f1bc 6f61 57bd 19f6 f73c
000002e0: ab7a abbd a0b2 b9bd a96d 073e a220 bd3c
000002f0: 0581 08be df58 8abd 72bc 1b3d f1bc 18bc
00000300: 9e15 003d e628 e6bd ae2c 4c3c 9c96 97bd
00000310: bce4 af3d 1a47 30bc 2896 9bbd 2679 f3bd
00000320: 04f8 86bd ba03 f2bd f097 17bc a057 18bd
00000330: db44 45bd 9dff 8b3d abcd d63c 8081 9dba
00000340: 32b3 5c3d 7072 04bc 374f c53d 43fc 6bbd
00000350: 02e2 83bd 3257 c63d 035b 9d3d c8a9 c8bc
00000360: 6c12 d7bd 4280 c1bd abd2 d7bc 5d0b 15bc
00000370: 338d dc3d 4ee3 543c 042d a33c 24a1 023d
00000380: e050 15bd 5cf7 0c3d fdbe ec3b 2e23 e9bd
00000390: b689 c63c e6c9 91bd 8141 b1bc dc47 0fbd
000003a0: a648 903d 6ffb 42bd 1e5e fabd b002 ed3c
000003b0: 7bef 8b3d 0484 d1bd d2a8 9b3d 6c3b febd
000003c0: d157 0fbe 08ff 1f3d 142d 8b3d 86c8 8fbd
000003d0: 515a d4bd 5a71 7bbd 9389 863c 9ce8 ae3d
000003e0: 2692 c73c 8f4e 87bd 537d cd3d f5eb f9bd
000003f0: 9eea c5bd 2a81 0cbd 107d ed3d abd0 cbbd
-0.03893995 -0.07828521 0.055204228 0.093507424 0.17843665 0.025173971 -0.047168773 0.19752192
-0.29682523 0.15084423 -0.22424866 -0.11535535 -0.10443183 -0.0003810266 0.10460613 0.005333717
0.021645784 -0.23682614 0.18620467 -0.11691595 0.00089909515 -0.04658161 -0.084668316 -0.21288972
-0.113590576 -0.095832765 0.14352314 0.12189119 0.16157955 -0.016160177 0.17574033 -0.35990828
0.14533266 -0.016154777 0.11023919 -0.03475716 0.12524843 -0.19112335 0.14716667 -0.08273976
0.2053736 0.12630488 -0.092576444 0.28087038 -0.32697496 0.05597891 0.0064873206 -0.0423719
0.030017745 -0.040387906 0.014504561 0.065310955 0.21031089 -0.07192471 0.0843378 0.11759095
0.17950399 0.092810124 0.12345967 0.020677574 0.031254355 -0.04269727 -0.005484634 -0.007498145
-0.071361765 0.08708084 0.005863274 -0.13761258 -0.12807736 0.021350367 -0.11412102 0.04971256
-0.05006704 -0.24385186 -0.07267936 -0.010810195 0.021960042 -0.19575791 0.19471739 0.049142215
-0.06393275 -0.111884676 0.05482348 -0.12136531 -0.040793642 0.091772 -0.033642013 0.045607835
0.008110233 0.12062534 0.15890144 0.12659806 -0.119623415 0.062601596 0.065082856 0.045659855
-0.06601374 0.18931668 0.15841968 0.14761105 -0.07682165 -0.2080369 0.18257208 -0.036438882
0.004468516 0.03358506 0.11501916 -0.10500954 -0.06914001 -0.021056367 0.026447374 -0.19882292
0.07094079 -0.13602929 -0.00071919744 0.071082465 0.14125033 0.043855473 -0.08131128 -0.03842801
0.024184797 0.10850165 0.055166353 0.03440108 0.011063845 -0.0787885 -0.14496973 -0.06395264
0.07465575 0.034885753 -0.012336735 0.058278043 -0.03800931 0.0854318 0.019778218 -0.20547062
0.1313151 -0.12157334 -0.029662656 0.15009281 0.043993838 0.008598583 -0.06407524 0.052968275
0.01799147 -0.14819539 0.040009603 4.322509e-05 0.035230994 0.113435924 0.014560332 0.00065486244
-0.079256564 0.016755994 -0.015207854 -0.0006931899 -0.038168926 0.13771962 -0.08114986 -0.17457478
0.14923158 -0.18204184 -0.064516366 -0.027180882 0.037906982 0.050442435 0.01637759 0.08887101
0.05526538 0.0010190732 0.099445954 -0.0014184921 -0.2071226 -0.040968493 0.04323909 -0.010744891
-0.0819528 0.018618982 0.18701343 0.09621847 -0.047111485 -0.029531548 -0.052583154 0.030268716
-0.083730064 -0.09067273 0.13225426 0.02308685 -0.13330467 -0.06755232 0.038021512 -0.009322391
0.031270616 -0.112382695 0.012461824 -0.07401773 0.085885495 -0.010759139 -0.075969994 -0.118883416
-0.06590274 -0.11817117 -0.009252533 -0.03719294 -0.04816137 0.06835864 0.026221117 -0.0012016743
0.05388183 -0.008083925 0.0963425 -0.057613622 -0.06439592 0.096846 0.07683375 -0.02449502
-0.105015606 -0.09448291 -0.026345572 -0.0090969475 0.10769119 0.012993647 0.019918926 0.031891957
-0.03645408 0.034415588 0.007224916 -0.11383663 0.024235588 -0.07118587 -0.02163768 -0.03498064
0.070451066 -0.047603067 -0.12224983 0.028931946 0.06832787 -0.10230258 0.07600559 -0.124136776
-0.13998343 0.039061576 0.06795707 -0.07020669 -0.10368789 -0.061387397 0.016423022 0.085404605
0.024361681 -0.06606781 0.10033669 -0.12203208 -0.0966389 -0.034302868 0.115961194 -0.0995191

fc2.bias f4 [64]
00000000: be7e c3bd 894e 8d3d 6d3f 163d 0941 e5bd
00000010: 68cb 0ebe 86a1 473d 2979 df3c 0ab0 dfbd
00000020: db48 4d3d 7c48 803d ed91 90bd b54c db3d
00000030: 84f3 40bb 0c6c e43d 5903 6abd fb12 a9bc
00000040: ef4a f63b e8a4 953c b631 bbbc 6269 1fbc
00000050: b3d2 0d3c e1b6 59bd 2ed3 92bd 01ad ee3d
00000060: 45d2 07bd afcf b43d 8104 e5bd f93e 9ebd
00000070: 9552 8dbd 77a4 a63d 7c49 693d fb54 963d
00000080: db27 dcbd 81e8 e93c 9ee4 aebd 762b d6bd
00000090: 54eb f0bd 1af1 15bd 209f bb3d 88b1 8b3d
000000a0: 7043 28bd 09d7 943d abb0 e43c 74eb 9c3d
000000b0: 8149 073e c2f5 313d f9f5 dbbb 8281 fb3d
000000c0: 562d 8a3c 6d97 dabb 5357 983c d8f8 c33d
000000d0: 5bd0 b0bc bed6 013c 9a60 24bd f428 043c
000000e0: 4a36 ef3c 0897 bc3d dc80 d6bd 7d41 cc3d
000000f0: aa62 ed3d 263b bf3d b645 0a3d d9d8 29bd
-0.095456585 0.06899745 0.03668158 -0.11194045 -0.13944781 0.048738025 0.027279453 -0.10922249
0.05011831 0.06263825 -0.07059083 0.1070799 -0.0029442022 0.11153421 -0.0571321 -0.020638933
0.007516257 0.01826711 -0.022850852 -0.009729715 0.008656192 -0.053152923 -0.071691856 0.116540916
-0.033159513 0.08828675 -0.111825 -0.07726855 -0.06900517 0.08136838 0.056954846 0.073404275
-0.10749789 0.02855325 -0.08539699 -0.10457508 -0.11763635 -0.036606885 0.0916121 0.06820971
-0.04107994 0.07267577 0.027916273 0.076620966 0.13211633 0.043447264 -0.006712672 0.12280561
0.016867321 -0.0066708834 0.018596327 0.095689476 -0.021583727 0.007924734 -0.04013119 0.008066405
0.029200692 0.092084944 -0.10473797 0.099734284 0.11591084 0.093374535 0.033757888 -0.041466568

fc3.weight f4 [64, 64]
00000000: eee8 c9bd 30cd da3c fe9e dfbd 0261 813d
00000010: d01b 6f3c ced1 bdbd e084 55bc bc73 683d
00000020: e86d ae3d c0a1 123c 0c5f a0bd e0ba 643c
00000030: 3870 a0bd 70a4 0d3d 90f1 713c 9cc8 643d
00000040: 369c e5bd 0008 c7bc 4c03 99bd 40fb fc3b
00000050: b847 65bd 2837 513d a8d1 953d e20f f6bd
00000060: 7e2d f93d c8be 6e3d b247 a33d c091 bfbc
00000070: aa6c c2bd 409f 053b 5c38 f83d 1885 d2bc
00000080: 28ee bebc 3492 0a3d 2ef2 983d 40ed 933c
00000090: 804b cebc 0cf2 6a3d 80be 25bb 4cc2 763d
000000a0: 5862 943d 3c63 e6bd 4ccd 29bd 34c5 54bd
000000b0: 302c 9c3d a09c a2bb 6867 63bd 983e fc3d
000000c0: a8e9 87bc 32f5 833d d4b8 9dbd c654 cabd
000000d0: c0d2 ea3b 6691 983d 2ea6 a4bd 5623 c3bd
000000e0: fc10 bd3d 204b d23b faab f43d b013 86bc
000000f0: f0cf 5ebd f8c1 4cbd 7666 e93d 4897 8b3d
00000100: 152b 09bd c641 d33d 7116 d33d 5483 dcbd
00000110: aca9 79bd baf6 6dbd 9566 573d 94f7 bcbd
00000120: de80 a33c 3530 e03c 001b c4bd 9eda d93c
00000130: f474 3bbd a862 d9bd 5be4 943d 47b7 f0bd
00000140: b21c 04be d398 7abd 37da a4bd 8dbc 8c3b
00000150: 2c29 0e3d 742f f5bd 6de2 eabd 6e7d ed3b
00000160: 4f6b 7dbd 504c fbbc 3848 a7bc dd94 c1bd
00000170: 4de5 b93d 3826 233d 549b d5bd 0ea9 61bd
00000180: c758 9bbc 52ac cd3c 1215 b2bd e199 a53d
00000190: acff 78bd 0079 fabb c99a 97bd 3c40 16bd
000001a0: e486 453d 1bc9 8abd 7f6c 733d 72d3 d6bd
000001b0: 5870 debd 0a69 0c3d 54bb 503d 22ba b53d
000001c0: 7bd1 1a3d 4e5e a13d 4899 96bc e81a 1a3d
000001d0: 58c8 4f3d b804 01be 46ea 14be 71f3 f8bd
000001e0: e00d 8cbd c076 773b 4a96 d9bd b798 acbd
000001f0: eec8 bdbd cd03 7f3d 168f a03d 004c 41bd
00000200: 020e d4bb a745 7bbd 1d0a 923d 47aa bb3d
00000210: 1da8 86bd 7e16 dfbd 9940 f1bc 180e 03be
00000220: b2d0 e6bc ad04 9abc 44aa 7c3e 2b2e 81bd
00000230: 7204 603d 61e4 e33d 420d 2c3e 0091 d1bc
00000240: b06b 283d f2c5 433d 02d8 08bd aca5 e53d
00000250: 9491 8c3d ea70 1d3e 4563 56bc 7e12 ab3d
00000260: 2468 53bd 786e 2cbe bff5 4c3d 41f6 8d3b
00000270: e890 b63d 0563 c0bd 3eca 1dba ac06 f93d
00000280: 9cf3 a0bd d01d febc 7a9b 29be f32e df3d
00000290: 25c1 c93b 8b00 1dbe 6349 e1bc 3579 763d
000002a0: 3016 fb3c 256e fbbb 421e 263d 8a3a cfbc
000002b0: 3edb 89bd 286c 76bd 7a17 2ebd 8c35 c9bd
000002c0: 2ca7 023e 0416 a53d efe2 fc3d f1e2 283c
000002d0: 91c3 3ebe 8396 bebd 85e6 2a3d 185f 853d
000002e0: 4682 50bd 86f0 933d 0018 6ab9 9f7d bc3d
000002f0: 1f5b de3d e98b 52bd 6437 83bd fbf1 16be
00000300: ed4c 6c3e 9830 93b6 39a2 eb3d 3e03 80bd
00000310: d421 8dbd 7315 cabd 11c6 edbd bf1a c93d
00000320: 8324 1ebc 4533 133e e360 bf3c b281 0a3d
00000330: 0079 f9bc cdfb 04be 730d 53be 7d0a 1bbe
00000340: 759d 31be ce5a b3bb 525a 31be f03a bc3d
00000350: 935c af3d dd78 153e 941c 3e3d 3916 683c
00000360: 5616 03be 82b8 c23e 84f5 4d3e 8888 9bbe
00000370: 91eb 31be 4ea0 8ebd 02be f73d be2e 95bd
00000380: 9c6c a1bd df77 aabd d317 99be b42a a0be
00000390: 1cd6 1fbd cb34 fabd f768 c93d 3826 073e
000003a0: 2d18 d1bd 8077 0bbe de2a c0bd 61e0 3e3e
000003b0: 19a4 c93c 127e 9d3d e4a3 73be bf08 bfbd
000003c0: fbaa 0d3e d229 33be 53c4 ecbb 261d c83d
000003d0: 8984 a43d 030a 253e c87c 7dbd 0787 c13c
000003e0: 9185 593e c9c3 85bd 98ca c03c 5479 763d
000003f0: aa6d 143e 88ae 6cbd 3f88 db3c fa30 9cbd
-0.09858881 0.02670917 -0.10918997 0.06317331 0.014594033 -0.09268533 -0.013032168 0.056750998
0.08517057 0.008949697 -0.07830629 0.01396057 -0.07833904 0.034580648 0.014767066 0.05585538
-0.112114355 -0.024295807 -0.07471332 0.007720381 -0.0559766 0.05107799 0.073153794 -0.12014748
0.1216688 0.058287412 0.07972659 -0.023384929 -0.09493382 0.002038911 0.12120125 -0.02569823
-0.023306921 0.033830836 0.07468067 0.018057466 -0.025182486 0.05735974 -0.0025290549 0.06024389
0.0724532 -0.11249396 -0.041455552 -0.05194588 0.076256156 -0.004962519 -0.055518538 0.12316626
-0.016590908 0.06443252 -0.07701269 -0.098794505 0.0071662366 0.074496076 -0.08039509 -0.09528224
0.09231755 0.006417647 0.119468644 -0.01636681 -0.054397523 -0.04998967 0.11396496 0.06815964
-0.03348835 0.1031528 0.10307015 -0.10767236 -0.060952827 -0.058096625 0.052588064 -0.09226909
0.01995891 0.027366737 -0.09575462 0.026593503 -0.045765832 -0.1061452 0.07270118 -0.117537074
-0.12901571 -0.0611809 -0.08049434 0.004294938 0.034707233 -0.119719416 -0.114689685 0.0072476184
-0.061869916 -0.030676037 -0.020420179 -0.094522215 0.09076939 0.03983137 -0.10430017 -0.055092864
-0.01896323 0.025106583 -0.08695425 0.08085991 -0.060790703 -0.007643819 -0.0740257 -0.036682352
0.048224345 -0.06776639 0.05942964 -0.10489549 -0.108612716 0.03427986 0.0509599 0.08873393
0.037797432 0.07879315 -0.018383637 0.037623316 0.050728172 -0.12599456 -0.14542493 -0.12155808
-0.06838584 0.003775999 -0.106243685 -0.084275655 -0.0926684 0.062259484 0.078397915 -0.04719162
-0.0064713964 -0.061345723 0.07130835 0.09163337 -0.06575034 -0.10892962 -0.029449748 -0.12798345
-0.028175686 -0.018801058 0.24674326 -0.06307634 0.05469174 0.11127544 0.16801932 -0.025581837
0.041118324 0.047796197 -0.033409126 0.1121324 0.06863704 0.15375105 -0.013085191 0.083531365
-0.051612988 -0.16839015 0.05003905 0.0043323343 0.089143574 -0.093938865 -0.0006019211 0.12159476
-0.07858965 -0.031020075 -0.16563216 0.10897627 0.006157058 -0.15332238 -0.027500814 0.060174186
0.030650228 -0.0076730424 0.0405562 -0.025296468 -0.0673127 -0.06016174 -0.042502858 -0.098246664
0.12759084 0.0806084 0.12347972 0.010308013 -0.1862929 -0.093060516 0.041723747 0.06512278
-0.05090549 0.072236106 -0.0002232492 0.09203648 0.10857224 -0.05140296 -0.06407049 -0.14740746
0.2307622 -4.3865984e-06 0.11505551 -0.062506184 -0.06891218 -0.09867372 -0.11610044 0.098195545
-0.00965226 0.14375027 0.023361629 0.033815093 -0.030453205 -0.1298668 -0.20610599 -0.1514072
-0.17345221 -0.0054734712 -0.1731961 0.09190929 0.08562579 0.14596887 0.046413973 0.014165455
-0.12801489 0.38031393 0.20113188 -0.30377603 -0.17375018 -0.069641694 0.12096788 -0.07284306
-0.07882044 -0.08323645 -0.2990099 -0.3128258 -0.03902255 -0.12217101 0.098344736 0.13198173
-0.10209689 -0.13619804 -0.09383176 0.18640281 0.02461438 0.07690062 -0.23792988 -0.0932784
0.13834755 -0.17496422 -0.007225552 0.097711846 0.080330916 0.161171 -0.06188658 0.023623956
0.21242358 -0.06531484 0.023534104 0.0601743 0.14494959 -0.057783633 0.026798366 -0.07626529

fc3.bias f4 [64]
00000000: 4a49 afbd fc4e 00be 8865 4a3d 117a 19bd
00000010: 7237 6c3d 7689 843d af87 aa3d ce7c b53d
00000020: ae08 053e 78da c23d 80a5 773d 7d94 a5bc
00000030: e765 f73d 578f a73d 8873 26bc c822 3cbd
00000040: aa82 1f3c a22c 9ebd 8c17 e9bd 5c03 a93c
00000050: 5b6d 053e 4484 c73d 70c9 2dbd 119c 7fbc
00000060: 80b0 94bd 42bd febd a897 2e3d d168 d33d
00000070: 534e 9ebd 4333 34bd 605d 8f3d f866 e8bd
00000080: c688 643d 55a9 d23d c23f eebd f10c 51bd
00000090: 8974 f4bb 9787 f83d 7e90 00bd fd68 f13d
000000a0: 18c2 dabc 4699 e73d 2d94 dfbc 9e6e b03d
000000b0: 2a6e 013e 3f57 55bd 800f 5cbd 0ef3 7a3d
000000c0: 7a53 123e b2a1 13bc 947c ea3c ef13 463c
000000d0: cd5a 8bbd 0a58 463d b976 dc3d 19db c63d
000000e0: c3d9 1a3e b782 db3c 2426 dcbd f6f5 393d
000000f0: 3dee 763d a3e9 c33d d335 103d 1739 15bd
-0.08558901 -0.1253013 0.049413234 -0.037469927 0.057670064 0.06471531 0.08326661 0.08861695
0.12991592 0.09514326 0.060460567 -0.020212406 0.12079983 0.08181637 -0.010159381 -0.045931607
0.009735743 -0.07723357 -0.11381444 0.020631485 0.13029997 0.097420245 -0.042428434 -0.015601174
-0.07260227 -0.12438442 0.0426251 0.103227265 -0.07729783 -0.0439942 0.07000232 -0.11347765
0.0557945 0.10286204 -0.116332546 -0.051037733 -0.007460181 0.12135237 -0.0313878 0.11787603
-0.02670388 0.113085315 -0.027292335 0.086148486 0.1263968 -0.052085157 -0.05372572 0.06126695
0.14289656 -0.009010719 0.028623857 0.0120897135 -0.06804428 0.048423804 0.10764832 0.09709758
0.15122132 0.026795728 -0.10749462 0.045400582 0.060285795 0.09566047 0.03520758 -0.0364314

reg_head.weight f4 [1, 64]
00000000: 4eb6 9b3d 320a b1bd b1d7 193d f862 63be
00000010: 5bb8 5abe 3477 d33c c2fe 4a3d 8761 b2bd
00000020: 1baf c03d 10b7 6c3d 4404 a43d 4492 a73c
00000030: 2984 ed3d a23f 1cbe 60d0 5dbd 5d11 98bd
00000040: 5475 653d 1cfe a9bd 106e 893d be09 44bd
00000050: 2576 943d 24d6 b7be e655 cebd 4c7d 233e
00000060: 5167 ee3d 309b 7f3c c72f 38be 670f bd3d
00000070: 7ba1 973d da78 16bd 869a 17be 98ab d73d
00000080: c057 c3bd eced b1bd 00a8 8b3b a461 a1be
00000090: e5cb bebd 25cc ae3d d6c0 3abd 2559 bb3d
000000a0: fde9 f1be 053e 1d3e a183 103e 62d0 a43d
000000b0: 02b8 923d 7a7b 5ebd 014b a63d f6f6 81bd
000000c0: 921c 0a3e d588 b03d bc02 9fbd 7c82 1d3d
000000d0: a115 363e e624 93be a1ee 123e 8ec0 a53d
000000e0: 5050 203e d53a 4dbe da51 c13d 279b 1ebe
000000f0: 621e 5cbd d782 c3bd 0c4f 143d 435d b3bd
0.07603131 -0.08644523 0.037559215 -0.22205722 -0.21359389 0.025813676 0.049559362 -0.08710008
0.09408399 0.05779177 0.08008626 0.020455487 0.11597473 -0.15258649 -0.0541538 -0.07425187
0.056020096 -0.08300421 0.06710446 -0.047860853 0.07249097 -0.35905564 -0.100749776 0.15965766
0.116408 0.015600964 -0.17986976 0.092314534 0.07403847 -0.036736347 -0.1480504 0.10530776
-0.09538221 -0.08687958 0.0042619705 -0.31519806 -0.093162335 0.08535031 -0.04559406 0.09147862
-0.4724883 0.1535569 0.14112712 0.08047558 0.07164003 -0.054316975 0.081197746 -0.06345932
0.13487461 0.08619849 -0.077641934 0.038454518 0.17781688 -0.2873909 0.14348842 0.080933675
0.15655637 -0.20041974 0.0943944 -0.15488873 -0.053739913 -0.0954644 0.036208197 -0.08758023
