grasp_placement/models/run_seed_273/stability_net.pth (torch, 289476 bytes, 5 tensors)

fc1.weight f4 [256, 21]
000000 ef 83 dc 3d 38 88 da 3d 17 3b 81 bd 9d ae d6 3d
       0.10767352 0.10670513 -0.063100986 0.104825236
000010 96 ae 18 be 73 11 25 bc 4a 3d c8 bd 33 8d 17 be
       -0.14910349 -0.010074961 -0.09777315 -0.14799957
000020 78 13 83 bc a6 44 60 bd 28 a6 39 3d ef 60 63 3e
       -0.016000494 -0.05475297 0.045324475 0.22204946
000030 d3 91 08 be 28 a3 56 bd 4b e4 21 3e 04 38 7d bd
       -0.13336878 -0.05240169 0.15809743 -0.061821
000040 05 02 8c bd 77 b1 9b bd 65 95 cc 3c 79 89 e9 bc
       -0.06836323 -0.07602208 0.02497358 -0.028507935
000050 e0 d0 6c bd 16 d3 83 3d 5a 99 8d 3e 82 5d a8 3c
       -0.057816386 0.06436746 0.2765606 0.0205524
000060 b6 78 b6 3d bd 75 00 3e d2 0c 3d 3d db 6e 9a 3d
       0.089097425 0.12544914 0.046154805 0.07540675
000070 72 65 91 3c a0 4f 9b bd cc 5d 52 be 9f e2 79 be
       0.017748568 -0.07583547 -0.20543593 -0.24402855
000080 4e ef 0d 3e be 01 95 3e 35 ab fa 3c ba 6c 0d be
       0.13860819 0.29102892 0.030599216 -0.13811007
000090 95 0b 3d 3e 5c 01 85 be ee a8 a3 3d d0 da 8b 3e
       0.1846145 -0.259776 0.07991205 0.27315378
0000a0 76 47 f1 bd 0d da 34 3e 3f a2 0d be 68 94 66 3e
       -0.11781208 0.17661305 -0.13831423 0.2251755
0000b0 b2 64 ca 3d 7f ff 1e 3e 3b a3 23 be 7d ab 5a 3d
       0.09882487 0.15527152 -0.15980236 0.0533862
0000c0 c8 46 3d be 37 7d 3f bd 38 97 af bd cd 8f 2a bd
       -0.18484032 -0.046750274 -0.085737646 -0.041641045
0000d0 26 78 03 bd d1 eb 96 3e 9b d1 ec bd d2 a5 77 3d
       -0.032097004 0.2947679 -0.115634166 0.060460873
0000e0 89 76 ad bd 04 9d 93 bd 4c d2 29 be 2d dd 24 3e
       -0.084698744 -0.07207683 -0.16584128 0.16099997
0000f0 83 f0 3f 3e 1a d5 c0 bd 67 20 3f be ca f7 86 3d
       0.18744092 -0.09415646 -0.18664704 0.06590231
000100 fe 31 90 bd 69 5f 5a be 70 db 50 bd 12 ba c6 bd
       -0.07040785 -0.21325459 -0.050990522 -0.09703459
000110 cd 93 0e 3e 4c 32 4c 3d cc 1f 5b bc 52 3d ec bd
       0.13923569 0.049852654 -0.01337428 -0.115351334
000120 7b 3e 54 bd bb 5a d1 3d 62 76 a5 3d dd 37 87 be
       -0.0518174 0.102223836 0.0807922 -0.26409808
000130 fe ee 4a be 25 7b 32 be 97 f5 7b 3d 1e 3b 45 be
       -0.19817731 -0.17429788 0.06151351 -0.19260833
000140 b9 a5 46 3e 4d fb 0a 3b a7 de 45 bc 89 6c c0 3d
       0.19399156 0.0021206916 -0.01207701 0.093957014
000150 b0 5b 0a bc 49 aa b2 3d 3a 1f 47 3e b1 69 14 3e
       -0.008444712 0.087238856 0.19445506 0.14493443
000160 7e a6 35 be a3 9d 3c 3b 60 01 5b 3e 16 c1 16 3e
       -0.17739293 0.0028780482 0.21387243 0.14722094
000170 de fb 3a bd 67 7b 84 bd fb 56 52 3d d4 2b 21 bd
       -0.045650356 -0.0646885 0.051352482 -0.03934844
000180 b9 f5 96 be c4 7b f3 bd 3a 92 86 bd 99 f6 90 3d
       -0.29484347 -0.11888841 -0.06570859 0.07078285
000190 b2 a6 51 bd 4c 0c 33 3e 54 90 72 3c 4e aa 2e 3d
       -0.051184364 0.1748516 0.014804918 0.042642884
0001a0 a4 87 35 be f5 c9 80 be d9 ab 7c 3e 74 c3 96 bc
       -0.17727524 -0.2515408 0.2467493 -0.018403746
0001b0 fa 7a 4a be ce 04 4d bd 80 9d 32 3d 19 10 0c 3e
       -0.19773474 -0.05005341 0.043607235 0.13678016
0001c0 18 56 71 bd 99 e5 44 bd 32 59 76 be fd 8f 47 3e
       -0.058919996 -0.048070524 -0.24057463 0.19488521
0001d0 6d da 6e be 76 da 71 be fe de 66 3e a1 69 e0 3d
       -0.2332551 -0.23618492 0.22546002 0.10957647
0001e0 11 3c cf bc dd 78 03 3e 2c f8 a7 be 59 01 99 3d
       -0.025297197 0.12839074 -0.32806528 0.0747096
0001f0 c5 de 8d bd a0 31 12 be f7 f0 f5 bd aa 66 93 bc
       -0.069272555 -0.14276743 -0.12008851 -0.01799329
000200 19 f3 a7 bd 24 f7 bb bb c1 98 24 3d 43 96 a9 3c
       -0.08200664 -0.0057362486 0.04018474 0.020701533
000210 27 50 d3 bd 9d 17 a2 3d e6 ac 47 3e a8 3c 2a 3e
       -0.10318022 0.0791466 0.1949955 0.16624701
000220 7b e4 12 be 0b 7a a2 3d 21 23 12 be c2 06 36 bd
       -0.14344971 0.07933434 -0.14271213 -0.04444004
000230 45 45 cf bc d6 fe fb 3d e6 84 e0 bd aa 75 a9 3c
       -0.025301585 0.123044655 -0.10962848 0.02068599
000240 39 0e 2a 3b cf 24 52 be 2b 78 28 3e b9 4a 77 3e
       0.0025948419 -0.20521854 0.1645209 0.24149598
000250 ab 3b f1 bd 83 fb 35 bb 0a 2b 0a 3e 64 c0 33 bd
       -0.11778959 -0.002776832 0.1349298 -0.04388465
000260 9a 17 49 bd 9b 65 0c 3e aa 9f 09 3e 83 74 f8 bd
       -0.049094774 0.13710634 0.13439813 -0.12131598
000270 a6 53 6d 3c a5 28 f1 3d da 1b 8c bc d8 2f 9b be
       0.014485275 0.117753305 -0.017103124 -0.3030994
000280 bb bd c1 be 59 44 9c be e3 63 e5 3d 8c 47 c1 37
       -0.37840065 -0.30520895 0.112006925 2.304071e-05
000290 f3 3f 53 be 29 bd 6c bd ee 62 86 3d eb 20 2e 3e
       -0.20629863 -0.057797585 0.06561838 0.17004745
0002a0 d6 8d e5 bd 4f 32 3e be 5b 6b f0 bc 2a eb 1a 3e
       -0.11208694 -0.18573879 -0.029348066 0.1512877
0002b0 c4 2a c0 3d 9b 71 cc 3d 47 da 47 3e 94 73 01 3e
       0.09383157 0.09982606 0.1951686 0.12641746
0002c0 63 c8 71 be bc 74 04 be 8d 5f b5 3d d2 af af bd
       -0.23611598 -0.12935156 0.088561155 -0.08578457
0002d0 43 f6 30 3e b7 6c 74 3e 74 f6 a4 bc 94 aa 50 be
       0.17281441 0.23869596 -0.02013705 -0.2037757
0002e0 a1 0d 12 be 9b 4e 24 be 7d 2a 14 3e 98 be e7 3d
       -0.14263012 -0.1604561 0.14469333 0.1131565
0002f0 54 cf 39 be 58 58 70 bd c8 40 05 be 7a 19 ea bd
       -0.18145496 -0.058678 -0.13012993 -0.114306405
000300 2a c8 c8 3d c4 eb 10 3e b0 e8 61 3e 46 a5 5d bd
       0.09803803 0.14152437 0.2206142 -0.054112695
000310 f3 b3 72 3d 6b 6f 61 3e 74 2c 5e 3e df 17 32 be
       0.059253644 0.22015159 0.21696645 -0.17391919
000320 b7 fa 8a bc 83 4c df 3d 13 4b 31 be 38 52 cc bd
       -0.016965253 0.10903265 -0.17313795 -0.099766195
000330 2b 46 87 bd 33 06 44 be 79 55 53 3d 28 e1 44 be
       -0.0660518 -0.1914299 0.051595185 -0.19226515
000340 2b f8 dd 3d 21 67 20 be 90 8a 01 be a5 ec 02 bd
       0.1083835 -0.1566434 -0.12650514 -0.031963963
000350 f4 00 e6 bd 5e 7d b1 bd 06 5d 1c be b6 a6 04 be
       -0.112306505 -0.0866649 -0.1526986 -0.1295422
000360 30 a6 b1 3d 46 8a b5 3d 5a f3 67 3e cf a4 7c 3b
       0.08674276 0.08864264 0.22651425 0.0038550382
000370 0a 6a c4 3d 52 4d 31 3e 35 fe 90 3c eb a1 f8 bd
       0.09590538 0.17314652 0.01769934 -0.121402584
000380 74 e3 82 bd 21 9d 1b bb e5 e8 33 be 9b 2f 87 be
       -0.063910395 -0.002374478 -0.17569311 -0.26403508
000390 ae 2e 17 bd 28 97 5f 3d 5d 7a d0 bd f5 43 db bd
       -0.03690975 0.054587513 -0.10179589 -0.10706321
0003a0 45 bf 04 bd ad d3 2c be 89 62 68 be 58 f6 1e 3e
       -0.03240897 -0.16877623 -0.22693838 0.1552366
0003b0 3c db d1 bd 07 00 36 3e e2 a8 6a 3d 40 8c 2b 3c
       -0.10246894 0.17773448 0.057289965 0.01047045
0003c0 0a 9b 1f bd 98 56 cc 3d 35 35 7a be 30 ff e9 3c
       -0.038966216 0.09977454 -0.2443436 0.028564066
0003d0 06 fe 86 3e f5 35 7f be 6d 13 ba bd 6d 6a 7a 3d
       0.2636568 -0.24922927 -0.090857364 0.06113665
0003e0 e5 1d 11 be ec bb cb 3d 89 b9 9e 3d 73 47 84 3d
       -0.1417156 0.09947953 0.07750232 0.0645894
0003f0 ab b1 66 3e 70 e8 13 be 9e 4e 35 be cf 3c 81 3d
       0.22528712 -0.14444137 -0.17705771 0.063104264

fc1.bias f4 [256]
000000 95 c4 99 3d e8 53 d4 bd c7 da 0a 3e 54 25 19 be
       0.07508198 -0.10367566 0.1356002 -0.14955646
000010 21 62 2a 3b 85 85 af bd 5b c1 5e be a9 23 12 be
       0.002599843 -0.08570389 -0.21753447 -0.14271416
000020 bf 7b f6 bd c4 40 79 3c 68 cd 97 3c 15 8f e2 3d
       -0.120353214 0.015213195 0.018530563 0.11062447
000030 33 88 a1 bd f7 ce c8 3c cb 01 7c 3d 84 b5 e2 3d
       -0.07887306 0.024512751 0.061525147 0.110697776
000040 89 87 46 be 06 8d bd bd b2 bd c4 3d 9d 61 d4 bd
       -0.1938764 -0.09255414 0.09606494 -0.10370181
000050 6e a6 d3 3c ba 74 47 be d5 84 00 be 79 ad 54 bd
       0.025836196 -0.19478121 -0.12550671 -0.05192325
000060 ba 71 45 be b2 0a 60 be c3 2a 6d 3d 1d c7 8e 3d
       -0.19281664 -0.2187908 0.05790211 0.069715716
000070 7a 76 70 3d bf db 0a bd 98 9d 59 3c f6 fc 36 3d
       0.058706738 -0.033900972 0.013282202 0.044674836
000080 45 e9 d2 3a 76 b9 22 3d d2 cf 0d 3e 8d 2f c0 bd
       0.0016091248 0.03972765 0.13848808 -0.093840696
000090 5b eb ca bc e7 d1 ee bd 20 b6 c0 3d 0c a8 16 3e
       -0.02477043 -0.116611294 0.094097376 0.14712542
0000a0 7d 3d a3 bd 57 9a c1 3d d7 9b 03 be 54 c5 db 3c
       -0.07970712 0.09453266 -0.12852417 0.026827492
0000b0 f7 ed 05 3e e7 48 8d 3d 49 28 81 3d d3 c2 49 be
       0.13079058 0.06898671 0.06306512 -0.19703226
0000c0 98 fb 2b be 8d 88 99 3d be bf a7 3d 31 c7 b8 3d
       -0.16795194 0.07496748 0.08190869 0.09022368
0000d0 8a 48 3b 3c e6 c6 95 bd 81 02 1d 3d f0 3d f9 bd
       0.011430869 -0.073133275 0.038332466 -0.12170017
0000e0 3d ff c2 bd eb f0 3d be af e5 07 3d 9c de 03 bc
       -0.09521339 -0.18548934 0.033178028 -0.00804868
0000f0 b1 1a 14 3d c4 60 68 b8 b0 78 fa bc 78 9e a2 bd
       0.036158267 -5.540323e-05 -0.030575126 -0.07940382
000100 b3 db ef 3c 13 8a 49 be 22 8a b1 bd 06 e2 e2 bb
       0.029279565 -0.19681577 -0.08668925 -0.0069239167
000110 9f 47 0d 3e f1 3b 04 3e 53 0a 4d 3e 77 a4 bc 3d
       0.13796853 0.12913491 0.2002347 0.09211057
000120 d6 97 2d bd 47 94 d3 3b 4d 0b e4 bd 1c 0a 76 3c
       -0.04238113 0.006456885 -0.11134968 0.015017059
000130 1b 2b 29 ba b4 5d ce bd a9 bb f8 3c ba be 85 bd
       -0.00064532616 -0.10076466 0.03036292 -0.06530519
000140 da e3 10 be 6f 3c 33 bc cb d6 e8 bc a0 d5 55 bb
       -0.14149418 -0.010939701 -0.028422734 -0.003262855
000150 7c 06 03 be 0b e2 75 3c 14 9e c7 ba 42 4a 96 bd
       -0.12795442 0.015007506 -0.0015229606 -0.07338382
000160 59 92 e5 bd 02 d5 11 3e 89 07 f6 3d 7f f9 74 bd
       -0.11209554 0.14241412 0.12013156 -0.05980825
000170 60 1c 86 3d 75 1c 17 3e 88 98 27 be 64 a1 32 3d
       0.06548381 0.14756949 -0.1636678 0.043610945
000180 56 a8 b9 3c ba 6f 41 be f2 da 77 bc 5b 4a 86 3d
       0.022663277 -0.18890277 -0.015127884 0.06557151
000190 a2 d5 af 3d 18 68 9c 3c 8d c8 26 be 9a 87 54 be
       0.08585669 0.019092605 -0.16287442 -0.20754853
0001a0 b1 e2 32 be c0 f8 5e be e9 21 a5 bd a4 1e 01 3e
       -0.17469288 -0.21774578 -0.080631085 0.12609345
0001b0 6d 42 01 3e 4c 44 19 be 45 f3 0d be c8 02 d2 3d
       0.12622996 -0.1496746 -0.13862331 0.10254437
0001c0 c6 73 32 3d 48 be 58 bd f4 13 6d be 48 70 49 be
       0.04356744 -0.05291584 -0.23152143 -0.19671738
0001d0 a6 d6 09 be 31 d1 0e 3e 34 a5 c6 3d 1c 41 6c bd
       -0.13460788 0.13946988 0.09699479 -0.05767928
0001e0 b1 2e 36 3e aa 97 b0 bc 6e f2 76 be 29 d9 32 be
       0.17791249 -0.021556694 -0.24115917 -0.17465653
0001f0 fa 6f 09 3c 22 66 47 3e be d3 4a be ef d1 25 bd
       0.008388514 0.19472554 -0.19807336 -0.04048341
000200 db 3e 1f 3e 21 e8 b5 bd 23 3b d0 bd 00 8f ce bd
       0.15551321 -0.08882166 -0.101675294 -0.10085869
000210 3f 2f c3 bd ee 90 c8 bd 7a 98 ef bd b9 1a d4 bd
       -0.09530496 -0.09793268 -0.116990045 -0.103566594
000220 e0 3f fc 3c 6a 22 32 3d a3 5d f8 bd 8f 25 3b bc
       0.030792177 0.04348985 -0.12127235 -0.011422529
000230 1d 9b 00 be dc 6f a6 bb f1 2c 1f be 4c 6c 57 bd
       -0.12559171 -0.0050792526 -0.15544488 -0.052593514
000240 aa 89 4d bd c7 11 25 3d f2 46 e1 bc a0 f9 b2 3d
       -0.050180115 0.040300157 -0.02749965 0.087390184
000250 4c 4d 11 be 94 37 1d 3e 14 ed 82 3d 99 f2 2a 3e
       -0.14189643 0.15353233 0.06392875 0.16694106
000260 1f ca 25 be f2 69 05 be 31 07 3d 3d f0 78 86 bd
       -0.16190384 -0.13028696 0.046149436 -0.06566036
000270 a7 73 f8 bd 8f da b3 bd b6 e0 86 3d dd 7f 60 3d
       -0.12131434 -0.08781921 0.06585829 0.05480944
000280 bb a5 ba 3d c6 0f 43 3d 2c b6 44 be 92 8c e7 3d
       0.09113642 0.047622465 -0.19210118 0.113061085
000290 f0 b7 0a be 49 b9 e1 bb d3 89 1b 3e 14 46 a2 bd
       -0.13546729 -0.006888543 0.15189295 -0.079235226
0002a0 87 9a 20 3c e8 97 fe 3d 8d 40 31 be 22 24 97 3d
       0.009802467 0.124313176 -0.1730978 0.07379939
0002b0 2d 6f 84 3c b1 e5 00 be ab 53 68 be af b8 15 bd
       0.016166294 -0.1258762 -0.22688167 -0.03655308
0002c0 a0 5a 69 be 39 63 13 be ce 3b b8 3c ff 72 c3 3d
       -0.22788477 -0.14393319 0.022489455 0.09543418
0002d0 ef e1 31 be c3 45 ee bd f8 bf d9 3d 68 fa 42 3e
       -0.17371343 -0.116344 0.10632318 0.19040835
0002e0 9c 48 3f 3e d1 36 1e 3c 1c 48 46 be 85 30 5f be
       0.18680042 0.009656624 -0.19363445 -0.21795852
0002f0 5f b5 e1 bd de 76 b5 3d e5 95 66 3d 2f 6c 05 bd
       -0.11020922 0.08860563 0.056295294 -0.032573875
000300 6a b5 47 be 88 f6 4b be 5e bf 54 bd ab d9 8c 3d
       -0.19502798 -0.19918263 -0.051940314 0.06877454
000310 c6 2b 5d bd 11 ad bd bc 3b 21 04 be da 7a 4f be
       -0.053996824 -0.023153814 -0.12903301 -0.20261708
000320 bd d0 cd bd a4 7b c4 bd b4 66 24 be df 1a 1c be
       -0.10049579 -0.09593895 -0.16054803 -0.15244626
000330 8d 32 12 bc 12 8c 0c 3d b8 d9 4a be b4 03 dd bd
       -0.008923185 0.03431327 -0.19809616 -0.10791722
000340 a0 93 20 be 55 65 39 bc e2 c5 ab bd c1 a3 30 3d
       -0.15681314 -0.011315663 -0.083873525 0.043124918
000350 0e 61 2c be ef 8e 43 be 3b 71 07 3e 7c 2b 98 3b
       -0.16833898 -0.19097494 0.13226788 0.0046438556
000360 94 53 8f bd 52 96 27 be e1 ac 0d be fd af c7 bd
       -0.06998363 -0.16365936 -0.1383548 -0.09750364
000370 08 b8 f9 3c 14 28 54 be 5a b8 0d be 54 19 65 bd
       0.03048326 -0.20718414 -0.13839856 -0.055932358
000380 27 b5 e8 3d 02 a5 56 3c cd 4d 72 be 0d 69 58 3d
       0.11362677 0.013100864 -0.23662491 0.05283456
000390 60 e5 57 be 59 79 29 3d e7 32 fa 3c d0 0f aa bd
       -0.21083593 0.04137549 0.03054185 -0.08303797
0003a0 10 d8 18 3d dc f8 72 3d ee 13 89 3d 01 cd c0 bd
       0.03731543 0.059319362 0.066932544 -0.094141014
0003b0 4e b1 83 3d c1 94 75 3d 10 47 3d be a9 eb 98 bc
       0.064303026 0.059956316 -0.1848414 -0.018667059
0003c0 72 02 33 be e9 d4 af bd bf 8e 63 bc 6e ed ba 3b
       -0.17481402 -0.08585531 -0.013889014 0.0057045734
0003d0 a3 0c 60 be 91 1a d7 3c 3a d4 d0 bd 1e 65 8e bc
       -0.2187982 0.026257785 -0.10196729 -0.0173822
0003e0 50 8b e0 bd 62 1e 49 3d fc 0c 50 be 94 59 03 3e
       -0.10964072 0.04910124 -0.20317453 0.1282714
0003f0 f1 ff 15 bd 20 c1 0b be 47 31 57 bd b8 40 1f bd
       -0.036621038 -0.1364789 -0.05253723 -0.03888008

fc2.weight f4 [256, 256]
000000 45 59 20 3d 2d ad d5 3c 9b 83 05 bd 87 26 0b 3d
       0.039147634 0.026083553 -0.032596212 0.03397229
000010 15 2f 25 bc 5b 29 d3 bc c1 5d 0c 3d c1 7c b2 3c
       -0.010082026 -0.025776556 0.0342691 0.021788003
000020 12 e3 b2 3d 60 ce a4 bc 20 6a 79 3d 21 28 9a bc
       0.087347165 -0.020117939 0.060892224 -0.018817963
000030 b0 78 88 3d 61 57 81 3d ae 1d 5b bc e8 39 00 3d
       0.06663644 0.06315494 -0.013373775 0.031305224
000040 fa f0 41 3d ca 9e 05 bc 2c 19 3c 3c 86 a6 82 3d
       0.047348954 -0.008155534 0.011480611 0.06379418
000050 42 f0 12 be a7 db 64 bd a4 39 33 3d e4 1f 99 3d
       -0.14349464 -0.05587354 0.043756142 0.07476786
000060 51 54 31 bd b8 9a 3d 3e 3d 49 b6 3b cf da 14 3d
       -0.0432933 0.18516052 0.00556293 0.036341485
000070 39 6c 6f bb 83 47 2c 3c 1a 69 49 3d d4 44 e8 bb
       -0.0036533012 0.010515097 0.0491725 -0.007088283
000080 99 6c 9a 3c c1 aa 88 3c dc 8d e2 3d 86 b3 24 3d
       0.018850612 0.016682984 0.11062214 0.04021027
000090 14 a5 12 bc 4d 97 87 3d 45 ec 1d 3d 7d f2 ba bc
       -0.0089504905 0.06620655 0.038555402 -0.022820706
0000a0 06 bd c6 3d d4 0f 4c 3d 48 29 d8 3c ea bb 17 3c
       0.09704022 0.049819782 0.026386872 0.009261111
0000b0 a8 c4 ba bd 90 f4 0c bc a9 c0 aa 3d 7c 2a 91 bd
       -0.091195405 -0.00860323 0.08337528 -0.070881814
0000c0 f8 94 53 bd 62 37 35 bd 00 3a 1f be f7 f0 e7 3c
       -0.05165574 -0.04424227 -0.15549469 0.028313143
0000d0 95 97 d8 3d cd ca 8a 3c 4a 3b c1 3a 24 9c 8d 3c
       0.10575787 0.016942406 0.0014742401 0.017286368
0000e0 d0 cf a2 3d f9 c0 1f 3e 15 cc b8 3d da bd be bd
       0.07949793 0.15600957 0.090233006 -0.09313555
0000f0 29 1d 56 bd de 62 b8 bc 85 89 af bd 2f 40 38 be
       -0.052273903 -0.022508081 -0.08571152 -0.17993234
000100 e4 d5 71 bc b7 64 1c 3d bb df cc 3b 43 0b e5 3c
       -0.014760468 0.038181987 0.0062522567 0.027959472
000110 a5 5f 56 3d 6b 50 a6 3d dd 34 89 3d 3a 78 d5 ba
       0.052337307 0.08120807 0.06699536 -0.0016286441
000120 a6 e0 9b bd 33 24 7b 3d b8 47 f4 3c 79 9e ea bd
       -0.07611208 0.06131382 0.029819354 -0.114560075
000130 d3 99 2e bc 87 69 82 bd ac 29 7a bc a6 e0 79 bd
       -0.010656792 -0.06367784 -0.015268724 -0.061005257
000140 78 58 cd 3d 36 e1 e6 3c 58 0b 9a bd f9 52 b5 3c
       0.1002664 0.02818356 -0.07521695 0.022134291
000150 06 14 04 3d 72 76 25 3e 44 10 4a bd 34 18 fd bc
       0.03224566 0.16158465 -0.04933192 -0.03089533
000160 35 65 d0 bd 4b 09 a7 bc 32 27 93 3d 58 83 d7 3c
       -0.10175554 -0.020390173 0.0718521 0.026307747
000170 a2 c2 39 bd 81 38 69 bb a6 b3 81 bd 79 ad f9 bc
       -0.045351632 -0.0035586657 -0.06333093 -0.030478226
000180 02 bf 0e be d5 d5 06 be 44 dc 6c bc 86 06 2d 3d
       -0.13940051 -0.13167508 -0.014456812 0.04224255
000190 0b b6 47 bd 7f 4b b8 bd e0 d9 12 3d 60 36 c2 3d
       -0.048757594 -0.08998775 0.035852313 0.094830275
0001a0 19 b4 82 3d a7 af b0 3d 88 94 1c 3b ad ec ad bb
       0.06382007 0.08627253 0.0023892242 -0.005307755
0001b0 81 65 89 3d 2b 0e 53 3d 0a b4 e2 3d af a6 d1 3c
       0.067088135 0.051527184 0.11069496 0.025592176
0001c0 7d 4a 94 3c 76 91 9f 3c 58 a5 ff bd 11 b8 15 3e
       0.018101925 0.01947854 -0.12482709 0.14620997
0001d0 0d 52 76 3c ec 6e 97 3d 47 28 12 bd 37 9d c3 3d
       0.015034211 0.073942035 -0.035682943 0.09551471
0001e0 b1 86 f2 3c ed 71 cc bd 17 c0 c2 3d 94 73 0b 3d
       0.029605241 -0.09982667 0.095092945 0.03404577
0001f0 e0 52 02 bd 9f df cb 3d 5c c8 03 3d bd fc ae 3c
       -0.031817317 0.09954762 0.0321735 0.02136075
000200 e2 34 aa 3c d7 4d b2 3d 84 a9 3e 3d 05 fa 61 3d
       0.02077717 0.08706253 0.04654838 0.055170078
000210 c6 9e e9 3b a3 af a5 3d 41 39 5c bd 6e 40 19 bd
       0.007129523 0.08090141 -0.05376554 -0.03741496
000220 e3 68 10 bd b7 a9 58 bd e8 1e 2f 3d cb b0 4d bd
       -0.035256278 -0.052896228 0.042754084 -0.05021743
000230 a9 3b 73 3d f3 cd 3a bd db 04 71 3e 78 89 06 3e
       0.05938307 -0.045606565 0.23537008 0.13138378
000240 3d 69 a8 bd 75 5e 15 bd 2e b2 aa 3d 76 ae 4b bd
       -0.082231976 -0.036467034 0.08334766 -0.049726926
000250 ae 19 f7 bd 9e 18 6a 3d 44 9c 88 3d 07 19 39 3c
       -0.12065445 0.057152383 0.0667043 0.011297471
000260 a1 b6 5f bd 6c 95 93 bc 35 ec 84 bd be 97 cc bc
       -0.054617528 -0.018015586 -0.064903654 -0.0249747
000270 03 ca 9d bd e9 d1 19 bb f9 7f 4e 3d 50 a4 2c 3c
       -0.07704546 -0.0023471063 0.050415013 0.010537222
000280 e9 c3 7b 3d f1 f5 04 3d 2d 43 ae 3d 54 a5 de bb
       0.06146613 0.03246111 0.085089065 -0.006794611
000290 41 1f 35 3e bd 59 0b be f8 6a 85 3d f4 85 45 3d
       0.17687704 -0.13608451 0.06514543 0.04822345
0002a0 98 4e d6 bc 2e 2d 4c 3d 1d c1 a5 3d 08 49 4b bd
       -0.026160523 0.049847774 0.08093474 -0.049630195
0002b0 3c dc 04 bd b6 3b 5b bd 94 53 86 3c 96 18 b5 bd
       -0.032436594 -0.05352374 0.016397275 -0.0884258
0002c0 2c df 32 3c d0 53 0c bc 02 2b 53 bc 95 6f e7 bb
       0.010917466 -0.008564904 -0.012888672 -0.007062862
0002d0 87 60 08 bd 50 e1 86 3d 16 2b 58 3e a5 65 69 3d
       -0.03329518 0.06585944 0.21110186 0.0569817
0002e0 a4 0c 28 3c 12 ed aa 3c 45 a1 89 be 98 df 11 3e
       0.01025692 0.020864997 -0.2688085 0.1424545
0002f0 fd 61 61 3d 19 0c 05 bd 05 60 47 3d f8 89 0a bc
       0.05502509 -0.03248224 0.048675556 -0.008455746
000300 86 b4 b2 bc 90 35 59 3d 26 a3 09 3d 0f 4e 64 ba
       -0.021814596 0.053029597 0.033602856 -0.00087091414
000310 88 35 a6 3d 63 52 b7 3d cb 59 52 3b 98 a8 30 bc
       0.08115679 0.08951261 0.0032096978 -0.010782383
000320 53 7c f9 bd aa 6f 41 3b 1c e3 82 3d b6 ad 66 3d
       -0.12181916 0.002951602 0.06390974 0.056318007
000330 63 3d 20 bd 18 1b ef bd 51 0b 45 bd 90 39 d1 3c
       -0.039121043 -0.116750896 -0.048106495 0.025540143
000340 b3 7e 02 3c c6 cd 13 3e df 74 33 bd 8e cf 64 3c
       0.007964778 0.14433965 -0.04381263 0.0139655005
000350 9b 09 8a bd b9 ec 34 be 44 0e 06 bd 50 03 44 3c
       -0.06740113 -0.17668428 -0.03272845 0.01196368
000360 d8 1e 13 3e a1 69 19 be 2a 6c 0a 3e e5 55 83 bc
       0.14367235 -0.149817 0.13517824 -0.016032169
000370 50 53 bd bc 9f ad 3b 3c 14 5c 0c 3e 9f cc 27 bd
       -0.023111016 0.011454969 0.13707 -0.040966626
000380 df af 9b bd 54 94 1c bd 6d f8 89 bc 56 df 03 3d
       -0.07601904 -0.038227394 -0.016842091 0.03219541
000390 02 37 96 3c 9e c2 39 3d 2c 51 0b 3d 6c 56 da 3d
       0.018336777 0.045351617 0.03401296 0.10661015
0003a0 6f cd 9e bd 77 c9 9d bc c8 ce d8 3d 30 89 96 bd
       -0.07754027 -0.019261105 0.105863154 -0.07350385
0003b0 17 b6 fa bb 20 59 fe ba 79 14 fb 3b 74 c4 62 bc
       -0.0076511013 -0.0019405223 0.0076623526 -0.013840783
0003c0 e0 cf 30 bc c1 61 19 3c ca 9a e7 3c 6f b4 9b bd
       -0.010791749 0.009361685 0.028272051 -0.07602774
0003d0 6b 99 91 3c 80 3e 44 3d c2 98 c6 bd b6 a1 e0 3c
       0.01777335 0.047911167 -0.09697105 0.02742086
0003e0 30 5f e5 3c 4b 75 ef bc 10 cf 26 bd 20 3d 4e 3b
       0.02799949 -0.029230734 -0.040724814 0.0031469539
0003f0 2c 0a 05 3e c0 de 87 bd b1 11 f8 3c b2 54 f1 bc
       0.12992162 -0.06634283 0.030281873 -0.029459331

fc2.bias f4 [256]
000000 48 d9 d2 3c 04 1b 63 bd 40 31 66 bd ca e3 7a bc
       0.025738373 -0.055445686 -0.056199312 -0.015313098
000010 97 39 1e bd 17 13 05 3d 3f 07 72 bc cd b8 ff bc
       -0.03862914 0.03248891 -0.014772235 -0.03121605
000020 35 a8 a9 3b 47 64 11 bd 26 e6 34 3d 90 a5 e2 bc
       0.0051775225 -0.035496023 0.0441648 -0.027666837
000030 03 01 6d bd 1c 9d 64 3d ef bc 8b bc 05 34 6c 3d
       -0.057862293 0.055813894 -0.017057864 0.057666797
000040 1b 61 1d bd 65 a5 4e bd 06 63 1f bc b8 3a 7c bd
       -0.038422685 -0.0504507 -0.009728199 -0.061579436
000050 ce 4d 4d bd f1 d3 94 3d 33 62 98 3c 89 7a 1c bd
       -0.05012303 0.07266987 0.018601513 -0.038202796
000060 4e 85 50 3c 54 b3 26 3d 53 ec 7c bd 9d d2 08 bc
       0.012727095 0.040698364 -0.061748814 -0.008350995
000070 81 74 4a bd 17 cc f1 bc 05 db 83 3d 84 dc a1 3d
       -0.049427513 -0.029516263 0.06438259 0.07903388
000080 be ed 2b 3d aa 75 5a 3c a8 8c d2 3c 32 98 1e 3d
       0.041974775 0.013333717 0.025701836 0.038719364
000090 ec 70 41 bd 05 a2 0b bd ae 20 8e bc f7 a0 82 bc
       -0.04722683 -0.03409006 -0.017349567 -0.015945895
0000a0 cc 7c 2d 3d f5 26 34 3d a0 5b a3 bb eb 02 bf bc
       0.042355344 0.043982465 -0.004985288 -0.023316821
0000b0 f9 0a 6d bd a7 a7 c2 3c 0d ba ee 3b 09 c9 77 bd
       -0.057871792 0.023761583 0.0072853626 -0.060494456
0000c0 22 59 8d 3c 16 a0 b0 bc f1 3f 44 3d 9e e1 5a bc
       0.017254416 -0.02156071 0.04791254 -0.013359455
0000d0 da e3 04 bd 9f 20 05 bd 94 e7 26 3d f6 e1 15 bc
       -0.03244386 -0.032501813 0.040748194 -0.009148112
0000e0 75 d4 8f bd 18 a9 62 bd 58 fb f3 bc 25 01 4b bd
       -0.07022945 -0.05533704 -0.029782936 -0.04956164
0000f0 d9 f1 4c bc 47 1d 49 3c 4c ff 4f bd ae fe 19 3d
       -0.012508833 0.012275047 -0.05078058 0.037596397
000100 33 23 7c 3c c0 1f 14 bd 87 98 65 3d 0f 43 45 bc
       0.0153892515 -0.03616309 0.056053665 -0.012039914
000110 04 84 ac 3c 89 f8 4c bd aa 1a b1 3d 8e b9 89 3c
       0.021059044 -0.05004171 0.08647664 0.016812112
000120 35 95 43 3c 2f d3 21 bd 92 db 67 bd 3f 76 0c bc
       0.011937429 -0.03950804 -0.056605883 -0.008573114
000130 85 13 fd 3b b3 32 a7 3c 70 66 b7 bc 4e c9 07 3d
       0.007723274 0.020409917 -0.022387713 0.033150963
000140 08 20 2b 3c 4e cd 4a 3d 59 a4 a7 bc 2d c2 13 3d
       0.010444649 0.0495122 -0.02046411 0.036073852
000150 83 4c 39 3d f1 66 f1 3c 5a 7f a0 3c 8c 38 6a bc
       0.045238983 0.029468032 0.019591976 -0.014295708
000160 20 d7 52 3d 3e ca a8 bc 05 b8 6f bd 65 1e 81 3c
       0.05147469 -0.02060425 -0.058525104 0.015761564
000170 30 92 dc 3c 93 2c 49 3d 68 b7 15 3d 11 2e 94 bc
       0.026925176 0.049114775 0.036551863 -0.018088372
000180 c6 31 47 3c 14 a1 1c bb 98 5d 2f bc 16 3f 5c 3c
       0.012157863 -0.002389972 -0.010703467 0.013442775
000190 19 bb d2 bb f1 78 e4 bb bd 3b 06 3c 88 30 a7 bc
       -0.006430995 -0.006972425 0.008192954 -0.020408884
0001a0 a6 b0 ad bc 72 4b 2b 3d 18 64 87 bd cd ce 0f bc
       -0.021202397 0.041819997 -0.06610888 -0.0087773325
0001b0 a6 a2 40 3d fc c5 4d bd 93 41 ab bd 4d 35 19 3d
       0.047030114 -0.05023764 -0.08362117 0.037404347
0001c0 2d d1 60 bc be 14 01 bd 61 63 31 bc 28 af 78 bc
       -0.013721746 -0.031513922 -0.010826916 -0.015178479
0001d0 7d 91 c7 bb 96 de ac 3c 43 03 c9 b9 de a0 eb bc
       -0.0060903416 0.021102231 -0.00038340138 -0.02876323
0001e0 f8 f8 3b bc 90 5a 8a bd 5a 80 33 3d 08 50 ec bb
       -0.011472933 -0.06755555 0.043823577 -0.007211689
0001f0 c3 93 37 bc 70 23 59 bc 11 9e 49 3d f2 a8 db bc
       -0.011204663 -0.013253078 0.04922301 -0.026813958
000200 54 80 89 bd e4 fa 0e bd c0 8e 4d 3d 05 26 8c bd
       -0.0671393 -0.034907237 0.050184965 -0.06843189
000210 26 76 6e bd 94 62 45 3d f0 a4 aa bb e1 dc b0 3d
       -0.058218144 0.048189715 -0.0052076504 0.08635879
000220 15 51 95 3c 60 a9 52 bd af 04 9a bc d4 c1 77 bd
       0.01822714 -0.05143106 -0.018801061 -0.060487583
000230 4b 2d ca ba c5 14 1f bd 82 ce 1e bd 52 5f 78 3b
       -0.0015424875 -0.038838167 -0.03877116 0.0037898612
000240 f8 fb 2c bd 83 e8 69 bd e5 76 f1 3c bf 2b 0e bd
       -0.042232484 -0.057106506 0.029475639 -0.03470969
000250 0a f3 7e 3c 54 1b f1 bc 30 86 b8 3d eb 22 96 3c
       0.015560875 -0.029431976 0.09009969 0.018327197
000260 03 24 30 bd 31 dd 36 3d 84 03 4c bc c1 7f a5 bc
       -0.043003093 0.04464454 -0.01245201 -0.02020252
000270 66 5f 86 bd c7 93 15 bd 31 0d 53 3d 85 1b 17 3d
       -0.065611646 -0.036517885 0.051526252 0.03689148
000280 34 b5 a7 bc 2e de a5 3d 03 26 1c bd 3f b8 9c 3d
       -0.020472147 0.08099018 -0.03812219 0.0765233
000290 42 2d 8c 3d 92 27 c7 3c fe 08 48 bd 23 08 be 3d
       0.0684457 0.02431086 -0.0488367 0.09278896
0002a0 f4 ba 95 3c d3 40 6b 3c b5 eb 8c bd dc 51 5a bd
       0.018277623 0.014358717 -0.06880895 -0.053300723
0002b0 e6 02 4e bc a7 a5 6f bd 64 04 62 3c 5a 39 07 bd
       -0.012573933 -0.058507588 0.013794992 -0.03301368
0002c0 a5 bf 4b bd 2f 00 11 3c 4f 3e 3f 3d 23 13 86 bd
       -0.049743313 0.008850141 0.04669028 -0.06546619
0002d0 1a 22 63 bb 19 1d 14 3c 10 fc b6 3c 6f 35 0d 3c
       -0.0034657777 0.009040141 0.02233699 0.008618697
0002e0 0e 8e 30 bd 76 90 99 bc 42 61 98 bc dc 77 66 bd
       -0.043104224 -0.018745642 -0.018601064 -0.05626665
0002f0 db 9e 97 bb 18 f4 97 3d bd e8 42 bd 0e 61 e5 bc
       -0.0046270913 0.07419604 -0.047585238 -0.02800038
000300 dc 89 7f bd 6e 7e 44 3d 86 f3 18 3c b3 36 18 3d
       -0.062387332 0.047972135 0.009335404 0.03716154
000310 19 b6 ff 3c 72 bc 3e 3d 3d b7 48 3a 7c 0e d1 3d
       0.03121476 0.046566434 0.0007656699 0.10207841
000320 9b de 00 bd aa 48 50 bc 61 6c 3c 3d 0c a4 88 bd
       -0.031462293 -0.012712637 0.046001796 -0.066719145
000330 5d e0 24 3d de 90 4f bd 39 29 64 bd 47 33 09 3d
       0.040253032 -0.050675265 -0.055703375 0.033496168
000340 d2 c4 a7 bb 55 1b 58 bd c0 12 cd bc 5a 62 69 3d
       -0.0051198984 -0.05276044 -0.025033355 0.05697856
000350 9d 0d c5 bc dd f5 39 bd cb 1f 24 bd 18 a7 37 3d
       -0.024054343 -0.04540049 -0.040069383 0.044837087
000360 22 d9 3d bd 3a 0f 1e 3d e5 bb 93 bb 4b f8 62 3c
       -0.046349652 0.03858874 -0.0045084828 0.013853143
000370 8d bb 3f bd c3 7f a4 3d 7e b0 15 3d 87 99 ac 3d
       -0.04680972 0.08032181 0.03654527 0.084277205
000380 23 bf 59 bd d4 82 d1 bc 72 86 92 bd 5a 15 ba bc
       -0.053160798 -0.025575079 -0.0715455 -0.02271526
000390 6a 89 4a bc 14 c0 34 3b 16 e3 29 3b 12 1e ac bc
       -0.012361864 0.0027580308 0.0025922707 -0.021010432
0003a0 83 f3 24 3d 2a ad 3c 3d b4 d5 84 bd c9 a6 d1 bc
       0.040271293 0.04606358 -0.06486073 -0.025592225
0003b0 4c 5f f9 bc 35 45 ac 3b 0e 7c ce bc fb 5e bb bc
       -0.030440949 0.0052572736 -0.025205638 -0.022872439
0003c0 86 24 53 3d e7 38 65 3c 0b 1e 9a bd 94 3d 43 3d
       0.051548503 0.013990617 -0.075252615 0.047666147
0003d0 3b b9 30 bd 45 2d 01 bd 8f 9f 81 bd cc 0b ae 3c
       -0.0431454 -0.031537313 -0.063292615 0.02124586
0003e0 20 95 f5 bb 75 e7 36 bd 46 73 16 3d f2 32 a7 3c
       -0.0074945837 -0.04465433 0.036731027 0.020410035
0003f0 80 af b7 3c 6f 93 9b 3d e3 25 11 3c 97 8b 29 bc
       0.022422552 0.0759648 0.008859131 -0.010348222

reg_head.weight f4 [1, 256]
000000 f4 3e 2e 3d c6 17 24 3e 18 fd 25 bd ad 8d 62 bd
       0.042540506 0.16024694 -0.040524572 -0.055310894
000010 3e 2f 69 bc 4a e7 66 3d e0 a8 60 bd cb e0 ed 3c
       -0.014232455 0.05637292 -0.05484855 0.029037854
000020 d3 11 22 ba 91 c9 b2 3b ca 63 4d bd 8c a7 90 3d
       -0.00061824656 0.0054561575 -0.050143994 0.07063207
000030 e1 3c 8f bc ba 29 38 3d 45 5c 8d bd a7 0e 0c 3d
       -0.017485084 0.04496167 -0.06902365 0.03419366
000040 51 d6 00 bc f4 94 3c 3c 5e bb c6 bd d0 b1 a2 3d
       -0.007863597 0.011510123 -0.09703706 0.07944071
000050 2a e5 61 bd 00 0e 2b 3d 06 3c 70 3d 2f 74 92 bd
       -0.05515019 0.0417614 0.058650993 -0.071510665
000060 d6 bb 1e bd 84 71 2d bd 8f dd 12 be 0e c6 be bd
       -0.038753353 -0.042344585 -0.1434233 -0.0931512
000070 ef 1a b2 ba 15 fd d1 3d 25 16 c4 3c f2 e1 d5 3c
       -0.0013588349 0.1025335 0.02393634 0.026108716
000080 51 b3 18 3d 94 cb 6f bb e1 c2 ff 3b f1 a2 1c be
       0.037280384 -0.0036589848 0.007805214 -0.15296532
000090 2f 9c 36 3d f2 a2 6a 3d 6c 66 b8 bc 3e b6 0a 3e
       0.044582542 0.057284303 -0.022509776 0.13546082
0000a0 35 54 06 be 70 e8 22 3d 85 cb a7 bc 80 4d f4 bc
       -0.1311806 0.03977245 -0.020482788 -0.029822111
0000b0 5c 76 4e 3c 0e ad c8 bc 84 d0 16 bd f0 d0 4a bd
       0.012601461 -0.024496581 -0.03681995 -0.049515665
0000c0 a1 4e 88 bd 0d c5 89 3c 4e 3a 0a 3e bb 6b b0 bc
       -0.06655622 0.016817594 0.13498804 -0.021535745
0000d0 4e af c3 3c eb a0 ae 3b 97 9b 7a 3d 4c a6 1d ba
       0.023887303 0.0053292415 0.06118354 -0.0006013855
0000e0 2a 7b 38 3d 7b 84 43 bd 39 c9 23 bc 37 92 2e be
       0.045039333 -0.047733765 -0.009996706 -0.17047964
0000f0 78 c3 cd 3c e9 50 23 be 6e 8b 34 3d f0 65 0e be
       0.02511762 -0.15948834 0.044078283 -0.13906074
000100 10 28 bb bd c0 1b 2d 3e 57 2b 7c bd 4a 09 9a 3c
       -0.09138501 0.16905117 -0.06156477 0.018803257
000110 16 da 21 bc 20 61 2f bd 6e ea 49 3d ee 4e ae 3c
       -0.009878656 -0.042817235 0.049295835 0.021277871
000120 8f b0 36 3e 92 14 08 3d 25 55 af 3d c3 3e 52 bc
       0.1784079 0.033222742 0.08561162 -0.012832346
000130 96 4a 50 bd 41 a3 80 be cd 72 35 bd 2f f9 1a be
       -0.05085238 -0.25124553 -0.044298936 -0.15134118
000140 b8 5f 13 bd 0c 54 74 3c e2 5e 9b 3c 1f 30 67 3d
       -0.035979956 0.014912616 0.018966142 0.056442376
000150 12 fc 68 bc 6d 87 37 3c 6b d3 1c bd d9 20 3e bd
       -0.0142202545 0.011201722 -0.03828756 -0.046418045
000160 1a e4 c7 3c 8b c6 55 3c 40 b9 45 3d 17 86 1c 3e
       0.02440076 0.013047825 0.04827237 0.15285526
000170 81 5e 0f 3c 1f 12 e3 3c fd ca 08 be be 2d 26 bc
       0.008750559 0.027718602 -0.13358684 -0.010142742
000180 24 fe 2c 3d 4e ad e2 bd 56 30 16 ba b7 51 23 3c
       0.042234555 -0.110682115 -0.00057292485 0.009968213
000190 d6 d3 56 be f9 df 3b bd 06 26 1b bc 67 84 82 bd
       -0.20979246 -0.045867894 -0.009469515 -0.0637291
0001a0 d0 c7 23 bb df eb 80 3b 5a 21 07 bd ad 9f 00 bd
       -0.0024990924 0.003934368 -0.03299079 -0.03140228
0001b0 a2 55 22 3d 4e d2 45 bd a1 9f 5b 3b 08 44 02 3c
       0.039632447 -0.048296265 0.0033511894 0.00795079
0001c0 f9 5d b6 3d 2b 5a f1 3d 6b 44 94 3d 45 36 92 3c
       0.089046426 0.11784776 0.07239612 0.017848143
0001d0 89 0d 82 bc 52 54 30 3c e9 67 3f 3d 6e ad 2b bd
       -0.015875595 0.010762291 0.046729956 -0.041913442
0001e0 ba 48 45 3d ad 67 5a bd 6f 15 3f bc 48 de 86 ba
       0.04816506 -0.05332153 -0.011662825 -0.0010289634
0001f0 be 9d 92 3d 4c 9e 98 3d b9 2f 20 3d 7e 0d a6 3c
       0.07158993 0.07452068 0.039108012 0.020270105
000200 14 a4 e4 3c 83 3d ac 3d da 1e 28 bc 72 31 88 bc
       0.02791027 0.0841017 -0.010261262 -0.01662514
000210 f3 a9 75 bc 30 ab c6 3c 8a 2b 3f 3c c4 5e 12 3d
       -0.014994132 0.02425155 0.011668095 0.035734907
000220 70 09 13 be 2e 55 18 3a 54 fb e4 3d f5 82 81 be
       -0.14359069 0.00058110326 0.111807495 -0.25295225
000230 ad a8 77 bc b0 02 ab bc ea bd c4 bc 50 7a ab bc
       -0.015115899 -0.020875305 -0.02401634 -0.020932347
000240 9d da 5a 3e c7 ed c9 be 73 58 05 3d bc e9 ca 3d
       0.21372457 -0.39439222 0.032555055 0.099078625
000250 05 62 30 3d 74 28 1e 3d f8 45 1c 3d 12 81 f8 3d
       0.04306223 0.038612798 0.038152665 0.12133993
000260 7c 1c 86 3c 93 42 0e 3d f7 40 42 be 47 e3 63 3d
       0.016371004 0.03473146 -0.18970095 0.05563667
000270 05 07 fc bd f3 78 03 bd 38 89 37 3c 81 8e ed 3c
       -0.12306026 -0.032097768 0.011202149 0.028998615
000280 45 b8 3a bd fa 54 a1 3d b9 cd 9e bc 69 aa 1f 3d
       -0.04558589 0.07877536 -0.019385206 0.038980875
000290 cf 3e 24 3d 88 f1 58 3d a2 c1 12 bd 0b fd 19 3d
       0.04009896 0.052964717 -0.035829194 0.037594836
0002a0 e5 86 9a 3c f8 69 08 3d 1f ff 3c bd 1a e8 87 3a
       0.01886315 0.033304185 -0.04614174 0.0010368854
0002b0 6f 5d 68 3d 16 35 ac 3c 5e 3b 03 be 87 61 c6 bc
       0.05672973 0.021021407 -0.12815616 -0.024216427
0002c0 48 bb 92 3d c0 82 a3 3b e1 f6 f7 3c 2c ab f7 bd
       0.07164627 0.004989952 0.030269088 -0.12093195
0002d0 59 fc fb 3d 71 65 88 ba 60 71 93 bb fa db 1f 3a
       0.12303991 -0.0010406208 -0.0044995993 0.0006098148
0002e0 64 b3 84 bb be db 1f bc 1e ae 36 bd 1c c8 63 3b
       -0.0040497053 -0.00975698 -0.044599645 0.0034756726
0002f0 c4 a0 4d bd 08 e0 a9 3d 2a a3 a8 bb 84 ee a8 bc
       -0.050202146 0.08294684 -0.005146404 -0.020621546
000300 9f 4a 35 ba 36 b3 56 be f1 ea 63 3e c6 71 36 bd
       -0.00069157215 -0.20966801 0.22257592 -0.044542097
000310 81 14 24 3d 9c bb 3e bd 11 4d f0 bd ad dc 86 3d
       0.040058617 -0.046565637 -0.11733449 0.06585059
000320 9c ea 5e 3c d3 5c 5e bd e3 f6 81 bd 94 f9 1d 3d
       0.01360574 -0.054287743 -0.06345918 0.038568094
000330 49 aa 0f bc f7 bb c0 bc c3 d0 22 3b 71 28 23 bd
       -0.0087686265 -0.023527129 0.002484367 -0.03983349
000340 05 d2 e6 bc 31 78 73 bc 0e 0a 8f 3d 5c 3a c6 3c
       -0.028176317 -0.014860199 0.0698434 0.02419775
000350 e2 f1 cf 3d af 01 1a be 95 03 21 bd ac ec 15 be
       0.10153557 -0.15039705 -0.039310057 -0.14641064
000360 9d df cb bc c5 6b 1a 3d 0a 71 4b bc 91 39 d7 bc
       -0.0248869 0.037700433 -0.012417087 -0.026272567
000370 51 46 25 bd 5e 85 d2 3d 06 f4 c2 bc ad 34 28 3d
       -0.040350262 0.10279344 -0.023798 0.04106586
000380 19 69 39 3d 18 43 4b bb 16 c7 46 bd 18 85 6b bc
       0.045266245 -0.0031015333 -0.048529707 -0.014374994
000390 f0 ad 6d 3c 4d e0 1a bc ad 0d 3b be b4 da 13 3e
       0.014506802 -0.009452892 -0.18266936 0.14438897
0003a0 7f 68 1e bd fc 03 53 be 47 c0 66 3d b9 87 5b bd
       -0.038673874 -0.20606989 0.056335714 -0.053596232
0003b0 c6 e0 25 3c 77 e4 a7 bc 58 27 8a bc 8f 47 f6 3c
       0.010124391 -0.020494683 -0.016864464 0.030063419
0003c0 18 17 21 3d 65 e8 14 3e 3b 1c 9d bd 49 ff 98 3d
       0.039328665 0.14541776 -0.076714 0.07470567
0003d0 07 12 ca 3b 42 49 f0 3c ee c0 93 3c b9 da 1b be
       0.0061667 0.029331807 0.018036332 -0.15220155
0003e0 26 c3 5e 3d b3 1a 1a bb 29 45 6e 3d 5f 48 10 3d
       0.054385327 -0.002351445 0.058171425 0.03522527
0003f0 fa ef 4a be 13 24 27 3d 5d f9 35 bd d8 79 4b bd
       -0.19818106 0.040805887 -0.044427264 -0.049676746
