grasp_placement/models/run_seed_109/stability_net.pth (torch, 59660 bytes, 9 tensors)

fc1.weight f4 [64, 21]
00000000: e59a a2bc 0ce4 023c fa70 f63d 9e9b 173d
00000010: c3d5 98be c21d a53d ce2e 913d 910c ad3d
00000020: 7a0c dbbd 8a83 c03d 1639 d1bd f24f 16bd
00000030: 04fa 103a 30b4 e6bc 6b12 353e fd1c b3bd
00000040: 677a 1a3e 9cd3 03be 00d9 4b3e c02e 0dbd
00000050: d8cd 913d 1ddf 033d 6c88 0b3d bfcf 1f3c
00000060: 09c1 9b3e 8a74 7fbe a4c1 543e 6fe0 983c
00000070: 84b1 e83d d580 613d 905e 76bd fe2c 28be
00000080: a8df 573d 9b29 9bbc a350 bfbd 3efb c33c
00000090: e8f4 fabb da52 3c3e 18e2 e33d 4c0c cd3d
000000a0: 3727 f73d 34ee 78bd b240 a1bb b64f 0fbe
000000b0: 3a39 b6bc e712 39be ae98 c73d 22e6 0ebd
000000c0: 0a74 b23d 8bb9 2d3e 041f 883d 0795 a6ba
000000d0: 593c 04be c104 003e 5fb2 fabb b3f4 ec3d
000000e0: 597b 603d f2de 0abe 2c95 cc3d 5555 07be
000000f0: 8310 8b3e cee7 a03e 092e 553e 93be dbbd
00000100: 129f 9b3d 7871 b73c 8ff4 c8bd 1872 1b3e
00000110: caee 4c3e 344f 9f3d cb21 383e a5d4 b93c
00000120: 0709 293d 0f9b 593d 2a4e 33bd 53ef e8bc
00000130: 8594 003e 8ee8 1d3e 94d0 293e aee6 b8bd
00000140: 490d 273d 6153 3a3d 54f8 4fbe eba4 2dbe
00000150: 3dbb b83c d9fd 35bd ece4 6ebe edcd 713e
00000160: d87e 44be c63a a8bd ffdf b93d d8ce 593c
00000170: 820d 113e 78da c03c 29a5 ec3d 2dce bbbc
00000180: f37f 1fbe 2f86 53bd 63dd 323c 431b 5ebd
00000190: 149c 31be b62a 4bbd 8984 0b3e 3145 08be
000001a0: 4b5d 253d 05e5 c83d 143f 353d 21fd 6abe
000001b0: 5f98 8bbc 1b4d 1e3e 52da da3d 9f33 9dbd
000001c0: 5e39 9a3d 1f27 65be a229 ccbd 964e 013d
000001d0: 7e5b 913d 7fe5 2abd 15d6 a03c 6fd1 503d
000001e0: 5105 5cbd 9595 863d d500 aa3d 06a5 2d3e
000001f0: 15cb f0bd 7fc3 3c3e 2b34 af3d 9f1b 76bd
00000200: 572d febd 4caa 513e d3a1 003d 1a34 3e3d
00000210: c6a8 823e 6fda f0bd c9d9 f83b f262 19be
00000220: 191f 293d f582 20bd 2f55 6bbe 47db 3ebe
00000230: 4260 c93b b880 553d 0d2c 25be 17b9 0ebe
00000240: 3663 f2bd a798 0a3e 7a6d e03d 0375 993c
00000250: fa53 0d3e 1789 13be e2bb 51be d91a b6bd
00000260: dad0 a0bd dcac 633d 3be1 afbb 6db2 98bd
00000270: bc68 ebbc 07ac c03d df05 a23d 3803 823d
00000280: 4308 5fbe 3018 373d a4e8 36be 7506 f53b
00000290: e0a1 82be 043e d23c cbf2 99bc 2158 393d
000002a0: 32bb 563e 1195 133e 1b58 b3bd 2f56 4abe
000002b0: cba4 c7bd 2410 413e b33c 5b3d b848 babd
000002c0: 2039 123e 9004 7d3d 8a52 debc bb5d 323e
000002d0: 948a 4ebe 8f0c 99be ba49 343e be89 ec3d
000002e0: 2273 ea3c cbb7 5d3e 3805 1bbc 3b22 73bd
000002f0: a7ca d03c 44eb f03b c188 ecbd e112 863d
00000300: 6aa3 843d da30 21be 54d7 033e 2df3 de3d
00000310: a1d2 233d 7125 f93c 44c6 35bd 905c f73d
00000320: aebd 1ebd 3c99 bf3d 692e 103e 489a 423e
00000330: 5159 78bc 0c4d ff3d f283 afbc 37fa 8d3d
00000340: 534a 793d b4d7 053e 74fe 0e3e 9f32 8b3d
00000350: e063 52be dbd6 053e 0694 3bbe 7207 e13d
00000360: f37a 683d aba1 0cbe 780a 18be cea7 2b3e
00000370: b820 353e 35a9 113d 1c3f 30be 1f8a 8abd
00000380: 5844 9fbd 56b6 babd cf7e 783d 19e9 213e
00000390: f251 843d 8710 5e3c 2beb 503e b507 86be
000003a0: ac8a f5bd 087d 973d 0902 14be 064e d93d
000003b0: 91fe 3dbe d4e6 143e 2fd0 1b3e e2fa 103e
000003c0: 454e 233e fe50 03be 8ae8 983d cc1b 5dbe
000003d0: 3e33 0e3e 602c e2bd 5a08 9b3d af9f b7bd
000003e0: 019d b2bb 9b36 a33e 39dc 63be cc0e 8bbe
000003f0: 6fa9 8c3e eb3f 0cbe e248 423e bdbe b63d
-0.01984925 0.007988941 0.12033267 0.037013642 -0.29850587 0.080623165 0.070890054 0.084496625
-0.10695739 0.09400089 -0.102159664 -0.036697336 0.00055304193 -0.028162092 0.17682807 -0.087457635
0.15085755 -0.12873691 0.19906998 -0.034468412 0.0711934 0.0321952 0.03406565 0.00975412
0.30420712 -0.249468 0.20776993 0.018661706 0.113619834 0.055054504 -0.060148776 -0.16423413
0.05270353 -0.018940737 -0.09341552 0.023923513 -0.0076585896 0.1839098 0.11127108 0.10012111
0.120680265 -0.060774043 -0.0049210424 -0.13995251 -0.022244085 -0.18073617 0.09745918 -0.03488744
0.08713539 0.1696531 0.06646541 -0.0012709209 -0.12913646 0.12501813 -0.007650658 0.1157011
0.054805133 -0.1356161 0.0998939 -0.13216145 0.27161035 0.31426853 0.20818342 -0.107297085
0.075987 0.022392973 -0.09812271 0.15180242 0.20012966 0.07778779 0.17981641 0.022684405
0.041268375 0.05312639 -0.043775715 -0.028434431 0.12556656 0.15420744 0.16583472 -0.09028374
0.040784154 0.045489673 -0.20309573 -0.16957442 0.02255022 -0.04443154 -0.23329514 0.2361371
-0.19189012 -0.08214335 0.09075927 0.013293944 0.14165309 0.023541674 0.11554939 -0.02292546
-0.15576153 -0.05164164 0.0109170405 -0.054225218 -0.17344695 -0.04960128 0.13624777 -0.13307644
0.040372174 0.09809307 0.04424961 -0.22948124 -0.01704043 0.15459101 0.106861725 -0.076758616
0.07530473 -0.22378205 -0.09968878 0.031569086 0.07097529 -0.04172277 0.019633332 0.05098098
-0.053716008 0.06571499 0.0830094 0.16957483 -0.11757485 0.18433951 0.08554872 -0.060084935
-0.12410992 0.2047512 0.031404328 0.046436407 0.2551939 -0.11760413 0.0075943214 -0.14979151
0.041289423 -0.03918739 -0.22981714 -0.18638335 0.006145508 0.05212471 -0.16130085 -0.13937794
-0.11835329 0.13534795 0.10958381 0.018732553 0.13801566 -0.14407764 -0.20481828 -0.088918395
-0.07852335 0.055584773 -0.0053674257 -0.07455907 -0.028736465 0.094078116 0.07911276 0.0634827
-0.21780495 0.0447008 -0.17862183 0.0074775764 -0.25514126 0.025664337 -0.01879253 0.045250062
0.20969847 0.14412333 -0.08757039 -0.19759439 -0.09748229 0.18853813 0.053524684 -0.09095901
0.14279604 0.06177193 -0.027138967 0.17418568 -0.20170051 -0.29892394 0.1760625 0.1154971
0.028619353 0.21652143 -0.0094616935 -0.059358817 0.025487257 0.0073522646 -0.11549521 0.065465696
0.06476481 -0.15741292 0.1287511 0.10886226 0.039995793 0.030413361 -0.044378534 0.12078202
-0.03875511 0.09355399 0.14080204 0.19004166 -0.015158013 0.124658674 -0.021425221 0.0693249
0.060861897 0.13070565 0.13964254 0.067967646 -0.20545912 0.13070242 -0.18318185 0.10987748
0.05675788 -0.13733546 -0.14847744 0.16763231 0.17688262 0.03556176 -0.17211574 -0.06764626
-0.077767074 -0.09116809 0.06066781 0.15811576 0.06460942 0.013553745 0.2040221 -0.26177755
-0.1198934 0.07396895 -0.14453901 0.10610585 -0.1855414 0.14541179 0.15216134 0.14158204
0.15947826 -0.12823865 0.07466228 -0.21592635 0.13886735 -0.1104362 0.07569952 -0.08966004
-0.005450845 0.31877598 -0.22251977 -0.27159727 0.27473018 -0.13696258 0.18973115 0.08923099

fc1.bias f4 [64]
00000000: 903a d73d 92ee 9f3d 8831 f33d dec7 80bd
00000010: e85f 303e cf21 9fbd cbb2 15be bab5 063e
00000020: 3074 1d3e dddb bc3d a2df e9bd 973a 583e
00000030: ea93 053e 8418 fcbd f49b 803d c5c7 29be
00000040: ec90 27be eab3 5f3e 1ca5 ad3c 2b22 8fbd
00000050: c940 46be 663b 5fbd 8f35 823d b8b8 a7bd
00000060: 6758 4abe 69b0 5f3e 0903 ddbd b5f7 b23c
00000070: c6ee 923d 075d b5bd 092e 323e f09e e23d
00000080: af96 0dbd b990 2b3e e909 89bd 807e a23d
00000090: 3bcc 8c3d 82f7 053d 0565 b9bd ed07 cb3d
000000a0: 6991 16be 1e88 80bd da1f d23d 51cb b7bd
000000b0: 9e8a c5bd dd13 09bc df8e 08be aa28 6b3d
000000c0: 2977 c3bd 1d18 1a3e 24f2 44bc 9b07 183d
000000d0: f19a 63bc 98e5 06be 2466 3c3e ba87 f93d
000000e0: d373 0b3e 8486 24be 80c3 11be c5e1 3d3e
000000f0: 4e0e d7bd e78b a83d f074 2fbe daa4 e73d
0.10509217 0.078091756 0.11874682 -0.06288122 0.17224085 -0.0777012 -0.14618985 0.1315526
0.15376353 0.09221623 -0.11419608 0.211161 0.13044706 -0.123093635 0.06279746 -0.16580112
-0.16363877 0.21845976 0.021196894 -0.06988939 -0.19360651 -0.054500006 0.06357872 -0.08189529
-0.19760285 0.21844639 -0.107915945 0.021846632 0.07174449 -0.08855634 0.17400374 0.11065471
-0.03456753 0.16754426 -0.06691343 0.07934284 0.06874891 0.032706745 -0.09052471 0.09913621
-0.14703907 -0.06275962 0.102599815 -0.089743264 -0.0964558 -0.008366552 -0.13335751 0.057411827
-0.09544212 0.15048261 -0.012020621 0.03711663 -0.013891921 -0.1317352 0.18398339 0.12184091
0.13618402 -0.16066939 -0.14234734 0.18543155 -0.10500775 0.08229809 -0.17134452 0.1131074

fc2.weight f4 [64, 64]
00000000: f676 18bd 94a7 92bd 0048 96bd ba50 e1bd
00000010: 3cb2 6d3b 23c3 b73d a1ac 0e3e ec61 a8bd
00000020: 005c d1bc b36c c1bd c13f c53d 9735 70bd
00000030: 818f 39bd b67a c53d 1522 c23d e86c 30bd
00000040: 757f 7bbd bb66 c13d 7d52 9f3d b7cd 9ebc
00000050: e61a 4d3b 515b 563b 8aea 90bd 6cb2 023d
00000060: 4edb 12bd 3ab9 4bbd a331 f03c 6571 813d
00000070: 4e83 a2bd df2b 773d 292d 863d 304f abbd
00000080: 22ef e73d 82b0 7e3d 1d0e 373d 6493 a4bc
00000090: a2fb ac3d 3e8e 8ebd ec70 d03c d276 e6bb
000000a0: 72fb 9bbb 8187 323c 2600 e1bd d724 df3d
000000b0: 1de5 743d 507e d4bc 6270 483d d0a0 8ebd
000000c0: 70c3 e5bd 7782 13bc d25a 16bc 8b0a 26bd
000000d0: 95eb 013e 1096 4d3c 1318 eb3d 4b7b 8bbd
000000e0: aa54 39bd b8d2 02be 8687 15bd cc90 fa3d
000000f0: e5ec 1c3c 06a5 493d 91ab 133e 546b bfbd
00000100: 38e1 653d a3b2 853d 129e e9bc 4766 903c
00000110: c069 e8bd f774 bd3c e393 9e3d 9b4c 0f3e
00000120: ebaf 00be 09e5 56bc ee68 ffbc 1dfd e73d
00000130: cdf2 79bc dfdd f9bc a8b8 163e d2d1 74bd
00000140: 864d 093e 47d4 63bd 6b65 91bb 67ae a2bd
00000150: c811 ea3d 1903 e5bd 7856 a7bb 9e5c a23d
00000160: a55b 553d 360f d93d ec8c 0e3d dace 813d
00000170: c8f8 4f3b 8a93 adbd 90e7 e8bc 4195 ec3d
00000180: 1d36 1ebc 6fbf 46bd 5719 e7bc d44f 353d
00000190: 1580 c5bc 58a2 af3d 08fc 0cbd 0b2d a2bb
000001a0: 16af 8f3d 43d0 e2bd b3d4 a83d a24f 04bd
000001b0: 8e1a 0e3c 14e5 1dbe 15b8 6ebd 79e6 c3bd
000001c0: b67b b3bd 153b e4bc 75f1 85bc 63a8 82bd
000001d0: 6ca8 223d c899 79bd 7878 2bbd 740e debd
000001e0: 69b3 f83c 99ff 993d 667b ce3d 69ed 8ebd
000001f0: c7ab 023e 7de2 a1bc 192c c8bc 0feb 81bc
00000200: 9a6f debd 4119 d83c 91ba c33c e8b6 043e
00000210: 2b6d 8dbc 528a ab3b b4c8 2f3e 31d1 083d
00000220: 5ea9 023e b4e9 73bd ff03 f1bd 5c75 b33c
00000230: 9010 7c3d 32cf ce3c 46df 40bb 3d42 bdbd
00000240: 700c 053d 0e4f f4bd 0d6d e2bd 086f de3c
00000250: f777 afbd 0773 103c de3e 5b3d fe4a 903d
00000260: ad0d 10bd 1d0a 7a3d d78b 5ebd 8716 f23d
00000270: b895 04bd 5efa 2e3e 656b 0b3e f274 9fbd
00000280: ddd7 1fbc 017c 8c3c 1110 6dbc f850 113d
00000290: 7889 de3d f5f6 3abd 5dde 24bd 0aa8 afbd
000002a0: 9675 213e 2e4c 023e 12a3 bfbd 0599 fb3b
000002b0: 7847 87bd 32f3 a4bd 3fdb 22bd 0274 b5bd
000002c0: b0db 5cbd 4eb6 1b3e a5bb d83d af31 b53d
000002d0: efea 173e a47e 6f3d 9c00 f23d 1744 e43d
000002e0: f95e 373d d52d f6bd 5f63 98ba 330e bbbd
000002f0: be14 e43d 5225 003c 6a4a 3e3d 9f50 e4bc
00000300: 9515 f63d d975 093d de2a 8a3d bf44 94bd
00000310: 688c 053e dc87 bdbc bae9 013e 508a bc3d
00000320: 9892 55bd 65c0 6fbd cfe6 f1bc 90ef ed3c
00000330: 79b4 b8bd b945 00be e454 b33d 8eef cfbd
00000340: 2a05 083e 72ce fe3d 6b25 f83d 5940 163e
00000350: 8f1f efbc e986 a4bd f32a 833d 0d58 393d
00000360: 277f 703d 233e d1bd e719 23bd d840 ed3d
00000370: cbad 10be 5d0f 60bd 806e 053d 3286 133e
00000380: ac23 303c 053d 40bc 8908 083e f02e 3e3c
00000390: a19e 843d 687a ea3c 7dc7 0dbd 11db 8c3c
000003a0: a900 34bd 9080 8ebd d59e bb3d 201a e33d
000003b0: 6e80 88bd 4631 9c3c 69bf 383d a19f abbd
000003c0: fd11 bbbd 78a8 9e3d f95c 4c3d 6324 e2bd
000003d0: e863 253e 18f8 f5bd 18e0 f3bc adb0 fdbd
000003e0: 7e9b d03c 1688 a8bd 4232 dcbd d6fb 023d
000003f0: b8fa c93d ca18 a43c 4357 163e b3be 1b3c
-0.037222825 -0.07160869 -0.07337952 -0.110017255 0.0036269566 0.08972766 0.1393304 -0.08221802
-0.025556564 -0.09444561 0.09631301 -0.058644857 -0.04530287 0.09642546 0.09479157 -0.04307261
-0.06140085 0.094434224 0.07779405 -0.019385202 0.003129655 0.0032708237 -0.07075985 0.031908438
-0.035853676 -0.049737193 0.029320544 0.063204564 -0.07935201 0.060344573 0.06551582 -0.08364713
0.11324908 0.06218005 0.044691194 -0.020089813 0.08446433 -0.06960724 0.02544447 -0.0070332075
-0.004760199 0.010896564 -0.109863564 0.108956985 0.059788812 -0.025939137 0.0489353 -0.06964266
-0.11218917 -0.009003273 -0.009176927 -0.0405374 0.12687524 0.012547985 0.11479201 -0.06810626
-0.045246758 -0.12775695 -0.0365062 0.12234649 0.009577964 0.049229644 0.14420916 -0.09346643
0.05612299 0.06528213 -0.028517757 0.017626895 -0.11348295 0.023127062 0.07743051 0.13994066
-0.12567107 -0.01311613 -0.031177964 0.113275744 -0.015255642 -0.030501304 0.14718878 -0.059770413
0.13408479 -0.055622365 -0.004437139 -0.07943421 0.11429173 -0.111822315 -0.0051067434 0.079278216
0.052089352 0.105986044 0.034802362 0.06338282 0.0031733979 -0.084754065 -0.02843073 0.115519054
-0.009656456 -0.04852241 -0.028210325 0.044265583 -0.024108926 0.085758865 -0.034420043 -0.004949217
0.07015817 -0.11074879 0.08243694 -0.032302506 0.008673323 -0.15419418 -0.058281023 -0.095654435
-0.0876383 -0.027860204 -0.016350487 -0.063797735 0.0397114 -0.060937673 -0.041862935 -0.108426005
0.030358987 0.075194545 0.1008213 -0.06978876 0.1276084 -0.019761318 -0.02443509 -0.015859155
-0.1086113 0.02637923 0.023892673 0.12960398 -0.01726397 0.005234995 0.17166406 0.033402625
0.12759921 -0.05954905 -0.1176834 0.021906547 0.061539233 0.025245283 -0.0029429956 -0.092411496
0.032482564 -0.11929141 -0.11055956 0.027152553 -0.08567803 0.008816487 0.05352675 0.070455536
-0.035169292 0.0610448 -0.05433258 0.11820703 -0.032369345 0.17087695 0.13615187 -0.077859774
-0.009756056 0.017148973 -0.014469163 0.03547761 0.10866064 -0.045645673 -0.040251125 -0.08576973
0.15767512 0.12724373 -0.09357275 0.0076781535 -0.066054285 -0.08054198 -0.03975987 -0.08860017
-0.053920448 0.15206262 0.10582665 0.08847367 0.14835714 0.058470383 0.118165225 0.111457996
0.044768307 -0.120204605 -0.0011626295 -0.09133568 0.11136769 0.007821398 0.046457686 -0.027870474
0.12015835 0.033559654 0.067464575 -0.07239675 0.13041842 -0.023136072 0.12686816 0.092060685
-0.052141756 -0.05853309 -0.029529003 0.029044896 -0.090187974 -0.12526597 0.08756426 -0.10153113
0.1328322 0.1244172 0.12116512 0.14672984 -0.029189853 -0.080335446 0.06404676 0.045249987
0.058715012 -0.1021693 -0.039819624 0.115846336 -0.14128797 -0.05470215 0.032576084 0.1440666
0.010750692 -0.011733298 0.13284506 0.01160787 0.064755686 0.028622821 -0.034614075 0.017194303
-0.043945942 -0.06958115 0.09161154 0.11088967 -0.06665121 0.019066464 0.045104418 -0.08380056
-0.0913429 0.077469766 0.049893353 -0.110420965 0.16151392 -0.12010211 -0.029769942 -0.12387214
0.02546477 -0.08229081 -0.107517734 0.03197845 0.09862274 0.020031352 0.14681725 0.009505915

fc2.bias f4 [64]
00000000: 5bfd 593d 7b1c b13d e4a9 e5bd 7b94 873d
00000010: 8689 98bd aef3 e43d 5b7f d13d 1cfd 32bc
00000020: 0f00 ff3d f2cd 943d 60a0 663d da21 863d
00000030: c220 e0bd 49ac 683d 20ca f03d b03e 203d
00000040: c21f b73d 4c8c 6fbc 525b ae3d b2a3 b6bd
00000050: 3231 c03b 7656 843d 4c38 d9bd 773d bf3d
00000060: d8a7 073d d796 063d 6cd7 713d 8034 59bd
00000070: 3b6a a13d ee1b c93d d255 ce3d 3e03 b3bd
00000080: 04bc dbbd 64d8 aa3b 0595 e03d db62 51bd
00000090: daec 573c ec15 733b 084e acbd 63e0 73bd
000000a0: b30c b3bd a955 b1bd 069a 0abd 2a06 3a3d
000000b0: 07a7 c73c 15e2 d6bd 75b4 f23c 011f bfbd
000000c0: f54b 70bd 6258 aabb 3e01 d8bd 7f42 82bd
000000d0: 997a f5ba 41a1 c73b 7e8b 37bd 07c8 4b3d
000000e0: 8ea1 d03d 3183 d03b 2871 7bbd d332 a2bd
000000f0: 778b 903d 08c3 80bc 6c9d b33c 26df 64bd
0.053220134 0.0864801 -0.11214045 0.06620117 -0.074481055 0.11179291 0.10229369 -0.010924604
0.12451183 0.072658435 0.05630529 0.065494254 -0.10943748 0.05680493 0.11757302 0.039122283
0.08941604 -0.014620852 0.08513512 -0.08917941 0.0058652395 0.064618036 -0.10606441 0.09337895
0.033119053 0.032858696 0.059043333 -0.053028584 0.0788159 0.0981978 0.10074963 -0.08740853
-0.107292205 0.005213784 0.10965923 -0.051119667 0.013179028 0.0037091924 -0.08413321 -0.059540164
-0.087426566 -0.086589165 -0.033838294 0.045416035 0.024371637 -0.104923405 0.029627064 -0.093320854
-0.05866619 -0.0051985243 -0.10547112 -0.063603394 -0.0018728554 0.006092221 -0.044810764 0.049751308
0.10187064 0.0063632955 -0.06138721 -0.0791985 0.07057851 -0.015717998 0.02192565 -0.055876873

fc3.weight f4 [64, 64]
00000000: b230 f13d 5333 7c3c f1c8 bc3c d4c0 0f3d
00000010: 9035 443e ad5f b23d 388b f53d 7432 d6bd
00000020: b148 653d faf7 50bd 8d6d d7bd d625 003e
00000030: 1975 cd3c ec71 793d 1378 9f3d 5c6e 8bbd
00000040: 26ed b83d cd3d f13c 6185 ddbd 9f0f 2cbe
00000050: 4e6b 35bd fd1a 173d 5875 97bd 3c12 8bbd
00000060: 4e6f 7fbc 174e 213e 7b04 123d ede5 2cbe
00000070: 2f13 1abe 9475 013e d51c 363c 6ca9 36bd
00000080: 907e 56bc d4b8 4fbd a7b1 ea3d cb61 35be
00000090: 6b88 cbbd 364a 6b3d f74c 203e ba26 53ba
000000a0: 57ee 3c3e 2b3a 28be 2912 373e ebf9 fdbc
000000b0: ac15 a53d 2442 943d ea52 f0bc 9839 843c
000000c0: 99d8 bf3d 2575 b73d fbc2 10be 275f f3bd
000000d0: f78b 093e 5898 29be ec6d 2ebe 93fd 14bc
000000e0: 33ac f83c f27f 19bd 7a66 a4bd 79ed 953d
000000f0: 33a9 ce3c 5446 3fbd 4f98 993d 1cc0 f9bd
00000100: 0fd3 3bbe 3044 cb3d 56e4 80bd 62b2 933c
00000110: 57e7 0dbd f370 353d aee5 a03c 651c e43d
00000120: c214 0b3e 37b4 e5bd 1275 19bd 9489 9fbc
00000130: a064 09bd 93d2 b23d fe31 d8bd 8f27 913d
00000140: 1e46 023d ca1c a6bd 264d e7bc c2c5 40bd
00000150: 3877 e5bc da01 81bd abf9 eb3c 9f7a e03d
00000160: 10a7 80bd 2717 d43d d806 2f3c ba11 5ebd
00000170: 7f81 05be 061f b63d 4899 133c c0ff b3bd
00000180: 7470 45bd 52c5 f8bd 10d2 023d 9e13 99bd
00000190: 2b1c bebd dfbf 5a3d ff83 873d f240 0b3e
000001a0: 56ca 243e c46f 8d3c 4e82 223d 9751 4c3d
000001b0: 3424 babc 9d65 bd3d bb10 1d3c e494 d6bd
000001c0: 74f5 633d 889c 683d 5f95 033e 5950 913d
000001d0: 6f0a 19bd 528f 14bc 8f01 1b3c 845f abbc
000001e0: 5158 4f3d 3944 c33d 20d9 71bd a8db a63d
000001f0: 8a8b d93d 9374 8b3c 77ef d6bd 71e4 983c
00000200: 1c73 fd3d fa09 da3d b8d6 a93d 7545 623d
00000210: 56f3 33be 5139 a1bd 02fd 26be f5a7 703d
00000220: 2ef3 c53d 3d21 ca3d 366a 85bd d66b 1abd
00000230: d767 b93d 31a4 273d 6982 c9bd be64 393d
00000240: 7ecc 0b3e cabe 543e 0c10 f23c ce8b b73d
00000250: 78c3 de3c 2323 b9bd eb9d 613e b291 793d
00000260: 6c7c c4bc 754e 4cbd 4b40 67bd 7c1e 0d3e
00000270: e7a2 da3d 6201 a4bc ef21 14bd a847 ddbc
00000280: 5425 543d daff af3c e433 d63c 6b5d 1f3e
00000290: 2864 0d3e b141 0cbd 3c07 65be 68c6 d13d
000002a0: db8b 37be 2632 1a3e 80c5 55be 0f66 97bd
000002b0: d235 ea3c 7348 fbbc e773 0b3d 7de0 143e
000002c0: 25df cebd f18d e23d b713 7d3d 00ef 993d
000002d0: f580 27be a34d 7d39 40da 273e 1ed3 b53b
000002e0: 99d2 d13d 2ec8 283e 5c38 293d 423c 023e
000002f0: 2196 bcbd 68e1 b73b 64f3 943d 99dd c3bc
00000300: 3502 c7bd 5743 42bc 122e 8abd eecd b3bd
00000310: 35f6 72bc 96d2 ff3d cdf5 d93c 50f6 803d
00000320: 4fc5 263c 7d32 0f3d 5630 f3bd 1a8a 4fbd
00000330: 56fd 553d e6ba db3c 4f0b 0a3e db00 143c
00000340: 08d4 8e3c 2559 233e 33e0 b53d 090a b7bd
00000350: 6d18 ec3c c83b 673d 6ae7 df3b bff3 bf3c
00000360: 4cd2 843c aede 0bbe 5319 e8bd 8073 52bd
00000370: 1c3a 73bc 77ee e33d b1c3 fdbd d022 dd3c
00000380: 640e e4bd 46aa 99bd d635 333d f80d 07be
00000390: 37c7 b03d 37f8 bcbd 99d1 ca3d 8118 d33d
000003a0: 553a 23bd 7441 4ebc 1725 c83c 465d 64bc
000003b0: 8a08 9dbd 985e 40bd 8f38 02bd 34d8 543e
000003c0: 7c85 8d3d 6500 a9bd 540b 303d 6709 833d
000003d0: 3fc1 f5bd c523 653d 4432 c2bd 463f 19bd
000003e0: 085f fcbd 848e 5c3d a0f2 ffbc 2328 3e3e
000003f0: e6e9 be3c 0402 33bd c8d7 a4b9 4a11 d0bd
0.11776866 0.015393096 0.023045035 0.035096005 0.19161057 0.08709655 0.119894445 -0.10458842
0.055977527 -0.05101774 -0.10518942 0.12514433 0.02508025 0.06089966 0.07786574 -0.06808159
0.090296075 0.029448414 -0.10816456 -0.16802834 -0.044291787 0.036890972 -0.073954284 -0.06790587
-0.015590502 0.15752445 0.035648804 -0.16884585 -0.1504638 0.12642509 0.0111152725 -0.044595167
-0.013091698 -0.050713375 0.11459666 -0.17713086 -0.09938129 0.05744382 0.1565436 -0.0008054782
0.18450294 -0.1642844 0.17878021 -0.03100296 0.08060774 0.07239178 -0.029336412 0.016140744
0.093674846 0.089578904 -0.14136879 -0.11883383 0.13432299 -0.16562021 -0.1703412 -0.00909366
0.030355548 -0.037475534 -0.08027358 0.07320685 0.025227165 -0.04669793 0.07499754 -0.12194845
-0.18342231 0.09925115 -0.062935516 0.018029395 -0.03464445 0.04429717 0.01964077 0.11138228
0.13582137 -0.11216014 -0.037465163 -0.019474782 -0.03354323 0.0873157 -0.1055641 0.07087623
0.03180515 -0.0811096 -0.02823503 -0.047063597 -0.02801095 -0.06299181 0.028805574 0.10960888
-0.06281865 0.103559785 0.010682784 -0.054216124 -0.1303768 0.08892636 0.009008713 -0.08789015
-0.048202947 -0.12147011 0.031938612 -0.07474445 -0.09282716 0.05340564 0.06616973 0.13598993
0.1609281 0.017265208 0.03967505 0.049882498 -0.022722341 0.09247897 0.009586508 -0.104776174
0.055654004 0.056789905 0.1284995 0.07095403 -0.037363466 -0.009067373 0.009460821 -0.020919569
0.050621334 0.09534497 -0.059044957 0.08147365 0.10622318 0.01702336 -0.10494893 0.018663617
0.12375471 0.10646434 0.082929075 0.05524202 -0.17573294 -0.0787226 -0.16307452 0.058753926
0.096655235 0.09869621 -0.06514399 -0.037700497 0.09053009 0.04092807 -0.09839327 0.04526209
0.13652226 0.20775905 0.029548667 0.089622125 0.027192816 -0.09039905 0.22032897 0.06092996
-0.02398511 -0.04987951 -0.0564578 0.1378116 0.106756024 -0.02002019 -0.036165174 -0.027011707
0.05179341 0.021484304 0.02614779 0.1556298 0.13807738 -0.034242336 -0.22366041 0.10242921
-0.17924444 0.15058193 -0.20876122 -0.07392513 0.028590117 -0.030674195 0.03404608 0.1453876
-0.10101155 0.110622294 0.06178638 0.07516289 -0.16357787 0.00024156882 0.1639185 0.005548849
0.102452464 0.16482612 0.041313514 0.12718299 -0.09208322 0.0056115873 0.072729856 -0.023909377
-0.09717218 -0.011856875 -0.067470685 -0.08779512 -0.014829208 0.12491338 0.026606465 0.062969804
0.010178878 0.03496026 -0.11874454 -0.050668813 0.052243553 0.026822519 0.13480876 0.009033407
0.017435089 0.15951975 0.08880653 -0.08937461 0.02882024 0.056453496 0.0068330066 0.023431657
0.016213559 -0.13659164 -0.11332955 -0.05137968 -0.014845397 0.11129468 -0.12390841 0.026994139
-0.11135557 -0.0750318 0.043752514 -0.13188922 0.08631747 -0.09227031 0.09903259 0.10307408
-0.03985055 -0.012588847 0.024431748 -0.013938254 -0.07667644 -0.04696521 -0.03179222 0.207856
0.06910226 -0.082520284 0.042979553 0.06398278 -0.119997494 0.055942316 -0.09482244 -0.037413858
-0.12322813 0.05384685 -0.031243622 0.18569998 0.02330489 -0.043703094 -0.00031441287 -0.101595476

fc3.bias f4 [64]
00000000: 3b60 e3bd f07a e2bd a4c9 093d 5b1c debd
00000010: 7683 5abd 92b4 d2bd 00a8 eb3d 30b3 b6bd
00000020: 21bb 8a3d 11f8 4a3c a40b 773d 7683 1abd
00000030: 9f62 78bc db2c bc3c 8d5c a8bd 80ef f9bd
00000040: 7c2a e93d 8779 c33c 5879 d8bd 6996 3a3c
00000050: cadf b23d 2561 1f3d 3c5d 973d 97e8 b83d
00000060: fbaa 9c3d f11e 66bb 904a bcbd 735b eabd
00000070: cc73 bfbd 87b2 a5bd 15ba 39ba 5f69 59bd
00000080: 86bb 94bc 545c 48bb 95e3 583c 2466 d6bc
00000090: c10e e03c 0af7 903d bec2 91bd 4e80 e43c
000000a0: 1514 b73d 1285 f7bd 448d 75bc b4b5 fbbd
000000b0: 94be d4bd 323e a13d 1439 59bc 425a fabc
000000c0: 5a89 bc3c 9ff4 c63d 0cb3 dcbd 1870 e13d
000000d0: 3e65 d13c faa4 bfbd bd02 e13d daec 933d
000000e0: 6322 ccbd ce9b d93d d4fc 89bd f426 b7bd
000000f0: 9d58 bdbc 3479 dc3d b29d 6f3d f129 563d
-0.11102339 -0.11058605 0.033639565 -0.10845252 -0.053348027 -0.10288347 0.11506653 -0.08920896
0.06773973 0.012388245 0.060313836 -0.037723027 -0.015160232 0.022970608 -0.08220778 -0.12203884
0.113850564 0.02386166 -0.105700195 0.0113884 0.087340906 0.038911004 0.0739083 0.09028738
0.076497994 -0.0035113657 -0.09193909 -0.11443224 -0.093482584 -0.08090692 -0.00070849183 -0.053079005
-0.018155824 -0.003057261 0.013237854 -0.026171751 0.027350785 0.07078369 -0.07117222 0.027893212
0.08939377 -0.12085928 -0.014987294 -0.122905165 -0.103879124 0.07873191 -0.013258237 -0.030560616
0.023014713 0.097146265 -0.10776338 0.11007708 0.025560971 -0.09357639 0.109868504 0.0722291
-0.09967496 0.106254205 -0.06737676 -0.089429766 -0.023113543 0.10765305 0.0585 0.052286092

fc4.weight f4 [64, 64]
00000000: 7a00 81bd 13c1 5b3d 5dea 083e eb91 513e
00000010: 60ee e93d 2927 6cbe d130 333d 90d5 213e
00000020: 2253 453d 1d95 d6bc 257a db3d 6cd5 6c3c
00000030: 1ee1 273e c9dc 073e de63 463e d052 dcbc
00000040: 7b7c e8bc aabe 8dbc 14a3 8abd d24c 0c3e
00000050: 4ecc 19be 6fd3 2cbc d049 88bc 7139 383d
00000060: 0c28 87bd c8dd d03d 417b a13d 4191 e93d
00000070: 76aa ebbd f3a6 0d3e c67d a1bc 13fa ff3d
00000080: 407e b43b 4d00 60bd a875 113c 0176 e33d
00000090: ab98 d43d 7c6d f93d 80e7 d8bc 696c 023d
000000a0: 239f f23d 0045 e23a ec87 d8bd 3000 e3bc
000000b0: fd54 1f3c fdb6 c2bd 3b8b 133e e705 833d
000000c0: f94c 2abe 6066 a43d 5ee4 b03d 565b 8bbc
000000d0: 6d08 c83d dea8 a3bd c85a d43d 55be 083e
000000e0: 5cf0 063e 5049 703d f803 863c a584 92bd
000000f0: 3452 9a3d 1558 e53d 01e8 993d 70e1 e13d
00000100: ff87 5cbd 2031 d03c 53fd e63c a540 0e3e
00000110: c9da 17be 0383 ad3d e549 0cbb e94b 29be
00000120: 742f dbbd 7424 94bc e76a 89bd 740c f93c
00000130: c0d4 13be 7b25 ea3d e828 f9bd 5033 71bd
00000140: 6e94 8e3b 6fa3 b03c bc9c 613d 4dda 6d3d
00000150: 51de a73d bb13 edbb 7127 ef3d 34e6 0cbe
00000160: dbca 43be b552 8fbd 463d 25be 5c1c 40bd
00000170: 3492 c0bd 8929 2ebe b289 cfbd c8cc d8bc
00000180: 1d98 143e 6010 433d 5e09 e03c 585d 06be
00000190: 8d2e ffbb 80e0 c8bd f039 2fbd 777d 5fbd
000001a0: 32d6 c639 9464 52bd 78f5 f43d 34b7 4b3d
000001b0: 3f64 16be 0fcf e43d d6f4 d1bd c293 2e3d
000001c0: 6f08 4a3e ee2c 0d3d aaa2 db3d aca7 04bd
000001d0: 7247 02be 38b6 9c3d 406f d3bd cc29 9a3d
000001e0: 2387 18be 72c2 b83d f43c 47bd 1679 ab3c
000001f0: 68f9 a23d 04ce b7bc d6c4 a43d a975 e2bd
00000200: 30ef cf3d c635 88bd 9aca 933d 6c95 41bd
00000210: 5078 f0bc a6b3 c53d 4c6e 453d 5893 4b3d
00000220: ec7c 87bd c8c0 fb3c 961b 93bd 004c fdbc
00000230: 9cb5 0c3d 208e a43d 101d 5dbc c038 733b
00000240: c21f 903d 4065 c13b 6c1a 55bd f0d3 893d
00000250: a88d 24bd 607c 8ebc c2d8 903d 0a04 a13d
00000260: c8d9 e7bc 48b7 443d 787e 10bd 08fd 883d
00000270: 28d8 14bd 701d 5fbc 2c71 2dbd 0209 84bd
00000280: c837 09bd f0b1 773c d8fd cb3d dc71 b63d
00000290: 0008 d33a 6297 ce3d 5411 d8bd 70f1 873d
000002a0: e864 f8bd 6082 ca3d a057 84bb d895 8e3d
000002b0: 287e b0bc 4ae7 9e3d dcf1 10bd a218 e73d
000002c0: 50b8 2e3c eaee a4bd d4a9 58bd bac9 8bbd
000002d0: 8cdb 5ebd d85c 90bd 1c22 203d f0b0 13bd
000002e0: 5c99 e13d a614 853d 10d6 53bc e4cd b6bd
000002f0: 9600 f0bd 802d 6b3c 1cfc 653d 8883 8fbc
00000300: d03d d4bc 785d c1bc c098 ce3c 2c3b 93bd
00000310: 9c66 c2bd 780a debc 5235 babd 9616 bd3d
00000320: 4885 d4bc 3ce3 c5bd fa62 f13d f81f f73c
00000330: 2eb8 97bd 60f3 303c 1437 08bd b0de c73c
00000340: 8c15 eabd b40c 23bd c88e b43d 0c95 cb3d
00000350: 2408 61bd 0044 56bb 0468 3a3d f0b0 83bc
00000360: 5010 9ebd dc10 f33d 729e d8bd 4c5f 34bd
00000370: b8c1 2c3d 405c 3cbb 70a0 e3bd 88b7 b93c
00000380: 70ee ed3d 2061 a23d 20e6 d03b 2c08 1abd
00000390: 18be f63c e05a 783d 2aa2 de3d 94af 5a3d
000003a0: 7881 46bd ca34 f43d 3c0b 883d c090 683b
000003b0: f4aa 40bd 54b4 053d 6e8a f13d 2eaf bbbd
000003c0: b88f aebd eef7 983d 2c9f 813d 8451 483d
000003d0: a804 853d a00c a03d f842 dabd 3428 d8bd
000003e0: bca1 2bbd 8074 87ba dcce 98bd 20d3 b9bd
000003f0: 56d5 e9bd 1802 cd3d 488e c0bd fe32 ac3d
-0.06298919 0.053650927 0.13370652 0.2046582 0.114224195 -0.23061813 0.043747727 0.15804124
0.048174985 -0.02619415 0.107166566 0.014455181 0.16394469 0.13267817 0.19374034 -0.026894957
-0.02837967 -0.01730283 -0.06769386 0.1370118 -0.15019342 -0.010548457 -0.016636759 0.044976655
-0.06599435 0.101985514 0.07884837 0.11404658 -0.11507122 0.13833217 -0.019713294 0.1249887
0.0055082142 -0.054687787 0.008878149 0.11106492 0.103806816 0.121790856 -0.026477575 0.03184167
0.11846759 0.0017262995 -0.105728 -0.02771005 0.009724853 -0.095075585 0.14408581 0.0639761
-0.16630925 0.08027339 0.086373076 -0.017011326 0.09767232 -0.07991193 0.10368878 0.13353856
0.13177627 0.058663666 0.016359314 -0.07154206 0.0753521 0.11198441 0.07514954 0.11029327
-0.053840633 0.02541405 0.028196966 0.13891847 -0.14829554 0.08472254 -0.002140635 -0.16532864
-0.1070241 -0.018083788 -0.06709843 0.030401446 -0.14436626 0.1143293 -0.121660054 -0.058886826
0.0043511903 0.021562306 0.055081114 0.058069516 0.081967 -0.007235018 0.11677445 -0.1375969
-0.19120352 -0.06998197 -0.16136655 -0.046902046 -0.09402886 -0.17008032 -0.10133685 -0.026464835
0.14511152 0.04762304 0.027348217 -0.13121545 -0.0077875317 -0.09808445 -0.042779863 -0.054563012
0.0003792509 -0.05136545 0.11960882 0.049735263 -0.14686678 0.11172306 -0.10251777 0.04262138
0.1972978 0.034466676 0.10724385 -0.032386467 -0.12722567 0.07651943 -0.10323954 0.07527503
-0.148953 0.090214625 -0.048642114 0.020931762 0.07957727 -0.022437103 0.08045356 -0.11057598
0.10153043 -0.066508815 0.072163776 -0.04726164 -0.029354244 0.09653406 0.04820089 0.049701065
-0.06615624 0.030731574 -0.07182996 -0.030920029 0.034352884 0.08034921 -0.013495699 0.0037112683
0.07037307 0.0059019625 -0.05202715 0.06729877 -0.040174156 -0.017393291 0.07072593 0.078620985
-0.028302088 0.048026353 -0.03527686 0.06688887 -0.036338955 -0.013617858 -0.042344257 -0.064470306
-0.033500463 0.015118107 0.09960526 0.08908436 0.0016100407 0.10087468 -0.1055018 0.066378474
-0.12128621 0.09888148 -0.004038766 0.06962174 -0.021544531 0.07758959 -0.035386905 0.11283995
0.010664061 -0.08053382 -0.052896336 -0.06825586 -0.054408595 -0.070489585 0.03909503 -0.036057413
0.11015579 0.06498079 -0.012929454 -0.08925989 -0.11718862 0.01435411 0.056148633 -0.017518774
-0.02590838 -0.02360414 0.025219321 -0.071890205 -0.094922274 -0.027104601 -0.09092201 0.092328236
-0.02594246 -0.09662482 0.117864564 0.030166611 -0.07408176 0.010800213 -0.03325565 0.024398178
-0.11429891 -0.039807037 0.08816296 0.09940538 -0.054939404 -0.003269434 0.045509353 -0.016075581
-0.07717955 0.1186845 -0.10577096 -0.044036195 0.042176932 -0.0028741509 -0.111145854 0.022670522
0.11617744 0.079286814 0.0063750893 -0.03760545 0.03011994 0.06063354 0.10870774 0.0533901
-0.048463315 0.11924131 0.06642768 0.0035486668 -0.047038034 0.032642677 0.117939815 -0.09164272
-0.08523506 0.07469164 0.06329188 0.048905864 0.06495029 0.07814908 -0.106573045 -0.10554543
-0.04190229 -0.0010334402 -0.0746133 -0.09073472 -0.11417644 0.10010165 -0.09402138 0.084081635

fc4.bias f4 [64]
00000000: 3d6c b23d 4793 b03d 20a3 d9bd 24fb 6cbd
00000010: 5c35 a6bd 8292 c4bd 089d 78bd 00d1 a7bb
00000020: ad08 96bc 93c3 a43d c53c 053e 7e51 ff3d
00000030: ff65 64bd 43f8 823d 8f01 913d 80c1 83bd
00000040: e066 1cbd 2854 04bd a56c 053d 763a e33d
00000050: d77e fb3b 58e2 2cbd 0c45 0a3e e8d1 853c
00000060: 82df b8bd 0a5c 98bd 6473 f33d 3083 51bd
00000070: 6213 ed3d 7ca0 57bd ec9a e6bd 99bd 10bd
00000080: de48 083e 509b ac3d e2b3 dcbd 3a0f b83d
00000090: 2d19 93bd 3124 09bd 73f1 543d 73b4 703d
000000a0: 29a1 8a3c 28e2 fabc 19b1 a3bb ffec 583c
000000b0: 6110 c93d 380b e93d 0ce0 683d 6ce7 fcbd
000000c0: 89b9 a03d 4d50 06bd 1137 55bd fc17 71bd
000000d0: a7f9 63bb 1d82 8bbd a5ad 9abb ee83 aebd
000000e0: 1480 a1ba e2a2 ed3b cc5e 673d c049 f0bd
000000f0: 70b9 c7bd 0a87 083d a828 e5bc f4b5 a6bd
0.08712051 0.08621841 -0.10626817 -0.057856694 -0.08115646 -0.09598257 -0.06069663 -0.0051213503
-0.018314684 0.08045115 0.13011463 0.12466715 -0.055761334 0.063950084 0.070803754 -0.064333916
-0.038184047 -0.03230682 0.032574315 0.11095135 0.0076750326 -0.042208046 0.13502902 0.016335443
-0.09027006 -0.0743943 0.118872434 -0.0511505 0.115759626 -0.052643284 -0.11260018 -0.035337064
0.13309047 0.08428061 -0.107764974 0.08987279 -0.07182536 -0.03348178 0.051988076 0.05876584
0.01692255 -0.030625418 -0.004995477 0.013240098 0.09817577 0.11379093 0.056854293 -0.12348828
0.07847888 -0.032791425 -0.05205447 -0.058860764 -0.0034786256 -0.068119265 -0.004720407 -0.08521257
-0.0012321495 0.007252083 0.05648689 -0.11732817 -0.09752166 0.03333191 -0.027973488 -0.081401736

reg_head.weight f4 [1, 64]
00000000: 90b7 0d3e 9c76 4abe 1629 953d 3058 d73d
00000010: 1afc c4bd 44b8 683d 1ac1 f63d 3359 153e
00000020: b166 a6bd 8b6f 1cbe 4915 f63d 6858 7c3d
00000030: c578 ed3d a5eb 523d 5273 9e3d 0086 3dbd
00000040: 2fe9 a43d 4721 d4bd 5383 23be b0c4 48be
00000050: 3f03 1c3e b6c3 d1bd 402d 153e 3e3f 053e
00000060: 885b b2bc eb96 5d3e 4e7c 52be bc95 c0bd
00000070: b35e 36be 01c3 053e 622d a5be 9f6a e33d
00000080: be9e 033e a6b4 85be 00b0 c8bb c5f4 a3bd
00000090: a59b c6bd a604 76be c197 04be 88f4 16be
000000a0: 1f9b 7c3d d8c1 15bd 38dc 4cbd 2845 b3bd
000000b0: 9864 abbd c5e0 7dbe 1ba1 e9bd b8b8 f73d
000000c0: f21d 16be 1f2b ad3a bc97 0d3e f02e 9e3d
000000d0: 0f55 6a3d 52b6 80be d217 98bd f4ef cb3d
000000e0: 939a 1e3e e5bc 033e d944 6d3d 203b 313c
000000f0: 1aa1 af3d 8dd6 0bbe 9087 19bd ce9b 943d
0.13839555 -0.19771808 0.07283227 0.10514867 -0.09618397 0.056816354 0.1204855 0.14584808
-0.081250556 -0.15276925 0.120157786 0.06160775 0.115953006 0.05149426 0.07736839 -0.04627037
0.08052289 -0.1035791 -0.15968065 -0.1960628 0.15235613 -0.10242407 0.14568043 0.13012406
-0.021772161 0.21639602 -0.20555231 -0.094035596 -0.17809562 0.1306267 -0.32261187 0.11104321
0.12853524 -0.26114386 -0.0061244965 -0.080056705 -0.096976556 -0.2402521 -0.12948515 -0.14741719
0.061671373 -0.036561817 -0.050014704 -0.08753425 -0.08368796 -0.24792774 -0.114076816 0.12095779
-0.1465986 0.0013211704 0.13827413 0.07723796 0.057210024 -0.251391 -0.07426418 0.09957877
0.15488653 0.12865026 0.057926986 0.010817319 0.085756496 -0.13656063 -0.037482798 0.0725628
