grasp_placement/models/run_seed_849/stability_net.pth (torch, 80580 bytes, 5 tensors)

fc1.weight f4 [128, 21]
0.16183588 -0.05940775 -0.16109748 0.0081275925 -0.13541101 -0.035131425 -0.061781574 -0.21324112
-0.20003536 -0.15364867 0.16461341 0.14592426 0.020010754 -0.10101909 -0.015650675 -0.07243349
-0.17214063 -0.12534855 0.026404051 -0.09401352 0.1692846 0.20914617 0.20941111 -0.0421583
-0.1963079 0.22639431 0.19925326 0.05018344 0.038034942 -0.023422929 0.053468585 0.1883073
-0.03020192 -0.12476777 0.16154104 -0.21615161 0.057399664 0.058712374 -0.14073038 0.16143991
-0.056439728 0.11901828 -0.06314383 -0.019058831 -0.012949104 -0.029264584 0.018647403 0.039631676
0.11976196 -0.06539949 0.17329124 -0.13073683 -0.020708343 -0.05633209 0.093075246 0.109707244
0.12285843 -0.122245215 0.1778391 -0.1729522 -0.0103783645 0.14092666 -0.021859486 0.038898855
0.061437674 -0.07361724 -0.074098185 0.0080034835 0.108147986 -0.022766855 0.22218502 0.15970127
0.105822146 0.1714833 -0.058174487 -0.06684427 0.07493359 0.07145552 -0.09871146 0.005144584
0.17226003 0.07234511 -0.08644386 -0.071178235 0.03397442 0.11951702 -0.19903609 0.00048303284
-0.016797585 0.16286987 0.11399359 -0.18957806 0.024855394 -0.02560961 -0.026326004 -0.10564432
0.08425471 0.17813215 -0.16265413 0.10563341 -0.18282573 0.21530013 -0.008742622 0.10836542
-0.19031139 -0.12616658 0.07800624 -0.036744934 -0.020138359 -0.12797295 0.040714536 -0.060481165
0.17378975 -0.19645457 0.16030174 0.11607743 -0.18573156 -0.12679037 0.07653854 0.017707951
0.05942426 0.07191715 0.121030465 0.0031268585 -0.10537862 0.12914212 0.06520609 -0.13474695
0.18600838 0.16189523 0.18908933 -0.18886752 -0.19935687 0.17072976 -0.15701698 -0.16730528
-0.18730114 0.13537657 -0.031804238 -0.19963714 -0.00011827221 0.1516125 -0.042250387 0.1278595
-0.1146908 -0.14471444 -0.10663491 0.12115195 -0.22116747 -0.19526583 0.19634931 -0.20845157
0.10892921 0.112661004 -0.10401926 0.04601066 -0.13411978 -0.05186209 0.068993025 -0.11961928
0.12841888 -0.16834494 -0.20288248 0.08284925 0.074075304 0.14792985 -0.17405415 0.17690521
-0.19655973 -0.095240265 0.12248347 -0.19060129 0.08427203 0.21083033 0.013793226 -0.17264093
0.081409894 0.1890341 -0.07444715 -0.18206397 0.18519151 -0.036587223 0.007374925 0.04964719
0.13230594 0.09441103 -0.16043407 0.20942697 -0.06909974 0.063369766 0.06694416 0.12595971
-0.24331029 -0.116426036 -0.20545183 -0.019831445 0.037855737 0.15812604 0.18530236 -0.12149431
0.13997221 -0.13219866 0.060911674 0.14266892 -0.22142935 0.100936875 0.10315168 -0.1395929
-0.16420983 0.27498937 -0.09293848 -0.06773671 0.020930743 -0.18377389 0.11067866 0.06094838
-0.08219906 0.18645957 0.20153686 -0.18933001 0.08815982 0.038285803 0.13374595 -0.16818757
0.13609388 0.040602837 0.15171233 0.16431563 -0.16001104 -0.14746745 -0.12872732 -0.14155142
0.05600065 -0.13459912 -0.049882792 0.14627409 -0.008566053 0.13821664 -0.20822091 -0.081018955
0.05067051 -0.08080958 0.13069315 0.109882675 -0.23312598 0.22182287 -0.03369166 0.13108784
-0.06867284 0.070907734 -0.15124679 0.027202819 -0.2294703 -0.03832841 -0.08242436 0.23874621
00000000: 4eb8 253e 8a55 73bd bdf6 24be 9829 053c
00000010: 2fa9 0abe f8e5 0fbd ad0e 7dbd e15b 5abe
00000020: 12d6 4cbe 1456 1dbe 6b90 283e 2b6d 153e
00000030: 98ed a33c 19e3 cebd d835 80bc 0258 94bd
00000040: a245 30be 5f5b 00be 4f4d d83c 298a c0bd
00000050: f158 2d3e 6a2a 563e de6f 563e 2eae 2cbd
00000060: f004 49be e9d3 673e 0c09 4c3e 278d 4d3d
00000070: 87ca 1b3d 71e1 bfbc e001 5b3d a1d3 403e
00000080: 046a f7bc 3f86 ffbd 046b 253e d956 5dbe
00000090: e91b 6b3d 637c 703d a01b 10be 8150 253e
000000a0: 582d 67bd dbbf f33d 8d51 81bd 4421 9cbc
000000b0: 7b28 54bc 48bc efbc 70c2 983c d354 223d
000000c0: c245 f53d 2bf0 85bd 4273 313e e0df 05be
000000d0: 8ba4 a9bc 7abc 66bd 3c9e be3d 31ae e03d
000000e0: 339d fb3d b35b fabd 741b 363e 621a 31be
000000f0: 040a 2abc 144f 103e aa12 b3bc 6854 1f3d
00000100: 12a6 7b3d a3c4 96bd cac0 97bd 0b21 033c
00000110: b17c dd3d 8e81 babc 7884 633e bb88 233e
00000120: 48b9 d83d 5199 2f3e 5f48 6ebd a6e5 88bd
00000130: c876 993d 4657 923d 3c29 cabd e693 a83b
00000140: ef64 303e ac29 943d 7a09 b1bd e5c5 91bd
00000150: c328 0b3d 57c5 f43d 1ed0 4bbe 923f fd39
00000160: 179b 89bc 5cc7 263e 7975 e93d c020 42be
00000170: 8a9d cb3c 3fcb d1bc a2a9 d7bc 0d5c d8bd
00000180: bc8d ac3d 4668 363e ce8e 26be 5456 d83d
00000190: ab36 3bbe a377 5c3e 373d 0fbc b0ee dd3d
000001a0: fde0 42be d031 01be bcc1 9f3d db81 16bd
000001b0: 33f9 a4bc 570b 03be 49c4 263d 19bb 77bd
000001c0: f1f5 313e 632b 49be 2426 243e 01ba ed3d
000001d0: 6a30 3ebe 56d5 01be 3dc0 9c3d 4410 913c
000001e0: da66 733d 4c49 933d d2de f73d fbeb 4c3b
000001f0: bfd0 d7bd d53d 043e c58a 853d 1bfb 09be
00000200: fb78 3e3e ddc7 253e a2a0 413e 7d66 41be
00000210: 3524 4cbe c8d3 2e3e 0fc9 20be 1352 2bbe
00000220: dfcb 3fbe 28a0 0a3e 2945 02bd ae6d 4cbe
00000230: e908 f8b8 4f40 1b3e be0e 2dbd 9aed 023e
00000240: 03e3 eabd 0630 14be 6763 dabd 831e f83d
00000250: ba79 62be c4f3 47be cb0f 493e 5474 55be
00000260: 4716 df3d d0ba e63d 0d08 d5bd ac75 3c3d
00000270: b256 09be 586d 54bd 374c 8d3d f4fa f4bd
00000280: 3d80 033e 9e62 2cbe 6dc0 4fbe deac a93d
00000290: cbb4 973d ec7a 173e 403b 32be a426 353e
000002a0: f446 49be 540d c3bd 9dd8 fa3d fc2c 43be
000002b0: d096 ac3d e8e3 573e fcfc 613c c9c8 30be
000002c0: 3bba a63d 2892 413e bf77 98bd fa6e 3abe
000002d0: d8a2 3d3e 7cdc 15bd 5ba9 f13b da5a 4b3d
000002e0: 357b 073e 925a c13d d448 24be 0674 563e
000002f0: 2a84 8dbd 02c8 813d 051a 893d 95fb 003e
00000300: 5526 79be c670 eebd f761 52be 8e75 a2bc
00000310: 9e0e 1b3d cbeb 213e e7bf 3d3e 02d2 f8bd
00000320: e054 0f3e 165f 07be 857e 793d cd17 123e
00000330: 60be 62be feb7 ce3d 3041 d33d 71f1 0ebe
00000340: 9f26 28be 68cb 8c3e 8856 bebd 8bb9 8abd
00000350: f376 ab3c 392f 3cbe 7eab e23d 02a5 793d
00000360: fb57 a8bd 42ef 3e3e ae5f 4e3e badf 41be
00000370: 238d b43d 93d1 1c3d b3f4 083e 5d39 2cbe
00000380: 325c 0b3e 294f 263d 7a5a 1b3e 5b42 283e
00000390: efd9 23be b501 17be 18d1 03be dbf2 10be
000003a0: f060 653d 5ad4 09be e651 4cbd e0c8 153e
000003b0: a158 0cbc aa88 0d3e dd37 55be 44ed a5bd
000003c0: e18b 4f3d 7e7f a5bd 6dd4 053e 2b0a e13d
000003d0: 94b8 6ebe 8925 633e 4400 0abd e43b 063e
000003e0: 59a4 8cbd 1338 913d 70e0 1abe 72d8 de3c
000003f0: 43fa 6abe 40fe 1cbd 1ace a8bd e379 743e

fc1.bias f4 [128]
0.07771848 -0.009716181 -0.008492376 -0.17261784 0.138787 0.0054695313 0.1770931 -0.055979006
-0.004895823 -0.1478849 -0.013178883 0.102900356 -0.03656736 0.07010587 0.15229575 0.123812705
-0.010030863 0.1718003 -0.14304537 -0.12026473 0.11926641 -0.12795575 0.18154353 -0.050585423
0.16607536 0.022859251 -0.191526 -0.13343096 -0.17332035 0.09929954 -0.12810417 0.1271081
-0.1982086 0.18975708 -0.07098469 0.024165815 0.06687081 0.10375966 0.12362996 -0.119262695
0.027717913 -0.045323305 0.2055453 0.10529746 0.1618804 -0.1921898 -0.061791126 -0.06242293
0.161276 0.045896545 -0.038061302 0.22369255 0.11688746 -0.10638323 -0.0406397 -0.009564044
-0.1474697 -0.031923708 0.19372517 0.07308117 0.112583034 0.06841408 -0.07822292 0.015407452
-0.19926023 0.09919587 -0.19356094 0.019235525 -0.13751511 -0.12715174 0.12747642 0.17299518
0.1310707 0.008008419 -0.1900542 0.07936233 -0.10266429 0.22843032 0.02280751 0.055404373
0.16043772 0.09942178 -0.1282101 0.0991401 -0.0067982553 0.039119076 0.071319714 0.1741307
0.07451628 0.19090657 -0.07025165 -0.047074188 0.22133799 0.07509835 -0.114328906 0.02107091
0.19202939 0.10238327 0.12034024 0.15647107 0.11938977 -0.18040092 -0.12058159 -0.19113652
-0.1740708 -0.14280736 -0.03262434 0.17625085 -0.17414917 -0.035842907 0.13992243 0.007623027
0.03677627 0.10767575 0.15425533 0.10425708 -0.10765683 -0.0038930073 -0.020690402 -0.15324043
-0.06061502 0.14778765 -0.008432481 0.029449692 0.1310646 -0.1230443 0.06666479 -0.010735189
00000000: de2a 9f3d 9e30 1fbc 9b23 0bbc bbc2 30be
00000010: 2e1e 0e3e c139 b33b e557 353e 3e4a 65bd
00000020: 246d a0bb 246f 17be 3eec 57bc 6cbd d23d
00000030: a8c7 15bd ab93 8f3d 6bf3 1b3e 8491 fd3d
00000040: 7d58 24bc 6bec 2f3e 7c7a 12be 5b4d f6bd
00000050: f341 f43d d506 03be 8ce6 393e a932 4fbd
00000060: a90f 2a3e 5343 bb3c 641f 44be 20a2 08be
00000070: e47a 31be 8f5d cb3d bd2d 03be a028 023e
00000080: 32f7 4abe ae4f 423e 6c60 91bd 63f7 c53c
00000090: 90f3 883d f27f d43d b431 fd3d 0040 f4bd
000000a0: ad10 e33c eea4 39bd 787a 523e 32a6 d73d
000000b0: fac3 253e 67cd 44be b118 7dbd 30af 7fbd
000000c0: 8925 253e 04fe 3b3d 2be6 1bbd a90f 653e
000000d0: b162 ef3d 73df d9bd d075 26bd 82b2 1cbc
000000e0: 4c02 17be 6fc2 02bd e45f 463e 95ab 953d
000000f0: ef91 e63d ae1c 8c3d 5733 a0bd 8a6f 7c3c
00000100: e00a 4cbe 3427 cb3d d734 46be d293 9d3c
00000110: c3d0 0cbe 1134 02be 2e89 023e a625 313e
00000120: 6637 063e be35 033c 919d 42be b888 a23d
00000130: a841 d2bd a3e9 693e d1d6 ba3c b2ef 623d
00000140: c949 243e a59d cb3d 8249 03be f709 cb3d
00000150: e6c3 debb 533b 203d 1210 923d 514f 323e
00000160: fe9b 983d 037d 433e 19e0 8fbd ddd0 40bd
00000170: 6da6 623e 2acd 993d 4625 eabd e79c ac3c
00000180: 5aa3 443e 52ae d13d f274 f63d f439 203e
00000190: a082 f43d 05bb 38be 7bf3 f6bd 4bb9 43be
000001a0: 9e3f 32be 183c 12be 1aa1 05bd 1a7b 343e
000001b0: 2954 32be 03d0 12bd d347 0f3e 96ca f93b
000001c0: b7a2 163d 1b85 dc3d 1cf5 1d3e bc84 d53d
000001d0: 2f7b dcbd d321 7fbb eb7e a9bc 0feb 1cbe
000001e0: 7547 78bd a555 173e 6428 0abc 7b40 f13c
000001f0: cc35 063e a6fe fbbd 8d87 883d a5e2 2fbc

fc2.weight f4 [128, 128]
0.09313068 0.08469226 0.016626783 -0.053620905 0.04260993 -0.021364735 0.016863123 -0.015546344
0.09219852 0.09930101 -0.05757039 -0.0014862762 0.018334026 -0.037459817 0.037565123 0.090131104
-0.030948194 0.052310742 -0.015563402 0.017517895 0.09168397 -0.03336616 0.0012199295 -0.078051284
-0.051139664 0.0993203 0.036528453 0.008347489 0.06607303 0.03368446 0.015096496 0.02205446
0.0060790083 -0.008241349 -0.05225614 0.03954509 0.042578176 -0.04928504 0.09268945 0.055987198
-0.07005835 0.026892899 0.014588003 0.06944008 -0.032627817 0.037998326 0.093715325 0.048129454
-0.058734287 -0.011460716 -0.044997748 0.03357613 0.10700674 0.059529945 -0.018775858 -0.0019089659
0.09343499 0.114828765 0.09268283 0.0344285 0.033871297 0.0012390426 0.022079552 -0.016654907
-0.04221185 0.09581196 0.08680689 -0.002454031 0.00015958739 0.026535256 0.091021195 -0.08547775
-0.06998184 -0.028505504 -0.02204552 0.040740013 0.03187513 -0.02107903 0.0748896 -0.036901973
-0.033594802 0.04629986 0.05085515 0.11225366 0.02814026 0.078834 -0.052700613 0.009385119
0.0893315 -0.058914457 0.05280213 0.013972231 0.0019507414 0.06375975 0.09448819 0.048782673
-0.06980729 0.0103531 -0.058722675 -0.0125532225 0.058115058 0.05784463 -0.027887942 0.013759315
-0.010333649 0.120045446 -0.04613118 0.07894671 0.053084947 0.09559605 -0.03290749 -0.05789938
-0.041831154 -0.07647146 -0.04604389 -0.037527416 -0.062161155 0.018410131 -0.06879317 0.009519726
-0.06493814 -0.008762034 0.0017938768 -0.029991686 0.007945616 0.032036334 0.016728321 0.10593433
-0.012913895 -0.068202116 0.06862942 0.075836726 -0.09425778 -0.024473524 0.0059792576 -0.093494184
0.013859233 -0.05654351 0.023634147 0.016418295 -0.010863886 -0.12434744 -0.058644246 -0.007490598
0.071130276 -0.004035788 0.055701453 0.06706086 0.044373937 -0.00094309356 0.082614474 -0.05056449
-0.034948613 -0.04733034 0.06983837 -0.0822961 0.014679254 -0.07233066 -0.033037238 -0.028614687
-0.0651521 0.012264568 0.022961784 0.04301265 -0.039008692 -0.06938531 -0.036910646 -0.07826386
-0.04342736 -0.09800693 0.06871432 -0.0068225297 0.008988287 -0.008774265 -0.05988886 -0.015346549
0.021416252 0.0013898327 0.08378445 0.019177485 -0.028383281 0.0871619 0.030343749 -0.0066758962
0.070826925 0.088779286 -0.021174768 -0.0033872724 -0.04617662 -0.093826585 -0.06880279 0.106784634
-0.06772538 -0.072039336 -0.051993117 0.09076989 -0.066430025 0.054186825 0.034538057 0.057029612
0.06730554 -0.016864415 -0.05218737 0.047740676 0.06551228 0.017941337 -0.06775386 0.08740285
-0.010199796 -0.044428203 0.06535317 0.013378751 -0.040746905 0.00544982 0.030977916 0.03293226
-0.055840194 0.014925866 -0.091043144 0.012242996 -0.07169491 0.05547161 0.056091882 -0.011744971
-0.068312824 0.06288767 -0.100848556 0.04051038 -0.0790707 -0.065452516 -0.07460943 0.054482866
-0.037694637 -0.03988253 0.052870717 0.044081695 -0.025112292 0.07795172 -0.078096166 -0.046449028
-0.015890844 -0.03825591 0.01933304 0.0027444381 0.028281903 0.027496837 -0.007608299 -0.0021956118
-0.0011842212 0.0063305427 -0.060109 -0.089019224 -0.05415462 0.007759992 -0.029781848 -0.0037400776
00000000: 4cbb be3d 2373 ad3d e434 883c 98a1 5bbd
00000010: c087 2e3d 1905 afbc 8824 8a3c 18b6 7ebc
00000020: 94d2 bc3d 545e cb3d eece 6bbd 27cf c2ba
00000030: 3d31 963c 776f 19bd e3dd 193d a896 b83d
00000040: 1187 fdbc ca43 563d a4fd 7ebc b081 8f3c
00000050: cec4 bb3d f4aa 08bd 0be6 9f3a 5ad9 9fbd
00000060: d377 51bd 7168 cb3d dc9e 153d e8c3 083c
00000070: 4c51 873d b7f8 093d 4b57 773c 8eab b43c
00000080: 6b32 c73b b906 07bc 890a 56bd 08fa 213d
00000090: 7466 2e3d 1cdf 49bd f7d3 bd3d d552 653d
000000a0: c17a 8fbd 7f4e dc3c 8502 6f3c 9a36 8e3d
000000b0: bfa4 05bd 22a4 1b3d d2ed bf3d 6423 453d
000000c0: 5d93 70bd bac5 3bbc 8f4f 38bd 2087 093d
000000d0: 5a26 db3d acd5 733d d4cf 99bc 4436 faba
000000e0: d85a bf3d 582b eb3d 7fd0 bd3d e604 0d3d
000000f0: a1bc 0a3d 5f67 a23a 2de0 b43c df6f 88bc
00000100: 55e6 2cbd 1039 c43d d0c7 b13d cfd3 20bb
00000110: ea56 2739 7760 d93c 5269 ba3d f50e afbd
00000120: a452 8fbd 6084 e9bc ce98 b4bc 00df 263d
00000130: 7f8f 023d eead acbc b85f 993d 8626 17bd
00000140: b49a 09bd eca4 3d3d 7d4d 503d 3fe5 e53d
00000150: 6786 e63c b873 a13d 99dc 57bd 0bc4 193c
00000160: 6ff3 b63d 4950 71bd 0c47 583d c9eb 643c
00000170: 05b0 ff3a 7994 823d 0683 c13d 57d0 473d
00000180: 20f7 8ebd 0ca0 293c 3087 70bd 08ac 4dbc
00000190: 0e0a 6e3d 7eee 6c3d 4175 e4bc c06e 613c
000001a0: 774e 29bc 63da f53d 0cf4 3cbd d0ae a13d
000001b0: 9a6f 593d ddc7 c33d 01ca 06bd e627 6dbd
000001c0: 2557 2bbd 129d 9cbd 8598 3cbd 59b6 19bd
000001d0: b29c 7ebd d8d0 963c 6fe3 8cbd a0f8 1b3c
000001e0: 4afe 84bd a28e 0fbc 8420 eb3a 20b1 f5bc
000001f0: 542e 023c 8838 033d d509 893c 19f4 d83d
00000200: cd94 53bc 8dad 8bbd 958d 8c3d 4950 9b3d
00000210: 390a c1bd b37c c8bc a6ed c33b e179 bfbd
00000220: d611 633c 2b9a 67bd 669c c13c a97f 863c
00000230: 71fe 31bc dfa9 febd f334 70bd b173 f5bb
00000240: c0ac 913d a53e 84bb 3527 643d 3457 893d
00000250: 72c1 353d f039 77ba c731 a93d b61c 4fbd
00000260: 4726 0fbd 75dd 41bd 6b07 8f3d dc8a a8bd
00000270: 4181 703c 1922 94bd 0e52 07bd 5969 eabc
00000280: 776e 85bd 54f1 483c 5a1a bc3c 082e 303d
00000290: 94c7 1fbd e319 8ebd 9e2f 17bd cd48 a0bd
000002a0: e3e0 31bd dbb7 c8bd 18ba 8c3d 878f dfbb
000002b0: 9c43 133c efc1 0fbc 054e 75bd 1870 7bbc
000002c0: 2371 af3c 0c2b b63a 2f97 ab3d 1a1a 9d3c
000002d0: 0e84 e8bc f081 b23d 7493 f83c 7ac1 dabb
000002e0: b50d 913d ead1 b53d b576 adbc 00fd 5dbb
000002f0: b223 3dbd 2728 c0bd 7ae8 8cbd e7b1 da3d
00000300: 9bb3 8abd 5c89 93bd bcf6 54bd 90e5 b93d
00000310: 770c 88bd 01f3 5d3d c777 0d3d e297 693d
00000320: 7dd7 893d 3e27 8abc 6cc2 55bd ba8b 433d
00000330: 4d2b 863d b6f9 923c 89c2 8abd 4400 b33d
00000340: 0c1d 27bc 59fa 35bd e2d7 853d 8d32 5b3c
00000350: 3ae6 26bd 6794 b23b 66c5 fd3c fae3 063d
00000360: b0b8 64bd 9f8b 743c d474 babd d996 483c
00000370: c8d4 92bd 3336 633d 9ac0 653d fb6d 40bc
00000380: 98e7 8bbd 40cb 803d b089 cebd 36ee 253d
00000390: d2ef a1bd f80b 86bd d4cc 98bd 6d29 5f3d
000003a0: b165 1abd dd5b 23bd f78e 583d 028f 343d
000003b0: 4bb8 cdbc 27a5 9f3d e2f0 9fbd 5641 3ebd
000003c0: 842d 82bc 3bb2 1cbd 5360 9e3c 08dc 333b
000003d0: 73af e73c 0c41 e13c 0a4f f9bb 41e4 0fbb
000003e0: df37 9bba 7170 cf3b db34 76bd b64f b6bd
000003f0: 3cd1 5dbd 8847 fe3b 10f9 f3bc 171c 75bb

fc2.bias f4 [128]
0.04207324 0.07903919 -0.03683158 -0.065245956 0.06337103 0.07185047 -0.06428857 0.026734889
-0.06251489 -0.017665174 0.013998091 0.06165467 -0.058512386 0.026070915 0.046404075 -0.03732755
-0.036573984 0.013064006 0.032822415 -0.022458905 -0.0030922475 -0.033669006 0.027044151 0.060433224
-0.0010409895 0.03065404 0.0316048 0.060709126 -0.028058605 0.03278217 -0.05520708 -0.068013676
0.08228897 -0.0072686644 0.009862745 -0.024679579 0.076542445 0.09524749 -0.0143722715 -0.054793786
0.009454999 -0.023819048 -0.062180214 0.036152706 0.045841325 -0.047871806 0.07875628 0.046629407
0.015967485 0.046685424 -0.060631055 0.01255056 0.032886837 0.054749068 -0.05436947 0.01128008
-0.05723819 0.024583945 -0.048034668 0.03376596 0.09369018 0.03738912 0.03638589 0.019797008
-0.048552122 0.0329385 0.09093365 0.0067060236 -0.012685582 -0.024564968 0.01783309 0.073995
0.05993005 -0.07580666 0.063374184 0.045458388 -0.07663299 0.08190896 0.05184318 -0.074636266
-0.071346015 0.024704443 -0.016570922 0.06109806 0.016144982 0.024543025 -0.047710843 -0.05106144
0.05374895 0.0050061657 -0.06989823 -0.026420625 -0.07614701 0.056471057 0.035540797 0.01920196
-0.083242714 -0.047527317 0.03239767 -0.016569786 0.03606538 -0.034947027 0.0762145 0.023258572
0.074044466 0.07003169 0.040953692 -0.020499865 -0.047605146 -0.01112794 0.05751125 -0.08459449
-0.05025918 0.030723827 -0.052672844 -0.0018812829 -0.006637464 0.05639479 0.085768394 -0.01925541
-0.08198699 0.032650657 0.026728127 0.015070266 0.07588262 -0.027693668 -0.047399193 -0.06885796
00000000: fd54 2c3d 4ddf a13d b6dc 16bd ac9f 85bd
00000010: acc8 813d 5726 933d baa9 83bd 2003 db3c
00000020: cf07 80bd 8eb6 90bc 4058 653c 9b89 7c3d
00000030: afaa 6fbd ac92 d53c 3312 3e3d c6e4 18bd
00000040: 9ace 15bd 6a0a 563c cc70 063d bdfb b7bc
00000050: 4ea7 4abb 83e8 09bd b28b dd3c d488 773d
00000060: d071 88ba 2e1e fb3c 0974 013d 22aa 783d
00000070: 29db e5bc 9946 063d d220 62bd c14a 8bbd
00000080: 1f87 a83d fa2d eebb 5a97 213c d42c cabc
00000090: 49c2 9c3d 1e11 c33d ad79 6bbc 736f 60bd
000000a0: 24e9 1a3c 2a20 c3bc aeb0 7ebd dc14 143d
000000b0: 1dc4 3b3d 3a15 44bd f94a a13d 7afe 3e3d
000000c0: 3ece 823c 3739 3f3d 4558 78bd dda0 4d3c
000000d0: 59b4 063d 8f40 603d 85b2 5ebd 16d0 383c
000000e0: 9872 6abd 4564 c93c 00c0 44bd 2d4e 0a3d
000000f0: a3e0 bf3d 5525 193d 5f09 153d 562d a23c
00000100: 97de 46bd 85ea 063d 6c3b ba3d 34be db3b
00000110: 30d7 4fbc 793c c9bc b316 923c b18a 973d
00000120: 3679 753d 8640 9bbd 53ca 813d 9332 3a3d
00000130: c2f1 9cbd e3bf a73d 8459 543d e6da 98bd
00000140: dc1d 92bd f960 ca3c bebf 87bc f641 7a3d
00000150: 7b42 843c 740e c93c 726c 43bd cd25 51bd
00000160: dc27 5c3d c30a a43b ce26 8fbd 1170 d8bc
00000170: f7f2 9bbd 324e 673d 3a93 113d 6e4d 9d3c
00000180: 287b aabd 01ac 42bd 6bb3 043d 5cbd 87bc
00000190: 4bb9 133d 9d24 0fbd 5916 9c3d c388 be3c
000001a0: a0a4 973d c66c 8f3d 0fbf 273d 55ef a7bc
000001b0: 9dfd 42bd f751 36bc eb90 6b3d e03f adbd
000001c0: 92dc 4dbd 89b0 fb3c 7bbf 57bd 6195 f6ba
000001d0: 157f d9bb 39fe 663d 57a7 af3d 86bd 9dbc
000001e0: cce8 a7bd b2bc 053d f2f4 da3c 47e9 763c
000001f0: 5968 9b3d d5dd e2bc a825 42bd 6705 8dbd

reg_head.weight f4 [1, 128]
0.11290945 -0.061525222 0.042531133 0.0814804 -0.040927794 0.024474233 0.08320869 0.05664104
-0.08936483 0.018263707 -0.07354192 -0.08333557 0.14376736 -0.021664131 0.09600194 -0.04741737
-0.08356273 0.10121248 0.027736964 0.10921804 0.062979676 -0.05120826 -0.05013944 -0.008796639
-0.051586058 -0.031408813 -0.09969977 -0.09346405 -0.103272974 0.07797796 -0.09082848 0.02758108
0.059118874 0.04988175 -0.076540925 -0.036004063 0.07806998 0.0686106 0.08393971 0.05496854
0.042183973 0.09191703 0.106538415 -0.058346633 0.009479247 0.049593274 -0.04574395 0.0049429946
0.042792022 0.09829434 0.0030212335 -0.08676821 0.046258498 0.01755311 -0.08468948 0.09238091
-0.07588309 0.09248075 -0.061217368 0.080996044 0.08290062 -0.1360877 0.051231887 0.035949674
0.083158225 0.04850406 0.0150067005 0.059626304 0.06877412 0.029356543 -0.022053843 0.07988246
0.11098129 -0.060254693 -0.05240723 -0.060158513 -0.06500992 0.04320897 -0.055527106 -0.035945162
-0.05038663 0.09331207 0.022125391 -0.040593058 -0.10666101 0.029665766 0.045803003 0.028087355
-0.08313171 0.036822546 0.10192577 -0.051110566 0.045141034 0.08909404 -0.060897384 0.088534616
0.058778383 0.07669821 0.11687165 -0.025103644 -0.048377022 -0.0625694 0.06299366 -0.080024906
-0.05428028 -0.0902098 -0.03853575 -0.05123591 -0.058681738 0.09407769 -0.04142734 -0.03156797
0.061787173 -0.09387994 0.07969133 -0.097623676 -0.06385459 0.021702025 -0.037515853 -0.085437916
-0.07704106 0.066361964 0.044304684 0.08793385 -0.011133782 -0.06791411 0.08092564 -0.048543666
00000000: 123d e73d df01 7cbd 2035 2e3d 32df a63d
00000010: e7a3 27bd 307e c83c 5169 aa3d 6f00 683d
00000020: e804 b7bd c59d 953c 259d 96bd d7ab aabd
00000030: c037 133e fa78 b1bc aa9c c43d b738 42bd
00000040: f022 abbd 7d48 cf3d a138 e33c b5ad df3d
00000050: 7dfb 803d c1bf 51bd 035f 4dbd c71f 10bc
00000060: e74b 53bd 87a6 00bd 652f ccbd 146a bfbd
00000070: c880 d3bd e9b2 9f3d 4804 babd b8f1 e13c
00000080: a226 723d ce50 4c3d 7dc1 9cbd ff78 13bd
00000090: 27e3 9f3d b783 8c3d 95e8 ab3d b126 613d
000000a0: 1ac9 2c3d ff3e bc3d d030 da3d e1fc 6ebd
000000b0: d84e 1b3c 5122 4b3d 025e 3bbd d8f8 a13b
000000c0: b046 2f3d 8b4e c93d e3ff 453b 88b3 b1bd
000000d0: 8d79 3d3d 8acb 8f3c ae71 adbd 3432 bd3d
000000e0: 9868 9bbd 8c66 bd3d 10bf 7abd 41e1 a53d
000000f0: cdc7 a93d 935a 0bbe 87d8 513d f73f 133d
00000100: dc4e aa3d 31ac 463d aade 753c b63a 743d
00000110: 72d9 8c3d 227d f03c 43aa b4bc 6a99 a33d
00000120: 294a e33d a0cd 76bd f7a8 56bd c668 76bd
00000130: ec23 85bd e4fb 303d 6470 63bd 3c3b 13bd
00000140: 3662 4ebd 661a bf3d 4f40 b53c e844 26bd
00000150: 1671 dabd 9f05 f33c ee9b 3b3d 7417 e63c
00000160: f540 aabd 3dd3 163d 75be d03d 5059 51bd
00000170: cee5 383d f076 b63d 896f 79bd a351 b53d
00000180: 9ac1 703d f313 9d3d 675a ef3d 28a6 cdbc
00000190: fc26 46bd 6324 80bd d202 813d 19e4 a3bd
000001a0: 0055 5ebd eabf b8bd aad7 1dbd bfdc 51bd
000001b0: 435c 70bd ceab c03d b7af 29bd 6a4d 01bd
000001c0: 8c14 7d3d 2044 c0bd 3535 a33d ecee c7bd
000001d0: 32c6 82bd 72c8 b13c 39aa 19bd 13fa aebd
000001e0: b4c7 9dbd c8e8 873d d478 353d aa16 b43d
000001f0: 776a 36bc 8e16 8bbd 58bc a53d b9d5 46bd
