grasp_placement/models/run_seed_7131/stability_net.pth (torch, 289476 bytes, 5 tensors)

fc1.weight f4 [256, 21]
-0.2534542 0.06883792 0.19739015 0.06423797 0.14987281 0.24048622 0.006701007 -0.036066793
-0.010210223 0.17655472 -0.025539694 0.19747221 0.023919435 0.110701695 -0.10619646 0.14536768
0.1406915 -0.06358144 0.12070991 -0.05606813 0.10270268 -0.16317879 -0.08586104 0.13114122
-0.09414659 0.01788724 -0.21209879 -0.21733864 0.21992445 -0.18049733 -0.21037236 -0.02516534
-0.00060502754 0.14650765 0.1659462 0.00041199947 0.17000668 0.13914947 0.20696326 0.252728
0.2113725 0.0019858035 -0.10763845 0.19257665 0.06397609 -0.14829163 0.07674537 0.09922129
0.20329277 -0.1898107 -0.19770736 -0.20977576 -0.21215005 0.07007077 -0.17973527 -0.07819864
-0.14203914 -0.0964647 -0.10465059 0.20928335 0.05556583 -0.054006517 -0.10211629 -0.1313227
0.0757585 -0.041182894 0.2314168 0.07206079 0.0458026 0.06355165 -0.14388326 0.100724176
-0.021208636 -0.16446583 -0.10609423 0.22640117 0.039715413 0.10193235 0.109613195 -0.13238251
0.16602834 0.1754083 -0.038931422 0.27666613 -0.18670458 -0.18360147 0.2174392 -0.13942142
-0.025032377 0.016426224 0.22549735 0.08340268 0.14351077 0.1385557 0.20562553 0.10992178
0.028163327 -0.015046881 0.035461396 -0.08694432 -0.082662836 -0.07794464 -0.070557304 0.17497984
0.15579304 0.083711796 0.065415196 -0.20150605 -0.009764957 0.18829346 0.097332135 0.092722975
-0.072294466 -0.02466243 -0.190812 -0.12005698 -0.042658936 0.19834723 -0.07257281 -0.18414587
-0.08583849 0.13274741 0.18146446 -0.1771858 -0.1302288 0.2018683 0.11143469 0.011206154
-0.16450673 0.073235676 -0.051762067 -0.072708756 0.14279407 -0.1367967 0.14017136 0.016742362
-0.003873413 0.16329432 0.071028605 -0.24747643 0.09265744 0.14617209 -0.21808946 -0.1776653
0.10005845 -0.14541802 0.15221609 -0.053828366 0.2194826 -0.055531774 -0.17522964 -0.08534609
-0.18517332 -0.046622206 -0.18886065 -0.109277494 0.10726043 -0.06781582 0.1444429 0.15035507
-0.09121882 -0.20885924 0.12850289 -0.07672711 0.18487108 0.02255895 0.097088344 -0.12998876
0.17570792 0.108626135 -0.030680867 0.25526989 -0.1364121 0.006390722 0.058501303 0.21519709
0.010021686 0.10622897 -0.15505888 0.15853545 -0.0830209 0.101460025 0.18512474 0.13452141
0.035099488 -0.04688689 -0.20466001 -0.03909285 0.18684642 -0.095526785 -0.05893452 -0.018783474
-0.16349049 0.13021293 -0.023528306 0.15273455 0.021699533 -0.009908601 0.06774457 -0.082317844
-0.24246173 -0.060724646 0.011214335 0.17814972 -0.07955813 -0.0640501 -0.0034579746 0.25257167
0.037604157 0.20958975 0.13473623 -0.06696034 -0.042107813 -0.06991055 -0.1999529 -0.24700654
-0.030847711 -0.062391397 -0.025308406 0.1261788 -0.08928987 0.18806441 0.14984044 0.08546031
-0.0113970805 0.03184166 -0.05369143 -0.022290822 -0.19032933 -0.15662143 -0.05420519 -0.024900023
-0.13931502 0.16584162 -0.15471444 -0.04263928 0.16839173 0.0594415 -0.08678859 -0.0788706
-0.07173685 -0.048981085 -0.11368063 -0.055149283 -0.06907848 0.0022198588 -0.14664471 -0.15883102
0.24910189 -0.14925943 -0.03101405 0.2143735 0.2232031 0.08388402 0.028912514 -0.10225029
00000000: c0c4 81be e5fa 8c3d a520 4a3e 328f 833d
00000010: 4278 193e 0542 763e 1f94 db3b c6ba 13bd
00000020: c748 27bc c3ca 343e 9f38 d1bc 2836 4a3e
00000030: b1f2 c33c 92b7 e23d 887d d9bd 44db 143e
00000040: 6f11 103e fc36 82bd c236 f73d b2a7 65bd
00000050: c855 d23d 5718 27be ead7 afbd e249 063e
00000060: edcf c0bd 4388 923c 6d30 59be 058e 5ebe
00000070: e033 613e 4bd4 38be da6b 57be 8b27 cebc
00000080: b69a 1eba 1a06 163e cded 293e a201 d839
00000090: 3b16 2e3e 337d 0e3e 2dee 533e 9065 813e
000000a0: 0872 583e 4124 023b 8c71 dcbd d032 453e
000000b0: e505 833d c3d9 17be ad2c 9d3d 8834 cb3d
000000c0: fb2b 503e bc5d 42be cc73 4abe 75cf 56be
000000d0: dd3d 59be 4481 8f3d 860c 38be 9c26 a0bd
000000e0: b572 11be 498f c5bd 0c53 d6bd 604e 563e
000000f0: ff98 633d f035 5dbd 5822 d1bd 7579 06be
00000100: 4627 9b3d 65af 28bd 87f8 6c3e 9c94 933d
00000110: 829b 3b3d 5e27 823d 2256 13be 7a48 ce3d
00000120: bcbd adbc bb69 28be ef47 d9bd b5d5 673e
00000130: a1ac 223d e8c1 d03d e27c e03d 488f 07be
00000140: 5503 2a3e 3c9e 333e 8e76 1fbd 2fa7 8d3e
00000150: 7c2f 3fbe 0602 3cbe 62a8 5e3e 7dc4 0ebe
00000160: b310 cdbc 4a90 863c c7e8 663e 06cf aa3d
00000170: 7df4 123e 8ce1 0d3e 808f 523e ac1e e13d
00000180: c7b6 e63c 3187 76bc f83f 113d dd0f b2bd
00000190: 224b a9bd 70a1 9fbd 5980 90bd ea2d 333e
000001a0: 3688 1f3e 1771 ab3d 67f8 853d 9a57 4ebe
000001b0: 33fd 1fbc 00d0 403e 1256 c73d 8be5 bd3d
000001c0: 1f0f 94bd dd08 cabc 3964 43be 6fe0 f5bd
000001d0: 23bb 2ebd 891b 4b3e 0ea1 94bd bc90 3cbe
000001e0: 17cc afbd f0ee 073e d2d1 393e 3270 35be
000001f0: b35a 05be 90b6 4e3e df37 e43d 049a 373c
00000200: 7474 28be 96fc 953d 7604 54bd 54e8 94bd
00000210: 9c38 123e 6f14 0cbe 1589 0f3e 4727 893c
00000220: 16d9 7dbb a036 273e 7277 913d 766a 7dbe
00000230: 2fc3 bd3d 23ae 153e d852 5fbe e4ed 35be
00000240: 72eb cc3d 76e8 14be 89de 1b3e 227b 5cbd
00000250: 0cc0 603e 4975 63bd 666f 33be eec9 aebd
00000260: 139e 3dbe edf6 3ebd b064 41be e1cc dfbd
00000270: 5bab db3d 05e3 8abd d7e8 133e aef6 193e
00000280: efd0 babd 32df 55be 4396 033e 1a23 9dbd
00000290: d84e 3d3e 8ccd b83c 41d6 c63d c61b 05be
000002a0: c7ec 333e 6177 de3d 7156 fbbc bcb2 823e
000002b0: 9daf 0bbe 4369 d13b 109f 6f3d a05c 5c3e
000002c0: ff31 243c 938e d93d c1c7 1ebe 1e57 223e
000002d0: dd06 aabd 46ca cf3d 5791 3d3e fbbf 093e
000002e0: 7bc4 0f3d 780c 40bd 6592 51be d31f 20bd
000002f0: ab54 3f3e 8ca3 c3bd 5365 71bd cddf 99bc
00000300: 0d6a 27be 8a56 053e 6fbe c0bc 7266 1c3e
00000310: 38c3 b13c af57 22bc aabd 8a3d 4296 a8bd
00000320: e347 78be 68ba 78bd 55bc 373c e16c 363e
00000330: 5fef a2bd b32c 83bd 309f 62bb 1351 813e
00000340: d106 1a3d b29e 563e 4bf8 093e 8122 89bd
00000350: 3e79 2cbd 432d 8fbd 74c0 4cbe 48ef 7cbe
00000360: 57b4 fcbc 1f8e 7fbd 9353 cfbc 0435 013e
00000370: 9bdd b6bd f593 403e c66f 193e d105 af3d
00000380: d2ba 3abc 676c 023d 8beb 5bbd 3e9b b6bc
00000390: b1e5 42be 5e61 20be 4306 5ebd 22fb cbbc
000003a0: 99a8 0ebe 63d2 293e 766d 1ebe 87a6 2ebd
000003b0: e26e 2c3e ee78 733d 37be b1bd e986 a1bd
000003c0: c5ea 92bd 64a0 48bd 64d1 e8bd 37e4 61bd
000003d0: 0579 8dbd 0d7b 113b 082a 16be 99a4 22be
000003e0: 9114 7f3e 77d7 18be 2d11 febc ba84 5b3e
000003f0: 5a8f 643e 63cb ab3d f0d9 ec3c 9a68 d1bd

fc1.bias f4 [256]
-0.06902421 0.13551095 -0.09879312 0.019249275 -0.05798577 0.09387813 0.1955405 -0.03753829
-0.041806087 0.17004319 -0.137486 -0.123695195 -0.19045913 0.027231209 -0.032153826 -0.029802172
-0.0102584725 0.18132211 -0.10685862 -0.15820901 -0.18263566 -0.07561762 0.06082083 0.19164646
0.00030047118 0.047382545 0.17742108 0.17726873 -0.08740366 0.024401113 -0.1630361 -0.09033403
0.12181928 -0.1134099 0.16904777 -0.0709687 0.075855814 -0.20451665 -0.18357666 0.04880961
-0.012772156 -0.10575148 0.18444578 0.02780562 -0.033972017 -0.119991854 0.18456344 -0.0996452
-0.18218015 -0.112587556 0.10973552 -0.16453573 0.039904978 0.086587034 0.20379658 -0.02993927
0.054334328 0.08848623 0.13407607 -0.011705641 0.0010080432 -0.0766098 -0.1708743 -0.18757865
-0.05603609 0.14586951 0.24545646 -0.0082988385 -0.042901173 0.1305142 -0.20552777 0.12791625
0.112636946 -0.13628234 -0.14141385 0.008436779 0.1363011 0.15087917 0.17784296 0.21597026
0.18350077 0.014089658 0.037267078 -0.026642984 -0.0018425655 -0.14524528 0.05948033 0.19349225
0.14556411 0.13375586 -0.043911915 -0.09372338 0.17099056 -0.17534131 0.20190814 0.1022476
0.1144862 -0.1251881 0.2018924 0.20601165 -0.18428743 -0.19429155 -0.011947555 0.22497207
0.08357592 0.14093821 0.20326637 -0.017744673 -0.00023854611 0.15135714 0.18792391 -0.08231135
0.048607003 0.1276894 -0.11650323 -0.13408425 -0.0036340384 -0.13367791 0.0422039 0.16883522
-0.16852756 0.1930358 0.15458256 -0.04429097 0.19085672 0.08413804 -0.06701809 0.15215605
0.1382137 0.21147831 0.1400769 -0.18452254 0.1022074 -0.110120125 0.18836355 0.08212428
-0.16082022 0.09932663 -0.10727903 0.13722345 -0.18184245 -0.0087107625 -0.024356112 0.1532121
-0.11466169 0.043076776 0.10016442 0.012413752 -0.02714075 0.19235924 -0.11997207 -0.01640413
-0.1880684 -0.013769394 -0.09291422 -0.015736137 -0.12849613 0.17399503 0.055604853 -0.22579221
-0.06676222 -0.12162022 0.20259954 0.13075455 0.16891208 0.005455691 0.03630707 -0.06229392
0.08438133 0.1908836 0.05948865 0.119411506 0.19134168 0.08569331 0.062023286 -0.032029636
0.006248138 0.16504557 -0.17641902 -0.060223207 -0.07624803 0.128639 0.09573262 0.12182246
0.10143383 0.17913139 0.17929167 -0.19806129 0.12010826 0.001142009 0.04278118 0.13140339
0.05155022 0.0736934 0.238432 -0.03635662 0.2186964 0.07392607 -0.031839646 0.13924378
0.15145801 0.08874391 -0.13367505 0.120890215 -0.021783145 -0.22003044 0.13715328 -0.106089175
-0.027896514 -0.18365766 -0.05318966 0.16955398 -0.12308829 -0.12408726 0.07018975 -0.17238043
-0.108525 -0.1449908 0.029921953 0.087456614 0.15732095 0.17816858 -0.0025344526 0.15436368
-0.20749356 -0.027086861 0.047303982 -0.03785364 0.15261848 -0.040762145 0.18475603 -0.09974477
0.07606002 0.10673468 0.1657572 -0.10124326 -0.11424063 -0.20965138 -0.06904789 -0.13507773
-0.10555196 -0.16030844 -0.15574461 0.15274136 -0.03392915 0.11765257 0.13277866 -0.023205796
-0.17454705 0.11283863 -0.0013449121 0.0052425056 0.08527284 0.01220739 -0.13646783 0.10336162
00000000: 915c 8dbd 62c3 0a3e 0c54 cabd a8b0 9d3c
00000010: 7d82 6dbd 2d43 c03d c53b 483e c0c1 19bd
00000020: dc3c 2bbd cd1f 2e3e 21c9 0cbe e853 fdbd
00000030: b807 43be fc13 df3c bbb3 03bd af23 f4bc
00000040: 2713 28bc 81ac 393e b1d8 dabd 8b01 22be
00000050: d804 3bbe 69dd 9abd 431f 793d f83e 443e
00000060: 8f88 9d39 3314 423d dfad 353e ef85 353e
00000070: b100 b3bd d8e4 c73c eff2 26be 0c01 b9bd
00000080: 637c f93d 7343 e8bd dc1a 2d3e 0a58 91bd
00000090: 4b5a 9b3d d06c 51be 85fb 3bbe 96ec 473d
000000a0: 4e42 51bc 3b94 d8bd 5bdf 3c3e 9dc8 e33c
000000b0: 3e26 0bbd 4abe f5bd 33fe 3c3e c812 ccbd
000000c0: 6f8d 3abe 4e94 e6bd 04bd e03d 0e7c 28be
000000d0: 6773 233d 8b54 b13d 0db0 503e 3343 f5bc
000000e0: ac8d 5e3d 4538 b53d 3d4b 093e 04c9 3fbc
000000f0: 5120 843a 99e5 9cbd acf9 2ebe 9e14 40be
00000100: 1986 65bd d15e 153e f058 7b3e daf7 07bc
00000110: 24b9 2fbd 84a5 053e df75 52be 7afc 023e
00000120: 33ae e63d 998d 0bbe cbce 10be 6a3a 0a3c
00000130: 8492 0b3e 1280 1a3e 771c 363e 4f27 5d3e
00000140: a0e7 3b3e 4fd8 663c 5da5 183d 6342 dabc
00000150: 3d82 f1ba 2ebb 14be a6a1 733d d522 463e
00000160: c20e 153e 4cf7 083e fbdc 33bd 0bf2 bfbd
00000170: 2618 2f3e ac8c 33be 02c1 4e3e 3167 d13d
00000180: be77 ea3d 4f31 00be e2bc 4e3e b8f4 523e
00000190: d8b5 3cbe 5df4 46be adbf 43bc 145f 663e
000001a0: da29 ab3d 1b52 103e 0f25 503e 475d 91bc
000001b0: 3c22 7ab9 5efd 1a3e 206f 403e da92 a8bd
000001c0: 2318 473d 03c1 023e 3f99 eebd 624d 09be
000001d0: 0c29 6ebb dde2 08be ffdd 2c3d 24e3 2c3e
000001e0: 7d92 2cbe 2dab 453e e44a 1e3e 736a 35bd
000001f0: f26f 433e 9150 ac3d c840 89bd ccce 1b3e
00000200: e487 0d3e c58d 583e 5270 0f3e 7af3 3cbe
00000210: 1d52 d13d a986 e1bd 60e2 403e c630 a83d
00000220: 0eae 24be c36b cb3d 1cb5 dbbd 4e84 0c3e
00000230: e834 3abe 96b7 0ebc 7886 c7bc a2e3 1c3e
00000240: c0d3 eabd 4671 303d 0123 cd3d 0d63 4b3c
00000250: 4756 debc d2f9 443e ebb3 f5bd f461 86bc
00000260: 0195 40be 0699 61bc d049 bebd 12e9 80bc
00000270: 7d94 03be c12b 323e eac1 633d 1336 67be
00000280: a1ba 88bd 0614 f9bd 4176 4f3e 85e4 053e
00000290: 4af7 2c3e a7c5 b23b b9b6 143d e927 7fbd
000002a0: 1ed0 ac3d fe76 433e 5faa 733d 058e f43d
000002b0: 13ef 433e f97f af3d 210c 7e3d 8231 03bd
000002c0: 2ebd cc3b b501 293e 30a7 34be 9cac 76bd
000002d0: ed27 9cbd f1b9 033e 770f c43d 0e7e f93d
000002e0: 8abc cf3d 386e 373e 3c98 373e 94d0 4abe
000002f0: 52fb f53d 77af 953a 523b 2f3d 9c8e 063e
00000300: 5326 533d 91ec 963d 8527 743e aeea 14bd
00000310: f3f1 5f3e 8d66 973d 4a6a 02bd ec95 0e3e
00000320: cf17 1b3e 5ebf b53d 1de2 08be 4a95 f73d
00000330: 9172 b2bc a94f 61be e971 0c3e 4845 d9bd
00000340: 3b87 e4bc c110 3cbe 67dd 59bd 8f9f 2d3e
00000350: b715 fcbd 7621 febd a5bf 8f3d 7f84 30be
00000360: 5b42 debd 7878 14be e21e f53c 741c b33d
00000370: be18 213e d371 363e 0f19 26bb 8311 1e3e
00000380: 3179 54be 44e5 ddbc d2c1 413d 6b0c 1bbd
00000390: 0548 1c3e 35f6 26bd af30 3d3e fc46 ccbd
000003a0: 5bc5 9b3d b697 da3d 41bc 293e a058 cfbd
000003b0: fef6 e9bd daae 56be fb68 8dbd d151 0abe
000003c0: a02b d8bd e527 24be 847b 1fbe 3b68 1c3e
000003d0: 4bf9 0abd d5f3 f03d 21f7 073e 151a bebc
000003e0: 76bc 32be f117 e73d c347 b0ba 53c9 ab3b
000003f0: 87a3 ae3d 8101 483c 39be 0bbe 42af d33d

fc2.weight f4 [256, 256]
0.013319796 0.04223493 0.073938854 -0.023144472 0.06074351 0.028023884 0.017303219 0.038860902
0.08675402 0.037532 -0.0062453854 0.0026385577 0.012453157 0.06642133 -0.014678694 0.04466355
-0.038494058 0.008589432 -0.005043395 0.065194406 0.06757766 -0.055464435 -0.04696808 -0.019033927
-0.021508265 0.007058289 0.06319717 -0.014621297 0.04138473 -0.049367167 0.06052274 0.043304764
0.04088994 -0.049875285 -0.042596508 0.040401235 0.028025528 0.061364315 0.0030056105 0.02446447
-0.0123097235 0.006332307 0.06635895 0.04495903 0.044309054 0.031160045 0.020122057 0.03901049
0.031090207 -0.029343255 -0.0436632 0.01622929 0.015366021 0.029448615 0.04376591 -0.07479637
0.012611579 -0.006159749 0.004934752 -0.025441213 -0.055579334 -0.06432507 0.06569619 0.05896601
-0.014010624 0.018542742 0.029269429 -0.04846316 -0.03462552 0.052283224 -0.050895225 0.0026452637
0.019243544 -0.083165504 -0.08985368 0.0040620584 -0.018392319 -0.026639171 0.039631158 0.018532274
-0.052665927 -0.05767084 0.041329272 -0.028610721 0.03284461 0.038748916 -0.005007171 -0.0003126291
-0.042714655 0.0555698 0.0650516 -0.041260384 0.02856302 0.050707925 -0.016032584 -0.054175604
0.021706954 -0.029976342 -0.044484943 0.055727642 -0.042937953 -0.015973983 0.0042757783 -0.012888603
0.08068233 -0.05610044 -0.016225075 -0.037686788 -0.023805141 0.021770164 -0.053779922 0.014013363
0.10674582 0.03495612 0.018274786 -0.06708201 -0.030725181 0.028166072 0.031461723 -0.038467783
0.05843368 0.0016891028 -0.019205596 0.031450067 -0.01595719 -0.012870628 0.022036755 0.08988026
0.009936532 0.0711946 0.0493961 -0.019792909 -0.053845506 0.023869678 -0.03971515 -0.0052042133
0.055105533 0.034104202 0.0263536 -0.047741495 -0.13157661 0.004172573 -0.009853323 -0.034373436
0.03239462 -0.05517128 0.06487731 0.060558677 -0.016293338 0.05650084 0.058075566 0.005708236
0.06884253 -0.0079956725 -0.06357727 -0.06974211 0.00087541464 -3.397804e-06 0.026787933 0.04351896
-0.0006627996 -0.04781681 -0.014376943 0.027249785 -0.015669286 -0.021656046 -0.032837015 0.06592156
0.055723216 0.04952886 0.0066491137 -0.027502524 0.021041077 0.016905991 0.03736418 0.0021785502
-0.009320274 -0.04861914 0.036812022 -0.04346131 0.045551445 0.026726354 -0.035906896 -0.049948793
-0.033811595 0.04101602 -0.024552515 0.040161904 0.009798165 -0.049450107 -0.05509382 -0.049744345
-0.058650333 -0.004220175 -0.005019634 -0.010856983 0.0498364 0.06332262 0.02260509 0.053920202
-0.026589142 0.035608593 0.050451204 0.044026133 0.040761232 -0.043389264 0.0060788128 0.058469124
0.03480041 -0.025520163 -0.013872204 0.029355008 -0.03576597 0.046992544 0.0068914946 -0.06747163
0.07416866 0.07860777 0.029179793 0.011380972 0.02623691 -0.04996176 0.0012829375 -0.026477583
-0.014332294 0.009712653 -0.015025253 -0.002056573 -0.05614119 -0.01881567 0.011174383 0.07733282
0.012790726 0.011821655 0.0447652 0.023070946 -0.034730446 -0.05883735 -0.024462556 0.007735234
-0.02382931 -0.031978745 -0.05859769 0.07921724 -0.038945097 -0.03990269 0.03756682 0.028935153
0.022327453 -0.049070604 -0.003235584 0.0021467211 0.0022436213 -0.014484743 -0.099179305 0.028654862
00000000: 463b 5a3c 89fe 2c3d 416d 973d 7a99 bdbc
00000010: 30ce 783d 5892 e53c 7bbf 8d3c 9c2c 1f3d
00000020: 17ac b13d 28bb 193d 17a6 ccbb a7eb 2c3b
00000030: 5408 4c3c e807 883d e87e 70bc 20f1 363d
00000040: f2ab 1dbd b0ba 0c3c 1043 a5bb a584 853d
00000050: 2866 8a3d ad2e 63bd 9a61 40bd 0aed 9bbc
00000060: 1a32 b0bc 3849 e73b 856d 813d 2a8e 6fbc
00000070: 0983 293d 3a35 4abd b1e6 773d 5660 313d
00000080: 367c 273d 074a 4cbd ad79 2ebd c47b 253d
00000090: cb95 e53c 2659 7b3d c7f9 443b b669 c83c
000000a0: b9ae 49bc 3e7f cf3b 34e7 873d f626 383d
000000b0: 697d 353d 5a43 ff3c 03d7 a43c 77c9 1f3d
000000c0: e4b0 fe3c 4461 f0bc 2fd8 32bd 4af3 843c
000000d0: c3c1 7b3c 393e f13c e243 333d d72e 99bd
000000e0: cca0 4e3c b8d7 c9bb b3b3 a13b 176a d0bc
000000f0: 28a7 63bd ddbc 83bd b98b 863d 5886 713d
00000100: d18c 65bc f3e6 973c 71c6 ef3c 4e81 46bd
00000110: 7dd3 0dbd ef26 563d 8377 50bd 295c 2d3b
00000120: a3a4 9d3c ad52 aabd 3505 b8bd 041b 853b
00000130: 7dab 96bc 643a dabc 4854 223d ffd0 973c
00000140: 3ab8 57bd 4238 6cbd e248 293d 0861 eabc
00000150: 1288 063d 2fb7 1e3d 3213 a4bb 5ee8 a3b9
00000160: 90f5 2ebd 299d 633d c639 853d a600 29bd
00000170: fffc e93c 1db3 4f3d c456 83bc 3de7 5dbd
00000180: c8d2 b13c f290 f5bc d835 36bd ab42 643d
00000190: b5df 2fbd dfdb 82bc d41b 8c3b b82a 53bc
000001a0: c73c a53d 93c9 65bd 73ea 84bc 765d 1abd
000001b0: 0003 c3bc 5857 b23c 5648 5cbd 4e98 653c
000001c0: 8d9d da3d 262e 0f3d 01b5 953c 4b62 89bd
000001d0: 60b3 fbbc 89bc e63c 02de 003d 6590 1dbd
000001e0: 2858 6f3d e364 dd3a 0e55 9dbc c9d1 003d
000001f0: a7b8 82bc 54df 52bc 6d86 b43c 2413 b83d
00000200: d6cc 223c 79ce 913d 9153 4a3d bd24 a2bc
00000210: 1b8d 5cbd 588a c33c 5aac 22bd 1b88 aabb
00000220: 57b6 613d d9b0 0b3d 81e3 d73c 968c 43bd
00000230: 05bc 06be 14ba 883b d56f 21bc 29cb 0cbd
00000240: 39b0 043d 48fb 61bd 65de 843d 600c 783d
00000250: 9b79 85bc 6d6d 673d a5e0 6d3d 270c bb3b
00000260: 50fd 8c3d 4800 03bc cd34 82bd f4d4 8ebd
00000270: 157c 653a d405 64b6 5e72 db3c f040 323d
00000280: babf 2dba 8fdb 43bd 458d 6bbc f13a df3c
00000290: e05c 80bc 0568 b1bc 1b80 06bd e201 873d
000002a0: 073e 643d c6de 4a3d cfe0 d93b f94c e1bc
000002b0: 565e ac3c 6f7e 8a3c 2f0b 193d 02c6 0e3b
000002c0: 10b4 18bc dd24 47bd 34c8 163d 7d04 32bd
000002d0: 2794 3a3d 3af1 da3c 1c13 13bd 1b97 4cbd
000002e0: 077e 0abd 6a00 283d 5b22 c9bc cf80 243d
000002f0: 7c88 203c 328c 4abd 0faa 61bd bac0 4bbd
00000300: 553b 70bd 6549 8abb be7b a4bb 7de1 31bc
00000310: 4121 4c3d 4aaf 813d 4f2e b93c 6edb 5c3d
00000320: 79d1 d9bc 51da 113d eca5 4e3d bf54 343d
00000330: 40f5 263d f1b8 31bd c730 c73b 527d 6f3d
00000340: e08a 0e3d a90f d1bc 3e48 63bc ea79 f03c
00000350: 567f 12bd 417b 403d 0cd2 e13b 912e 8abd
00000360: bde5 973d 1cfd a03d 760a ef3c 4277 3a3c
00000370: caee d63c b4a4 4cbd 3d28 a83a 84e7 d8bc
00000380: 00d2 6abc d221 1f3c 7b2c 76bc 92c7 06bb
00000390: 4ef4 65bd 5223 9abc c214 373c ab60 9e3d
000003a0: 3190 513c 9daf 413c b75b 373d 48ff bc3c
000003b0: 8341 0ebd 6fff 70bd b365 c8bc d977 fd3b
000003c0: af35 c3bc 25fc 02bd 2204 70bd a63c a23d
000003d0: e584 1fbd 0171 23bd aadf 193d 6a09 ed3c
000003e0: 10e8 b63c 42fe 48bd 170c 54bb 01b0 0c3b
000003f0: b809 133b 6a51 6dbc 851e cbbd 9abd ea3c

fc2.bias f4 [256]
0.058659524 -0.046819586 0.015828284 -0.0167593 0.06007257 -0.055961415 -0.039049428 -0.015413349
-0.021339921 -0.020885939 0.046099033 -0.01684328 -0.042200148 0.020019786 0.0057344735 0.017194817
-0.021900019 -0.008782553 0.015749358 0.056617405 -0.06032625 -0.047637995 0.024924774 -0.05805536
-0.035239846 -0.03644709 -0.020194441 0.0048198937 0.023001172 0.030404333 -0.0051123765 0.06327138
0.023434892 -0.015132475 0.016660867 0.015420574 0.023304699 0.047979366 -0.020453203 -0.052289844
-0.03239832 -0.013367895 0.0643424 -0.04621107 -0.00081967376 -0.03929088 0.0040070126 -0.0578151
-0.04001539 -0.050372813 -0.026413573 0.060181532 0.012237914 0.06676194 -0.056992356 -0.010123604
-0.039494287 0.0081928875 0.037374362 0.055505276 -0.015469082 -0.026732864 0.05583885 0.023389023
0.014913445 0.00016819255 -0.024965247 -0.0027245206 -0.05239177 -0.02786344 0.02428862 -0.030973673
-0.039810013 0.040305834 -0.042902738 0.057101257 -0.017248545 -0.033300523 -0.020153265 0.020723682
-0.019990519 0.012404635 0.029988674 -0.03524236 0.00784499 0.0312919 -0.053438567 -0.060064264
0.037503354 -0.014872735 0.05129665 -0.040682636 0.032402266 0.029458776 -0.0039677275 0.035622366
-0.049065977 -0.064502016 -0.036570545 -0.058937207 -0.04983313 0.032046977 0.03167945 -0.03138923
-0.04229847 0.024036814 -0.049689893 0.021418616 -0.060564753 0.040058915 0.036270272 0.0131749585
0.026350224 -0.013582945 0.0044943504 0.010095091 -0.045714702 0.0025765297 -0.05437806 0.050074212
-0.020120947 -0.009356276 -0.050539747 0.03232494 -0.04015996 0.02060039 -0.011351875 -0.036420632
-0.021743389 0.0051571284 0.030877778 0.032718692 -0.0010611546 0.043582488 -0.03454847 0.053405534
-0.03450305 0.007759167 0.06282753 0.0049628504 -0.037427053 -0.041481707 -0.034493502 -0.019082004
-0.030316254 0.052594982 0.06519736 -0.058056083 0.06294083 0.015578982 0.040194 0.0056278612
-0.009523377 0.055973 0.009847312 0.008721199 0.026535872 -0.0152415065 0.013560852 0.014436543
0.050193034 -0.047350183 -0.023255154 0.0018557258 0.016987331 -0.047996238 -0.016675068 -0.009931907
0.0069905054 -0.020043636 0.01915909 -0.008960307 -0.018550681 0.015449413 -0.056986228 0.05344948
0.019878218 0.04112895 0.03665032 0.018722897 -0.050516497 -0.02257696 -0.0005958404 0.04461783
-0.05424864 0.029240547 0.018335119 -0.040636078 0.03063401 -0.0349819 0.016757738 -0.05125031
0.057990212 0.0018469297 0.05956301 0.055923756 0.054326322 -0.043166377 0.033738505 -0.002715152
0.03362551 -0.011707587 0.005825721 -0.038444947 0.037841953 -0.020416949 -0.00044301813 0.051053453
0.039830666 -0.001286036 0.027154189 0.015030632 0.057415612 0.050502304 -0.03379856 -0.030750303
-0.046194505 -0.02775551 -0.04584258 -0.017770514 -0.007247823 -0.014054974 -0.021673348 -0.06376121
0.007595445 0.02136292 -0.031798366 -0.0051849424 6.784506e-05 0.045098606 -0.016030116 -0.041803412
-0.041350335 -0.0051151 -0.03753309 -0.05287854 -0.042016726 0.011989431 0.020302074 -0.0370924
-0.019518623 -0.010274212 0.05545382 0.04891855 0.03482064 -0.011247761 0.015271935 0.06734779
0.0035725283 -0.015510623 0.01993103 0.06116546 0.01069547 -0.017793762 0.009012212 -0.033609398
00000000: f844 703d e5c5 3fbd 51aa 813c cd4a 89bc
00000010: a80e 763d cc37 65bd 4bf2 1fbd 4588 7cbc
00000020: 0fd1 aebc fd18 abbc 57d2 3c3d ebfa 89bc
00000030: 10da 2cbd 8900 a43c 40e8 bb3b 25dc 8c3c
00000040: ab67 b3bc b2e4 0fbc cc04 813c a7e7 673d
00000050: a818 77bd 0f20 43bd 0a2f cc3c 75cb 6dbd
00000060: a857 10bd 8b49 15bd d06e a5bc 33f0 9d3b
00000070: f46c bc3c 8212 f93c b985 a7bb 6d94 813d
00000080: 88fa bf3c 33ee 77bc 5f7c 883c 93a6 7c3c
00000090: 7fe9 be3c 0386 443d 7a8d a7bc e02d 56bd
000000a0: 1ab4 04bd 0405 5bbc f3c5 833d d247 3dbd
000000b0: 60df 56ba 79ef 20bd 424d 833b 87cf 6cbd
000000c0: 2de7 23bd b953 4ebd 4761 d8bc e980 763d
000000d0: 8881 483c 7cba 883d d170 69bd 79dd 25bc
000000e0: c3c4 21bd 763b 063c dc15 193d 8059 633d
000000f0: 0872 7dbc e1fe dabc 47b7 643d 569a bf3c
00000100: 8657 743c d85c 3039 eb83 ccbc df8d 32bb
00000110: c198 56bd de41 e4bc eef8 c63c 80bc fdbc
00000120: d30f 23bd bb17 253d c8ba 2fbd 02e3 693d
00000130: d24c 8dbc 2166 08bd 7618 a5bc b6c4 a93c
00000140: 28c3 a3bc cf3c 4b3c cfaa f53c 4b5a 10bd
00000150: 4688 003c ef2b 003d 66e2 5abd f205 76bd
00000160: 1e9d 193d c6ac 73bc 701c 523d d6a2 26bd
00000170: 3db8 043d 8853 f13c b603 82bb c2e8 113d
00000180: 68f9 48bd a219 84bd ffca 15bd 2468 71bd
00000190: d31d 4cbd b143 033d 50c2 013d fe91 00bd
000001a0: 2941 2dbd dae8 c43c a187 4bbd 1876 af3c
000001b0: bf12 78bd d114 243d 2390 143d c8db 573c
000001c0: 6ddc d73c 008b 5ebc 5845 933b e165 253c
000001d0: 573f 3bbd ffda 283b 87bb 5ebd 9e1a 4d3d
000001e0: afd4 a4bc 114b 19bc c402 4fbd 2867 043d
000001f0: c57e 24bd 26c2 a83c 37fd 39bc cd2d 15bd
00000200: 311f b2bc 21fd a83b 65f3 fc3c 0904 063d
00000210: 7116 8bba 8d83 323d b282 0dbd c3bf 5a3d
00000220: 1253 0dbd 9c40 fe3b b8ab 803d 689f a23b
00000230: 1c4d 19bd b9e8 29bd 0f49 0dbd dd51 9cbc
00000240: cb59 f8bc d66d 573d 3286 853d 37cc 6dbd
00000250: 1fe7 803d fd3e 7f3c 77a2 243d ec69 b83b
00000260: f007 1cbc f243 653d 9f56 213c 5ce3 0e3c
00000270: c261 d93c 83b7 79bc 562e 5e3c 4087 6c3c
00000280: 3697 4d3d 44f2 41bd 9881 bebc d33b f33a
00000290: 0429 8b3c b497 44bd 279a 88bc 70b9 22bc
000002a0: 9c10 e53b 8d32 a4bc 86f3 9c3c 40ce 12bc
000002b0: 99f7 97bc 891f 7d3c 646a 69bd d8ed 5a3d
000002c0: a5d7 a23c d476 283d a51e 163d c360 993c
000002d0: 63ea 4ebd 51f3 b8bc 2c32 1cba 30c1 363d
000002e0: d233 5ebd df89 ef3c 8833 963c 0472 26bd
000002f0: 2df4 fa3c 2e49 0fbd 8647 893c d8eb 51bd
00000300: 2587 6d3d ad14 f23a 58f8 733d 4f10 653d
00000310: 4785 5e3d 3acf 30bd 6331 0a3d b1f0 31bb
00000320: e7ba 093d 2ed1 3fbc b1e5 be3b 7378 1dbd
00000330: 2a00 1b3d 7241 a7bc e344 e8b9 6d1d 513d
00000340: 7b25 233d 3590 a8ba 7672 de3c 0a43 763c
00000350: a22c 6b3d 81db 4e3d 5c70 0abd 0fe8 fbbc
00000360: 7336 3dbd 865f e3bc 6ec5 3bbd 7893 91bc
00000370: 257f edbb d546 66bc 4e8c b1bc 3d95 82bd
00000380: 36e3 f83b 4a01 af3c 013f 02bd 73e6 a9bb
00000390: 0a48 8e38 51b9 383d 9751 83bc 0e3a 2bbd
000003a0: f85e 29bd 929c a7bb 4cbc 19bd 2b97 58bd
000003b0: bb19 2cbd 526f 443c 8950 a63c 33ee 17bd
000003c0: 85e5 9fbc 2b55 28bc 8b23 633d d15e 483d
000003d0: 16a0 0e3d 8748 38bc 2337 7a3c a3ed 893d
000003e0: 1421 6a3b 4520 7ebc 6646 a33c a288 7a3d
000003f0: 0d3c 2f3c 39c4 91bc f5a7 133c 02aa 09bd

reg_head.weight f4 [1, 256]
0.0692453 -0.086920775 -0.06613029 -0.102984875 0.022804625 -0.17246002 -0.07175624 0.033793487
-0.07742167 0.058134284 -0.057618704 -0.085682936 0.034137703 0.059380822 0.020613663 0.0005299827
-0.051846653 0.034190353 0.019889334 0.049716063 -0.042775437 0.07503242 0.054583225 0.030729989
-0.10972664 0.029538762 0.07366588 -0.13705537 0.027644474 0.011213875 -0.21904106 0.04535057
0.061717022 0.090703 0.033424422 0.057504788 -0.106541194 0.13651857 -0.04909803 0.0915565
-0.007113129 0.081935756 0.0694537 0.08403142 -0.091415495 -0.07636287 -0.058180176 0.1724687
-0.07201151 -0.10018684 0.05322625 0.025057547 -0.07626083 0.023810083 -0.04318236 -0.13755542
0.06476168 -0.037109632 -0.05438118 -0.13696414 0.11935916 -0.08940192 -0.08376365 0.03247789
0.032052018 0.036822055 -0.09008606 -0.07401539 0.037629172 0.036357198 0.033940785 0.04986759
0.032854736 -0.07123406 0.034174632 0.05776826 -0.10240551 0.029640274 0.0919103 0.0037451426
0.035102494 -0.01149256 0.018971294 -0.052932285 -0.089360446 -0.08299141 0.11158957 -0.07495519
0.08540585 0.047160752 0.021986922 -0.13619371 -0.07031699 0.025642602 -0.08541292 0.06581289
-0.10290629 -0.11994458 0.05686747 0.013539219 -0.097490124 -0.029182622 0.041633572 0.04760102
-0.07222779 0.04992593 -0.0703598 -0.14228846 -0.024082016 -0.07644901 -0.09137068 -0.08254574
0.029932238 0.029391019 -0.1375728 0.032564398 -0.09867396 0.06358387 -0.036955003 -0.02053446
0.060695942 -0.054973748 0.039334547 0.013037096 0.025735598 0.036650963 -0.09379832 0.050338216
-0.0379582 -0.047518745 -0.067985155 -0.08307702 0.02152609 -0.049545746 -0.09936422 -0.09498191
0.101053245 -0.11012058 0.020221641 -0.09772055 -0.049339794 0.063899465 -0.00016164049 0.04817534
-0.08251883 0.0070708343 0.055552814 -0.1182453 0.017656507 0.032208163 -0.049497522 -0.08108265
0.032856673 -0.1306707 0.014972763 -0.12766911 0.07540279 -0.14136907 0.030095512 -0.09985267
-0.013603869 0.06958239 -0.19034502 -0.1375562 0.09392596 0.027752869 0.03700305 0.01625911
-0.11030099 -0.07214588 0.05515914 0.06069801 -0.18840234 0.05408911 -0.053299773 0.06729938
-0.082030125 -0.060617976 -0.07668102 -0.07631777 -0.08669861 0.036012895 0.071978964 0.08626423
-0.14939374 -0.029174004 0.0034544538 -0.10542673 0.06415797 -0.030176984 -0.05322957 0.07421721
-0.1187565 0.042913664 0.050708648 -0.07249461 -0.09761635 0.03133229 0.045162246 0.025055885
0.012966008 -0.11561027 -0.14416158 0.035940565 -0.08511009 -0.015484384 0.059229426 0.030405654
0.08831403 0.097366214 -0.19820474 0.0466818 -0.067964576 0.007728022 -0.07311793 -0.04213821
0.05526675 0.048321195 0.056140147 -0.120263256 -0.035577934 -0.06768498 0.11061594 -0.028344728
0.07658511 0.09378917 0.09277613 -0.17533839 -0.061488707 0.030694716 -0.09736797 -0.03985945
0.04688018 -0.031138739 -0.059880912 0.008161872 -0.0471289 -0.094991565 -0.0996132 -0.0014280397
-0.06330509 -0.04758161 -0.14850797 -0.05163742 0.01771041 0.032281656 -0.04530023 0.058405574
0.023480091 -0.03705387 -0.07524265 -0.006757684 0.029658338 0.027958471 0.058316182 -0.08410707
00000000: 7bd0 8d3d 8503 b2bd 516f 87bd bce9 d2bd
00000010: c4d0 ba3c 5c99 30be f0f4 92bd 0a6b 0a3d
00000020: 418f 9ebd 371e 6e3d 9701 6cbd 897a afbd
00000030: fad3 0b3d 4e39 733d fcdd a83c 89ee 0a3a
00000040: 285d 54bd 2f0b 0c3d f5ee a23c 12a3 4b3d
00000050: 4c35 2fbd 99aa 993d a992 5f3d 75bd fb3c
00000060: 5cb8 e0bd 46fb f13c 23de 963d 3e58 0cbe
00000070: aa76 e23c 67ba 373c 4d4c 60be 85c1 393d
00000080: fdca 7c3d 7fc2 b93d 0ce8 083d 248a 6b3d
00000090: 4532 dabd 86cb 0b3e 041b 49bd f981 bb3d
000000a0: 4015 e9bb efcd a73d be3d 8e3d aa18 ac3d
000000b0: 0c38 bbbd 2364 9cbd 564e 6ebd a39b 303e
000000c0: c57a 93bd c22e cdbd c503 5a3d 7c45 cd3c
000000d0: a32e 9cbd 5d0d c33c fcdf 30bd 54db 0cbe
000000e0: c6a1 843d 4500 18bd cdbe 5ebd 5440 0cbe
000000f0: 9372 f43d 5b18 b7bd 478c abbd 8907 053d
00000100: fa48 033d b9d2 163d 0a7f b8bd 6195 97bd
00000110: 0c21 1a3d 49eb 143d 7e05 0b3d f541 4c3d
00000120: b092 063d 2ae3 91bd b3fa 0b3d 699e 6c3d
00000130: fbb9 d1bd 29d0 f23c 783b bc3d 1171 753b
00000140: a2c7 0f3d 4a4b 3cbc b069 9b3c 86cf 58bd
00000150: 9c02 b7bd 66f7 a9bd 1389 e43d 1b82 99bd
00000160: 43e9 ae3d a22b 413d eb1d b43c 5d76 0bbe
00000170: 5b02 90bd 6f10 d23c f8ec aebd e9c8 863d
00000180: 88c0 d2bd 81a5 f5bd dded 683d 9ad3 5d3c
00000190: e7a8 c7bd 6510 efbc f787 2a3d 4af9 423d
000001a0: 2aec 93bd 227f 4c3d cc18 90bd 11b4 11be
000001b0: a647 c5bc 4c91 9cbd 8d20 bbbd be0d a9bd
000001c0: 7434 f53c 6fc5 f03c e2df 0cbe 3f62 053d
000001d0: 9315 cabd 4338 823d 215e 17bd e237 a8bc
000001e0: 4f9c 783d 272c 61bd 431d 213d 8b99 553c
000001f0: 76d3 d23c 521f 163d 5519 c0bd 722f 4e3d
00000200: 0f7a 1bbd 04a3 42bd cd3b 8bbd 4924 aabd
00000210: 7c57 b03c 7bf0 4abd 787f cbbd e085 c2bd
00000220: 01f5 ce3d e686 e1bd dba7 a53c b621 c8bd
00000230: 8618 4abd b9dd 823d 0a7e 29b9 8153 453d
00000240: a2ff a8bd 75b2 e73b 598b 633d 982a f2bd
00000250: 61a4 903c b5ec 033d eabd 4abd a90e a6bd
00000260: b894 063d 8ace 05be 5250 753c b1bb 02be
00000270: c76c 9a3d 0ec3 10be dd8a f63c 8f7f ccbd
00000280: c3e2 5ebc 3681 8e3d cee9 42be 88db 0cbe
00000290: 415c c03d fc59 e33c 8390 173d d331 853c
000002a0: 7ce5 e1bd 38c1 93bd 8dee 613d 7a9e 783d
000002b0: 8bec 40be 8b8c 5d3d dd50 5abd 42d4 893d
000002c0: 69ff a7bd 8e4a 78bd f00a 9dbd 7e4c 9cbd
000002d0: 0a8f b1bd 4282 133d b569 933d 4dab b03d
000002e0: acfa 18be 52fe eebc 1e64 623b f8e9 d7bd
000002f0: 4165 833d b935 f7bc 4007 5abd 31ff 973d
00000300: 9c36 f3bd 3dc6 2f3d dfb3 4f3d 0e78 94bd
00000310: 15eb c7bd 4a56 003d 0cfc 383d 0042 cd3c
00000320: 616f 543c 14c5 ecbd 189f 13be 6a36 133d
00000330: 334e aebd 37b2 7dbc 8e9a 723d 4715 f93c
00000340: fcdd b43d f067 c73d 2ff6 4abe 6a35 3f3d
00000350: 0331 8bbd 593b fd3b dabe 95bd 1e99 2cbd
00000360: 635f 623d 72ec 453d 36f3 653d 954c f6bd
00000370: 2bba 11bd 6c9e 8abd 9c8a e23d 3433 e8bc
00000380: a7d8 9c3d 8914 c03d 6901 be3d e88b 33be
00000390: 95db 7bbd 7c73 fb3c dc68 c7bd aa43 23bd
000003a0: 6e05 403d ab16 ffbc b045 75bd 5fb9 053c
000003b0: 3c0a 41bd f08a c2bd 0102 ccbd 102d bbba
000003c0: 19a6 81bd efe4 42bd 7912 18be c281 53bd
000003d0: 6c15 913c c539 043d bc8c 39bd af3a 6f3d
000003e0: 5259 c03c ccc5 17bd d218 9abd 906f ddbb
000003f0: 0bf6 f23c 2a09 e53c f3dc 6e3d 5440 acbd
