grasp_placement/models/run_seed_4240/stability_net.pth (torch, 289476 bytes, 5 tensors)

fc1.weight f4 [256, 21]
000000 cf b2 88 bd ea 59 f4 3d 72 ba 17 be d3 4a 88 3d
       -0.0667473 0.11931212 -0.14817217 0.066548966
000010 9b 3b c2 bd 21 f8 96 3d 1e 4c 97 bc e8 a1 f8 3d
       -0.09484025 0.073715456 -0.018468913 0.12140256
000020 7f 15 82 3a ac 57 9f bc df 4f 24 3d a0 40 4d 3e
       0.0009924619 -0.019450985 0.040115234 0.20044184
000030 95 c8 84 bb 11 68 d9 bd 4b ee 93 3d 31 e5 47 bc
       -0.0040522316 -0.10615552 0.07223185 -0.01220064
000040 c6 97 50 bc 83 3b 1c 3e af e7 17 be a2 9a 33 3e
       -0.012731498 0.15257077 -0.14834474 0.17539456
000050 5d 86 86 3d 57 a9 59 bc a1 59 9a 3d 62 5a b1 bd
       0.065685965 -0.013285003 0.075366266 -0.08659817
000060 5a 57 66 3e 80 76 ee 3d 33 32 01 bc 30 be a6 3c
       0.2249426 0.11643696 -0.007885504 0.02035436
000070 be 56 d2 bc ae 3f 19 be 31 a0 e7 3c cc 5e b2 3c
       -0.025676128 -0.14965698 0.028274627 0.021773718
000080 05 51 ab bd 66 bc 3c be 1c d8 d6 bb 6f 65 d2 3c
       -0.083650626 -0.18431243 -0.006556524 0.025683133
000090 7c bf 0f be 9d 70 35 bd a1 a6 cd 3d d4 88 72 be
       -0.14037889 -0.04429685 0.100415476 -0.23685008
0000a0 a3 fe 8e bd ad c1 57 3d cc 9c 94 bd 18 93 43 be
       -0.06982162 0.052674938 -0.07256469 -0.1909908
0000b0 3c ad 2b 3e 80 15 73 3e b6 83 f0 3c a9 c5 2d 3e
       0.16765302 0.2373867 0.02935968 0.16969933
0000c0 46 48 9e bd dc fd 03 3d e1 6d 7a 3e bb 47 de bd
       -0.07728629 0.03222452 0.24455978 -0.10853525
0000d0 5f ba be bd 5e f5 3a be d5 43 1b bd c5 d3 43 3c
       -0.09312891 -0.18257663 -0.037906487 0.011952345
0000e0 95 45 1e be 1f 83 4c 3d 0b 8f c5 3c 52 d1 b8 bc
       -0.15456231 0.049929734 0.02411606 -0.02256075
0000f0 c5 b2 1d bc 5c d1 20 bd b6 ea 7b be 39 da ed bc
       -0.0096251415 -0.03926216 -0.24601254 -0.02903472
000100 db 85 de bc d4 0a bf bd bb cb 74 bd f2 7c 66 3d
       -0.027163437 -0.09328237 -0.059764605 0.0562715
000110 fe d1 62 3e f8 40 12 3e 5c b5 b3 3d 17 c9 14 3e
       0.22150418 0.14282596 0.08774826 0.14529835
000120 16 0d e1 3d 3e e8 70 bd 16 bb 54 bd be 38 db 3c
       0.10988824 -0.058815233 -0.05193623 0.026760455
000130 7c c2 31 3e ca 13 80 3e ff 62 5c 3e 36 a9 dd 3d
       0.17359346 0.25015098 0.21522139 0.1082329
000140 bf 15 33 be 20 f2 49 be 19 dc 4d be b9 81 ef 3b
       -0.17488764 -0.1972127 -0.20103492 0.0073091653
000150 e8 e2 dd 3c 8b 74 5d bb dc f0 f6 bb f6 24 65 be
       0.027085736 -0.003379139 -0.007536037 -0.2237738
000160 11 16 3f be 19 ea 0e be fe 0d 03 3c 8a e7 e1 3d
       -0.18660761 -0.13956489 0.0079989415 0.11030491
000170 52 f6 ec bd 43 85 fa bd 2c b3 f1 3d 63 b1 9b 3d
       -0.11570419 -0.12232449 0.118017524 0.07602193
000180 ea 6f 7d bd 95 e0 8c 3e fa 00 3d 3d e5 f8 f0 bd
       -0.061874308 0.27515092 0.04614351 -0.11766223
000190 b9 c9 63 be d1 e9 49 be 9b 68 a5 3c 0c ee 55 be
       -0.2224492 -0.197181 0.020191481 -0.20891589
0001a0 49 42 b2 3d 3f dd 97 3c f8 15 69 bc 27 8d 07 3e
       0.08704049 0.018538116 -0.014226429 0.13237439
0001b0 c8 62 58 3e c0 7b ac bd 94 9c dd 3c 10 c0 22 3e
       0.21131432 -0.08422041 0.027052201 0.15893579
0001c0 7c c0 10 bd cc c2 cd bc a1 fa 4c 3e 86 79 16 3d
       -0.035339817 -0.0251173 0.20017482 0.036736988
0001d0 26 16 36 be fa c2 fb bd 27 ba 08 3e f4 d8 37 3e
       -0.17781886 -0.12293048 0.13352261 0.17953855
0001e0 a2 b2 d2 bd 67 30 27 be 89 7a ed bd 84 cc a8 bc
       -0.10287978 -0.16327058 -0.11595637 -0.020605333
0001f0 b3 c3 91 bd 0e 26 0a bc 80 3d 3f be 4a a1 3d 3e
       -0.07117405 -0.0084319245 -0.18675804 0.18518558
000200 da e2 33 3e 9b 92 82 3e e7 19 5e 3e 1f 8c be bd
       0.17567006 0.25502476 0.21689568 -0.0930407
000210 99 0c 44 be 10 9e 7e bd e2 ee 95 3d 1b 46 39 be
       -0.1914543 -0.06216246 0.07320954 -0.1809315
000220 e8 64 b3 bd cd 04 53 3c 0e e2 65 3e 5b 21 35 be
       -0.08759481 0.012879563 0.22449514 -0.17688505
000230 c7 fc 33 3e e2 c9 71 3c 08 47 d7 3d 3e ca 3d be
       0.17576896 0.014757605 0.10511595 -0.1853418
000240 be d1 4b 3e 53 90 ec 3d a1 78 ae 3d 80 bb 2f 3d
       0.19904229 0.11550965 0.08519102 0.042903423
000250 af 3b 2a be 54 07 24 bd e9 03 69 bd 1e ba dd 3d
       -0.1662433 -0.04004605 -0.056888495 0.10826515
000260 34 2f 69 bd 51 e7 05 be cd 36 20 be 93 61 d8 bd
       -0.056929782 -0.13076521 -0.15645905 -0.10565486
000270 48 62 f8 3b 84 01 03 be 95 60 f8 bd 14 dc 79 3e
       0.0075800754 -0.12793547 -0.121277966 0.2440036
000280 ac 49 5b 3e d6 37 ea 3b 79 ee 05 be 37 ff 2d 3d
       0.21414822 0.0071477694 -0.13079251 0.04247972
000290 e6 66 26 bc 47 c2 cb 3d 48 1a 68 3e d5 da ff 3d
       -0.010156369 0.09949165 0.22666276 0.12492911
0002a0 03 4f a0 bc e9 78 23 3e a0 86 3b 3e b2 24 75 3d
       -0.019568926 0.15964092 0.18313074 0.05984945
0002b0 40 33 00 3d 7f 0a 3a 3d 92 15 7b bd 41 2c f2 3d
       0.031298876 0.045420166 -0.061299868 0.11824847
0002c0 d5 15 85 bd 6a 02 a1 3c 84 2b 4a 3e b6 a8 90 3d
       -0.06498305 0.019654471 0.19743162 0.07063429
0002d0 5c 8a 7e bd f3 5d 31 be 49 54 33 3e ed 0a 05 be
       -0.06214367 -0.17320995 0.17512621 -0.12992449
0002e0 75 14 e5 bd 98 b9 e3 3d 2b 98 26 be c8 c4 90 3d
       -0.111855425 0.111193836 -0.16268985 0.07068783
0002f0 f1 95 9e 3d 99 ff 0a be ae d3 37 bd 28 ce db bd
       0.07743443 -0.13574065 -0.044879608 -0.107326806
000300 ae 6a f8 bd 12 13 31 3e 9c f7 29 3d 57 57 0d 3e
       -0.121297225 0.17292431 0.041495904 0.13802849
000310 73 98 be bd c6 f7 d0 bd 4c c0 d2 bc 83 04 a0 bd
       -0.09306421 -0.10203509 -0.02572646 -0.078133605
000320 ad 65 61 3e ae 75 64 be c6 de 48 bd 8c bc 47 3e
       0.22011442 -0.22310516 -0.04904058 0.19505519
000330 88 3c 35 3e 0d 42 53 3e f6 95 34 3e 31 a8 32 be
       0.17698872 0.20630665 0.1763533 -0.17446972
000340 3e 8b 61 be e4 c6 af ba 79 4a 36 be 35 4c 1b 3e
       -0.22025773 -0.0013410714 -0.17801847 0.1516579
000350 fc 51 30 3e cf 00 4a 3d 12 04 5a be ed 46 95 3d
       0.17218775 0.049317177 -0.21290615 0.07288919
000360 3c a3 70 3d ae 05 48 be 5e 1d 20 be 10 61 fc bd
       0.058749422 -0.19533417 -0.15636203 -0.12323201
000370 a0 37 8b 3d 91 93 6c 3d 6a d7 80 3d 7d db e6 3c
       0.06797719 0.057757918 0.06291087 0.028180832
000380 f1 0e e9 bc ac e5 26 be 43 a5 d2 bd 7c 19 2a 3e
       -0.028449507 -0.1629855 -0.102854274 0.16611284
000390 e8 f5 bc bb 02 4d 56 bc c4 cb ae bd d8 dc 0f be
       -0.005766619 -0.0130798835 -0.08534959 -0.14049089
0003a0 9e 2c 2a 3e f7 4d 00 bd 61 f7 5e 3e 38 11 3d 3e
       0.16618583 -0.031324353 0.21774055 0.184636
0003b0 ca a0 de 39 fd c0 a6 bc 51 89 ca 3d ee 22 27 3d
       0.00042462937 -0.020355696 0.09889472 0.040804796
0003c0 63 b1 01 be 80 99 10 3e e2 d9 d8 bd 6f 50 49 bd
       -0.12665324 0.14121056 -0.10588433 -0.049148973
0003d0 2c 58 d3 3d 70 7e 8f bc 5f cb 16 be be 43 4d be
       0.10319552 -0.017516345 -0.14726017 -0.20045373
0003e0 be 35 08 be 20 70 46 be b1 49 a8 bd cb f1 54 be
       -0.13301751 -0.1937871 -0.082171805 -0.20795362
0003f0 21 1d 59 be 74 9f f5 3d ca 0b 4c bd de a3 3e 3e
       -0.21202518 0.11993304 -0.04981593 0.18617198

fc1.bias f4 [256]
000000 d0 94 bb 3d be f6 f3 3d ec da 04 3e 74 fc af bd
       0.09159243 0.11912297 0.12974137 -0.085930735
000010 b7 8d c5 3c d9 d8 a2 bd e2 a7 ed bd a7 9a d4 3d
       0.024115426 -0.07951517 -0.11604287 0.1038106
000020 0c f0 10 be 39 97 ec bd aa 9c 4b 3d df 5c 57 be
       -0.1415407 -0.11552281 0.049709953 -0.21031521
000030 f8 84 16 3d b9 da cc bc 4b f2 af 3d 0e aa a6 3d
       0.036747903 -0.025006639 0.085911356 0.08137904
000040 b6 3d 3a bc 32 10 3b 3e 34 8f 54 3e d7 68 b6 3d
       -0.011367252 0.18267897 0.20757753 0.08906715
000050 86 18 da 3d 1b 0f 01 3e 9e ea 3d 3e 8c 6e 3d 3e
       0.10649209 0.12603419 0.1854653 0.18499202
000060 75 6c a5 bd 1a db 0d be 8a c4 6c 3d a1 c2 ed bd
       -0.08077327 -0.13853112 0.05780462 -0.11609388
000070 20 27 84 bd 45 3f 1e 3e fc a9 ac bd 93 91 2c 3e
       -0.06452775 0.15453823 -0.084308594 0.16852407
000080 f7 11 c2 bb 29 48 8e bc ad d1 ed bd 27 e8 2c 3e
       -0.0059225517 -0.017368393 -0.11612258 0.16885434
000090 43 53 ab ba 48 a1 00 be 45 90 cb bb 8a 82 f5 3d
       -0.0013071079 -0.12561524 -0.0062122666 0.11987789
0000a0 10 2f 87 bd 9a 28 1b 3e e0 69 ba bd 84 53 39 bc
       -0.06600773 0.15152207 -0.09102225 -0.011311416
0000b0 58 50 42 3d 83 57 06 be 70 2f 37 bd 11 a9 19 3d
       0.047439903 -0.1311932 -0.044722974 0.03751475
0000c0 83 bd 2c be dd 8a 73 3e c3 32 42 be 25 5d 25 3e
       -0.16869168 0.23783441 -0.18964677 0.16148813
0000d0 3b 66 de 3d c9 39 29 be 71 81 85 3d a1 46 24 be
       0.10859343 -0.1652595 0.065188296 -0.16042568
0000e0 4f ba 28 3e 59 50 21 be 91 52 d4 3d c9 1d 6a 3e
       0.16477321 -0.15753306 0.10367311 0.22862925
0000f0 1f 13 d6 bd a8 12 f1 bd 04 32 1c be 35 64 41 3e
       -0.10452866 -0.117711365 -0.15253454 0.18885882
000100 45 85 1a 3e 97 ad f8 bd 44 27 ac 3d 51 38 f8 3c
       0.15089901 -0.12142485 0.08405927 0.030300291
000110 55 4e 2c 3e a7 b1 c3 3c 17 66 f5 bd 1c 62 ea bc
       0.16826756 0.023888422 -0.11982363 -0.028611235
000120 e4 e0 e0 3d 34 ee 1a 3e 92 c1 c2 3c 46 06 f6 bb
       0.109803945 0.1512993 0.023773942 -0.007508072
000130 26 77 22 3e 18 4f e4 bd f0 2f 5a 3e d0 1a 61 bd
       0.15865764 -0.111478984 0.21307349 -0.05495721
000140 54 fb d2 3d 08 e6 90 3d a8 63 50 3e 24 03 86 3d
       0.10301843 0.07075125 0.20350516 0.06543568
000150 2c 46 12 3e d5 33 fb 3d a9 33 98 3d 6b c5 39 be
       0.14284581 0.122657456 0.074317284 -0.18141715
000160 85 98 14 be 55 42 58 be f4 5d 0a be 79 c9 9d 3d
       -0.14511307 -0.21119054 -0.13512403 0.077044435
000170 55 6b f6 bc 1e 98 ac 3d 81 df 14 be 60 cb 0b bd
       -0.030080477 0.084274516 -0.14538385 -0.0341295
000180 e6 71 ce 3d 8b 19 37 3e 08 25 49 3e fe 2f 8a bd
       0.10080318 0.17880838 0.19643033 -0.06747435
000190 9b 34 3d 3d 83 7b 30 bd 4b a3 a4 bc 0a 0b d9 bd
       0.046192747 -0.04308654 -0.020097395 -0.10597809
0001a0 96 54 06 3d 84 51 04 be c7 e5 f4 bd 01 78 7c bd
       0.03279551 -0.1292172 -0.11957889 -0.061637882
0001b0 6d 92 06 3e 26 8a e7 bd ab a4 46 3e ab 29 dd 3c
       0.13141795 -0.113056466 0.19398753 0.026997408
0001c0 c0 8f f7 bd 05 5f eb 3d f6 65 f4 3d 9c de a5 3d
       -0.12087965 0.11492733 0.1193351 0.080991
0001d0 f2 4e 9d bb e2 41 11 3e b9 66 d7 3d da 44 36 3e
       -0.004800671 0.14185289 0.1051764 0.17799702
0001e0 a7 17 b5 bb eb fa 5a 3d 6b 42 f1 3d 01 b0 fe 3d
       -0.005526501 0.05346195 0.11780246 0.12435914
0001f0 54 f2 0e be 0c ee 7f bd c3 7f 0c 3e 8d e6 17 3e
       -0.13959628 -0.06248288 0.13720612 0.14834042
000200 9b 68 e3 bd 37 10 22 be 24 c2 22 3e 6b 38 af 3d
       -0.11103936 -0.15826498 0.15894371 0.08555683
000210 90 e2 93 3c 50 d9 a5 3d 20 10 3a bd f8 32 12 3e
       0.01805237 0.0809809 -0.045425534 0.14277256
000220 fb bf 29 3d 8b 12 57 bc 5a af 8d 3d 73 31 42 3e
       0.041442852 -0.01312698 0.06918211 0.18964176
000230 37 6f da bd ed 5d d4 3d 00 95 41 be c2 36 5a be
       -0.10665744 0.103694774 -0.18904495 -0.21309951
000240 dd a3 f9 bd a9 e8 da 3d f8 d5 11 bc 6a f0 8d 3d
       -0.121894576 0.10688908 -0.008901112 0.06930621
000250 24 e2 d7 bd 83 6d 3b 3e 5c a4 11 bd 8a ab d9 bd
       -0.1054118 0.18303494 -0.035557136 -0.106284216
000260 6b 13 37 3e 48 aa b1 3d 4f 3a fd 3d df b3 8d 3d
       0.17878501 0.08675057 0.12364637 0.06919073
000270 83 54 6f bd f2 ab 17 3e 1d b3 40 be c6 ce 1b 3e
       -0.058430206 0.14811686 -0.18818326 0.15215597
000280 92 0d 2e be 8c 53 de bc 09 bc 35 bc 05 35 21 3d
       -0.16997364 -0.027139448 -0.011092194 0.039357204
000290 bf b6 ae 3d 01 f3 98 bd 3f 5b d0 3c 5c db 30 be
       0.0853095 -0.07468224 0.025434135 -0.17271179
0002a0 fe c4 29 3e 4a 7f 15 be db a1 25 3c 0e d9 01 3e
       0.16579053 -0.14599338 0.01010939 0.12680456
0002b0 eb 26 19 be 11 b5 89 bd 40 7b 97 3b 17 70 13 3e
       -0.14956252 -0.06723989 0.004622847 0.14398228
0002c0 2c 6c 67 3d 8b db f7 3d 45 2e 70 bd 6a 8f ab bd
       0.056499645 0.121024214 -0.058637876 -0.083769634
0002d0 f1 73 d8 bc 83 eb 40 bc ab c9 d8 bd 8d cd 38 be
       -0.026422473 -0.0117749 -0.1058534 -0.18047161
0002e0 3b 6b 11 3e 93 6e 1e 3d 4a 43 ef bc 90 ba a7 bb
       0.14201061 0.03867967 -0.02920689 -0.0051186755
0002f0 af 90 23 3e 04 57 58 be 7a 96 82 bd 0a e0 ef bd
       0.15973161 -0.21126944 -0.063763574 -0.11712654
000300 83 87 6f bc 81 f0 92 3d 14 51 78 3d ab 2e 45 3d
       -0.014619711 0.07174779 0.060624197 0.04814021
000310 88 6e 23 3e 7e 86 4b 3e 46 de 0c 3e cc 50 9a 3c
       0.15960133 0.19875523 0.13756666 0.018837355
000320 93 b7 1a 3e d7 34 9a 3b 01 67 7a bd dd bc 48 3e
       0.1510909 0.004706006 -0.06113339 0.19603296
000330 0f 28 2a 3e 9c 93 c3 3d b7 cb 0f 3e d7 d3 36 3e
       0.16616844 0.09549639 0.14042555 0.17854248
000340 55 e2 3e bd 42 9e 15 be c0 c9 38 bd 62 d0 67 bc
       -0.046602566 -0.14611152 -0.04511428 -0.014148803
000350 59 ce b3 3d 4a 07 f6 3d 5e c7 43 3e a8 4a 7d bc
       0.08779592 0.12013109 0.19119021 -0.015459694
000360 bf 4b 04 be c1 6f c4 bd 01 67 0e ba 9f aa 44 3e
       -0.1291952 -0.09591628 -0.0005432219 0.19205712
000370 8a 84 3a bd 65 e5 23 be 4e f8 c4 3d 5c db b7 3d
       -0.045536555 -0.16005476 0.09617673 0.08977386
000380 9f e6 87 b8 13 60 f0 3d d8 68 38 3e 93 d3 0b be
       -6.480258e-05 0.11737075 0.18008745 -0.13654928
000390 c0 80 dd bc 5c 46 3a 3d df 3a ed 3d 63 33 a1 bd
       -0.027038932 0.045477256 0.115834944 -0.07871129
0003a0 79 a2 05 bd 79 e5 23 be 06 5e f3 3d c4 4a fb bd
       -0.03262565 -0.16005506 0.11883168 -0.1227012
0003b0 38 5b 9e bd cc 1f 81 3d 5d 09 0e be b0 d9 0f 3e
       -0.07732242 0.06304893 -0.1387076 0.14047885
0003c0 16 41 25 be 1c 6e 52 bd 4e 4b 57 3e 10 9a 06 3e
       -0.1613811 -0.05137454 0.2102482 0.13144708
0003d0 1b 5b 5f be e6 e4 bb bc b5 86 a9 bd ee 7f 9a 3d
       -0.21812098 -0.022936296 -0.082776465 0.07543932
0003e0 c3 ee d5 bd 05 52 ef bc 7e 72 05 3e 73 05 4e 3e
       -0.10445931 -0.029213915 0.13031957 0.20119266
0003f0 bf 13 6e bd 2c f4 be 3d 45 61 42 bc f2 86 19 bd
       -0.0581243 0.09323916 -0.011864011 -0.03748221

fc2.weight f4 [256, 256]
000000 8b 1c 08 3d 91 b6 ca bc cc 2c c4 bc 6e f1 b0 bc
       0.033230346 -0.024745258 -0.023947142 -0.021599498
000010 ae f6 44 3d 44 63 fc bc 50 54 65 bd fc 04 3d bd
       0.048086815 -0.030809052 -0.05598861 -0.04614733
000020 13 13 20 bd 4d a3 1a 3d 4f 0c 96 bc c6 58 b0 3b
       -0.03908069 0.037753392 -0.018316416 0.0053816764
000030 cb 9d 90 3c 87 48 e7 3a c7 e0 4c 3d 0d 22 72 bd
       0.017653367 0.0017645516 0.050019052 -0.059114505
000040 7f 32 34 bc 50 5d 40 bc 1e a4 42 bc 69 98 31 bd
       -0.010998367 -0.011740997 -0.011879949 -0.04335824
000050 05 b7 3d bd a2 64 17 3d 2b a7 f1 bc 80 2b 12 3c
       -0.04631712 0.036961205 -0.029498657 0.008921504
000060 62 5d 62 bd 19 57 c1 ba ed 16 47 3d 30 22 c0 3c
       -0.055264838 -0.0014750689 0.048605848 0.023453802
000070 7b c4 db bc 79 24 07 bd 23 09 5e 3d 05 25 5a 3d
       -0.026827088 -0.032993767 0.054207932 0.05325796
000080 ad 84 18 3d ea d7 2d bd e7 dc 37 3d c0 9f 8c bc
       0.037235904 -0.04244224 0.044888403 -0.017166018
000090 65 78 f4 bc 3f ed 39 bc 23 28 05 bd 84 c2 a1 bc
       -0.029842565 -0.011348068 -0.03250898 -0.019746073
0000a0 bf e1 60 bd 3b 9c c6 3b 2c 75 ec bc 50 6a 2f bc
       -0.05490279 0.0060611046 -0.028864466 -0.010706499
0000b0 cf 4a 53 bd 34 11 03 3d 0b aa d0 3c 14 53 4b 3c
       -0.051585015 0.031998828 0.025471708 0.012409944
0000c0 49 bd e4 bb 6f 62 1a 3c 2a 25 c4 3c 9f a4 d9 ba
       -0.0069805724 0.009422882 0.023943502 -0.0016604847
0000d0 91 a6 23 bd 01 70 64 3c 08 58 34 3d 86 5b 21 3b
       -0.039953772 0.013942719 0.044029266 0.0024621203
0000e0 4a e8 87 bc 63 9a 58 bd dc db 11 3c dc 62 25 bc
       -0.016590256 -0.05288161 0.008902516 -0.010094371
0000f0 7a 23 de 3c f6 5d 37 bc 11 a9 85 3c 05 66 0a bd
       0.027116526 -0.011191836 0.016315969 -0.0337887
000100 0d d1 fd 3c a5 8b 11 bd 38 f6 30 bc f6 7a c1 bc
       0.030983472 -0.035533566 -0.010800891 -0.023618203
000110 d0 db 0a bd e2 5d 60 3d 59 57 39 3d 40 0b 68 3c
       -0.033901036 0.054777034 0.045249317 0.014162838
000120 a5 da 0e 3d 5d 29 15 bc 79 25 ef 3c 61 95 53 bd
       0.034876484 -0.0091041 0.029192673 -0.05165613
000130 bc dd aa bc e9 dd 3e bc 5f a5 56 bd d9 5f 3c bd
       -0.020857684 -0.011649587 -0.052403804 -0.045989845
000140 6f c2 5c 3d 74 ed 55 3d 95 b5 6f bd b4 83 22 bd
       0.053896364 0.052228406 -0.05852278 -0.039676383
000150 34 cc 9f 3c 6c b9 11 bd 77 e8 4c 3c 49 bf 07 bc
       0.019506551 -0.035577223 0.012506596 -0.008285352
000160 a2 c3 58 3d 78 af c1 3b fd db 1f 3d 4d d5 49 3d
       0.052920945 0.00591081 0.039028157 0.049275685
000170 32 a6 db 3b fc 70 03 3d ec df 0c 3c 13 10 19 bb
       0.0067031616 0.032090172 0.008598309 -0.0023355528
000180 44 7a f3 3c d7 5d db bc bd 4a cf 3c 33 28 41 bd
       0.029721387 -0.026778145 0.025304193 -0.047157478
000190 cb 0f c1 bc 70 87 81 bd c0 58 61 bd a9 36 cd 3c
       -0.023567101 -0.06324661 -0.05501628 0.025050478
0001a0 ea be 2a 3c d0 0a 6f bd 3e 52 ea bc c5 e4 3b bd
       0.010421494 -0.05835992 -0.02860367 -0.04587247
0001b0 2d 0a ce bc ad 4b 87 bd 05 1e 7f 3c 93 d6 ea 3c
       -0.025151337 -0.06606231 0.015571122 0.02866677
0001c0 04 2d bf 3c cc 9b 14 bd 76 0c fe 3b 8a e6 99 bb
       0.023336895 -0.036281392 0.0077529503 -0.004696672
0001d0 67 e5 ce 3c ce 5a 0d 3d e9 88 69 3d 8e ea a5 3b
       0.025255872 0.034510426 0.057015333 0.0050633615
0001e0 c5 dd 9a 3c 9a 52 00 3c 03 61 4a 3c 51 cd e6 bc
       0.018904576 0.007832194 0.012352231 -0.028174074
0001f0 41 71 13 3c 73 5c 33 bd 34 ab fa 3b 98 ed 92 bc
       0.00899917 -0.04378934 0.0076498035 -0.01793556
000200 b0 0b 18 3d d5 b5 2f 3d 53 9b 1f 3d 15 36 83 bd
       0.03712052 0.042898018 0.038966488 -0.064068
000210 3b ab 3a 3d 5f 85 6d bc 97 54 f2 bc ce b4 4d bd
       0.045573454 -0.01449713 -0.029581351 -0.050221257
000220 bf 5c 1f 3d 2f fd 06 bd 66 ed d8 3c 23 97 64 bd
       0.03890681 -0.0329563 0.026480388 -0.055808198
000230 7f 59 bb bb ca c7 64 3c 13 3e a3 3b 9e 7b 17 bd
       -0.005717456 0.013963649 0.004981765 -0.036983125
000240 97 89 de 3a cc 1d 72 bd 5b 73 5e 3c 95 df 84 3c
       0.0016978261 -0.059110448 0.013577308 0.016219893
000250 c6 7b cf 3c 57 1f c7 3c 9e 07 b6 bc 88 68 bd bc
       0.025327574 0.024306936 -0.022220429 -0.023121133
000260 c7 52 61 bd 67 ae 40 bd 0c ba 5a bd 63 ef 01 3d
       -0.055010583 -0.047041323 -0.053400084 0.031722438
000270 c0 8a 27 bc df 06 59 3d 3f b3 0d 3c e3 e2 67 3c
       -0.010225952 0.05298507 0.008648693 0.014153215
000280 d2 57 4b bd e6 af 15 3c 6f 1f 3c 3d 31 be 25 bd
       -0.0496443 0.009136176 0.045928415 -0.040464584
000290 80 2e fa bc 1a 2a d5 3c c8 8c 34 3c f1 ab 70 bc
       -0.030539751 0.026021052 0.011019893 -0.0146894315
0002a0 7a ea d1 3c f8 53 b6 bb 4c 61 92 bc 14 0d 6b 3d
       0.025624502 -0.005564209 -0.01786866 0.05738552
0002b0 3d 19 a6 3c d7 91 7c 3b e3 36 2d 3d 54 5e 66 3c
       0.020275706 0.0038539076 0.042288672 0.0140605755
0002c0 a5 8f 6c bd 3c 49 e2 3b af d8 5a bd 0e 85 09 3b
       -0.057754178 0.006905703 -0.0534293 0.0020983848
0002d0 2a cc d6 3c 88 21 46 bd f7 54 b7 bc 4f 0c 2d 3a
       0.0262204 -0.04837182 -0.022379382 0.00066012604
0002e0 00 44 ef bb 1a b7 6e bc 3c 03 fe bc 0f 5c 34 bd
       -0.0073018074 -0.014570022 -0.031007402 -0.044033106
0002f0 c5 be 04 3c df ce 83 bb a2 9f 13 bc 16 ba 50 3d
       0.008102124 -0.0040224637 -0.009010227 0.050958715
000300 35 0b 54 3d 50 96 69 bd f4 17 6c 3d 38 25 9c bc
       0.0517685 -0.057028115 0.05764003 -0.019060716
000310 5b 65 19 3d ca 8e db bc 8c 5a bf bc d2 54 0b bd
       0.037450176 -0.026801486 -0.023358606 -0.034016438
000320 59 a9 e1 3a 5c 13 53 3d 9a 68 c5 3c 7f 83 2f bc
       0.0017216607 0.051532134 0.02409773 -0.010712503
000330 0b 45 5f 3b 97 40 2f bc b1 f0 4d bd b6 45 f0 bc
       0.0034068252 -0.010696552 -0.05027837 -0.029330116
000340 cb 60 db bc d5 cd 4b 3c 1b 32 5b 3c 23 7c 69 3d
       -0.026779553 0.012439211 0.013378645 0.05700315
000350 0f 59 b2 3c af c7 54 3d 46 98 01 3d 62 b9 a9 bb
       0.021770982 0.051948246 0.03163936 -0.00517957
000360 40 3d 39 3d 70 00 47 bd 83 70 94 bc c1 83 91 3b
       0.04522443 -0.0485844 -0.018120056 0.004440755
000370 ff 45 40 3d 83 b8 11 3d 4b 67 b1 bc 4d a3 47 bd
       0.046941753 0.035576355 -0.0216557 -0.04873972
000380 50 55 84 3c c4 65 64 bd 76 21 81 bd d5 74 aa 3b
       0.016153961 -0.055761114 -0.0630521 0.0052019157
000390 87 c3 23 3d 29 e8 d2 3c 47 0b 4d bd 5c 1e a9 3c
       0.03998139 0.025745468 -0.050059583 0.02064436
0003a0 e1 64 d7 3b b4 ea 7d bd a6 e1 69 bd d3 bd da bb
       0.006573305 -0.06199141 -0.05709996 -0.006675461
0003b0 c3 7b 4d 3d 3a ab 2a bd 9e 47 4d bd 40 48 ba bc
       0.050166856 -0.0416672 -0.050117128 -0.02273953
0003c0 5a d5 f5 bc 3e ca 33 ba b3 45 3a bd cc 14 76 bd
       -0.03000896 -0.00068584445 -0.045476627 -0.060078427
0003d0 74 a2 16 3d 62 4a f3 bc ed a7 6b 3c 1a 9c 52 bd
       0.03677602 -0.029698554 0.014383298 -0.0514184
0003e0 c4 a0 8e bb 93 68 73 bc 60 49 86 ba c4 ff c9 bc
       -0.004352661 -0.014856475 -0.0010245256 -0.024658091
0003f0 e7 b6 3f bd c7 ad 5e 3c f6 ab 56 3d 83 90 4f 3d
       -0.04680529 0.013591236 0.05241009 0.050674926

fc2.bias f4 [256]
000000 c7 20 21 bd 97 6d 55 bd 0c af fa 3c ce 9c 27 bd
       -0.0393379 -0.052106466 0.030601047 -0.040921025
000010 3a c5 88 bc 89 00 1a 3d 24 9e 83 bd cd 00 62 bd
       -0.016695607 0.037598167 -0.06426647 -0.055176545
000020 42 34 60 bd 49 19 ac 3c 1b d9 4c 3d 0e 63 f9 bb
       -0.054737337 0.02100815 0.050011735 -0.007610685
000030 52 9f 00 bd e1 96 f9 bc 66 4d 5f bd 7b c4 74 3d
       -0.03140194 -0.030467452 -0.054517172 0.05975769
000040 de e7 54 bd 55 1a 4b bd 7f 25 16 39 6c 1e 43 3d
       -0.05197894 -0.04958566 0.00014319083 0.047636434
000050 a5 e5 02 bd 37 92 20 3d 1e 56 00 bd 73 ac 6f 3d
       -0.031957287 0.03920194 -0.031332128 0.05851407
000060 2a e2 2f bd a2 8f 0a 3d 53 27 a1 bc 9f 1f 47 3d
       -0.042940296 0.033828385 -0.019672072 0.04861414
000070 e2 e0 98 b9 c6 12 53 3d 77 46 e5 3c b6 43 ac 3b
       -0.0002915925 0.051531576 0.027987702 0.005257095
000080 e0 e2 64 bc be f4 ac 3c 04 48 a3 3b 9d c3 5d bd
       -0.013970107 0.021112796 0.00498295 -0.05414163
000090 9e 8e 83 bc ed cd b2 3c 65 ea 69 bd 7b 92 5e 3d
       -0.016059216 0.021826709 -0.0571083 0.054338913
0000a0 7f 3b de 3c 4d 23 57 3c 47 ee 2f bc 89 8b 16 bd
       0.02712798 0.013130975 -0.010737962 -0.036754165
0000b0 b8 95 ca bc 7f 5b 96 bc 51 c6 c2 3c 3d 0e 68 3b
       -0.024729595 -0.018354176 0.023776205 0.0035408877
0000c0 f6 1a 99 bc ae 9b db bb 5c 8f 41 bd 6d 02 05 3a
       -0.018689614 -0.006701908 -0.04725586 0.0005073909
0000d0 7b e3 b4 3c 73 cc 8a 3c 59 21 29 3c 78 bf 8b bc
       0.022081127 0.016943192 0.010322892 -0.017059073
0000e0 83 26 24 3d 4e 17 29 3b db fb 99 3c a7 47 d7 bc
       0.04007579 0.0025801244 0.018796852 -0.026279284
0000f0 4d 64 3b bd 02 9f 46 3b 72 a8 1c bd 1d 56 24 bc
       -0.04574995 0.0030307178 -0.03824658 -0.010030297
000100 a9 75 8a bc 84 26 58 bd ab f0 0a 3d 7f b6 df bc
       -0.016901808 -0.052771106 0.033920925 -0.0273087
000110 bc f4 1d 3d ae e8 d8 bc 1a dd 14 bd a2 79 84 3c
       0.038563475 -0.026478138 -0.03634367 0.01617128
000120 5f ca 17 3d 92 b1 b5 3c c2 23 2c bd c8 c0 61 3d
       0.03705823 0.022179399 -0.04202629 0.05511549
000130 e9 ef 22 bd dc fe 9b bc 3c 9f ba bb 3f 20 0f bd
       -0.039779577 -0.019042425 -0.0056952517 -0.03494286
000140 27 75 22 3c 7e e3 04 3d 5a 8f e8 ba c2 85 15 3d
       0.009915627 0.032443516 -0.0017742917 0.036504515
000150 02 08 3e 3c b8 12 51 bc 3d a0 f7 bc 6e ca 6b 3d
       0.011598589 -0.012760811 -0.030227775 0.0575661
000160 c6 52 4f bd 02 8d 1e 3d 2a 43 32 3d 6c 83 1d 3d
       -0.05061605 0.038708694 0.043521084 0.03845541
000170 90 82 53 bc a7 7d b8 3c f3 0e c8 ba 00 11 74 3c
       -0.0129095465 0.022520853 -0.0015263244 0.014896631
000180 9f d5 23 3d c9 f8 d8 3c 27 15 6a 3d da 6b 55 bd
       0.039998647 0.026485818 0.05714908 -0.05210481
000190 5b 40 cd 3c b5 20 ef bc 27 83 b6 3c f4 25 26 bd
       0.025055101 -0.0291904 0.022279335 -0.04056354
0001a0 ec 31 0f bd aa 4f 22 bd 90 f4 21 bd 07 22 3d 3d
       -0.03495972 -0.039626755 -0.039539874 0.04617503
0001b0 52 76 57 3d 1f 92 0d bc 74 20 84 3d d5 a5 0d bc
       0.052603073 -0.008640795 0.064515024 -0.0086454945
0001c0 8f c4 59 3c 6a 26 72 3d a2 ec 56 bd 8b 1f 27 bb
       0.013291492 0.059118666 -0.052471764 -0.0025500979
0001d0 79 51 31 bd 87 0f f6 3c 4d 0d 84 bd 1e e4 c7 bc
       -0.04329059 0.0300367 -0.064478494 -0.024400767
0001e0 43 56 81 bc 23 5f 80 bc 62 1f 22 3d 61 c6 4f 3d
       -0.015788203 -0.015670365 0.03958071 0.0507263
0001f0 77 c5 9f bc d5 3a 73 3c 49 e8 10 3d 81 11 b5 3c
       -0.019503338 0.01484557 0.035377774 0.022103073
000200 50 5f e1 bc 4f 77 7a 3c 0b e7 30 3d db 49 46 bc
       -0.027511269 0.015287234 0.04318909 -0.012102569
000210 86 3c 82 bd e3 e9 67 3d 80 61 28 bd 6b 7a 46 3d
       -0.063592 0.056619536 -0.04110861 0.04845659
000220 f0 d8 52 bd b4 cb cb bc c3 fb 84 3d 7c 44 b2 bc
       -0.05147642 -0.024877407 0.06493332 -0.021761172
000230 13 da 48 3d 37 84 bb 3b 1d 3b ec 3c a8 dc fe 3c
       0.049036097 0.0057225483 0.028836781 0.031111076
000240 64 2d 1d bc bd ce 89 bb ab c1 71 3d 5f 5e f0 3c
       -0.0095933415 -0.0042055533 0.059022587 0.029341875
000250 bc e8 15 bd c6 ed 44 bd d0 89 20 3d f4 f4 83 bd
       -0.036598906 -0.04807832 0.03919393 -0.064432055
000260 7c 3a 37 3b 89 3d 2c 3d 66 b6 0f bc e8 6f 83 3d
       0.0027958443 0.042050872 -0.0087715145 0.06417829
000270 63 28 ea bc fb c2 40 bd a3 b7 d6 3c 51 64 d9 bb
       -0.028583711 -0.047060948 0.026210612 -0.006634273
000280 03 f5 6a 3d ed a7 45 bd fd a7 1a bd bb cd 4c bd
       0.057362568 -0.04825585 -0.037757862 -0.050000887
000290 84 39 04 bd 25 f6 9a bc e2 58 29 bd 8e f3 a0 3c
       -0.032281414 -0.018916199 -0.04134453 0.019647386
0002a0 04 8a d1 3c 98 ed cc bc 95 04 10 bd 81 b9 1d bb
       0.025578506 -0.025015637 -0.03516062 -0.0024066868
0002b0 ab fa 62 bc 9c 24 30 bd e2 a3 5b bd 15 e3 23 3d
       -0.013853709 -0.043003663 -0.053623088 0.040011484
0002c0 6b 80 3b bc 25 93 35 bc 3c 33 5a 3d 61 44 01 bd
       -0.011444191 -0.011082445 0.053271517 -0.03155935
0002d0 8b 61 09 3d 09 e2 5c bd fb cd c1 bc ab af 55 bd
       0.03354029 -0.0539265 -0.02365779 -0.052169483
0002e0 92 94 7a bb 22 37 10 bc e6 6f 10 3d 81 19 bb bb
       -0.0038235527 -0.008802207 0.035262965 -0.0057098274
0002f0 94 a2 31 3c ac f7 d3 3b 58 78 ad bb ba 8a b8 3c
       0.010841984 0.006468734 -0.005293887 0.022527087
000300 4a a7 fa bb 20 11 5e bc 51 62 96 bb 0d f8 84 3d
       -0.007649337 -0.013553888 -0.004589357 0.064926244
000310 a9 55 20 bd 22 68 1c bd 10 83 2b ba a9 3a 84 3c
       -0.039144192 -0.038185246 -0.0006542662 0.016141253
000320 6d e6 d9 3c 57 bf 9e bc 8d a0 1c 3d c6 92 4f 3d
       0.026599133 -0.019378347 0.03823905 0.050677083
000330 4a 2d 5f 3d 46 24 3d b9 10 3a e4 3c ae d2 01 bd
       0.05448655 -0.00018037957 0.027859718 -0.03169506
000340 95 77 24 bd f5 ea ba 3c 9e 71 60 3d f3 74 d6 3c
       -0.040153105 0.022817114 0.054795854 0.026178813
000350 51 1d 54 bd b8 05 74 bc 0a 78 1b 3c 0f ea 1d bd
       -0.05178577 -0.014893942 0.009489069 -0.038553294
000360 ce 3a 4c bd 4f 92 b9 3c 14 e1 f5 3b 55 8f 57 3d
       -0.049860768 0.022652773 0.007503638 0.052626926
000370 03 c1 a1 bc d8 69 23 bd 57 d1 13 bd 6e d7 06 bc
       -0.019745355 -0.039895862 -0.036088314 -0.008230073
000380 c9 49 2e 3b d4 80 ff 3c ba 7e cb bc b3 22 fa bc
       0.0026594272 0.03118936 -0.024840701 -0.030534124
000390 dc 39 87 3c 00 7a 65 3d 43 d8 f7 3c 6c 68 60 3d
       0.016507082 0.05602455 0.030254489 0.054787084
0003a0 57 6e b8 3c 6a fc 17 3d f9 0b 50 bd 35 b1 c0 3c
       0.022513552 0.037105955 -0.050792668 0.023521999
0003b0 f5 79 88 3b 8d 9c 56 3b c3 99 e1 3b 55 8b ed bc
       0.004164929 0.003274712 0.006884785 -0.028997103
0003c0 b5 8f 4b 3d d2 9f dd 3c 0d 26 83 3d 41 6f 67 3d
       0.049697597 0.027053747 0.06403742 0.056502584
0003d0 23 7f 9f bc 19 48 8c 3c 4d 91 27 3d ee 39 5c bd
       -0.019469803 0.017124223 0.040910054 -0.053766184
0003e0 66 78 2b 3d c7 ab a5 3b 62 d5 20 bd d7 d8 b0 bc
       0.041862868 0.005055878 -0.039265998 -0.021587772
0003f0 64 39 63 bd 58 76 6d 3d 81 88 84 3b e7 83 09 bc
       -0.055474654 0.05797419 0.004044593 -0.008393264

reg_head.weight f4 [1, 256]
000000 c9 a4 f6 ba 0c 69 06 be 40 1c 07 3d 03 29 3b bd
       -0.001881742 -0.1312601 0.032985926 -0.04569341
000010 19 73 3b be b3 19 c9 bd f9 37 54 bd 90 c7 59 3d
       -0.18305625 -0.09819355 -0.051811192 0.053168833
000020 24 99 9d 3d 75 b9 c9 3d ec 5e 12 3d 50 5f 5e 3d
       0.07695225 0.09849826 0.035735056 0.054290116
000030 37 a3 22 bd 63 1d 56 3d da 94 a6 3d 6f bb a2 3d
       -0.039706435 0.05227412 0.0813386 0.07945906
000040 73 3e 0c be 07 42 b8 3d 40 64 7e 3c f7 e8 57 3d
       -0.13695697 0.08996969 0.015526831 0.052712407
000050 5f 92 86 bd 79 26 37 3d b8 02 57 bd d0 f0 28 bd
       -0.06570887 0.044714425 -0.052492827 -0.04124528
000060 74 d4 f3 bd ff a8 24 be 89 56 05 be 5a c1 e1 bd
       -0.119057566 -0.16080092 -0.13021292 -0.11023207
000070 5d c1 cf bd 3d 48 e7 3d 34 33 52 3d e6 b8 6f bd
       -0.10144303 0.11293075 0.051318362 -0.058525942
000080 a4 a8 9d 3c cd 36 ec 3d cc f6 95 bd 07 32 08 be
       0.019245453 0.1153389 -0.073224634 -0.13300334
000090 ed d8 60 3d cc 2f 10 bd a8 54 f0 3c 50 2b b7 3b
       0.054894377 -0.035201833 0.029337242 0.00558988
0000a0 4e 2a 02 be e1 29 35 3d 02 c9 4f 3d b6 30 69 3d
       -0.1271145 0.044229392 0.050728805 0.05693122
0000b0 30 ce 66 bd 00 d8 d7 bd 7e d2 2f be d8 8c 0d 3e
       -0.05634898 -0.105392456 -0.1717014 0.13823259
0000c0 c4 c4 a3 bc 7a f0 3e bd 02 79 13 be f2 37 cf bd
       -0.019991286 -0.046616055 -0.1440163 -0.101180926
0000d0 12 03 6d bd c8 22 02 3d 65 eb 6f 3d b1 94 01 3d
       -0.057864256 0.03177145 0.0585741 0.031635944
0000e0 12 70 8a 3d 64 25 53 bc 72 b5 70 3d 48 c3 9e bd
       0.06759657 -0.012887333 0.05876679 -0.07752091
0000f0 06 ec 31 bd f7 6a 2a be 87 75 02 be de 9b 38 bd
       -0.04343798 -0.16642366 -0.12740146 -0.04507052
000100 76 82 11 be ea 26 fd bd a7 1b a3 3c 86 10 e3 bd
       -0.14209923 -0.12360938 0.019910647 -0.11087136
000110 67 15 a2 bd 7c 74 2d bd cf cc 65 bd a2 6b 13 bd
       -0.079142384 -0.042347416 -0.056103524 -0.03599132
000120 b5 73 b7 bd 07 56 be 3d 33 72 41 be 34 6d 84 3c
       -0.08957616 0.09293752 -0.1889122 0.016165353
000130 3c 90 a5 3c 98 0c d9 3c 9b 20 9e bd 6c db 00 be
       0.020210378 0.026495263 -0.07721063 -0.12583703
000140 4b e6 c5 bd 11 10 1e bd 86 b9 01 3d 35 53 d0 bd
       -0.096630655 -0.03858954 0.03167107 -0.101721205
000150 4e 68 8b 3d bf 9e 84 3d 06 8f f5 bd 54 3f ce bd
       0.06807004 0.06475591 -0.1199017 -0.10070673
000160 83 f0 1f be ec 10 87 3d d8 7f 6a 3d 64 b6 65 3d
       -0.15619092 0.065950245 0.057250828 0.056082144
000170 bf 23 61 3d 72 bf 22 bd 2f 51 5e bd b5 e1 e2 bd
       0.05496573 -0.039733358 -0.05427664 -0.110782064
000180 62 bb 6b bd 51 e1 7d 3d 33 ff f6 3d 4b 7c 14 3d
       -0.05755175 0.061982457 0.12060394 0.036251348
000190 24 59 fb bc 98 84 a1 3d 75 0e e8 3c 9c cd 94 3d
       -0.030682154 0.078866184 0.028327206 0.072657794
0001a0 c1 5d e7 bd d2 17 72 3d 83 91 06 be db dc 18 3d
       -0.11297179 0.059104748 -0.13141446 0.03732
0001b0 17 24 86 bd 04 fd c5 bd 81 16 7b 3d 3e 43 fb bd
       -0.06549852 -0.096673995 0.06130076 -0.12268685
0001c0 6e 69 d9 bd 8e e0 28 bd f9 3f 4e bd 81 59 04 be
       -0.10615812 -0.041229777 -0.050353978 -0.12924768
0001d0 4f 6c b1 3d ce 9d 05 3d 66 ee 61 bb b8 62 23 be
       0.08663236 0.032621197 -0.0034474372 -0.15955627
0001e0 f1 3a 3b bd 1c 70 1c be 01 2c 87 3d 0a cb 01 bd
       -0.045710508 -0.15277141 0.0660019 -0.031687774
0001f0 10 59 6c bd 27 39 21 be 66 ab 3a bd 19 2e b4 3d
       -0.057702124 -0.15744458 -0.045573615 0.08797855
000200 ee bd fc bd 56 2b 3f 3d d1 80 78 3d f7 5d 64 3d
       -0.12340914 0.046672188 0.060669724 0.055753674
000210 ba b2 26 bd e8 06 45 bd 69 86 8b 3d 79 bf bb bd
       -0.04069779 -0.04810229 0.06812746 -0.0916738
000220 44 42 df bd 26 38 74 bd 83 90 7b 3d 99 d7 ad 3d
       -0.10901311 -0.05962386 0.061417114 0.084883876
000230 a3 c3 80 bd 3e 6a b8 bd 95 f6 ec bd 0c 86 d9 bd
       -0.06287315 -0.09004639 -0.11570469 -0.106212705
000240 6e 40 d7 bd cd c3 a8 3d 2c 57 a8 bd 70 70 f0 3a
       -0.10510336 0.08240471 -0.08219752 0.0018344056
000250 2b fe 4a be 7c 91 ab 3d 40 49 e2 bd aa a5 14 bd
       -0.1982352 0.08377358 -0.110491276 -0.036290802
000260 2b 6f a2 3c cc e6 e5 bd a5 9e a0 3d 20 92 32 3d
       0.0198284 -0.11225662 0.07842759 0.043596387
000270 44 4b 95 3d 2e a5 1a 3e f7 4b b8 3d 12 42 35 bd
       0.072897464 0.15102074 0.08998864 -0.044252463
000280 21 2b 6f 3d 2c 3d 16 3e a1 ee a2 3d 57 a4 72 bd
       0.05839074 0.14671773 0.07955671 -0.059238758
000290 e3 af 85 3c 91 14 ae bd c1 e6 03 3e 3e 80 be 3c
       0.01631922 -0.085000165 0.12880994 0.02325451
0002a0 ff 4f ae bd 21 8e 2b bd d8 a9 1a 3b 25 85 31 3c
       -0.08511352 -0.04188359 0.002359977 0.010834967
0002b0 1f e8 de bd 01 74 98 3d 7b 83 88 3d 5f 44 1b be
       -0.10884117 0.07444001 0.06665703 -0.151628
0002c0 1d 49 a8 bd ed ad 26 3d 8d c1 2f be 5a cb f0 3c
       -0.0821707 0.040693212 -0.17163678 0.02939384
0002d0 40 05 09 3d ac 72 b5 3d 8f 5e 9c 3d 68 bf 92 3c
       0.033452272 0.088597625 0.07635223 0.017913535
0002e0 28 01 37 be 36 a5 ad 3c 68 b3 63 3c 0a c4 06 3d
       -0.17871535 0.021196943 0.013897754 0.0329018
0002f0 d1 40 16 be 7b 11 99 bd 00 f7 88 bd dc 7e 12 3d
       -0.14673163 -0.07474037 -0.066877365 0.035765514
000300 f8 c2 9f 3d 8f c1 b2 bc bd a5 85 3d 1d 56 9b 3d
       0.07800859 -0.021820812 0.06525753 0.07584784
000310 cb 2f 14 bd 7f 99 29 3d 3a 37 00 3d fa c8 5c 3d
       -0.03617839 0.04140615 0.03130267 0.053902604
000320 49 d3 97 bd 23 4c 0c be f7 c8 0e 3d 97 9f a0 bc
       -0.07413346 -0.13700919 0.034859624 -0.019607348
000330 44 e6 a4 3c 52 45 47 3d 86 1c 28 3c 8c 8c 63 bd
       0.02012933 0.048650093 0.010260707 -0.055553958
000340 cc fc a4 bd 08 0c 18 be ee 34 20 bd 78 e0 49 3d
       -0.0805603 -0.1484834 -0.039112978 0.049286336
000350 43 f8 33 3c 7d 83 5a bd df d5 5b bd 21 31 03 3e
       0.010984483 -0.053348053 -0.05367076 0.1281171
000360 e8 57 d3 bd 02 35 45 bc 94 e2 8f bd 11 46 8f bd
       -0.10319501 -0.012036564 -0.07025638 -0.06995786
000370 78 1e 03 be ef e6 f6 bd 72 5c 0a be 61 6f eb bd
       -0.12804592 -0.12055766 -0.13511828 -0.11495853
000380 96 64 f0 bd 36 1c e6 3c 97 79 94 3c 5c ca 2e 3d
       -0.11737935 0.028089624 0.018124385 0.042673454
000390 05 38 08 3d ec 1b b3 3d 14 93 0d 3d 1a 3a 49 bd
       0.03325655 0.0874556 0.034564093 -0.049127676
0003a0 2e 9d f4 bc ff 4d b6 bc 6a a7 57 bd 92 86 c6 bd
       -0.029860105 -0.022253988 -0.052649893 -0.09693636
0003b0 6d 8e e0 bd b4 81 76 3d 51 8b 61 bd 48 84 5a bd
       -0.109646656 0.06018229 -0.055064503 -0.05334881
0003c0 eb 22 c2 bd ae c4 66 bd da 6e 56 3c 01 ef 58 3d
       -0.09479316 -0.056339912 0.0130879525 0.052962307
0003d0 52 dd a1 bd 69 f7 1a 3d f7 ab e0 3c d9 4a 2a 3d
       -0.079035416 0.037833605 0.02742575 0.041575287
0003e0 6f 75 12 3d 82 f2 a0 3c 17 40 99 bc 5d 7f 5e 3d
       0.035756525 0.019646887 -0.018707318 0.05432068
0003f0 00 22 b9 bd cb 06 b7 3b 4b 08 88 bd 77 39 81 3d
       -0.09039688 0.0055855266 -0.06642207 0.06309789
