grasp_placement/models/run_seed_2332/stability_net.pth (torch, 25284 bytes, 5 tensors)

fc1.weight f4 [64, 21]
00000000: 2387 f83d ca7b 103e c146 6ebe 7e1d 923e
00000010: 4998 4f3d cb15 773d 7674 a63d 1c03 4ebe
00000020: d203 0b3e 1f4c 083e 2a77 d4bd 8aec a53d
00000030: 5523 13be e7d3 02bd bc84 b6bd ede0 6b3e
00000040: 401d 683e 7d55 99bd ed97 633d 6694 053e
00000050: 0255 673e 12a8 603e 5a21 073c 9805 103e
00000060: c20b 43be 5cfc f9bd 79f9 e4bd 043a a4bd
00000070: 8cb9 103e 87af e83d c0fd e63d 52b1 f83d
00000080: 2b2e 8cbe 2c98 593d 5b60 afbd df6b 243e
00000090: 979d 18bd 8429 c43c 6b7a 313e 444e 143c
000000a0: 83ff 0b3d d74a 973d 01c7 cabb d441 833d
000000b0: 0e73 dbbd 3dd5 17be 71ea b9bd e2d7 26be
000000c0: 46d2 02be 5363 fdbd 5215 18be 8668 033e
000000d0: 2d55 8fbc bf72 c63d 499c 05bb 0828 4a3e
000000e0: afcd 11bd 7032 72bd be8d 593c d2fe 85be
000000f0: 1f65 28be 2ebf 45be 067d 4ebc c999 1abe
00000100: 86da 14be 47cd 063e 50ef 373e f3fb c0bd
00000110: d86d 583c 331d 0f3e eaaf 40bd 35b9 453c
00000120: 6ed0 983d 7e65 58bc dfba da3d 9092 953d
00000130: a578 0f3e dd27 7dbd 86f7 2b3e c66f 11be
00000140: eeb5 413e a810 34bd 8215 1e3e d8be 96be
00000150: 762d fe3d 7457 79bc 89ed c7bd 403f 0dbd
00000160: 5dab 043e b2d2 713e fafb 7c3e 1473 0c3c
00000170: 9416 0fbe 8e85 81bd c7ef 76bd efcb 5e3d
00000180: 87c6 ebbc c228 40bd 5575 d0bd 40b2 6a3e
00000190: 08f0 443e 0536 64bd 7a7b 633e c423 82be
000001a0: c0c4 23be d679 84bc 33ad 06bd 56dd d0bd
000001b0: ecbf 94ba d5ad 51be 5a9c f4bd 03e0 453e
000001c0: fe9b f53d df88 43be 42dc 40bd eb78 8dbd
000001d0: 7038 2c3e 1323 0b3d d672 8d3e 1ab6 9a3d
000001e0: 4bee 033e 0d0c 003e 110c 8e3d 77fd 00be
000001f0: ec92 1cbe 3f8e a5be 4428 f23d e7b7 20be
00000200: 0bb7 c7bd ee5b 21be 7444 63bd ae4a 51be
00000210: 4548 893d 86ae 2cbe ac3e 2a3c 3455 d4bd
00000220: 323e 96bd 8bba 0c3e a496 52bd 6274 153d
00000230: ad64 183e ff8d 3e3c 862f d23d ab2e f4bd
00000240: 4e75 26be 51a6 d43d ca0c 4cbc 84a5 11be
00000250: 98fc 17be 7e89 5cbe 337b 843e fe15 1cbe
00000260: 60b2 0a3d 19dc 17be c559 b6bd 6e03 ce3d
00000270: 1117 693e d1d5 3d3e 1d36 253d 8540 973d
00000280: 71ad 173e 485a bc3d 97cb 6d3c 4748 ce3b
00000290: 9ce3 dabc 6da6 82bd 9c14 2d3e 3fcd 32be
000002a0: a52e 743d cdae a1bd 3eee 763d e20f 11be
000002b0: 6ebd 99bd 2a7e 57bd 13a7 c93d 2251 0bbe
000002c0: f2b4 0cbe 897c 673e d4cb 42be 9724 1e3e
000002d0: 712b 27be f304 92bd 009a b9bc 6504 d43d
000002e0: 401e 153e abe2 683e 4c19 7e3d 2556 2a3c
000002f0: 784d 83bd e971 7a3e 4cf3 533e f253 fa3d
00000300: dc7b a63d e7cd 433e 3e27 423e cde3 5abe
00000310: f8c7 13be aba5 4abc 36cd 01be 655b 48bd
00000320: ae6d 41bd 5c8a 0b3d 05cb 8fbe d1e1 cc3d
00000330: d500 c13d 959d 22be 2b08 9a3d e5b6 a2bd
00000340: 7785 323e 78fd fabb 37bd 033e c5c1 4dbd
00000350: 72bd 33be 12a8 9abe f9ae 0d3e 791e a3bd
00000360: 3453 acbc 2400 68be 4911 52be 5e4f 633c
00000370: 654b 0b3d ad2c f9bd 7d4a 093e 75bc b1bd
00000380: de60 54bc 9172 953d 7a4c a6bd b5c2 1f3e
00000390: 592c d33d cf7e 45bd ff13 48be 8bed 073e
000003a0: 7d35 b93d 612f 413d 3ace c93d 5530 2a3d
000003b0: dc84 7e3d e086 63be d6c5 cdbb adf5 bdbd
000003c0: 7952 7b3d 1878 473e 747c d13d bcdc 3bbe
000003d0: 6982 ec3d a8d5 27be d1fe 163e 0d67 9c3c
000003e0: 405c dbbc c3de 16be eade 1f3e 5f03 93bd
000003f0: 1072 cb3d d2da c6bd 48e0 5bbe a5b1 913e
0.1213515 0.14109722 -0.23269178 0.28538126 0.05068234 0.060323518 0.08127682 -0.20118374
0.13575676 0.13310288 -0.10374291 0.08101757 -0.14368947 -0.031940367 -0.08912036 0.23035021
0.22667408 -0.07487009 0.05556481 0.13044891 0.22591022 0.21939114 0.008247698 0.14064634
-0.19047454 -0.12206337 -0.11180396 -0.08018878 0.1413328 0.11361604 0.11278868 0.12143196
-0.27378973 0.053123638 -0.085633 0.16056775 -0.037259664 0.023945577 0.17331855 0.009051863
0.03417922 0.073873214 -0.006188274 0.0640904 -0.10715304 -0.14827438 -0.09077919 -0.1629329
-0.12775525 -0.1237246 -0.14851883 0.12832841 -0.01749667 0.09689855 -0.0020387343 0.19741833
-0.035596546 -0.059130132 0.013278423 -0.26170975 -0.16444825 -0.1931121 -0.01260305 -0.15097727
-0.14536485 0.13164245 0.17962384 -0.094230555 0.013209783 0.13975982 -0.047042765 0.012068083
0.0746163 -0.013207791 0.10680174 0.07303345 0.14010866 -0.061805595 0.16793641 -0.14202794
0.18917057 -0.043961197 0.15437892 -0.29442477 0.12411015 -0.015218604 -0.09762103 -0.034484148
0.12955995 0.2361553 0.24705496 0.008572359 -0.13973457 -0.06324302 -0.060287263 0.054393705
-0.028781189 -0.04691387 -0.10178629 0.2291956 0.1923219 -0.05571558 0.22215071 -0.25417912
-0.15993023 -0.016171377 -0.03288002 -0.101984665 -0.0011348701 -0.20476468 -0.11943884 0.19323735
0.11992644 -0.19095181 -0.047085054 -0.06907829 0.16818404 0.033968996 0.27626675 0.07554264
0.1288387 0.12504597 0.06935895 -0.12596689 -0.15290421 -0.32335088 0.11824086 -0.15695153
-0.097517096 -0.15757725 -0.055485204 -0.20438644 0.067032374 -0.1686345 0.010390919 -0.10367814
-0.073360816 0.13743035 -0.051413193 0.036487944 0.14882155 0.011630534 0.102629706 -0.11922964
-0.16255686 0.10383285 -0.012454221 -0.14223295 -0.1484245 -0.21536824 0.25875244 -0.15242764
0.033861518 -0.14830054 -0.08903841 0.10059248 0.22762705 0.18538596 0.04033481 0.07385353
0.14812256 0.09196907 0.014513872 0.006295237 -0.02671986 -0.063793994 0.16902393 -0.17461108
0.059614796 -0.07894669 0.0602858 -0.14166215 -0.07506834 -0.052610554 0.0984632 -0.13605168
-0.137409 0.226061 -0.19023067 0.15443645 -0.16325165 -0.0712985 -0.02265644 0.10352401
0.1456232 0.22742717 0.062035844 0.010396515 -0.0641126 0.24457516 0.20698279 0.122230425
0.08129093 0.19121514 0.18960282 -0.21375962 -0.14431751 -0.0123686 -0.12675938 -0.048915286
-0.04722374 0.034067497 -0.2808458 0.100040086 0.09423987 -0.15880425 0.07521089 -0.079450406
0.17433725 -0.0076596104 0.12865148 -0.05023362 -0.17552736 -0.30206352 0.13836278 -0.079647966
-0.021035768 -0.22656304 -0.20514406 0.013873903 0.03400745 -0.12166724 0.13407321 -0.086785235
-0.012962548 0.072972424 -0.081200555 0.15601619 0.10311193 -0.048216637 -0.19538878 0.13274209
0.09043405 0.047164325 0.09853788 0.04155 0.062138423 -0.2221942 -0.0062796874 -0.092753746
0.06135795 0.19479406 0.10228816 -0.18345922 0.11548311 -0.16390097 0.14745642 0.019092107
-0.026777387 -0.14733414 0.15612379 -0.07178377 0.09933865 -0.097097054 -0.21472275 0.28455845

fc1.bias f4 [64]
00000000: a929 aa3d 4453 e8bd 239d ee3d baf1 ca3d
00000010: 84e1 16be 2858 e33d f2a5 6d3e c330 2bbe
00000020: 0f4a f4bd 894a 9b3d b7e9 b83d acf6 853d
00000030: 3b5f 923c 2833 293e cf55 40be 83bd 65bd
00000040: a9ca 22be 6bdf fc3d 6617 4cbe ff03 483d
00000050: 86ec 923c eb1f 02be f259 4d3d b341 89bd
00000060: c521 b8bc 0e90 5a3e 0b49 213e 9fc8 203e
00000070: 4989 6dbc fb1a 4bbe fe6d f4bd 3b41 3bbe
00000080: 0d8e 253e e6e4 18bd 5a76 a73d 00d6 19be
00000090: dadc ed3d 0091 03bd ceb9 d83c 4af0 553d
000000a0: 16ad 6dbd 114e f8bd b189 0c3e 91ce 3b3e
000000b0: 814c 9f3d dcca d53d f7fc 9b3d 0238 013d
000000c0: c34e 043e 1e01 1e3e 2a9a ccbd a9a4 143c
000000d0: bdda b7bc 96b8 763c f6f3 363e 7bbd 7e3d
000000e0: 3964 16be e311 9bbd 3571 28bd 1a0f 943d
000000f0: 3994 013e 63d3 32bd c9a4 c73d e944 343e
0.08308727 -0.11344007 0.11651065 0.09909387 -0.14734465 0.11100799 0.23207834 -0.1671782
-0.11928188 0.07582576 0.090289526 0.065411896 0.017867675 0.16523421 -0.18782733 -0.056088936
-0.15897621 0.12347301 -0.19930801 0.048831936 0.017935049 -0.12707488 0.050134607 -0.06701984
-0.02247704 0.21344015 0.1575052 0.15701531 -0.014498063 -0.19834511 -0.11935042 -0.18286602
0.1616747 -0.03732767 0.08176871 -0.15023041 0.1161439 -0.032120705 0.026455786 0.05223111
-0.058026396 -0.12124265 0.137244 0.18340518 0.07778264 0.10439083 0.076166086 0.031547554
0.1292067 0.15430114 -0.09990342 0.009072461 -0.02244317 0.015058657 0.17866501 0.06219242
-0.1468667 -0.07571771 -0.041123588 0.07229443 0.12654199 -0.043658625 0.09748227 0.17604412

fc2.weight f4 [64, 64]
00000000: 59b4 213d 7f5d 89bd def5 1d3e ca25 2ebd
00000010: 88ea 92bc d494 5ebc 05bf 54bd 554c 1d3e
00000020: f141 543c 7c33 733d fdbf 8fbc 435a e2bd
00000030: 984a 343c c6cb 2f3d 1426 dcbb ff5d 09be
00000040: 64e8 1bbd 22af 79bd 8a19 f9bd 2c02 703d
00000050: 7e1a d73d f3b4 1dbd caa1 b63d adde 52bd
00000060: 5a94 a53d 50bd 1f3d 70c4 973d 22f1 14bc
00000070: be94 2c3e 9831 1c3d 8357 fe3d 3c5a 9b3d
00000080: 56c6 0a3e 802b 343d 27cb d93c fafa b73c
00000090: 1e3d 90bd 5847 4bbd 08f2 463d 75cd 8f3d
000000a0: c44c f53c 6054 8cbd 4840 0c3c 215b d23d
000000b0: 49fa 193e 3fb5 5d3d 68e9 06be 077f 6abc
000000c0: a919 293e 1a29 fa3a c157 2dbd 641e 0f3e
000000d0: ccbf 5f3b eaed 133e 1ff7 cdbd fe0f b33d
000000e0: db24 d23d 95e2 57be c58e ba3c 7f2b 80bd
000000f0: ad89 003e 818a c33d 4ff1 293e e39a 8d3d
00000100: a62c 49bd 256c 793d 7264 9f3d ae4d e73c
00000110: a5f0 23be 06d6 b23d 8a67 e7bd abb2 913d
00000120: 5356 49bc b696 873d 0015 573d 9876 00be
00000130: 5d26 dbbd cfc5 c8bd eaad 9f3d 81ac f6bd
00000140: 52a7 1abd 2689 2a3d e0b6 59bc 951b 4dbd
00000150: 9812 94bd 98f5 003d 20cb 103d 52d5 f53d
00000160: 977e 103e 34cf 71bd 4fe7 63bd d69a 63bd
00000170: 08fc a53c 4984 c83d d0a6 65bd 7e06 bfbd
00000180: 7f35 cb3b b9cc d73d 9ecc 653d 9896 dfbd
00000190: 2983 273d 97d1 8abd dc96 913d 3c39 fdbd
000001a0: da66 22bd e18e d4bc 2e63 2c3d 84df b9bd
000001b0: 7f4b 2fbd e5c0 b73c 445a babd 2245 b2bd
000001c0: d74c be3d 7ace 7abd 0070 c3b9 e00e ab3c
000001d0: 2842 ad3d e9b6 14bd 639d c2bd 3f04 a5bd
000001e0: a2d3 9d3d b0f3 b8bd 9190 94bd de35 8c3d
000001f0: 7a8b 6d3d 0ecf 59bd 16a7 843d b2d3 553d
00000200: 1310 c13b 730f 563c a1ab da3d f79e 00bd
00000210: 3995 74bd 7581 253e 53e4 78bd dfa1 9bbd
00000220: 9d09 f9bd b279 c33c ed61 443d a317 bbbd
00000230: 49ae ba3d 3de2 053b 6d58 adbd 670f 233e
00000240: 3d52 e73c ab5d 84bd 7dfa 143d c9b2 c23d
00000250: dc5e 73be d898 9e3d bd8d a73d d382 e83d
00000260: 7637 4cbe 47d9 64bd 98b5 9f3c 2ea3 e63c
00000270: 15f1 17bd 9788 1cbe 5ce8 26be 83eb c33d
00000280: bd25 0abd 7622 04be a465 723d c2f7 0fbd
00000290: 73a9 1bbd 21e9 da3c 3484 dd3c 7e29 2fbe
000002a0: c118 4bbd dbe3 b93d 55c5 c4bd 2d11 ad3c
000002b0: 4940 19be d365 fb3d e083 7b3d 6b90 aebd
000002c0: 7829 c8bd 8e0c afbc 84d5 533d 9ea2 16be
000002d0: f14f a4bd 44ad 3fbe de42 d7bd 42f0 d13c
000002e0: 82f1 babd d153 ac3d 2b81 253d 5b57 c43d
000002f0: df9b 09be 8541 713d ad13 1ebe 96cb 653d
00000300: 4f32 603d 9ad9 143d a146 8b3d 53c1 aebb
00000310: 8d27 773c 6d98 81bd 7069 1b3d 4cc2 903d
00000320: 9cc2 81bd aa53 3e3d 13dd 423d 61bb 5fbc
00000330: 81d6 0b3e d096 25bc c0b7 883d af71 8abd
00000340: 43cc 613d 0a58 cdbd ca6f fcbd bf29 c73d
00000350: 94eb 20bd 9b4f 83bd da9d 53bc 61bd 5e3d
00000360: 4c7b 293e 8702 033e bd1b e4bb 8b5d deb7
00000370: 7cb8 e63c 4173 353e 30eb f23d 1485 123e
00000380: 1a50 bebd b60b fc3d d368 e6bc 265a 063e
00000390: 2697 7f3d da4e 5cbd 01fe 933d 75f1 a53d
000003a0: ccab dabb 4858 063e 03c2 9fbd dc6b 81bc
000003b0: 7c69 7a3c 65e1 ef3d a1e7 72bd 374f 42bd
000003c0: 06aa 283d 0113 fc3d a1cc 0e3c 2665 ab3c
000003d0: 6138 3a3e d0d5 043e ad1e b0bd 6474 c6bd
000003e0: 62b4 b9bc d64a 103c 6212 8c3d 50ea 7a3d
000003f0: ab81 2fbc fa04 99bd 9764 b6bc f2d8 9bbc
0.039478634 -0.06707286 0.15425822 -0.042516507 -0.017934099 -0.013585288 -0.051939983 0.1536115
0.012955175 0.05937527 -0.017547602 -0.11052372 0.011004113 0.042918943 -0.0067184065 -0.13414763
-0.03806342 -0.060958035 -0.12163074 0.05859582 0.105031 -0.038502645 0.089175776 -0.05148189
0.080849364 0.0389989 0.07410514 -0.009090694 0.16853616 0.038133234 0.12419035 0.0758557
0.13552222 0.043986797 0.026586128 0.022458542 -0.07042907 -0.049628586 0.048570663 0.0702161
0.029943831 -0.06852031 0.008560248 0.10271288 0.15036882 0.054127928 -0.13174975 -0.014312512
0.16513695 0.0019085736 -0.042320017 0.13976437 0.003414142 0.14446226 -0.100569 0.08743285
0.10260936 -0.21082528 0.022773156 -0.06258296 0.12552519 0.09547902 0.16595958 0.06914308
-0.049114846 0.06089415 0.0778283 0.028235283 -0.16009767 0.08732228 -0.112990454 0.07114156
-0.012288648 0.06620543 0.05251026 -0.1254524 -0.107006766 -0.09803354 0.07796843 -0.12044621
-0.037757225 0.0416347 -0.01328823 -0.050075132 -0.07230109 0.031484216 0.035349965 0.12003578
0.1411079 -0.059035495 -0.055640515 -0.055567585 0.02026178 0.097908564 -0.056067288 -0.0932741
0.0062014456 0.105370946 0.05610334 -0.10917395 0.04089657 -0.06778257 0.07108852 -0.12364432
-0.03964887 -0.025947036 0.042086773 -0.09075835 -0.042796608 0.022430846 -0.09099248 -0.08704592
0.09292 -0.061232068 -0.00037276745 0.020881116 0.08459884 -0.03630725 -0.095026754 -0.080574505
0.077063814 -0.09030855 -0.07254136 0.06846212 0.057994343 -0.05317598 0.064771816 0.05220384
0.005891809 0.013065207 0.10677267 -0.0314016 -0.059712622 0.16162665 -0.060764622 -0.07599234
-0.12160037 0.02386174 0.04794495 -0.09135368 0.091152735 0.0020429038 -0.084641315 0.15923844
0.028237456 -0.06463178 0.036371697 0.09506757 -0.23766655 0.077439964 0.08181331 0.11353078
-0.19943032 -0.055871274 0.01949577 0.028153982 -0.037095148 -0.1528648 -0.16299576 0.09566405
-0.033727396 -0.12903771 0.059178963 -0.03514839 -0.038003396 0.026722493 0.027040578 -0.17105672
-0.049584154 0.09076663 -0.096079506 0.021126354 -0.14965929 0.12275281 0.061405063 -0.08523639
-0.097735345 -0.021368291 0.051717296 -0.14710471 -0.0802306 -0.1871844 -0.10510801 0.02562726
-0.09128095 0.08414424 0.040406387 0.09586974 -0.13438366 0.058900375 -0.15437193 0.056102358
0.054735478 0.036340334 0.06800581 -0.0053331046 0.015085113 -0.06327901 0.03794235 0.07068309
-0.06335947 0.046466507 0.047574114 -0.013655514 0.13656045 -0.010106757 0.066756725 -0.06759965
0.05512644 -0.10026558 -0.123260096 0.09724759 -0.039287165 -0.06411668 -0.012916053 0.054379825
0.1655094 0.12793933 -0.0069613145 -2.6508022e-05 0.02816414 0.17719747 0.11861265 0.14308578
-0.09292622 0.12306921 -0.028126156 0.13120326 0.062400006 -0.053786136 0.07226182 0.08102695
-0.006673312 0.13119614 -0.07800677 -0.015798502 0.0152839385 0.117129125 -0.05930293 -0.047438826
0.041177772 0.12308312 0.0087157795 0.020922255 0.1818557 0.12972188 -0.08599601 -0.096901685
-0.022669021 0.008806905 0.06839444 0.061258614 -0.010712068 -0.07471652 -0.022264762 -0.019024346

fc2.bias f4 [64]
00000000: 6011 b03c 1084 e8bd c89e e23d 34d1 c73c
00000010: 4614 a73d ca0e d7bd 3c0f 0bbd b4ea 603d
00000020: ff03 72bd 507e 88b9 aa3b 7dbc daa8 04bc
00000030: 88cc 30bb b601 e9bd 3eac b8bd 1c15 87ba
00000040: 27d4 62bd b74b bf3d 6ce2 0d3c f54e d3bd
00000050: 1169 e63d 1726 5a3d afaa 0a3c 1633 cfbd
00000060: 6f93 233d 1ced b53d f5e9 383d 8f8d 773d
00000070: 4483 f9bd 1777 dc3c 8cbb d73d 186e af3d
00000080: 5806 1bbd 6579 e43d 8bad fc3d c0f1 3dbc
00000090: d988 983d 6cbd b83d ef0c 363d 43c0 913d
000000a0: 77ef 483d de44 a0bd 794c a53d 57f5 e1bc
000000b0: a7d4 223d a44e f83b 07bc 5f3c 2923 393d
000000c0: 0535 c63d 432e 363d e36a 183d 7a5e f83a
000000d0: bcee 6fbd 5e06 08be 934d 7f3d 891a 80bd
000000e0: 05b7 78bc ea68 79bd 0d1a d9bb 7598 013e
000000f0: a2a6 38bc 9d64 2a3d 6854 03bd de0f a8bd
0.02149266 -0.11353314 0.11065441 0.024391748 0.08158164 -0.10500868 -0.033950076 0.05491133
-0.059085842 -0.00026034052 -0.01545612 -0.008096898 -0.002697738 -0.113772795 -0.090172276 -0.0010305974
-0.055378105 0.09340613 0.00865994 -0.10317794 0.112505086 0.05325898 0.008463546 -0.10117166
0.039935526 0.08883116 0.045144994 0.060437735 -0.1218324 0.026912255 0.105338186 0.085659206
-0.037847847 0.11155967 0.12337788 -0.011593282 0.074479766 0.09020504 0.04444593 0.07116749
0.049056496 -0.078256354 0.080712266 -0.027582807 0.039753582 0.007577734 0.013655669 0.045199547
0.096780814 0.044477712 0.03721131 0.0018949055 -0.058577284 -0.13283679 0.06232984 -0.06255061
-0.015180354 -0.06089107 -0.00662542 0.12655814 -0.011270197 0.04159986 -0.032062918 -0.082061514

reg_head.weight f4 [1, 64]
00000000: 03ec 0e3e 7f17 6b3e 4f4f 09be d49b 0a3e
00000010: f40a 93bd a9bd a4be a4eb 193e 9b07 133e
00000020: 0583 d93d 914f 8fbe 36e3 873d 44fa 68be
00000030: e0ec 64be bf24 1e3e db1f 663d 0d67 25be
00000040: 8e63 2b3e ec53 62bd 957f 5d3e 02ab 75be
00000050: bd12 753d cce2 b53d 845f 863d 9e14 a9bc
00000060: 633e 68be 5a71 0abe 1ee0 11be 478c 413e
00000070: 9c53 953d 093a 943d 2c0b b43c 6456 0e3e
00000080: e2bc e13d 31ab 2c3d a0dc ef3c 95c0 953d
00000090: ac67 633d cf55 03be fc86 243e c0da f7bd
000000a0: e0da a33d f486 e1bd de6d 1fbe 037b 65be
000000b0: d04b f43d 7112 0f3e 2fc9 333d d6ce 1e3e
000000c0: fefe bc3d 67c0 56be 9f8e a0be 45e8 bebd
000000d0: 4f5b 46be 1516 43be 0e93 54bd e0da 42be
000000e0: 4ee6 693e 3351 793e 34d4 043d e297 0b3e
000000f0: e14d 263e cce4 8e3d 012c 86bd 3a57 b6bd
0.13957219 0.22958182 -0.1340916 0.13536006 -0.071798235 -0.3217595 0.15031296 0.1435837
0.10620693 -0.27990392 0.06635134 -0.22751719 -0.22355986 0.15443705 0.056182723 -0.16152592
0.16737196 -0.055255815 0.216307 -0.23991016 0.059832323 0.08881149 0.06561187 -0.020639714
-0.22680049 -0.13519803 -0.1424565 0.18901168 0.07291338 0.07237632 0.021977983 0.13900143
0.11022355 0.04215545 0.029280007 0.07312123 0.05551879 -0.12825702 0.16067117 -0.1210227
0.080007315 -0.110120684 -0.15569255 -0.22410206 0.119285226 0.13971879 0.043893036 0.15508589
0.092283234 -0.20971833 -0.3135881 -0.09321646 -0.19370769 -0.19051392 -0.051898055 -0.19028807
0.2284176 0.24347381 0.032428935 0.13632157 0.16240646 0.06977233 -0.06551362 -0.08903356
