grasp_placement/models/run_seed_2261/stability_net.pth (torch, 289476 bytes, 5 tensors)

fc1.weight f4 [256, 21]
000000 21 14 f1 3d e9 4c 0b be 8e 92 6d 3e 59 dd 2a 3e
       0.117714174 -0.13603558 0.23200437 0.16686
000010 08 e2 13 3e 41 03 22 be e6 ec c2 3d f7 85 13 be
       0.14441693 -0.15821554 0.09517841 -0.14406572
000020 9a 60 ee 3c 6b cb be 3d 09 df 12 bd ee 96 1f 3b
       0.029098798 0.09316143 -0.035857234 0.0024351436
000030 75 f1 06 be 63 94 53 3e d8 b5 00 3c 66 42 13 3e
       -0.13178046 0.20662074 0.007855855 0.14380798
000040 53 bb 80 bd 1e bd 30 be 0e db 18 be e9 7e 24 be
       -0.06285729 -0.17259642 -0.14927313 -0.16064037
000050 97 e7 55 3c 46 ae 6b 3e 70 89 16 3e bf 99 36 bb
       0.013055704 0.23015699 0.14700866 -0.0027862636
000060 68 ab 7b 3d 63 a0 f7 3b 61 63 e4 bc 9c 78 8b 3d
       0.061442763 0.0075569614 -0.027879419 0.06810114
000070 c4 97 bd bd 27 dd 36 be 0b 36 42 be 27 47 fe bd
       -0.092574626 -0.178578 -0.18965928 -0.12415915
000080 8e f9 8a be c9 3c 6a be ae 8c dc bd a0 30 f9 3d
       -0.2714352 -0.2287475 -0.1076902 0.121674776
000090 1e 9d 30 be 54 0c 25 3e 1b d8 15 3e f0 e1 7e 3e
       -0.17247435 0.16117984 0.14633219 0.24890876
0000a0 6e 3e 55 be cb c9 6d bc e6 f3 fe bd 6a d1 b9 bd
       -0.20824596 -0.014513443 -0.12448864 -0.09073146
0000b0 37 38 6b 3d f8 08 68 bd 66 c3 0b 3e 93 24 1e 3d
       0.057426658 -0.05664918 0.13648757 0.0386091
0000c0 e8 d6 0a 3c d7 bd 37 3e 0e 63 1b 3e e1 b2 37 3e
       0.008474089 0.17943512 0.15174505 0.1793933
0000d0 1f b6 eb bd 27 23 89 bd 4e be 36 ba 96 60 49 bd
       -0.11509346 -0.06696158 -0.00069711066 -0.049164377
0000e0 2a 3c a7 bd 21 49 2b 3d 6b 2c 16 3c e3 97 2b 3d
       -0.08165772 0.041817788 0.0091658635 0.041892897
0000f0 8e 6d 02 be 02 b8 64 be 95 2b 1d be 66 37 5d 3d
       -0.12737104 -0.22335818 -0.15348656 0.05400791
000100 fe 22 d7 bd 22 4a 97 bd 63 08 2a bd ea 72 3e 3d
       -0.10504721 -0.073871866 -0.041511904 0.04649631
000110 1b e1 85 3d f6 73 c0 bd a8 ff 25 be 72 37 39 3e
       0.06537076 -0.09397118 -0.16210806 0.18087557
000120 60 21 5c 3d 1f 38 3d bc 85 dc 36 be f0 5e 82 3d
       0.053742766 -0.011549025 -0.17857559 0.06365764
000130 45 85 01 bd fc ad 4a 3e 81 5f 1c be 1e ea 47 3e
       -0.031621236 0.19792932 -0.15270807 0.19522902
000140 b1 e6 4f be a6 2e ec bd db b7 10 be 3c 78 67 be
       -0.20302846 -0.11532335 -0.14132635 -0.2260446
000150 18 a6 5c be 49 ab 2c be 7b 68 79 be d9 ff 90 3d
       -0.21547735 -0.16862215 -0.24356262 0.07080049
000160 66 34 26 bd f4 07 04 be 9d 64 03 be 1d be f0 bd
       -0.040577315 -0.12893659 -0.1283135 -0.11755011
000170 d9 d0 03 be d2 0e 48 be 1c 35 1c 3e 73 1a da 3d
       -0.12872638 -0.19536904 0.15254635 0.10649576
000180 56 da a6 3d 94 cd c8 3d df 45 96 bd aa 5a 93 bd
       0.08147113 0.09804836 -0.073375456 -0.07195027
000190 80 8e 6c be 7b ce 41 be d4 77 09 3e 70 b0 38 be
       -0.23101234 -0.18926422 0.13424617 -0.18036056
0001a0 ae 49 89 bd 86 c5 ea bd a6 81 21 3e b6 e1 16 bd
       -0.067035064 -0.11463456 0.15772113 -0.03683635
0001b0 00 1a a2 3d 1b d6 3f 3c 4b 32 9a bd 82 1c 69 be
       0.07915115 0.011708762 -0.07529124 -0.22764781
0001c0 2e c6 13 3e ff 30 38 3e 94 45 1c 3e cd 27 8e bd
       0.14431068 0.1798744 0.15260917 -0.06941185
0001d0 0d 0c 84 3e 56 d7 24 3c e8 ee ca 3d ec 20 59 bd
       0.25790444 0.010061106 0.09908849 -0.053009912
0001e0 5d ad 21 be 7a c6 3f 3e e2 82 44 be 30 e5 5f be
       -0.15788789 0.18728057 -0.19190553 -0.21864772
0001f0 24 57 29 be ac f9 cc bd db a8 cc 3c 6d 99 09 3e
       -0.16537148 -0.10008559 0.02498286 0.13437434
000200 e9 9d dd 3d 3f d6 bd 3d 68 13 05 bd b1 9a 3e 3e
       0.108211346 0.0926938 -0.03248921 0.18613698
000210 2b 54 53 3c 0a ab 59 bc 9a a7 db bc 51 94 15 be
       0.012898485 -0.013285408 -0.026813317 -0.1460736
000220 0c 86 40 be 05 b9 d9 bd 82 b7 fe 3d 7f e1 85 bd
       -0.18801135 -0.10630993 0.12437345 -0.065371506
000230 01 ca 44 be 72 21 27 3e 74 6a a2 3d 9d dc 08 3d
       -0.19217683 0.16321352 0.079304606 0.03341352
000240 cd ed d8 bc d8 bd 04 3d c8 ea 60 3d f0 57 ca bd
       -0.02648058 0.03240761 0.054911405 -0.09880054
000250 30 e5 13 3e a3 45 0c 3e 03 99 8d 3c 33 79 03 be
       0.14442897 0.1369844 0.017284876 -0.12839203
000260 d4 bd 41 bd 7d 71 d4 3d fd 2c b4 bc a4 ca 98 bb
       -0.047300175 0.10373209 -0.021994108 -0.0046628285
000270 af ad e6 bc 92 83 44 be 51 6f 35 be 83 b2 16 be
       -0.02815899 -0.19190815 -0.17718245 -0.14716534
000280 ee 9c 2c bd 0f 11 19 3d 2a 66 f8 bd b1 fb 42 3d
       -0.042141847 0.037369784 -0.12128861 0.047603313
000290 e0 81 e4 3c 71 a5 13 3e 83 47 1d bd df c3 25 3e
       0.02789396 0.1441858 -0.038398277 0.16188
0002a0 4a 6d fb 3d 7f d8 6a bd 45 a7 39 be 22 09 75 3e
       0.122767046 -0.057335373 -0.18130215 0.23929265
0002b0 5f ae 8d bd 8c bb aa bb 99 4b 24 3e 63 da 43 be
       -0.06918024 -0.0052103456 0.16044463 -0.19126277
0002c0 d2 cf 37 3e 87 b1 e2 3c 77 09 5b bb f8 21 08 3d
       0.17950371 0.027672542 -0.003342239 0.03323552
0002d0 24 f1 03 be a6 ae 05 3e 69 47 5e 3e 43 fb 14 3e
       -0.12884957 0.13054904 0.21706928 0.14548974
0002e0 48 df 0d be 60 64 b9 bd 0e b4 ff bd 3c eb c6 3c
       -0.13854706 -0.09052348 -0.124855146 0.02428209
0002f0 61 0f 20 be 73 1b 64 3e c0 32 cb 3d 25 2b bc bd
       -0.15630867 0.22276096 0.09921789 -0.09187917
000300 99 59 2b be b8 7d 29 3d 74 c1 6f 3d a6 f8 eb bd
       -0.16733398 0.04137966 0.0585341 -0.11522035
000310 f8 17 30 be 3a af 86 3d 9b 22 e5 3d c9 a6 83 bd
       -0.17196643 0.065763906 0.11188241 -0.06428296
000320 07 5f 7e bc 92 19 8f bd 55 7d b6 3d fa b9 01 be
       -0.015525586 -0.06987299 0.08910624 -0.126686
000330 fe 61 40 3e 26 d7 e6 bd 8b 2e 90 3d 49 4d 97 3d
       0.18787381 -0.11271505 0.07040127 0.07387788
000340 4d db a2 bd d3 17 df bd 7a e3 f8 bd 82 1f 07 3e
       -0.079519846 -0.10893216 -0.12152763 0.13195613
000350 4e 98 ef bc 0c ff 63 3e 05 89 65 be 48 65 90 bc
       -0.02924743 0.22265261 -0.2241555 -0.01762642
000360 9e 11 35 bd b6 47 8c bb 57 ad 40 be 86 cd 94 bc
       -0.044206254 -0.0042810095 -0.18816124 -0.018164407
000370 e5 42 12 be cd 3b 29 3d cf 3a 83 bd a6 69 2d 3d
       -0.1428333 0.041316796 -0.06407701 0.042337082
000380 6c cb 3a 3e 81 76 4b bd fe 17 86 bd 13 ee 14 3e
       0.18241662 -0.04967356 -0.06547545 0.14543943
000390 51 b5 37 be f2 95 38 be bf 96 45 3c a5 51 f2 bd
       -0.1794026 -0.1802595 0.012059866 -0.11831979
0003a0 d2 c5 1b 3e 1d ba a1 bd af 62 14 3d 9c d2 5f 3e
       0.15212181 -0.078968264 0.036226925 0.21857685
0003b0 23 2a f5 3d ed d1 4b be d2 41 4e be 95 aa 8a 3d
       0.119709276 -0.19904299 -0.20142296 0.06770817
0003c0 0e 5c 0a 3d e4 16 c5 3d 74 7b fb bd d0 07 19 3e
       0.033779196 0.09623507 -0.12279406 0.14944386
0003d0 db a9 83 3e 2b 05 44 3d 9b 0a c4 bd b3 b4 c7 bd
       0.25715527 0.04785649 -0.09572335 -0.097512625
0003e0 5d c2 ef 3d 3c 33 03 3e e1 60 6f 3b e8 bd 89 bd
       0.11706994 0.12812513 0.003652625 -0.06725675
0003f0 b0 aa 6f be f8 b9 44 3e 23 1d d3 bd d9 04 db 3d
       -0.23404956 0.19211566 -0.10308292 0.10694284

fc1.bias f4 [256]
000000 e5 b4 9e 3d 08 e9 64 bc 56 42 cd 3c 84 22 e3 3c
       0.07749347 -0.013971575 0.025056046 0.02772642
000010 95 87 1c be 3e 90 06 3e cb 96 9b 3d bd 1d ef bd
       -0.15286095 0.13140962 0.07597121 -0.11675594
000020 b2 3b b1 3d da 79 1b 3e 75 33 d3 bd 82 c0 16 be
       0.08653964 0.15183201 -0.10312549 -0.14721873
000030 70 7a 7e 3d 01 41 05 3e b6 1d 1b be 21 42 a4 bd
       0.062128484 0.13013078 -0.15148053 -0.080204256
000040 ac d3 1a 3e fa 7c 4d be b4 55 88 bd a2 e3 61 bd
       0.15119809 -0.20067206 -0.066569716 -0.05514873
000050 c5 13 f6 3d 10 1c b9 bd a2 e4 4d be fe e1 10 3e
       0.120154895 -0.090385556 -0.20106748 0.14148709
000060 83 58 0c 3e 8d ac 9c bb 6e 6e ba bd 11 b5 22 3d
       0.1370564 -0.004781312 -0.09103094 0.03972346
000070 6b 1c 05 be e0 26 53 3e 87 d1 ec bd d1 cb 56 be
       -0.12999122 0.20620298 -0.11563402 -0.20976187
000080 82 7a 27 3e f6 f3 cb 3d 57 29 b4 3d 00 56 09 be
       0.16355327 0.09958641 0.087969474 -0.13411713
000090 41 be 8e bd 35 8c 12 3d 7a ab dc 3d e7 b2 cb 3d
       -0.06969882 0.035778243 0.10774894 0.09946232
0000a0 72 0a bd bd d2 46 f7 3d a6 c5 44 be f5 80 05 3d
       -0.09230508 0.12074055 -0.19216022 0.032593686
0000b0 b3 c8 50 3d 6b f5 bf bc ac b4 1d 3d ca 8a 0c 3e
       0.05097265 -0.023432454 0.03850238 0.13724819
0000c0 c5 8f 8f bd 07 21 cc 3d c9 79 cd bc 3b fe f7 bd
       -0.07009844 0.09967237 -0.025082486 -0.121090375
0000d0 f9 26 29 bd f9 8d 49 be 75 f5 af 3d 83 52 55 3e
       -0.041296933 -0.19683065 0.08591739 0.20832257
0000e0 b4 1d 31 be 04 60 5d be c2 18 b2 bd bf 18 22 be
       -0.17296487 -0.21618658 -0.086961284 -0.15829752
0000f0 fb be e1 3d 9b 19 2a 3e 82 d1 b1 3d a9 58 56 3e
       0.11022755 0.1661133 0.086825386 0.20932259
000100 4f 58 43 be 42 46 d1 bd cb 88 21 3e 0c b8 5e 3d
       -0.19076656 -0.10218479 0.15774839 0.05437474
000110 84 8b 1c 3d 17 e5 55 be 49 50 27 be 00 76 33 3e
       0.03821899 -0.20888172 -0.1633922 0.17525482
000120 e8 09 35 bc 42 cc 0f 3e ad 8f 56 bd 11 e6 37 3e
       -0.011049725 0.14042762 -0.052383114 0.17958857
000130 b8 c8 89 bc 01 a2 26 3e 9e 9c 39 3e b5 45 41 bd
       -0.016819343 0.16272737 0.18126151 -0.04718562
000140 5f aa 27 3e 05 af 41 be 44 21 11 be 84 47 d6 bd
       0.16373585 -0.18914421 -0.14172846 -0.10462859
000150 c5 13 aa 3d f8 68 ee bc 3f 14 22 be a3 81 40 bd
       0.08304552 -0.029102787 -0.15828036 -0.04699863
000160 09 3b fe 3d 9c 11 1a bd eb ff 64 bd 02 65 92 3d
       0.12413604 -0.03761445 -0.055908125 0.07148172
000170 b1 49 7c bc 8f 5d 00 be 81 ce 21 3d 20 3c 56 bd
       -0.015398429 -0.1253569 0.039503578 -0.052303433
000180 ec 52 b3 3d d8 9a 25 3e 70 f6 32 be e4 cd cc 3d
       0.087560505 0.1617235 -0.17476821 0.10000208
000190 ca 8c 44 3e 3a 12 d0 bc 00 94 4e 3e 96 78 03 bc
       0.19194332 -0.025399316 0.20173645 -0.008024355
0001a0 e2 26 cf 3c 2c 60 a8 3d d5 18 e1 3c cc 9d 1d 3e
       0.025287095 0.08221468 0.027477661 0.15392226
0001b0 38 a9 ae 3d cf 1b 3f bd d1 00 86 3d 5a fc 2e be
       0.0852837 -0.04665738 0.065431245 -0.17088452
0001c0 17 45 90 3c 40 98 27 be 2c f3 65 bd a6 c3 9f 3d
       0.01761107 -0.16366673 -0.05614011 0.07800989
0001d0 5d f5 0a be bc e8 95 3d d4 4a a9 bb 35 d5 65 bd
       -0.13570161 0.07319781 -0.005166391 -0.056111533
0001e0 e4 60 b1 3d 24 d8 c1 bd d5 58 54 be bc 1e 15 3e
       0.086610585 -0.09465054 -0.20737012 0.14562505
0001f0 94 c1 91 3d b9 d8 2e bd 1f b1 e9 3d c4 2b 19 bd
       0.07117 -0.04268715 0.11410736 -0.037395254
000200 c2 ae e3 3d 71 f5 10 3e 5d f6 44 be 2e 9d 1c be
       0.11117317 0.14156128 -0.19234605 -0.15294334
000210 43 03 9d bd 56 ad 31 be c9 07 b4 bd 0d a3 ab 3d
       -0.07666638 -0.17351279 -0.087905474 0.08380709
000220 a7 87 0a be 34 38 5e 3e ee 13 da bd a1 8d eb 3d
       -0.1352831 0.21701127 -0.106483325 0.11501623
000230 f9 52 62 bc 36 fd a7 bc d2 b5 dd 3d 4a 4d 89 bd
       -0.013813728 -0.020506483 0.10825695 -0.06704195
000240 48 2f fa 3d 74 8b cd bd ee 47 e3 3d 4e 51 39 be
       0.122160494 -0.10036364 0.11097704 -0.18097422
000250 c9 91 37 bd 51 69 86 3d a0 e2 c6 bd 22 0c b8 bc
       -0.044816766 0.06563056 -0.09711194 -0.022466723
000260 4e 68 1b bd fe bc 64 3e 2e 7e 16 be 82 9b dd bc
       -0.03794127 0.2233772 -0.14696571 -0.027051691
000270 af 8f 1d 3d 79 a2 29 3e 8e 6d 01 be 0f 6e 40 be
       0.038467105 0.16565885 -0.12639448 -0.18791984
000280 75 48 99 3b 2b ab 09 3e 6d 71 c6 3d e5 70 cc bb
       0.004677827 0.13444202 0.09689603 -0.006239044
000290 b5 dd 37 3e 43 90 3b be 74 7e 45 3c ac 2e 18 3e
       0.17955668 -0.1831675 0.012054075 0.14861554
0002a0 49 06 db bc fd f1 23 be c9 72 e0 bd 74 ff de bd
       -0.026736395 -0.1601028 -0.109593935 -0.108885676
0002b0 d5 d5 f9 3d 5c 41 03 be aa b5 b7 bd 4d df a9 bc
       0.12198988 -0.12817901 -0.089701965 -0.02073636
0002c0 9a 76 80 bd 59 8b cd bd 0a 2f 2d be a5 e6 50 3e
       -0.062726215 -0.10036344 -0.16912475 0.20400484
0002d0 72 59 b4 bd b0 1b 85 3d fc 6c 25 3e 6e 64 0f 3e
       -0.08806123 0.064994216 0.16154855 0.14003155
0002e0 45 d2 f4 3d ac 2a 4c be 45 26 e5 3d 91 11 59 bd
       0.11954168 -0.19938153 0.1118894 -0.05299527
0002f0 5e 70 a8 3d f2 9f 09 3d 7a 5a 45 3e 25 61 74 3d
       0.08224557 0.0335998 0.19272795 0.059662957
000300 cd 91 1b 3e 36 6c 5e 3e 48 41 1a be 01 f4 aa bd
       0.15192337 0.21720967 -0.15063965 -0.08347321
000310 f0 f9 8b bc 49 55 92 bd dc 1d 11 be 02 ff 2d be
       -0.017086953 -0.07145173 -0.14171547 -0.16991809
000320 f4 f6 3f 3e 01 4d 49 be 68 8f a7 3d 18 90 24 3e
       0.18746549 -0.19658281 0.081816494 0.16070592
000330 aa 6b 8e bd 08 af 53 3d f3 1c 39 3e ff 89 15 3e
       -0.06954129 0.051680595 0.1807745 0.14603423
000340 db c4 2f bc a4 d9 26 3e 55 89 9b bd be 11 16 bd
       -0.010728086 0.16293961 -0.075945534 -0.036638014
000350 ca d6 b5 bd 3e e1 23 3d d2 3f d3 3d 1f 7b f7 bb
       -0.088788584 0.04000973 0.10314907 -0.007552519
000360 b1 62 12 3e 67 2e 67 be 1c a9 cb bd ef ac 49 bd
       0.1429546 -0.22576295 -0.099443644 -0.049237188
000370 a3 52 c5 bd d4 65 4e be 64 56 a0 3c 96 5e 55 3e
       -0.09634902 -0.20156032 0.019572444 0.20836863
000380 2d 1f e3 3c ad 5f 9a bd 61 df 3f 3e 75 f1 c7 bc
       0.027724827 -0.0753778 0.18737556 -0.024407128
000390 07 12 a4 bd d4 17 bb 3d ad e1 0c 3e e2 d5 4a 3e
       -0.08011251 0.09135404 0.13757963 0.19808152
0003a0 91 5c 01 be 57 3b a8 3d 7a 92 0f 3e cb 8b 02 3e
       -0.12632968 0.08214443 0.1402072 0.1274864
0003b0 f8 9d b7 3d 8d d7 1e 3e f0 91 a7 3c 21 70 80 3d
       0.08965677 0.15511914 0.02045533 0.06271387
0003c0 76 e2 23 be d6 5f 9f bd e1 82 84 bd 1f c2 41 bd
       -0.16004357 -0.07781951 -0.06470276 -0.04730427
0003d0 11 50 8a 3c 1d c7 a5 3d 12 4e 3c 3e db 6a d5 bd
       0.016883882 0.080946185 0.18389156 -0.10420772
0003e0 99 4c cd 3d f0 6b 14 be 7e e2 a7 bc f5 5a 29 3d
       0.100243755 -0.144943 -0.020493742 0.04134651
0003f0 fb 40 5d be 02 2f 5a 3e 08 bc e7 bb f8 ae 73 3d
       -0.2160682 0.21306995 -0.0070719756 0.059493035

fc2.weight f4 [256, 256]
000000 38 df 57 3d 49 f3 73 3d 80 c2 41 3d e2 34 78 bd
       0.052703112 0.059558187 0.04730463 -0.060597308
000010 e2 20 f0 3c 6a a0 51 3a 9d f8 38 bd a0 fe 80 3c
       0.029312555 0.0007996621 -0.04515897 0.015746415
000020 c3 03 59 3d a8 af b4 bb 82 b1 cf 3c d4 d8 b3 bd
       0.052982103 -0.005514104 0.025353197 -0.08781591
000030 10 35 02 3d db 27 1b bd 03 b7 38 3d 93 32 0f 3d
       0.031788886 -0.037879806 0.04509641 0.03496034
000040 75 e1 eb bc 40 e9 11 be 75 25 5b bc 6b 4c 81 bc
       -0.02879403 -0.14249134 -0.01337563 -0.01578351
000050 75 2e ef bc eb 47 80 bd d9 17 97 3d 69 a8 05 bd
       -0.029196957 -0.06263717 0.073775955 -0.03263131
000060 42 16 fe bc 93 e3 54 bd d3 5d f1 3c 64 97 75 bd
       -0.031016473 -0.051974844 0.029463684 -0.05995883
000070 0c 8b 98 3d 0f bd 61 b9 ca b9 7e 3c 24 2d a4 bd
       0.07448396 -0.00021528102 0.015547225 -0.080164224
000080 70 72 58 3d 57 91 02 3d d1 cf 57 bd 6e 84 80 bd
       0.05284351 0.031876888 -0.052688424 -0.06275259
000090 b3 5b 32 bd 85 92 69 3d 7e 67 0e bd 65 39 77 3d
       -0.043544482 0.057024498 -0.034766667 0.06035747
0000a0 7b c4 43 3d 4e 3d 55 3d a8 07 b3 3c 1d ad 27 bd
       0.0477948 0.052060418 0.021854237 -0.040936578
0000b0 30 91 f5 3c df a3 fa bc 1e f0 e4 bc 95 21 c2 3c
       0.029976457 -0.030595718 -0.027946528 0.023697654
0000c0 6b ae 79 3d ff a8 8f bd 9d e1 23 bd b5 e3 37 3d
       0.060957354 -0.07014655 -0.040010083 0.044894893
0000d0 13 7e bf 3d 35 e5 82 bd e0 ce 63 3c 95 27 32 bc
       0.093502186 -0.06391374 0.013904303 -0.010873695
0000e0 58 cb e6 3c f1 5f 8d bd ef e9 77 3d 11 42 41 3d
       0.028173134 -0.06903065 0.06052583 0.047182146
0000f0 b0 e3 d6 bc 8e 32 2d ba b4 bb 96 bb c1 b1 8b bc
       -0.026231617 -0.00066069595 -0.0046000127 -0.017052533
000100 a4 3a a4 bc 68 53 3f bd cc ef e5 3c 35 86 37 bd
       -0.020047493 -0.0467104 0.028068446 -0.044805724
000110 91 9d 07 bd 7f ec 4c ba 90 8c 15 bd 59 43 11 3c
       -0.03310925 -0.0007817223 -0.036511004 0.008866155
000120 26 22 5f bb 8f 46 ad bd 81 a7 a6 3c 8c b9 98 3c
       -0.0034047454 -0.084607236 0.020343544 0.018643163
000130 8d 7f a6 bd 47 83 63 bd 96 fb 88 3c 1f a5 4f bc
       -0.08129797 -0.055545118 0.016721528 -0.012673645
000140 bc 13 85 bd cb ea 9c 3c 12 0c a6 bc ea bc 25 3d
       -0.06497905 0.019154927 -0.020269427 0.040463366
000150 24 6a 12 3d 7c 2e 4c bd cc 02 59 3d 16 fe 0b bd
       0.035745755 -0.04984902 0.052981183 -0.034177862
000160 13 d7 69 3d 73 72 d9 3c 11 91 3b bd 4f 3d f6 bc
       0.057089876 0.026543831 -0.045792643 -0.030058531
000170 85 81 3c 3c de 85 e7 bd 81 93 30 3d d5 1c 6d bd
       0.011505489 -0.1130483 0.04310942 -0.057888824
000180 9e ee 90 bc d3 05 57 bd 31 9d 9c 3c 43 c6 9c 3a
       -0.017691907 -0.05249579 0.019117923 0.0011960942
000190 85 02 d6 3b 58 3f 0e bc ad 0d 01 3d 29 22 af bc
       0.006531062 -0.0086820945 0.031507183 -0.021378594
0001a0 81 2a 4a bd 57 65 a0 bc bf ee 35 3d 2a b4 0f bd
       -0.04935694 -0.019579573 0.04441714 -0.035083927
0001b0 49 6b 58 3d 42 be 61 bd fd d7 fd 3c 90 4e d8 3c
       0.05283669 -0.055113085 0.03098678 0.026404649
0001c0 0f 2f 8a ba d7 c4 3c bc 4a 00 72 bc 39 11 41 3d
       -0.0010542589 -0.01152154 -0.014770577 0.047135565
0001d0 69 0a 68 bc 96 f6 40 bd 76 c9 6d 3d cf c6 cf bd
       -0.014162638 -0.047110163 0.058053456 -0.101453416
0001e0 92 95 97 bd 6a 23 5e 3d a8 5b 60 3d 32 a9 5b 3d
       -0.07401575 0.054232992 0.05477491 0.053628154
0001f0 51 52 9b 3c 63 49 57 3c 75 42 81 3d af aa 07 3d
       0.01896015 0.013140055 0.06311504 0.03312176
000200 11 49 36 3d 64 3a 81 3d 96 50 e1 bc 8b 8a 0c 3d
       0.044503275 0.06309965 -0.027504247 0.034311812
000210 ab 2a 9d 3b 14 d6 41 3c 3a f3 6f 3c 71 4c 56 bd
       0.004796346 0.011830825 0.014645392 -0.052318994
000220 f7 80 be 3c b4 75 3d bd 04 13 4d bc e8 d7 9c ba
       0.023254855 -0.04625483 -0.012516741 -0.00119662
000230 6a 25 e9 3b 83 2c bf bd d4 f2 36 bd 5d aa 29 3d
       0.007115056 -0.09334662 -0.044665173 0.041422237
000240 cb cf 4e bd 3f 77 71 3c a9 9a c8 3d d5 0b f1 bb
       -0.050491136 0.014737903 0.09795124 -0.007356147
000250 06 fa 39 bd 74 b4 42 3d 7a 9b 82 bd 16 99 32 bd
       -0.045404457 0.047535375 -0.06377311 -0.043603025
000260 64 91 8a bc 19 29 e6 3c aa d6 84 bc a7 79 0b bd
       -0.01691503 0.028095769 -0.016215641 -0.034051564
000270 22 7e 0a bd 2a d4 c9 bc 1d 8c 9b 3d 2e 7a 67 bd
       -0.033811696 -0.0246373 0.07595084 -0.056513004
000280 dc dd 50 bd cb e1 15 3c 79 e1 0e bd 1c a0 7b 3d
       -0.05099283 0.0091480715 -0.034882996 0.06143199
000290 89 e9 6a bd ad 84 8e 3c 75 dc cb bc 7e a1 ef b9
       -0.057351623 0.01739725 -0.024885396 -0.00045705953
0002a0 1b 30 43 bd ee 47 21 3d 54 21 71 bd a2 e1 5d bd
       -0.0476533 0.039375238 -0.058869675 -0.05417026
0002b0 f5 ba 8f bc d0 74 d5 bc ca 23 e1 bc 3f 60 07 bd
       -0.017545203 -0.026056677 -0.027482886 -0.03305077
0002c0 db 97 9c bd ad ff b2 3c 31 75 af 3c 8d 74 4f 3d
       -0.07646152 0.021850431 0.021418186 0.05064826
0002d0 5b 58 37 3d ff 66 9f 3c 70 5e 54 3d 8a 7b 10 b9
       0.044761997 0.019458292 0.051847875 -0.00013778932
0002e0 39 7c 7b 3d 2b ad c5 3d 9d c9 91 3d a3 95 81 3c
       0.061397765 0.0965217 0.07118533 0.015818423
0002f0 b3 2a e4 bc 7f ef 57 bd 0b 14 20 bc 09 67 e7 3c
       -0.027852392 -0.052718636 -0.009770404 0.028247373
000300 72 2b 54 3d ba 56 86 bd e4 8d c0 3d e4 04 88 3c
       0.051799245 -0.065595105 0.094020635 0.016603895
000310 80 c3 cf 3c ef 5d 40 3d 14 c5 65 3d c5 91 42 39
       0.025361776 0.046964582 0.05609615 0.00018555585
000320 2d 8b 43 bc b7 21 f9 bc 64 1f 9b bc 34 0f bb bc
       -0.011935038 -0.030411584 -0.018935867 -0.022834398
000330 f6 43 6d 3d e4 40 84 bd 36 37 7c bd 63 c6 a4 3c
       0.05792614 -0.064576894 -0.06157609 0.02011413
000340 be 46 67 bd 83 5c 52 3d 32 a8 85 bd cc 3d 0c bd
       -0.05646395 0.051357757 -0.06526221 -0.03423862
000350 dc 1d f9 3c a5 73 1a bc 0f b8 78 bd 4b b3 49 3d
       0.030409746 -0.009426986 -0.060722407 0.049243253
000360 3a fd 49 bd a9 18 7d bd 94 41 98 3c 74 7f 90 bd
       -0.04931376 -0.061791096 0.018585958 -0.0705556
000370 7d 26 79 bc 28 07 8b 3d c1 c2 37 3d 2b 63 86 bd
       -0.01520693 0.06788474 0.044863466 -0.065618835
000380 a0 24 3f bd 4c ce 3a bd 6e 22 5e bd bb 4f 3d bd
       -0.046665788 -0.045606896 -0.054232053 -0.046218615
000390 4b cc 1b bd d6 c1 14 bd ec e8 34 3c d7 d5 36 3d
       -0.038036626 -0.03631767 0.011041861 0.044637527
0003a0 6d d7 61 bd ca 12 40 bd ff ed 74 bc 2f e5 b8 3d
       -0.055137087 -0.04689292 -0.014949321 0.09028088
0003b0 9a fb b3 bc 86 16 a3 bb 18 d6 2b bc a0 77 ed ba
       -0.021970559 -0.0049770502 -0.010488056 -0.0018117316
0003c0 53 df b7 3d 0a a1 24 3d 62 e7 53 3d 56 6c 8c 3d
       0.089781426 0.04019264 0.051734336 0.06856601
0003d0 67 c0 1e bd 23 fb fc bc 29 12 3d 3d 57 42 53 3d
       -0.038757708 -0.03088147 0.046159897 0.05157694
0003e0 d2 ab 95 3c 9e 5d 1a 3c 6f b8 90 3b d9 18 82 3d
       0.018270407 0.009421734 0.0044165174 0.063523956
0003f0 0e 5c 9e bc 19 4d e4 3c de f0 ef bb 2c b5 c1 bc
       -0.019331004 0.027868794 -0.007322415 -0.02364596

fc2.bias f4 [256]
000000 3b 1e 1c 3d 8e 36 85 bb 9b 9b a2 bc 28 7e 84 3c
       0.038114768 -0.0040653413 -0.01984959 0.016173437
000010 02 d0 f5 bb 5a 6d 69 bc 3d 4c 77 bc 06 24 6c 3c
       -0.007501603 -0.014247263 -0.01509386 0.0144128855
000020 2d 68 4d 3d a3 59 40 bc b2 a3 12 bd 62 b3 47 bd
       0.050148178 -0.011740121 -0.035800643 -0.048755057
000030 2f 98 0c 3d ce 4d 46 bd 31 46 27 3d 77 f9 1d 3d
       0.03432482 -0.048414044 0.040838424 0.038567986
000040 30 6f e8 3c a4 66 37 bc ba e4 65 bd da 0b f4 bc
       0.02837333 -0.011193905 -0.056126334 -0.029790808
000050 72 d6 1d 3d 92 fa 36 3d 0e 1b 62 bd 86 ea 25 3d
       0.03853459 0.044672556 -0.055201583 0.040506862
000060 d0 bd 73 3d 73 e6 c2 bb 21 b1 36 bd 5c aa 07 3d
       0.05950719 -0.005947882 -0.044602517 0.03312145
000070 52 bd c9 37 18 63 61 3d ff aa 19 3d fd d7 07 3d
       2.4049226e-05 0.055026144 0.03751659 0.033164967
000080 9f de 2b 3d 67 e2 0d 3b 89 8f 75 bc 51 db 54 bd
       0.041960355 0.002164984 -0.014987835 -0.05196697
000090 3a 7a 62 bd 12 f7 47 bd 3c af 4f bd 64 89 1e 3d
       -0.055292346 -0.04881961 -0.050704226 0.038705245
0000a0 c4 9f 27 bd b7 ac 1e 3d 8a 49 09 bd 55 8a a6 39
       -0.04092385 0.038738932 -0.033517398 0.00031765053
0000b0 73 37 db 3c 7e 3b 72 bd c7 fb 47 bd 0e 5c fb 3c
       0.026759839 -0.059138767 -0.048824098 0.030683544
0000c0 af bf 61 3c 65 e4 b3 3c 01 28 2c bc b7 ce 21 3d
       0.013778611 0.021959493 -0.010507585 0.03950378
0000d0 01 04 0a 3d 0f 99 0e 3d 57 81 82 3c 78 91 42 bd
       0.033695225 0.034813937 0.015930815 -0.04750201
0000e0 88 6d 0a bd 9f b5 ac bc dc fd da 3c 1a bb 05 bc
       -0.033795863 -0.021082697 0.026732378 -0.008162284
0000f0 db 8a e4 3b 7c 42 94 3c 97 61 0a bd 6a ed 1d 3d
       0.0069745607 0.018098108 -0.033784475 0.038556494
000100 ef 80 93 bc c2 ee 91 3c 00 c5 28 bd 45 48 06 bd
       -0.018005816 0.017814044 -0.0412035 -0.032783765
000110 38 90 cc 3c 66 6a e0 bc 1f 2d 06 3a 24 51 cd bc
       0.024971113 -0.027394485 0.0005118418 -0.025063105
000120 24 4b 56 bd 57 99 6d 3d 11 0f ea bc d0 b7 97 3c
       -0.052317753 0.058007564 -0.028571637 0.018520266
000130 a9 20 00 3d 88 09 30 3c e3 5b 14 bd 54 31 67 bc
       0.031281147 0.01074446 -0.036220443 -0.014110882
000140 6f e3 70 bb 4d 0c d9 bc 32 18 1b 3c c7 96 2e 3d
       -0.0036756655 -0.026495123 0.009466218 0.04262426
000150 ec ff 06 bd 3b d8 36 3d f0 ff bf bc 50 f5 2c bd
       -0.03295891 0.044639807 -0.02343747 -0.042226136
000160 58 20 5b 3d 92 f6 79 3c 52 69 f9 3c 50 3f 0c 3d
       0.053497642 0.015256541 0.030445728 0.034240067
000170 04 66 3f 3d c8 95 64 3c bf 0e 53 bd 01 fc c6 3c
       0.04672815 0.013951726 -0.051527735 0.024290087
000180 d3 ff e6 bc 48 6d d2 bc 42 7a 03 bd 20 c5 5d bd
       -0.028198158 -0.025686875 -0.032099016 -0.05414307
000190 66 6e a1 ba 03 e3 69 bd 22 8b 2c bc 8a 0a a6 bc
       -0.0012316226 -0.05710126 -0.010531219 -0.020268697
0001a0 9f c2 68 bd 0f 9c 64 3d 0a 19 b6 bc 0f 39 40 3c
       -0.05682623 0.05581289 -0.022228736 0.011732354
0001b0 0b be 9a 3c 7f 5b 12 3d ca 55 67 3d e3 66 32 bd
       0.018889448 0.03573179 0.0564783 -0.04355515
0001c0 57 64 88 3c f8 4d 1d 3d 08 05 1d 3d ac 80 ae 3c
       0.016649408 0.038404435 0.038334876 0.02130159
0001d0 ee 73 96 bc 1a d1 04 3d 2c 77 fd 3c 83 c6 23 bd
       -0.018365826 0.032425977 0.030940615 -0.039984237
0001e0 d7 fd 78 bd 5e 0e af 3c 85 6b 20 ba 58 1f d9 3c
       -0.060788956 0.021369155 -0.0006119537 0.026504204
0001f0 20 9c b4 3c 34 fd cc bc 4f 5e 5e bd 9a c6 69 bc
       0.022047102 -0.02502308 -0.05428916 -0.014268542
000200 58 68 c3 3c 81 71 78 bd 52 38 4c bc d2 e6 83 3d
       0.023853466 -0.06065512 -0.0124646 0.0644051
000210 c9 51 62 3c f1 47 bb bc 05 36 19 3b f6 3f 03 bd
       0.013813444 -0.022861453 0.0023378145 -0.03204342
000220 15 06 0a bd 80 33 49 3d ad bc 33 bd 90 39 3f 3d
       -0.033697207 0.04912138 -0.043881107 0.046685755
000230 09 11 c5 bc 24 8d 3b bd cb 75 06 bd 14 f7 9f 3c
       -0.024055975 -0.0457889 -0.03282718 0.019526996
000240 a8 d2 5b bc 0a 81 27 3d 96 88 0e bd 8f cc 84 3d
       -0.013416924 0.040894546 -0.034798227 0.06484329
000250 40 2b 50 bc c2 bc b4 bc 3e 04 9e 39 44 be 5b 3d
       -0.012705624 -0.022062663 0.0003013927 0.05364825
000260 d4 b2 29 3d ca 12 bd 3b b9 bf 60 3d be 98 d7 bc
       0.04143031 0.005770062 0.05487034 -0.02631795
000270 64 ae 40 3d 4f 20 8c 3c 99 2d 56 3d 53 23 55 3d
       0.04704131 0.01710525 0.05228958 0.05203564
000280 e5 0e 19 bd e6 c0 41 3d fe 56 aa bc 69 48 5e bd
       -0.03736772 0.047303103 -0.020793434 -0.054268274
000290 c1 12 cf 3b 48 ff 4f bd 27 82 0c 3d 68 76 44 bd
       0.0063193743 -0.050780565 0.03430381 -0.047964483
0002a0 d7 f2 18 bb 41 5b d0 bc d1 ce d6 bc 41 40 17 3d
       -0.0023338103 -0.025434138 -0.026221665 0.03692651
0002b0 09 e0 93 3c f4 c2 a9 3c 2b 37 35 bd 68 c8 2c bd
       0.018051164 0.020722844 -0.044242065 -0.04218331
0002c0 6d 74 2c bb c5 f2 85 3c 5f a1 ea 3c 60 bc f1 3c
       -0.0026314512 0.016351113 0.0286414 0.02950877
0002d0 97 09 84 bc b2 be 41 3d a6 fa fd bc 46 e4 30 bd
       -0.016117854 0.047301 -0.031003308 -0.04318645
0002e0 9d 76 57 3d 50 c6 5c 3d 18 5a e2 3c 74 4d 26 bd
       0.052603353 0.053900063 0.02763085 -0.04060121
0002f0 04 4c 4a 3d 2d 77 80 3d d3 51 db bc 9a 7f 10 3d
       0.0493889 0.06272731 -0.026772415 0.03527794
000300 45 bd a9 3c 14 2f 62 3c 76 96 cc 3c 32 69 e9 bc
       0.020720134 0.01380517 0.02497409 -0.028492544
000310 d0 e3 1b 3d 72 f2 af ba 2f bb 6e 3b 8f de 53 bd
       0.038059056 -0.0013423695 0.0036427488 -0.05172592
000320 68 1d 33 3d 7c 06 07 bc 30 45 f4 bc 99 83 42 bd
       0.043729216 -0.008241292 -0.029818147 -0.047488783
000330 4c e6 44 3d 65 84 1a 3d 64 d5 ad bc 5a 7f 6a 3d
       0.04807119 0.037723918 -0.021219917 0.05725036
000340 cd 57 b5 3a cf 59 58 bd f1 61 59 bc 45 92 a2 3c
       0.0013835371 -0.052820023 -0.01326798 0.019845137
000350 7d a6 b5 3c dc d8 05 bc d1 b3 23 bd 32 d1 23 bb
       0.022174114 -0.008169379 -0.03996641 -0.0024996516
000360 db b7 54 3d 1a 4f 0d 3d d6 11 37 bd 54 af a4 bc
       0.05193315 0.034499265 -0.044694744 -0.020103134
000370 09 b5 56 bc e6 6a 8e bc f9 fc 59 bd 93 35 26 bd
       -0.013104686 -0.017384958 -0.05321977 -0.040578436
000380 27 26 57 3d 77 6b 8e 3c 52 54 bf bc 2d 5d 26 bd
       0.05252662 0.017385228 -0.023355637 -0.040616203
000390 25 bc b4 3c 0a 23 19 bd f7 00 4b bd d0 0b 38 bd
       0.02206237 -0.03738693 -0.049561467 -0.04493314
0003a0 28 ed fc bc ff 9d 83 bc d2 1e 47 bb 7e cf 1a 3d
       -0.030874804 -0.01606655 -0.003038336 0.037795536
0003b0 35 4e 7d 3d 62 8e 9e 3c 28 59 03 3d c0 0e 5c bd
       0.061842162 0.019355003 0.032067448 -0.053725004
0003c0 97 37 74 bd f0 9c 6c 3d a6 c8 2b bd 69 b9 4b 3d
       -0.059623327 0.057766855 -0.0419394 0.049737368
0003d0 ae cb b5 bc 1e d4 3c bd 3f c4 f2 3b 49 34 55 bd
       -0.022191849 -0.04610073 0.0074086483 -0.052051816
0003e0 63 f0 6c 3d c3 ae 72 3d af bd 6c 3d f0 f6 14 bd
       0.05784644 0.059248697 0.057798084 -0.03636831
0003f0 42 d5 5b bc 20 eb 23 bd fb 2e 17 3d a5 ea ed bc
       -0.013417544 -0.040019155 0.03691004 -0.029042551

reg_head.weight f4 [1, 256]
000000 e1 36 8f bd cb 8a 00 3c d9 6a 1b 3d 39 9e 4a 3c
       -0.06992889 0.007845591 0.037943695 0.012366825
000010 8c f1 0f 3d e8 22 1f be 90 23 61 3c e9 69 88 3d
       0.035142466 -0.1554066 0.013741389 0.06660826
000020 b1 f8 6e 3d 0d 3b a0 3d 21 07 34 3c 91 f3 12 3d
       0.05834264 0.07823763 0.010988028 0.035876814
000030 aa de 10 be d7 f6 5f 3d dc e7 fc bc 85 a9 89 3d
       -0.1414744 0.054678764 -0.030872278 0.067217864
000040 ef 5c f8 bd 07 af 01 3d 7e d1 8a 3d 7c 67 36 3d
       -0.12127101 0.03166106 0.06778239 0.044532284
000050 71 cd 32 3d bc 5d 91 3d 89 91 9e 3d c2 34 13 3d
       0.043652955 0.070979565 0.077426024 0.035938986
000060 bb 6f cc 3c e0 40 b1 bd c6 2f 58 3d 97 ba a3 3c
       0.024955621 -0.08654952 0.052779935 0.019986434
000070 00 4d 0d bd 6b 2d 72 3d 08 b7 98 3d 80 28 af 3c
       -0.03449726 0.059125345 0.074567854 0.021381617
000080 e6 82 bd bd 42 6b b7 bd d0 68 dd 3d 1b f7 b9 bd
       -0.092534825 -0.08956005 0.10811007 -0.09080335
000090 70 77 42 3a f7 1d 0e be a2 fe a7 3c 9a e3 77 3d
       0.000741831 -0.13878618 0.02050716 0.060519792
0000a0 de 1b b1 3d 97 8d 8a 3d a6 bc 8e bd 56 d1 90 3c
       0.08647893 0.06765287 -0.069695756 0.017677944
0000b0 34 1d e4 bd 97 5f 87 3c df 95 d6 3d 10 7d 7a 3d
       -0.111383826 0.016525073 0.104778044 0.061154425
0000c0 b1 a0 f5 3c 4c 81 6c 3c 4c e7 0c 3d 6b 2f 9e bd
       0.02998385 0.014435124 0.03440027 -0.07723888
0000d0 a8 a7 c0 3c 4c f8 06 3d 42 db 06 be 68 60 56 bd
       0.023517445 0.032951638 -0.13169578 -0.052338034
0000e0 93 82 04 bd 07 13 eb 3d 66 fe c5 bd dd 47 d1 3c
       -0.032351088 0.114782386 -0.09667663 0.025546962
0000f0 3e fc df bd bb b6 6e 3d 8d bc f0 3d 9b b2 bf 3c
       -0.10936783 0.058279734 0.11754713 0.023400595
000100 4a 19 b5 bd 1a f3 c1 bd e1 78 ed 3d da 23 4b 3d
       -0.08842714 -0.09470196 0.115953214 0.049594738
000110 aa b0 33 3c 18 ac 09 3e e2 60 1f bd 8d e1 fa 3d
       0.010967413 0.13444555 -0.038910754 0.12250052
000120 66 9d 88 3d 88 2c 1b be 25 28 25 3d 04 03 97 bd
       0.06670646 -0.15153706 0.040321488 -0.07373622
000130 56 6e b1 bd cc c6 a1 3c b0 5a df bd e5 8a 38 3d
       -0.08663623 0.019748114 -0.10905969 0.045054335
000140 1f 29 c6 3c 26 87 94 bd c5 b7 d6 bd e7 e9 95 3c
       0.02418953 -0.0725234 -0.1048427 0.01830001
000150 11 55 94 3d bb 08 81 bd 75 74 c7 bd b2 95 8e bd
       0.07242788 -0.06300493 -0.09739009 -0.06962146
000160 39 15 58 3d 98 59 da 3d 5e 83 31 bd f1 46 0c 3d
       0.052754615 0.1066162 -0.043338172 0.034247342
000170 03 9e 29 3d bf 35 00 be 44 08 1b be 70 02 05 be
       0.041410457 -0.12520503 -0.15139872 -0.12989211
000180 c8 d9 ae bd e1 22 35 bc cc 6b e9 3d 8d 21 f7 3c
       -0.08537632 -0.011055679 0.11397514 0.030167365
000190 9f c0 db 3d 36 c0 ea bd 01 72 58 3d 96 ec 39 3d
       0.10730099 -0.114624426 0.052843098 0.04539164
0001a0 33 cd 6a be 6a 9b de 3c f3 14 4a 3c 69 99 9c bd
       -0.2292984 0.027173717 0.012334096 -0.07646448
0001b0 39 06 bc bd 4a 3d 00 3e 3c 14 48 3d c1 c0 3d 3d
       -0.091808744 0.1252338 0.048847422 0.046326403
0001c0 fb 96 e5 bd 6c 83 08 be 81 f8 84 bd d2 c9 72 bd
       -0.11210438 -0.13331383 -0.06492711 -0.059274502
0001d0 cf d1 02 be 66 ad 7d 3d 5d 06 94 3d e2 b8 fd 3c
       -0.12775348 0.061932944 0.07227776 0.030971948
0001e0 d1 b2 80 3d d8 87 18 be 79 eb 1b bd d8 6a da 3d
       0.062841065 -0.1489557 -0.03806636 0.1066491
0001f0 7d 6f 84 3d 21 88 7e 3c d0 5a e5 3d 7e ee c4 3b
       0.06466577 0.015535385 0.11198962 0.006009876
000200 e9 6d 97 3d 2a b4 00 bd 63 cb d6 bd 13 8e 80 3d
       0.073940106 -0.031421818 -0.10488012 0.062770985
000210 24 e9 41 bd 9d 18 1b 3d 9e 46 27 be 6b cb 7e 3d
       -0.04734148 0.03786527 -0.16335532 0.062205713
000220 9e f5 b6 bd bf 7b 3c 3d 9e d2 87 3d 05 16 94 bd
       -0.089335665 0.04601645 0.06631969 -0.072307624
000230 e7 37 e9 bd 5f c0 28 3e a3 ad b2 3d 07 29 c8 3d
       -0.11387616 0.16479634 0.08724525 0.0977345
000240 48 65 14 3d e9 c8 ac bd e0 a0 9e 3c 02 8f b0 3d
       0.0362294 -0.08436758 0.01936382 0.086210266
000250 ff 8b 2a bd 35 56 c0 3d a4 66 9b bd 89 0f 03 3d
       -0.041637417 0.09391443 -0.075879365 0.031997237
000260 75 14 6c 3d aa 7a 83 bd 48 8f 5e 3d f8 e7 13 bd
       0.057636697 -0.06419881 0.054335862 -0.036109895
000270 7c ea 5b 3d 8b d9 50 be 0d d8 af bd d6 17 62 3d
       0.05369042 -0.20395486 -0.0858613 0.055198513
000280 2a 27 c2 bc 9a d6 7d 3d a2 3e 9c bd 04 b8 bd 3c
       -0.023700316 0.061972238 -0.07629134 0.023159035
000290 d1 a5 98 bd 79 18 11 be 74 c9 ba bd f5 a0 ca 3d
       -0.07453502 -0.14169492 -0.091204554 0.09893981
0002a0 cb f5 c2 3d e5 6f d4 3b 47 b7 ed bd 4e f4 66 3d
       0.095195375 0.0064830654 -0.11607223 0.05638533
0002b0 4f 9b 84 3d 59 5b f9 bd ce a3 b3 bc 0c 0c af bd
       0.06474935 -0.12175626 -0.021928694 -0.0854722
0002c0 34 69 3f 3d 90 09 1f be a5 c2 cd 3d c4 bb 0d 3d
       0.04673119 -0.15530992 0.10046891 0.034602895
0002d0 76 c4 8d bd ea 65 a3 bc de 30 5d bd 6b e5 f3 bd
       -0.069222376 -0.019946057 -0.05400168 -0.119089924
0002e0 bf 3b ec bd 3b cc 8e bd 07 9b 6d 3d f7 b3 01 3e
       -0.11534833 -0.069725476 0.058009174 0.12666307
0002f0 a8 cb a1 3d 14 ec 9f 3d 4b 83 50 3c bb f8 bd bd
       0.079001725 0.078087 0.012726615 -0.09275957
000300 76 13 1f bd f8 6d 42 3d d5 e5 21 be 05 48 f1 bd
       -0.03883692 0.047468156 -0.1581033 -0.11781315
000310 9d 1f 26 3d 4c b7 4b bd cc e5 3d 3d 06 7f b2 bd
       0.040557493 -0.049735352 0.04636173 -0.08715634
000320 48 0e e7 bd 26 5d 86 3c d7 66 d2 bd d8 cc 05 3c
       -0.11282021 0.016401839 -0.102735214 0.008166514
000330 11 00 ec 3d 73 8c 69 bc df b7 5e bd f7 a4 3f 3d
       0.1152345 -0.014254677 -0.054374572 0.046788182
000340 3d 02 c7 3d ac ff 99 3c 23 81 3a 3c 4f 9d b7 bd
       0.09717224 0.018798672 0.011383328 -0.08965551
000350 50 06 18 be 52 4d 16 be cd 4c 7c 3d 89 c6 d1 bd
       -0.14846158 -0.14677933 0.06159668 -0.10242946
000360 3b 00 bd bc 09 b9 1d bd 23 20 be b9 e9 77 c7 3d
       -0.023071399 -0.03850654 -0.00036263568 0.09739668
000370 7a 2d de 3d 12 b6 8c bd 17 77 ce bc 06 c0 05 3d
       0.10848518 -0.06870665 -0.02520327 0.03265383
000380 07 99 91 bd a0 7b 74 3d e0 60 1a 3d eb 7f b6 bd
       -0.07109266 0.05968821 0.037690043 -0.08911117
000390 39 0f 76 3d 2e 26 e1 bd 56 6d 22 be 32 12 d2 bd
       0.06007311 -0.1099361 -0.15862021 -0.10257377
0003a0 7c 37 ab bb b2 b7 3c be 8f b5 4a bd f1 e7 10 3d
       -0.00522512 -0.18429449 -0.049489554 0.035377447
0003b0 e8 bf bd 3c 4c 14 cd 3c 19 3b 10 be ac 9a 08 3d
       0.023162797 0.025034092 -0.14085044 0.03335063
0003c0 d5 1f 2e 3d 6a 7f 4b bd cc b3 d5 3d 8c a0 e2 bc
       0.042510826 -0.04968206 0.10434684 -0.027664445
0003d0 6b c8 a7 3b cd 6c 13 be c2 16 f9 3d 4f a7 a0 3b
       0.005120327 -0.14396973 0.12162544 0.0049027572
0003e0 e0 2a 5f 3c 22 93 3b 3d e4 51 b3 3c 8f 6a 77 bd
       0.013621062 0.045794614 0.021889634 -0.060404357
0003f0 bf 36 23 be 79 70 6b 3d c0 eb 47 3d 01 c8 05 be
       -0.15938853 0.05748031 0.048808813 -0.13064577
