grasp_placement/models/run_seed_568/stability_net.pth (torch, 80580 bytes, 5 tensors)

fc1.weight f4 [128, 21]
0.093597755 0.077739 0.107916795 -0.0027542848 0.16581072 0.0872496 -0.22737817 -0.09232501
-0.2058426 0.08758477 -0.029405585 -0.11573578 0.117875166 -0.12339467 -0.14870316 -0.18981668
0.09570858 0.17370348 0.10805029 -0.087949164 -0.11324969 -0.1263224 -0.0072123595 -0.026952285
0.042483516 0.07903442 -0.0966795 -0.096808754 -0.13437031 -0.21629402 0.14713252 0.094531894
-0.10153369 0.14967334 0.027014436 -0.22188425 -0.05227719 -0.019250095 0.025197089 -0.028716318
0.014688917 -0.17607065 -0.1672574 -0.12705512 -0.11411844 -0.0068422267 -0.05888044 -0.16444534
-0.072564505 -0.04876379 0.06587721 0.025432063 -0.05085903 0.12236873 -0.12089948 0.056812562
-0.15464208 -0.0030362562 -0.022620685 0.22022946 0.03761239 0.07889385 -0.14452778 -0.18558075
-0.114436194 0.20400447 0.25900894 0.17284708 0.19540453 0.14486757 -0.19609676 0.22038785
0.04704751 -0.092920125 -0.022611337 0.11560507 0.08746771 0.2056999 0.1725738 -0.11701573
0.077153966 0.19198483 0.026090574 0.04452448 -0.13262872 -0.11660668 -0.07557105 -0.17931007
0.20365995 -0.05871189 0.024337562 -0.007087468 0.119359955 0.07486736 -0.109309986 0.09437756
-0.20374951 0.20524657 0.13303247 -0.08236901 0.07715875 -0.1435499 0.18340303 -0.08832981
-0.07260615 -0.14514793 0.18088916 -0.1863712 -0.00875738 -0.039435435 0.14089365 -0.17380379
0.17956454 -0.19370869 -0.034018636 -0.15908416 0.10926439 -0.18261924 0.1569091 -0.19105291
-0.05465292 0.1613452 -0.17197512 0.11106308 0.22914483 -0.24843289 -0.1589041 0.20375358
0.1739484 -0.102824196 0.117020585 -0.0032988824 0.19102366 0.15151541 -0.21615942 -0.0041902075
-0.08776483 -0.016868066 0.10703444 0.15609041 0.19450745 -0.04820582 0.08951401 0.21236834
-0.22245379 -0.064104915 -0.17270114 0.07882001 0.023901558 -0.052537147 -0.0036221272 -0.14757507
-0.14070065 -0.097461276 0.15478437 0.016948687 0.08627673 0.07409502 -0.16583933 -0.09271275
-0.11857189 0.20332505 -0.016273571 0.06414141 -0.1676066 0.10209569 -0.021367988 -0.0644598
0.14851168 0.03345386 -0.11971183 -0.037995473 0.10874732 -0.13656144 -0.003529857 0.09414788
0.03938594 -0.13026138 0.1502221 -0.022042552 -0.20830837 0.18963622 0.03430522 0.14695337
0.118766904 0.21675494 -0.2345678 -0.015234574 -0.027011728 -0.10218452 0.06109996 -0.19517608
-0.09367541 0.030386407 0.07622731 0.030847572 0.06927497 0.20643559 0.10474361 0.08759309
-0.18848434 0.07330491 0.11405183 -0.05096736 0.06555008 0.20424913 -0.028140128 0.13235976
0.1043024 -0.018754948 -0.20216742 0.11393128 0.17994882 0.07077343 -0.08417355 0.12692511
-0.031257935 0.026754515 0.07541865 0.14907862 -0.06341757 -0.1038655 -0.10159543 0.0244917
-0.15090677 -0.10154679 -0.175547 0.19088967 -0.10516939 0.18163526 0.07835102 0.117338784
-0.08974922 0.18203072 0.1808942 0.03894741 -0.12259496 0.021528184 -0.052052844 -0.049191255
-0.19259748 0.19584069 0.0059362943 0.11360757 -0.12405405 -0.062474232 0.118903875 -0.13285102
0.22686847 0.15125836 -0.100330345 -0.036724675 -0.13628249 0.055261005 0.1958831 -0.04040076
00000000: 2eb0 bf3d a035 9f3d 7b03 dd3d 3b81 34bb
00000010: 49ca 293e ebaf b23d d3d5 68be e514 bdbd
00000020: 67c8 52be a55f b33d fbe3 f0bc e106 edbd
00000030: 8968 f13d 58b6 fcbd a445 18be 4e5f 42be
00000040: dc02 c43d 53df 313e 7849 dd3d b11e b4bd
00000050: 74ef e7bd a95a 01be a855 ecbb 0acb dcbc
00000060: 3203 2e3d ccdc a13d e7ff c5bd ab43 c6bd
00000070: 5f98 09be 2e7c 5dbe e8a9 163e f099 c13d
00000080: e5f0 cfbd f843 193e 614d dd3c a035 63be
00000090: 9b20 56bd 60b2 9dbc 206a ce3c 7c3e ebbc
000000a0: c9a9 703c dd4b 34be 8645 2bbe bd1a 02be
000000b0: eeb6 e9bd c234 e0bb 9e2c 71bd 5c64 28be
000000c0: b39c 94bd 8abc 47bd a1ea 863d e756 d03c
000000d0: 8f51 50bd 759c fa3d 269a f7bd 4ab4 683d
000000e0: 7e5a 1ebe edfb 46bb 044f b9bc d583 613e
000000f0: 730f 1a3d 1993 a13d 17ff 13be e108 3ebe
00000100: 865d eabd 8ce6 503e d29c 843e d3fe 303e
00000110: 2018 483e 2a58 143e 97cd 48be 5aad 613e
00000120: e4b4 403d e84c bebd 693b b9bc 5ac2 ec3d
00000130: 4522 b33d ffa2 523e 30b7 303e f1a5 efbd
00000140: e602 9e3d ac97 443e e6bb d53c 4d5f 363d
00000150: d3cf 07be 7ccf eebd ffc4 9abd 0f9d 37be
00000160: 3c8c 503e e17b 70bd 915f c73c fe3d e8bb
00000170: fe72 f43d 0f54 993d eadd dfbd 0649 c13d
00000180: b6a3 50be 282c 523e aa39 083e 15b1 a8bd
00000190: 6805 9e3d bffe 12be 01ce 3b3e 42e6 b4bd
000001a0: 88b2 94bd a9a1 14be 023b 393e 18d8 3ebe
000001b0: 1d7b 0fbc 0d87 21bd 6d46 103e 9ff9 31be
000001c0: c4df 373e 925b 46be 2057 0bbd f5e6 22be
000001d0: 02c6 df3d 8a00 3bbe c7ac 203e 60a3 43be
000001e0: bedb 5fbd ad37 253e 3f1a 30be 0a75 e33d
000001f0: f1a4 6a3e 3165 7ebe c2b7 22be c7a4 503e
00000200: 881f 323e 7e95 d2bd 7da8 ef3d 1032 58bb
00000210: b59b 433e db26 1b3e e558 5dbe 024e 89bb
00000220: 0cbe b3bd e62e 8abc df34 db3d 2ad6 1f3e
00000230: f62c 473e 7773 45bd 1f53 b73d 1677 593e
00000240: edca 63be 7049 83bd 91d8 30be 636c a13d
00000250: 33cd c33c 3131 57bd 3661 6dbb eb1d 17be
00000260: d513 10be c799 c7bd cb7f 1e3e f9d7 8a3c
00000270: dbb1 b03d 21bf 973d c9d1 29be 2fe0 bdbd
00000280: d2d5 f2bd 7134 503e 2750 85bc 925c 833d
00000290: 11a1 2bbe 8c17 d13d eb0b afbc 8003 84bd
000002a0: 7213 183e ea06 093d 7a2b f5bd 24a1 1bbd
000002b0: eab6 de3d c3d6 0bbe 2c55 67bb 9bd0 c03d
000002c0: 2753 213d 3d63 05be d2d3 193e 9592 b4bc
000002d0: ca4e 55be ff2f 423e a183 0c3d f27a 163e
000002e0: 103c f33d 02f5 5d3e 8b32 70be 6f9a 79bc
000002f0: b347 ddbc 1e46 d1bd f443 7a3d 3ddc 47be
00000300: e5d8 bfbd eaec f83c 101d 9c3d 0cb4 fc3c
00000310: 09e0 8d3d da63 533e d183 d63d 0264 b33d
00000320: 0a02 41be e220 963d 0194 e93d 27c3 50bd
00000330: 1f3f 863d af26 513e 2086 e6bc 5189 073e
00000340: 7f9c d53d faa3 99bc fa04 4fbe ce54 e93d
00000350: 8144 383e a9f1 903d 2f63 acbd a8f8 013e
00000360: 5208 00bd 492c db3c 1875 9a3d 11a8 183e
00000370: 12e1 81bd 6fb7 d4bd 4411 d0bd d1a2 c83c
00000380: 4e87 1abe c3f7 cfbd 98c2 33be 9578 433e
00000390: 0d63 d7bd 98fe 393e 8076 a03d 514f f03d
000003a0: 70ce b7bd 4366 3a3e 543c 393e 5287 1f3d
000003b0: 1113 fbbd e05b b03c 5d35 55bd c57c 49bd
000003c0: 4638 45be 768a 483e 3f85 c23b 16ab e83d
000003d0: 0d10 febd fbe4 7fbd e083 f33d 190a 08be
000003e0: 3550 683e 79e3 1a3e ff79 cdbd 9d6c 16bd
000003f0: a38d 0bbe 5d59 623d 9495 483e 447b 25bd

fc1.bias f4 [128]
-0.12020133 0.017068308 -0.14928207 0.008811818 0.13990277 0.06855589 0.070626765 0.19730662
0.05925401 -0.0033790872 0.10216479 -0.17486875 -0.054005537 -0.04011587 0.09202507 0.076677874
-0.21001415 -0.02844605 0.1522081 -0.07449993 0.09025397 0.098754205 0.1781836 -0.08801853
0.077180766 0.06335564 0.063734174 -0.18112971 -0.1278027 -0.18468764 0.17060617 0.023166208
0.032159045 -0.05081468 -0.102057 0.10114235 0.19246905 0.1905582 -0.09784439 0.04311736
0.21608853 -0.15153097 -0.18489692 -0.17508769 -0.08932113 0.18045275 0.1872533 0.20075019
-0.14849196 0.05962422 0.12255658 0.20232637 -0.076938026 -0.051953673 -0.19563384 0.022512324
0.19901763 -0.055605553 -0.18576352 -0.020520411 -0.12036631 -0.13698018 0.16502653 0.11954762
0.05019885 0.099867545 0.14250532 0.087462544 0.09670687 -0.08094118 -0.20107794 0.013229109
0.07849602 0.21157092 0.08894346 -0.04214169 -0.14997385 -0.00068216113 -0.113013044 -0.18960868
0.102185994 0.116684295 -0.016498215 -0.017454114 0.22393553 0.18009043 -0.12092542 0.04234424
0.033916432 0.14635037 -0.03773553 0.048690118 -0.15202904 0.11097865 -0.13008983 0.10558487
-0.20519969 -0.21137704 0.20032236 0.086466655 0.16269912 -0.098190874 -0.017154679 -0.20708656
0.060297992 0.20890279 -0.13807188 0.010474146 0.17945185 0.09757451 -0.07573428 0.19925559
-0.18614784 -0.16688475 0.10009105 0.02277219 -0.0034936357 -0.1660569 -0.056959108 -0.07212031
-0.026926126 0.0013302126 -0.19568412 -0.19617389 -0.07292844 0.07174273 0.10265256 0.0075272648
00000000: 1d2c f6bd d6d2 8b3c 66dd 18be 725f 103c
00000010: ac42 0f3e 0867 8c3d c4a4 903d bf0a 4a3e
00000020: 55b4 723d ad73 5dbb c63b d13d cb10 33be
00000030: e934 5dbd 8a50 24bd a477 bc3d 4a09 9d3d
00000040: f30d 57be b107 e9bc 71dc 1b3e 6b93 98bd
00000050: 13d7 b83d a53f ca3d c375 363e 0f43 b4bd
00000060: f310 9e3d 9ac0 813d 1087 823d 117a 39be
00000070: b6de 02be c21e 3dbe 62b3 2e3e 0fc7 bd3c
00000080: 34b9 033d 0e23 50bd 4303 d1bd b823 cf3d
00000090: 9b16 453e b021 433e a462 c8bd d49b 303d
000000a0: 5046 5d3e ef2a 1bbe 9e55 3dbe 304a 33be
000000b0: ffed b6bd 9bc8 383e 54bf 3f3e 7591 4d3e
000000c0: 470e 18be 8738 743d f2fe fa3d a52e 4f3e
000000d0: af91 9dbd 60cd 54bd 3d54 48be c46b b83c
000000e0: 47cb 4b3e a6c2 63bd cb38 3ebe 6c1a a8bc
000000f0: 9d82 f6bd 8844 0cbe b7fc 283e 62d5 f43d
00000100: 4f9d 4d3d 5b87 cc3d eaec 113e 901f b33d
00000110: 400e c63d 7dc4 a5bd 60e7 4dbe e8be 583c
00000120: 85c2 a03d 0ca6 583e fd27 b63d c49c 2cbd
00000130: bf92 19be 0fd3 32ba 6273 e7bd c728 42be
00000140: e446 d13d 2df8 ee3d 4427 87bc eefb 8ebc
00000150: 5b4f 653e a069 383e bfa7 f7bd 2771 2d3d
00000160: f5eb 0a3d dfdc 153e 9290 1abd 4a6f 473d
00000170: 80ad 1bbe c648 e33d 4536 05be e13c d83d
00000180: de1f 52be 3973 58be 4e21 4d3e 6e15 b13d
00000190: 999a 263e 4c18 c9bd f887 8cbc 800e 54be
000001a0: 07fb 763d 9dea 553e b762 0dbe c19b 2b3c
000001b0: 3ac2 373e 25d5 c73d 931a 9bbd a809 4c3e
000001c0: 8a9d 3ebe d6e3 2abe 89fc cc3d be8c ba3c
000001d0: 7bf5 64bb d20a 2abe f44d 69bd d0b3 93bd
000001e0: 2e94 dcbc 875a ae3a 6b61 48be cfe1 48be
000001f0: 825b 95bd daed 923d 813b d23d 46a7 f63b

fc2.weight f4 [128, 128]
0.00015178144 0.06880903 0.039834265 0.09025 0.032105632 -0.052242093 -0.033580787 0.0788443
0.044250254 -0.06932643 0.079623245 0.057581473 0.05553662 -0.014255 0.013058219 -0.039509326
0.036593273 -0.05512952 -0.061866295 -0.013333559 -0.07095539 -0.029573297 -0.013816722 0.034233276
0.032907274 -0.06713439 -0.006595951 0.09132079 -0.07979395 0.047212034 -0.036827434 0.0488166
0.013030332 -0.05803081 0.045163672 -0.025885567 -0.008014397 0.04812425 0.054959435 0.06893667
-0.04644673 -0.003164915 -0.04879757 -0.0624699 0.07221469 -0.055191536 -0.08182666 0.029656153
-0.006203143 -0.07684551 0.035514012 -0.076085016 0.07675452 -0.07968308 0.07276657 -0.008179059
-0.07472853 0.06390909 0.05463016 0.074549906 -0.01968585 -0.050348174 -0.058537588 -0.029470809
0.09297515 0.054226514 -0.036328346 -0.07956489 0.030629164 -0.048214164 -0.081829675 -0.054698016
0.06512125 0.09338367 0.050457597 -0.052736893 -0.060550407 -0.0333579 0.03396446 0.041155785
0.059555747 -0.060223475 0.030958146 -0.06441324 -0.07485439 -0.009332458 0.0012044159 -0.013436348
-0.002975287 -0.046672557 0.058490306 0.029574292 -0.03051012 0.092922166 -0.06226112 -0.023173008
-0.0017792877 -0.057736333 0.005786644 -0.0027154686 -0.065391034 -0.026847815 -0.013131677 -0.087376945
-0.0021776955 -0.008926192 -0.009711188 0.028668188 0.07601608 0.042692922 -0.06578429 0.06702067
-0.013805716 0.054091655 0.03248358 0.05756853 0.07199191 0.020511301 0.08831742 -0.006066658
-0.055412836 -0.03335943 -0.06535398 -0.05544771 -0.0131465625 0.07435503 -0.07184395 0.049441524
-0.08009271 -0.02167997 0.047643024 -0.0047208695 -0.090205096 0.017584983 -0.07013422 0.056095365
-0.06594423 -0.020440541 -0.015537087 -0.06371412 -0.008999422 -0.065739356 0.0885389 0.049687963
0.04256464 0.07364899 -0.04131649 -0.06909503 -0.033813935 -0.06914563 0.10539193 0.0015186456
-0.007958001 0.03714932 -0.05668827 0.03575757 0.09854962 0.038281072 0.017231673 -0.036593605
0.016362252 0.034217753 -0.04781003 -0.043499652 0.09092808 0.08045389 -0.062179383 -0.0021428317
0.095305204 -0.056141112 0.038780864 0.0018493247 0.00358837 -0.016768893 0.039536778 0.038664628
-0.06456617 0.0913856 0.07718514 0.017072247 0.027547957 0.011220814 -0.010527222 -0.020041341
-0.035823368 0.0042240485 -0.03991738 -0.04383804 0.04499197 0.04145925 0.09112009 -0.01364881
-0.042622976 -0.015820287 0.006364813 0.00062804343 0.08284109 -0.0466374 0.06557755 -0.02738146
-0.064256094 0.053678006 0.011274572 0.08940842 -0.065142974 0.02863366 0.018351506 -0.02071536
-0.080840886 0.018063175 0.07106336 0.03334144 -0.055497244 0.042737037 0.0708277 0.027647857
0.013606851 -0.06841772 -0.034609266 0.047528643 0.080178574 0.025611853 0.05851406 0.04263718
-0.040398996 -0.06006722 -0.012466286 0.057170346 0.026282208 0.105415285 0.01606675 0.09558091
0.06978388 0.05062214 -0.0061972397 -0.069079384 -0.06767335 0.09251637 0.034138337 0.05471332
0.020078316 0.057647556 0.07702002 0.041120484 -0.02701336 -0.05986673 0.04585679 0.05536026
-0.0200517 -0.024549114 -0.092770375 -0.06935095 -0.006704436 0.07175341 0.06627409 0.06010087
00000000: 8527 1f39 c0eb 8c3d 4129 233d fed4 b83d
00000010: 3281 033d cefb 55bd 028c 09bd 1f79 a13d
00000020: c13f 353d 04fb 8dbd 8311 a33d 8dda 6b3d
00000030: 5e7a 633d ce8d 69bc 24f2 553c 88d4 21bd
00000040: d4e2 153d 7ecf 61bd 8367 7dbd 0075 5abc
00000050: 0f51 91bd b343 f2bc 885f 62bc 3138 0c3d
00000060: c7c9 063d c17d 89bd d922 d8bb 6506 bb3d
00000070: 036b a3bd 6861 413d 5dd8 16bd eaf3 473d
00000080: 2c7d 553c b7b1 6dbd 8bfd 383d f80d d4bc
00000090: d14e 03bc ef1d 453d 251d 613d ab2e 8d3d
000000a0: ed3e 3ebd 766a 4fbb f6df 47bd 70e0 7fbd
000000b0: 4ce5 933d 8510 62bd bc94 a7bd 76f1 f23c
000000c0: bc43 cbbb 2e61 9dbd 2477 113d 76d2 9bbd
000000d0: 7931 9d3d e230 a3bd a406 953d 7601 06bc
000000e0: 460b 99bd c5e2 823d e0c3 5f3d 9fad 983d
000000f0: 3844 a1bc e339 4ebd 1cc5 6fbd c46c f1bc
00000100: c169 be3d 9f1c 5e3d 08cd 14bd ebf2 a2bd
00000110: 03ea fa3c 377c 45bd 5196 a7bd 070b 60bd
00000120: 4a5e 853d f03f bf3d a0ac 4e3d a402 58bd
00000130: b403 78bd 4ba2 08bd 511e 0b3d f892 283d
00000140: baf0 733d e4ac 76bd f09b fd3c 17eb 83bd
00000150: 424d 99bd 2ae7 18bc 7edd 9d3a 2124 5cbc
00000160: 08fd 42bb b92b 3fbd 8893 6f3d c945 f23c
00000170: 5cf0 f9bc fa4d be3d 8405 7fbd 52d5 bdbc
00000180: fd36 e9ba ef7c 6cbd e39d bd3b 01f6 31bb
00000190: bceb 85bd f3ef dbbc 3f26 57bc aff2 b2bd
000001a0: abb7 0ebb 2a3f 12bc ad1b 1fbc 8cd9 ea3c
000001b0: 52ae 9b3d c6de 2e3d eab9 86bd 2242 893d
000001c0: 5f31 62bc 368f 5d3d 810d 053d fbcc 6b3d
000001d0: 7f70 933d 5107 a83c c3df b43d d1ca c6bb
000001e0: 92f8 62bd e6a3 08bd 4fd8 85bd 231d 63bd
000001f0: ae64 57bc 7347 983d ec22 93bd 3283 4a3d
00000200: a607 a4bd 319a b1bc 5525 433d 86b1 9abb
00000210: 73bd b8bd 620e 903c 88a2 8fbd 41c4 653d
00000220: c50d 87bd ec72 a7bc 448f 7ebc 8c7c 82bd
00000230: 5072 13bc 5ba2 86bd e253 b53d 9b85 4b3d
00000240: 4358 2e3d 48d5 963d 7b3b 29bd b281 8dbd
00000250: 7b80 0abd 399c 8dbd b9d7 d73d 4a0d c73a
00000260: 4762 02bc e329 183d f631 68bd 8876 123d
00000270: 62d4 c93d 9dcc 1c3d 7029 8d3c 2de3 15bd
00000280: 210a 863c ea27 0c3d 73d4 43bd b12c 32bd
00000290: 8038 ba3d 02c5 a43d cfaf 7ebd c06e 0cbb
000002a0: 602f c33d 39f4 65bd afd8 1e3d 0a65 f23a
000002b0: dc2a 6b3b eb5e 89bc 51f1 213d cd5e 1e3d
000002c0: 453b 84bd 6028 bb3d 3e13 9e3d 19db 8b3c
000002d0: 41ac e13c 81d7 373c 5f7a 2cbc bd2d a4bc
000002e0: 86bb 12bd e369 8a3b 6880 23bd 848f 33bd
000002f0: 8049 383d 2dd1 293d 2b9d ba3d 429f 5fbc
00000300: 6e95 2ebd 8c99 81bc ec8f d03b 48a3 243a
00000310: 97a8 a93d dc06 3fbd 864d 863d 154f e0bc
00000320: b398 83bd 78dd 5b3d fcb8 383c c31b b73d
00000330: ae69 85bd 2391 ea3c e655 963c 42b3 a9bc
00000340: e88f a5bd 39f9 933c ab89 913d 0991 083d
00000350: 1451 63bd 080d 2f3d 1d0e 913d c27d e23c
00000360: 45ef 5e3c 971e 8cbd 72c2 0dbd 65ad 423d
00000370: aa34 a43d f3cf d13c 70ac 6f3d 53a4 2e3d
00000380: 6b79 25bd 0c09 76bd 653f 4cbc 742b 6a3d
00000390: c94d d73c f8e3 d73d 6b9e 833c edbf c33d
000003a0: daea 8e3d 2959 4f3d 3712 cbbb 7e79 8dbd
000003b0: 5398 8abd 3979 bd3d a4d4 0b3d 131b 603d
000003c0: 487b a43c d81f 6c3d acbc 9d3d f46d 283d
000003d0: 1f4b ddbc d136 75bd 54d4 3b3d 71c1 623d
000003e0: 7643 a4bc 391b c9bc 65fe bdbd df07 8ebd
000003f0: e3b0 dbbb 74f3 923d b6ba 873d 542c 763d

fc2.bias f4 [128]
-0.0034057589 0.05230704 0.073972374 0.010469969 0.07896764 0.08511973 0.07625271 0.07458668
0.052178618 -0.009324248 -0.06768212 -0.0067290803 0.023435319 0.057424452 -0.0005867014 -0.03346129
-0.015504099 0.052941024 -0.03409463 0.008133226 0.06370244 -0.03147451 0.051156767 -0.021444881
0.07075211 -0.05780945 -0.08955109 0.018767178 -0.04919317 0.03783675 -0.011782939 -0.08138845
0.02894245 0.066121615 -0.043991342 0.0061098654 -0.07269666 -0.04127666 0.057327613 0.012092459
0.04947886 0.06522271 0.08295592 -0.008794493 0.05171034 0.057791054 -0.028505022 -0.07133536
0.027595755 -0.06565601 0.02175532 0.024027515 0.077001214 0.056354165 -0.00817436 0.06374958
0.031353958 -0.017766718 -0.058227498 -0.08202269 0.073899575 -0.027645864 -0.0118573895 0.07871847
0.07476259 -0.054565698 0.015449469 -0.08363958 -0.06116317 0.006047421 0.016603166 -0.06825375
0.00625999 0.04144316 -0.0017749284 -0.043930914 -0.05973488 -0.07623487 -0.039908294 -0.07551924
0.064330965 0.018366802 -0.06504279 0.016116645 -0.033080555 -0.015344621 0.05732644 0.06653486
-0.03089758 0.036159325 -0.08672419 -0.07009274 -0.039874975 0.030338421 0.08224615 -0.047085997
-0.068326384 -0.068176135 -0.040278398 -0.016160088 0.05130193 0.02348463 -0.007054005 -0.08493123
-0.067380324 -0.018226968 0.039729975 0.07533494 -0.0020427257 0.01472782 -0.04719771 0.07780228
0.0012405495 0.02911055 0.014633566 0.09511664 -0.013828012 -0.016905893 0.038653385 0.07234226
0.046965115 -0.051718704 0.0019741163 -0.07124996 0.02695818 -0.00778303 -0.0051310197 0.07048968
00000000: 2733 5fbb e83f 563d d47e 973d 3c8a 2b3c
00000010: c9b9 a13d 4153 ae3d 612a 9c3d e7c0 983d
00000020: 3fb9 553d bbc4 18bc ec9c 8abd 9e7f dcbb
00000030: 6dfb bf3c e735 6b3d ddcc 19ba b50e 09bd
00000040: e804 7ebc b0d8 583d d0a6 0bbd 3941 053c
00000050: 6d76 823d 6aeb 00bd c289 513d 2dad afbc
00000060: 7be6 903d 9ac9 6cbd 9066 b7bd a0bd 993c
00000070: c77e 49bd b5fa 1a3d 3a0d 41bc fdae a6bd
00000080: b818 ed3c c56a 873d 4430 34bd 4435 c83b
00000090: fde1 94bd b711 29bd 5cd0 6a3d 731f 463c
000000a0: 58aa 4a3d 7c93 853d cbe4 a93d c716 10bc
000000b0: 39ce 533d 50b6 6c3d 5d83 e9bc 4618 92bd
000000c0: 7e10 e23c a876 86bd 3638 b23c 5ad5 c43c
000000d0: d0b2 9d3d a0d3 663d c0ed 05bc 248f 823d
000000e0: 026d 003d 828b 91bc f57f 6ebd 83fb a7bd
000000f0: a958 973d 9479 e2bc 7f45 42bc 2637 a13d
00000100: 211d 993d 4880 5fbd c51f 7d3c 3a4b abbd
00000110: 3b86 7abd 7229 c63b 5d03 883c 9fc8 8bbd
00000120: 9a20 cd3b 4ec0 293d b7a4 e8ba e7f0 33bd
00000130: 90ac 74bd 0721 9cbd e176 23bd d5a9 9abd
00000140: f4bf 833d fa75 963c 2735 85bd 0e07 843c
00000150: 7a7f 07bd 0168 7bbc 21cf 6a3d 6e43 883d
00000160: ec1c fdbc cd1b 143d 749c b1bd c88c 8fbd
00000170: f153 23bd 4888 f83c ab70 a83d 3fdd 40bd
00000180: b4ee 8bbd ee9f 8bbd f6fa 24bd 2962 84bc
00000190: f921 523d d762 c03c 4825 e7bb 6df0 adbd
000001a0: b2fe 89bd b950 95bc e6bb 223d 3449 9a3d
000001b0: 40df 05bb f44c 713c 6352 41bd cd56 9f3d
000001c0: ef99 a23a 4079 ee3c a0c1 6f3c 83cc c23d
000001d0: e38e 62bc 3a7e 8abc 0353 1e3d 2e28 943d
000001e0: 7e5e 403d fed6 53bd 2d60 013b 80eb 91bd
000001f0: 67d7 dc3c ca08 ffbb 1d22 a8bb e55c 903d

reg_head.weight f4 [1, 128]
-0.061759707 0.09130651 -0.08623644 0.10019677 0.07440767 -0.06985916 0.11137968 0.05331651
-0.08321716 0.111520104 0.086573765 0.123052195 -0.04614915 0.07869344 0.09037723 -0.09218732
0.069916755 -0.10590212 0.082798384 -0.08143269 -0.092090726 0.089709185 -0.063947976 0.053652227
0.08176783 -0.020815507 -0.02950198 -0.10205133 -0.037417106 0.06616523 -0.08501829 0.025658421
0.07809857 0.059347637 0.06132613 0.107704416 -0.04064806 0.096534416 0.03668343 -0.03662356
-0.122420184 0.086329706 0.08829849 -0.102250494 0.05541303 -0.10722049 -0.07051822 -0.030890547
0.103415504 -0.04503133 0.036610037 0.07273842 -0.06421839 0.06347876 0.072035335 0.029181343
0.014944239 -0.036319043 -0.08142101 -0.0710628 -0.04976222 -0.063364916 0.062482394 0.10552534
-0.08137331 -0.06703634 0.043670136 -0.026758438 0.113379955 0.06834828 -0.04826781 -0.08757603
-0.11712956 0.06794447 0.03594086 -0.05093582 0.039460376 -0.082150064 0.115799285 -0.026683005
-0.035235845 -0.0635785 -0.10536781 -0.12649597 0.085593596 -0.09671765 -0.03188457 0.06879849
-0.061998907 -0.09920289 -0.06735374 0.07907338 0.10326569 -0.115321614 0.07069209 0.06361576
-0.067691945 0.026980955 -0.055803973 0.11591009 -0.05345598 0.02595189 0.09669813 -0.15170029
0.010948855 0.0011295544 -0.012978983 0.061154626 -0.08966187 -0.103587344 0.08927424 -0.10268018
0.029408053 -0.055004623 -0.06436583 0.10820453 0.07984458 -0.08193536 -0.0279911 -0.072234705
-0.124565095 0.10769008 0.082062244 0.06723675 0.101164624 -0.041426722 -0.11323308 0.08616307
00000000: bff7 7cbd e8fe ba3d bb9c b0bd f733 cd3d
00000010: 0c63 983d 5212 8fbd 081b e43d 6a62 5a3d
00000020: c26d aabd a764 e43d 964d b13d ca02 fc3d
00000030: e406 3dbd 072a a13d b217 b93d b5cc bcbd
00000040: 8430 8f3d 36e3 d8bd 3392 a93d 2fc6 a6bd
00000050: 109a bcbd 73b9 b73d 28f7 82bd 70c2 5b3d
00000060: e475 a73d 4885 aabc 23ae f1bc 4a00 d1bd
00000070: ae42 19bd a381 873d 121e aebd 9c31 d23c
00000080: 25f2 9f3d 8216 733d 1c31 7b3d 2294 dc3d
00000090: 957e 26bd d6b3 c53d 5d41 163d 9602 16bd
000000a0: 6fb7 fabd a1cd b03d d7d5 b43d b568 d1bd
000000b0: c6f8 623d 6b96 dbbd db6b 90bd 2c0e fdbc
000000c0: 82cb d33d c672 38bd 68f4 153d e1f7 943d
000000d0: ee84 83bd 2701 823d 4387 933d b60d ef3c
000000e0: aed8 743c 47c3 14bd 0fc0 a6bd 6089 91bd
000000f0: 78d3 4bbd 77c5 81bd 8aed 7f3d ab1d d83d
00000100: 0da7 a6bd 594a 89bd 75df 323d 8334 dbbc
00000110: c033 e83d 2ffa 8b3d 78b4 45bd 105b b3bd
00000120: 9fe1 efbd 7826 8b3d b936 133d 14a2 50bd
00000130: 34a1 213d 4b3e a8bd 2d28 ed3d 5196 dabc
00000140: 7653 10bd 7235 82bd 14cb d7bd 2988 01be
00000150: b24b af3d e713 c6bd 6599 02bd 39e6 8c3d
00000160: 91f2 7dbd e32a cbbd c2f0 89bd 39f1 a13d
00000170: f67c d33d bd2d ecbd 04c7 903d fb48 823d
00000180: 13a2 8abd 2a07 dd3c b592 64bd 4562 ed3d
00000190: a8f4 5abd 0f99 d43c ab09 c63d 5257 1bbe
000001a0: d462 333c 8e0d 943a cda5 54bc 467d 7a3d
000001b0: a4a0 b7bd 9a25 d4bd 6ad5 b63d fc49 d2bd
000001c0: 28e9 f03c 874c 61bd 3bd2 83bd 569a dd3d
000001d0: 8e85 a33d bacd a7bd 974d e5bc caef 93bd
000001e0: fc1b ffbd 9e8c dc3d 4010 a83d 6cb3 893d
000001f0: 662f cf3d 11af 29bd bfe6 e7bd 4376 b03d
