grasp_placement/models/run_seed_2375/stability_net.pth (torch, 80580 bytes, 5 tensors)

fc1.weight f4 [128, 21]
00000000: 5a17 713e 57d9 3d3e af21 65bd f977 d63d
00000010: 9750 bdbd e3ab 1dbe 3f02 013e 2525 a13d
00000020: 57e3 e23d 358f 2f3d 9ec9 dbbd eaa8 01be
00000030: a191 f73c 99f7 dcbc 44c3 2f3e a328 323c
00000040: 5e94 2cbe 1829 38bb 7d8d 363e 280b 15bd
00000050: be5c 9abd 3b34 41be f903 14be 80e8 38be
00000060: a6ee 383e dff5 8bbd 23a3 acbd 332f 25be
00000070: 2d25 30be b55d 8dbd 16f6 ff3d 41cc 5d3d
00000080: 1dcb a5bd c68d 4dbe 7d80 aebd 6a6b 05be
00000090: 6271 263e d889 0dbd ff2a 3abe a3a0 753d
000000a0: 84cf 11be b139 2d3e 78d7 e9bd 3294 153d
000000b0: 47e1 bf3d 6d97 f5bc 0eb1 3bbe dc22 003d
000000c0: ed05 4e3d fffa 663d 812e 9c3b 8d64 aa3d
000000d0: 07d8 5f3d 3e9b 9cbc 0b80 1bbe fad2 2bbe
000000e0: c147 6b3e f5b8 463e 0235 3e3e a571 533e
000000f0: b2a4 3fbc 92ca edbd 6d50 b03b 7abb a3bd
00000100: 914f 2e3e 8046 0dbe 6c79 62be 4a87 633d
00000110: ebad cbbd b365 29be 9a3c 533d d63e 4f3e
00000120: b98f e9bd 49fb 9bbd bf01 cabd 315e f53c
00000130: 829a 143e fcfc a3bd 63e1 4c3e d405 183d
00000140: 6b29 593e f4f2 58be f857 743d 2385 f33c
00000150: c8dd c03c 66db cabd 7755 b23d fc63 563e
00000160: 0e1e 1bbd fb24 afbc d847 53be ff1a 923d
00000170: 6d55 da3d a887 873d b893 163e c802 66be
00000180: 804f 3cbd 67cf e93d 5b7a 143e 4a5b 393e
00000190: 5a25 b73d fe68 3cbd d698 dcbc 43c5 0f3d
000001a0: 0d5f af3d a90d 853d 1d90 7e3c d1ca 67be
000001b0: 0805 073e d7e6 45be b1f6 21bb c53d 343e
000001c0: e61c 2abe a2c9 623d 60b3 353d 1e71 97bd
000001d0: 8d48 263e bae3 09bd 0270 3ebe 1d9b c33c
000001e0: 9b4b 1c3e 1b2f 293d dc74 8d3d 75b6 3fbe
000001f0: b767 d83d f0d3 42be eb37 aa3d 5656 e2bd
00000200: 3e80 ff3d 27f9 123d b7ea 673d 1983 23bd
00000210: 8eff 9f3d 25b7 0c3e cbb2 1c3e cf2e d83b
00000220: f213 0f3e f8c1 463e 9e8d 03be b7c0 05be
00000230: 7740 2abe f559 ffba 9754 63be 92ab 0a3e
00000240: a35b e93d 99fe 01be 5414 7abc 2215 4e3e
00000250: bd56 45be d3ad c93c 9ca6 24be 27fe be3c
00000260: f7f2 a9bd 6fa3 873d 5480 6ebd 3577 fc3d
00000270: 9ce5 b6bd f5fb c9bd 42ce 983d 1343 a4bc
00000280: 662c 103e 620a a9bc a9f9 29bc 6a26 c5bc
00000290: f5f6 393e dcbd 8e3d 83f1 363e a77e ffbd
000002a0: a0ac cebd ee4d ccbd 4bc2 3a3e 0646 a43b
000002b0: 39cd 18be 6510 b33d ad80 99bb beed 8d3c
000002c0: 2115 cebd 71d5 36be 7187 273d 1235 08be
000002d0: 8546 5ebd b6b3 883d f3c1 bebc 86a6 24bd
000002e0: d9cb 5a3d 39ee 1b3e 9c11 47be 9392 ad3a
000002f0: 9d2f bebd bb20 78bc 4e06 0c3e 7d20 83ba
00000300: e88a 2cbe 7af7 763e e559 16be 7d03 6dbd
00000310: ef64 513e 3d76 e5bc de1f 9d3d 47cb 68bd
00000320: 05d3 873c 8db0 50be 99cb 2bbe ecea d4bc
00000330: 96ec 433c ee22 a6bd 5d8b 863c ee37 9ebd
00000340: 063e 3a3a c260 5e3c 6f17 64bd 1412 1d3e
00000350: e9d5 ab3d 19a6 3bbd a23b 0cbe 02ad 803d
00000360: 28a3 dbbd 6ce0 61bd 3bba 1bbe b14d 4e3c
00000370: 7008 1c3e de00 6fbc 4b66 643e 8eef f7bd
00000380: 2421 a63d affd bfbb 32d5 023e b6a0 f4bc
00000390: 3786 2b3d c6cd ad3d 4ff1 05be 92e2 3dbe
000003a0: ef13 6b3d 9620 143d b1e0 3e3e 9349 5e3d
000003b0: de1d d1bd 7a1a c53d 60d4 1d3d 7ef7 14ba
000003c0: 46c5 533e ccac b4bd 993b cf3d bbc1 d23a
000003d0: f99f 333e 8747 99bc 4e23 4dbe a47b b0ba
000003e0: 5fa8 473e 1f01 4c3e 9a32 3e3d e769 6b3e
000003f0: da41 423e 354b 5bbd 9137 e23d 2182 04be
0.23544064 0.1853994 -0.055940326 0.10472102 -0.09243887 -0.15397601 0.12598513 0.07868413
0.11078518 0.042861182 -0.10731815 -0.12662092 0.030220808 -0.026973533 0.17164332 0.010873946
-0.16853473 -0.0028100666 0.17827411 -0.036387593 -0.075372204 -0.1886758 -0.1445464 -0.18057442
0.18059787 -0.068340056 -0.08429553 -0.16131286 -0.17201681 -0.06902639 0.12498109 0.05414987
-0.080953814 -0.20073614 -0.08520601 -0.13029256 0.1625419 -0.034555286 -0.18180464 0.05996765
-0.14239317 0.16916539 -0.114180505 0.036518283 0.0936914 -0.029979432 -0.1832926 0.031283244
0.05029862 0.056391712 0.004766286 0.0831996 0.05464938 -0.019116994 -0.15185563 -0.167797
0.2297659 0.19406493 0.18574908 0.2064882 -0.011696981 -0.11610903 0.0053806813 -0.07994743
0.1702254 -0.13796425 -0.22116631 0.055548944 -0.099452816 -0.16542701 0.051571466 0.20238814
-0.11404366 -0.07616288 -0.09863614 0.02995214 0.14512065 -0.08007237 0.20007853 0.037114933
0.21207206 -0.2118643 0.059654206 0.02972657 0.023543254 -0.09905128 0.087077074 0.20936579
-0.03787046 -0.021379938 -0.20632875 0.07134055 0.10660825 0.06617671 0.14704788 -0.22461998
-0.045974255 0.11416512 0.144998 0.1810123 0.08942671 -0.045998566 -0.026928347 0.035100233
0.085630514 0.06496746 0.015537289 -0.22635962 0.13185513 -0.1932634 -0.002471369 0.17601688
-0.16612586 0.055368073 0.04436052 -0.07394622 0.16238613 -0.033664443 -0.18597415 0.023877675
0.15263216 0.04130469 0.06907055 -0.18721946 0.10566657 -0.1902616 0.08311447 -0.110516235
0.12475632 0.03588214 0.056620326 -0.039919946 0.07812415 0.13741739 0.15302579 0.006597377
0.13972452 0.1940993 -0.12846991 -0.13061796 -0.16626154 -0.0019481765 -0.22200237 0.13542011
0.113944314 -0.12694778 -0.015263636 0.20125249 -0.1927137 0.024619019 -0.16079181 0.023314549
-0.08298295 0.06622969 -0.058227852 0.123274244 -0.08930513 -0.0986251 0.074612156 -0.020051515
0.14079437 -0.020634834 -0.010374465 -0.024066169 0.18160613 0.069698066 0.17865567 -0.12475329
-0.10091519 -0.099758014 0.1823818 0.0050132303 -0.14922036 0.087433614 -0.004684529 0.017325278
-0.10062624 -0.17854859 0.04090065 -0.13301495 -0.05426647 0.06674902 -0.023285842 -0.04019787
0.05341706 0.15227593 -0.19440311 0.0013242535 -0.09286425 -0.015144522 0.1367428 -0.0010004189
-0.16849864 0.24117842 -0.1468273 -0.057864655 0.2044866 -0.028010482 0.07672094 -0.056834485
0.016580114 -0.20379849 -0.16776885 -0.025990926 0.011958262 -0.08112131 0.016423875 -0.077255115
0.0007104579 0.013572874 -0.05568641 0.15338928 0.083904095 -0.0458127 -0.13694623 0.062829986
-0.10724479 -0.055145666 -0.1520776 0.012591765 0.15237594 -0.014587609 0.22304647 -0.12106238
0.0811179 -0.005859099 0.1277664 -0.02986179 0.041876044 0.08486514 -0.13080333 -0.18543461
0.057392057 0.03616389 0.186404 0.054269385 -0.10210775 0.09624191 0.038532615 -0.0005682631
0.20680723 -0.08822021 0.10118789 0.0016079465 0.17541493 -0.018710865 -0.20032999 -0.0013464582
0.19497822 0.19922303 0.046434976 0.22989617 0.18970433 -0.05353852 0.11045755 -0.12940265

fc1.bias f4 [128]
00000000: 5bef 7f3e 2c44 fe3d 2465 00be 9784 b13d
00000010: fbcb 0dbe a2cf 11be 6b33 e23d db18 01bb
00000020: a300 283e 0c10 0dbe ed0a 173d 9c1d ee3d
00000030: 54bc a2bd ecee 00be 5077 26be 2c82 4ebd
00000040: e419 173e d129 2e3d 4afa 44be 3a69 6abd
00000050: bbf4 d53d 11f1 c3bd 7c95 703d d36a d6bd
00000060: 588e 0e3e 8766 6c3c 4642 50be b0b5 28be
00000070: 53b2 91bd 801a 10bd 150c 123d 9103 b13c
00000080: 82a3 04be ef01 2d3e d77c bd3d b3e1 e5bd
00000090: be8a 313e 9c37 363b fd06 24bd eee6 bf3d
000000a0: 6347 413e 74c7 573d 1dce 523e f2e0 483e
000000b0: 3e7a 3f3c 02e2 80bd db8d 083e 3cbb 473d
000000c0: 4a76 73bd 6681 5bbe 40ab 28be 99ed 86bd
000000d0: 359f 973d f195 0e3b c9df 90bd 13b6 0c3e
000000e0: 4b97 88bc 1ee6 ecbd efef e8bd c122 3c3d
000000f0: 7786 c33d 7e51 b7bd bd86 27bc e805 263e
00000100: d14d 1bbe 7f1a 3f3e 7f8c 073e 04da 683d
00000110: 1c40 04be a627 81bd 8bb1 8b3d 900e 03be
00000120: 09c2 653e c2bd 473c a1ec 4b3e 10d7 263c
00000130: 2f41 843d 70b8 cd3d 61ed c2bd 5cd2 5e3e
00000140: 8d3d 643e 93dd 00be 45b4 38be 1902 593e
00000150: 7e5f b83d 54f9 f2bd 56c1 7dbd 1894 343d
00000160: 26b3 463e d7e4 003e 18cf 6ebd 0164 263e
00000170: ac4e e7bc 0bd5 a1bd 4847 653e cdff f5bd
00000180: 74b6 dcbd 1c3b dcbc e365 2fbe 2d6a f0bd
00000190: 000c 243e 9a57 3abd 3f07 06be 6620 253e
000001a0: 8949 40be 5836 343e af37 15be 2d8d 2bbe
000001b0: fd7d d0bd 1c78 693e cbeb 493c ff15 cf3c
000001c0: 7003 613e 5893 4f3e 4d86 cfbd 9f10 3f3c
000001d0: d27f 2cbe a814 193e 188b 2fbd 8be8 2b3d
000001e0: 8fd1 dcbd f136 5539 3a6b b93d 962b 23be
000001f0: 2677 553d 3baf ccbd c913 d4bc 8fc9 ba3d
0.2499365 0.124153465 -0.12538582 0.08667868 -0.13847344 -0.14239362 0.110449634 -0.0019698653
0.16406493 -0.13775653 0.036875654 0.11626741 -0.07946077 -0.12591141 -0.16256452 -0.05041711
0.1475597 0.042520348 -0.19236103 -0.057229258 0.10447069 -0.09567464 0.05873631 -0.10469594
0.13921487 0.014428741 -0.20337781 -0.16475558 -0.07114091 -0.035181522 0.035656054 0.021608146
-0.12952998 0.16895269 0.09252327 -0.11224689 0.17338082 0.0027804142 -0.040045727 0.09370218
0.18874888 0.052680448 0.20586438 0.1961706 0.01168686 -0.062931076 0.13335364 0.048762545
-0.05943898 -0.2143608 -0.16471577 -0.06588287 0.07403413 0.0021756853 -0.07073934 0.13741331
-0.016673705 -0.11567329 -0.11373889 0.04593158 0.095471315 -0.0895109 -0.010224995 0.1621319
-0.15166403 0.18662451 0.13237189 0.05684854 -0.12915081 -0.063063905 0.06820973 -0.12798524
0.224373 0.012191238 0.19914486 0.010183111 0.06457745 0.10044944 -0.09517933 0.21759933
0.22289105 -0.12584524 -0.18037517 0.21192206 0.09002589 -0.11863962 -0.061951958 0.044086546
0.19404277 0.12587295 -0.05830297 0.16249086 -0.028235756 -0.07901963 0.22390473 -0.12011681
-0.10776988 -0.026883654 -0.1712871 -0.117390014 0.16020203 -0.0454937 -0.13088702 0.1612564
-0.18778051 0.17598855 -0.14572023 -0.16753073 -0.1018028 0.22799724 0.012324284 0.025279043
0.21973968 0.20271051 -0.10133038 0.011661678 -0.16845635 0.14949286 -0.04285726 0.041969817
-0.10782158 0.0002033373 0.09053655 -0.15934595 0.052115582 -0.0999436 -0.02588834 0.091204755

fc2.weight f4 [128, 128]
00000000: 8780 4d3d 9298 a4bd c842 a6bd 9c17 d8bc
00000010: cd0f 8cbd a4a9 ac3d fbe4 ebbc 7719 433c
00000020: 7abc 9cbd c177 0abd 59dc f7bc 90ec 8b3d
00000030: 689c d53c b318 3e3d b4eb 353c fcfa 8c3d
00000040: b157 a83c 8dea a43b 52a6 3f3c 8d8e 8c3b
00000050: fab1 f33c 99ab 88bd 07f0 583d 4f26 b0bd
00000060: 540c 103d 1a99 853c 77e8 cabc 4b0c 30bd
00000070: 95d2 7b3d b9a7 1dbd 06fb 60bb 4c8b 5ebc
00000080: 0c0b 75bd 7cfe d0bd 6810 953d 3b85 9f3d
00000090: ff39 9a3d 835a 2bbb 2a12 1bbc 1b1c 083d
000000a0: 4a6c 2d3d c0d8 d0bb 5932 b53d 896b a5bd
000000b0: 16e2 ce3c d319 bf3c 36de b1bc 71cd 4b3d
000000c0: 8866 c7bd 0862 adbc 6b40 11bd 0153 c5bd
000000d0: af5f 8dbd 5f87 b5bd 4f3f a73d 354c b83c
000000e0: cea7 893c fb4c 69bd 3dbc 713c d0e9 ae3d
000000f0: 5b57 4cbd 63f9 353d af8f 613b 29fb 13bd
00000100: fce9 3f3d 88e7 8dbd 91de 5bbd 7e42 56bd
00000110: 3c34 6c3d b2ae 953c fd11 f2bb ae50 32bd
00000120: 984e 8cbd 4643 6c3c 32b4 4c3d 882b ab3c
00000130: 3d5b 81bd 1869 99bd 8fd8 abbd 264f 79bd
00000140: 51ff a4bd be84 943c 0baa 62bd 1d25 03bb
00000150: 17a5 71bd 1be0 e53c a64f 5a3d 7fe2 c4bc
00000160: 88f1 8abd a75f 163c b02b 883c ba82 3f3d
00000170: cf6f bc3d 6506 be3d d194 e63c 718f 6ebc
00000180: 8de4 8c3d 8cb2 ebbb ecf7 adbd 673e a7bd
00000190: 48b1 9b3d 307c 25bd 419c 94bd 4b55 23bc
000001a0: 6fab 99bd 145e 49bd 2e00 333d e117 db3d
000001b0: a9dd 3bbd e027 993d c033 b33c 527f 23bd
000001c0: d87e 97bd c109 533c 613f 9fbc d4f8 543c
000001d0: ae25 b2bc 48a2 93bd 8377 54bd 2b6a 033d
000001e0: 76aa 4abd 9a34 d73b 3c3d 1ebc 67ab a23d
000001f0: 5573 32bd f4ba 01bd e756 18bd 1a09 86bd
00000200: 3814 c83a c2d8 15bd 3d85 75bd a703 45bd
00000210: 74f0 6cbc b3c7 af3c 536a b8bb 594c 62bc
00000220: 7c09 bebc 2d12 b63d be7b 943d 9fab b73d
00000230: 2a2d 673d 9ebe 463d 063e 483d 3f1c 623d
00000240: f0df 37bc 3a73 333d 55f3 aebb d48b bf3d
00000250: eebc 073b c603 8ebd 7a28 10bd cdcf c9bc
00000260: 4fab 8c3d 1603 7e3c a5f1 9cbd dead 37bc
00000270: 293f 4bbd b9e8 ff3d 430c d2bc 3fc8 c3bd
00000280: e522 023d c40f 30bd 3bac 95bc 794c 063d
00000290: 7295 443d 5fa6 613d 11b0 7abd b864 37bd
000002a0: 00f6 71bd d21b 273e e4f7 a2bd 7033 c9bc
000002b0: 3622 973c 8364 e2bc 9904 693c faae c33d
000002c0: b72b 6abd 3b9f f23c ab79 3cbc f998 ef3d
000002d0: 716d 87bc ce29 3bbd 8e7e ac3d 466b 373c
000002e0: 0068 ac3d b6d8 cbbc 85a1 c4bd 5750 4b3d
000002f0: a9b1 b4bc 199e 86bd 18cf 1bbd 8847 74bd
00000300: 2bba d93b 339e 9e3d 1b3e 253c 69bd 5a3d
00000310: d3e6 ae3c efff f3bd c860 1d3d 6d7b 993d
00000320: 482f edbc ab41 09bd d0e3 ae3c 8cc9 e43c
00000330: aa49 553d 483a b33d 6a29 43bd 06e5 43bd
00000340: a0b8 afbc 4cd9 923d efc7 883d 819d ddbd
00000350: c99a 9abd 792e d03b 3f20 353d c02b 5b3c
00000360: bd73 193d 8e47 913d bdbc 473d 0ed4 b9bd
00000370: 5051 843d 782c 2fbd 2cb4 ac3d a977 9dbd
00000380: 7c5e b4bd 8963 a63d db53 bb3d 244b 4bbc
00000390: 80ef 0cbd f339 41bd 5d20 b2bc 90b3 a83d
000003a0: 65f8 33bc 003f 793d 7c36 513c 4139 d43d
000003b0: 3bd0 f83c e9ab 91bc 4d05 b3bc 488f 18bd
000003c0: 34f9 b43d d701 cf3b 2cee ca3a abdf 19bd
000003d0: e457 6f3d 3e3e 8b3d 4175 43bd 1fdf ecbc
000003e0: ca6b 593c d643 a2bd 7be6 ae3d 7953 883d
000003f0: a3b7 ec3c aa6b a43c 4f6e f63d 6d78 2c3c
0.0501714 -0.08036913 -0.08118206 -0.026378445 -0.06838951 0.08430794 -0.02879571 0.011907927
-0.076531366 -0.033805612 -0.030256437 0.0683223 0.026075557 0.046410274 0.011103559 0.06883809
0.020549627 0.0050328434 0.011697369 0.0042894543 0.029747952 -0.06673355 0.052963283 -0.08601057
0.035168007 0.016308356 -0.024769051 -0.042980473 0.061480124 -0.03849003 -0.003432931 -0.013583016
-0.05982499 -0.10204789 0.0727852 0.077890836 0.07530593 -0.0026146478 -0.00946478 0.03322993
0.0423396 -0.006373495 0.08847494 -0.08077151 0.02525429 0.023327744 -0.021712404 0.04975647
-0.09736353 -0.021164909 -0.035461824 -0.09634972 -0.06903016 -0.088637106 0.08166372 0.022497276
0.016803648 -0.05695818 0.014754352 0.0854069 -0.049887996 0.044427287 0.0034417917 -0.036128197
0.046854004 -0.06928927 -0.053679053 -0.052309506 0.057667002 0.018271778 -0.0073873983 -0.043533973
-0.06850928 0.014420336 0.049976535 0.02089478 -0.063162304 -0.07490748 -0.08390915 -0.060866497
-0.0805651 0.018129703 -0.055337947 -0.0020011135 -0.058995333 0.028060963 0.053298615 -0.024033783
-0.0678435 0.009178079 0.016622394 0.04675553 0.09201013 0.092785634 0.028147133 -0.014560566
0.0687953 -0.0071929153 -0.08494553 -0.08166199 0.07602173 -0.040401638 -0.072563656 -0.009969066
-0.075034015 -0.049161986 0.043701343 0.10697914 -0.04586569 0.07478309 0.021875262 -0.039916344
-0.073972404 0.0128807435 -0.019439401 0.012998778 -0.021746483 -0.07208687 -0.051871788 0.03208367
-0.04947897 0.00656755 -0.009658154 0.07942849 -0.04356702 -0.031672433 -0.03719225 -0.06544705
0.0015264815 -0.03658367 -0.05994152 -0.048099186 -0.014461625 0.021457529 -0.005627909 -0.013812148
-0.023197882 0.088901855 0.072501644 0.08968281 0.056439556 0.04852163 0.048887275 0.05520272
-0.011222824 0.04381106 -0.005339066 0.09352842 0.0020711976 -0.069343135 -0.03519485 -0.02463522
0.06868612 0.015503665 -0.076632775 -0.011210887 -0.04962078 0.1249556 -0.025640612 -0.09559678
0.03177156 -0.042983785 -0.018270602 0.032787774 0.047994085 0.055090304 -0.061203066 -0.044773787
-0.059072495 0.16319206 -0.07957438 -0.02456066 0.01844893 -0.027635818 0.014222288 0.095548585
-0.057170596 0.029616943 -0.011503617 0.11699099 -0.016531678 -0.045694165 0.08422576 0.01119501
0.08418274 -0.02488361 -0.0960112 0.049637165 -0.022057371 -0.065731235 -0.038039297 -0.05963853
0.0066445074 0.07745018 0.010085608 0.05340329 0.0213503 -0.1191405 0.038422376 0.07494245
-0.02895321 -0.03350989 0.021348864 0.027928136 0.052072205 0.08751351 -0.047646917 -0.047825836
-0.02145034 0.07170352 0.06678759 -0.10821057 -0.07549054 0.006353196 0.044220205 0.01337713
0.037463892 0.07093726 0.04876398 -0.09073649 0.06460822 -0.042767018 0.084328026 -0.07688839
-0.08807084 0.081244536 0.091468535 -0.012408052 -0.034408092 -0.047174405 -0.021743948 0.08237374
-0.010984515 0.060851097 0.012769338 0.10362483 0.03037273 -0.017782168 -0.021853114 -0.03724602
0.08836594 0.006317358 0.0015482358 -0.037566822 0.05843343 0.06798981 -0.047719244 -0.028914986
0.013270328 -0.07923095 0.085400544 0.06656546 0.028896159 0.02007087 0.120327584 0.010526759

fc2.bias f4 [128]
00000000: 571b ad3d 09a3 3dbd cefa 673d 8332 f23b
00000010: bf8b d23c eef3 0a3d f72c 86bc 0cad c43d
00000020: e734 353d cc30 503d 1a87 8eba 9f17 8dbd
00000030: 31e3 df3c 45a3 a53d 4428 49bd 26da c23d
00000040: e5ae 673c 870d fcbc 4198 46bd 9b13 103d
00000050: 214b 92bc 570e 6a3d 374d b03c e0c2 7cbd
00000060: 9329 b8bd 1c08 4fbd 8fc6 393d 1fa5 7dbd
00000070: dcdc 05bd eb4f a3bd 344a ad3d 5bff 83bc
00000080: c49d 9bbd d54b 943d 4ea8 9ebd f5da 88bd
00000090: c445 413d 5e4f 5abc 9f01 013d d1b2 a83d
000000a0: 1ace a33c b202 d0bc 57e7 1abd 5e0b 1d3d
000000b0: 4512 a83d 888f 123d a46d a43d bd24 56ba
000000c0: fac6 4fbd c23e 81bd cd82 0b3d 287d 09bd
000000d0: 0980 143d f635 3e3d 8de6 8d3d dec0 83bc
000000e0: 49de 66bd 9fbd 1b3d 8108 21bb b670 1d3d
000000f0: 5dc1 57bd 373e 3ebd 086a 63bd 8238 773d
00000100: c72e 1f3d 4dcc 02bd dfbe 16bd 992d 8abd
00000110: 4669 96bd fc37 87bd dc88 993d f8d2 173d
00000120: 8b6e 88bd 6cd7 e23c d4e9 33bb 926b 7a3d
00000130: 74b6 b23d 641f 18bd d615 1f3c 544a bb3b
00000140: 8709 413d 9e93 33bd 99dd f8bc ce51 b13d
00000150: dd0e 3ebd 2484 263d 42b2 9fbd 7755 993d
00000160: d098 adbc 1e69 a53d c936 72bd 3728 67bd
00000170: 26fe 123b f195 92bd 63ec 613c 6004 34bc
00000180: a60d 373d ac20 bbbc 33f1 513d 9792 8e3d
00000190: d681 9c3d de02 6e3d c539 4cbb 6877 99bd
000001a0: b9f0 d1bc 408d eb3c 15bb 08bd 4558 853d
000001b0: 9892 0d3c 0522 99bd 0e3c 93bd 345d 9dbc
000001c0: c651 613d 2331 0c3c 08d7 693d 35e6 9c3c
000001d0: b211 f53c 4aab 25bd ec2a 3b3d ef69 4bbd
000001e0: fd31 5ebd 9ee8 efbc e829 653c 995e c5bb
000001f0: da14 9a3d 829f 11bd 31e0 b93c 0fd1 82bc
0.0845248 -0.04629806 0.05663567 0.0073912754 0.025701402 0.033924036 -0.016378863 0.096033186
0.044239905 0.050827786 -0.0010874004 -0.06889271 0.027330013 0.08087782 -0.049110666 0.09514265
0.014140819 -0.03076817 -0.048485044 0.035174947 -0.01785809 0.05714258 0.021521194 -0.061709285
-0.08992305 -0.050544843 0.045355376 -0.06192505 -0.03268133 -0.079742275 0.08461419 -0.016112974
-0.07598451 0.07241026 -0.07746945 -0.06682388 0.047185674 -0.013324587 0.031495687 0.082372315
0.019995738 -0.02539191 -0.03781828 0.03834092 0.0820661 0.035781413 0.08028725 -0.00081689266
-0.05072687 -0.06310798 0.03406029 -0.033566624 0.036254916 0.04643818 0.0692874 -0.016083177
-0.05636433 0.038022634 -0.002457172 0.038437568 -0.05267464 -0.04644605 -0.05552104 0.060356624
0.03886297 -0.031933118 -0.036803123 -0.06746978 -0.07344298 -0.06602475 0.07496807 0.03706643
-0.066617094 0.027690612 -0.0027452605 0.061137743 0.087262064 -0.03713931 0.009709796 0.0057156477
0.047128227 -0.04384195 -0.030379103 0.08658181 -0.046400893 0.040653363 -0.07797672 0.07487004
-0.02119103 0.0807669 -0.05913428 -0.056434836 0.0022429316 -0.07157505 0.013789269 -0.010987371
0.04469075 -0.022842728 0.051255416 0.069615535 0.07641952 0.058108203 -0.0031162363 -0.07493478
-0.02562748 0.028753877 -0.03338154 0.06510977 0.008640908 -0.07477192 -0.07189189 -0.019209482
0.055009626 0.008556637 0.057089835 0.01915274 0.029915664 -0.040446557 0.04569523 -0.049661573
-0.05424689 -0.029285725 0.013987042 -0.00602324 0.07523508 -0.03555251 0.02268991 -0.015968828

reg_head.weight f4 [1, 128]
00000000: af82 23bd 566d 103e 3cbb 62bd 5596 b03d
00000010: 943f e33d b361 acbd 6617 81bd feb8 153d
00000020: e2d1 153b edca 303d c818 b23d 2024 923d
00000030: c3d2 81bd d29a a6bd 86c3 84bc a883 b13d
00000040: 0538 0d3e 361a cb3d 56cd ab3c af2e 8c3c
00000050: 6cb8 bc3d dc2a 16bd 5e52 9b3d abde bebb
00000060: 9d9e 63bd b949 fd3c d95a debd bc6b e63d
00000070: e07b d63d a5cb 04bd 51d8 e9bc fbdd f5bd
00000080: 1dca 883d 9d21 733d d788 9abd 469f 883d
00000090: f179 0d3d 6932 5ebd 5979 ab3d 6fe7 89bd
000000a0: 24cc bebd 2c98 acbd e91b 9ebd ba50 923d
000000b0: 6d16 b6bd f321 3bbd b3b5 253d 87fc fdbd
000000c0: 763c a63d 87ef 823d 0644 36bd b5f4 9c3c
000000d0: b354 c93d d833 95bd 7964 a4bd e26c 463d
000000e0: e9fa 08bd 8d5e 503d 138e ba3c 64ec c93d
000000f0: 8e08 3bbc 2035 ad3d cb80 2d3d eb94 103d
00000100: c5b6 563d d6ac 1fbd e3b0 bcbd 7c3c b83d
00000110: 705a fdbc 59d6 01be 5c95 593d 57ba dfbd
00000120: 4625 cd3d 6e38 a9bd 28d2 3f3d 01e0 893c
00000130: 22b2 153d 29de e23c a083 ad3c ad44 c33d
00000140: e64f 2d3d 4c53 ab3d c376 dfbc f583 a43d
00000150: d633 7c3c 5094 03be edeb babc b6b2 b2bd
00000160: 7737 8cbd 90ba 6e3d f04a 16bd 9436 c23d
00000170: 6433 a93d 5e6a b13d ed4a 9cbd d051 b7bd
00000180: 29b9 423d ee72 abbd a674 65bd cacc 863c
00000190: 1954 90bd 4250 1fbd 013f b2bd 2ea6 72bc
000001a0: 04e1 55bd c266 a5bd 383b 78bd 436d ce3d
000001b0: 20cf 8d3d 597f 893d f48d df3c e29c 293d
000001c0: 11dd 98bd 2ace 803d 1f02 52bd 529f f5bd
000001d0: 4f1b ec3c 8a9a 2e3d 56b9 aebd 77f7 b6bd
000001e0: 14f0 27bd e19f eebd 04c1 3abd 901f 00bd
000001f0: 4a27 43bd 68f4 cb3d 868f eabd bd64 aabd
-0.03991955 0.14104208 -0.055354342 0.086224236 0.11096111 -0.08417072 -0.06303291 0.036553375
0.0022860696 0.043162275 0.08696133 0.071357965 -0.06339028 -0.081349984 -0.016206514 0.086676896
0.13790901 0.09917109 0.020971935 0.017112104 0.09214863 -0.036661968 0.0758407 -0.005824884
-0.055571187 0.030918943 -0.108571716 0.112510175 0.10472846 -0.032420773 -0.02854553 -0.1200523
0.06679175 0.059358228 -0.075456314 0.06671004 0.03454012 -0.054247294 0.083727546 -0.067335956
-0.093162805 -0.08427462 -0.07720167 0.071443036 -0.08890996 -0.045686673 0.040456485 -0.124016814
0.08117001 0.063933425 -0.044498466 0.019159654 0.09830608 -0.07285279 -0.08026976 0.048443682
-0.03344241 0.05087142 0.022772824 0.09859541 -0.011415614 0.084573984 0.042359155 0.03529827
0.052420396 -0.03898319 -0.09213426 0.089959115 -0.030926913 -0.12679423 0.053120956 -0.109242134
0.10016875 -0.08262716 0.04683128 0.016830446 0.036546834 0.027693825 0.021180928 0.09534583
0.042312525 0.08365497 -0.02727831 0.08032981 0.015393218 -0.12849545 -0.022817576 -0.08725493
-0.068465166 0.05828339 -0.03669256 0.09483066 0.08261755 0.08662866 -0.076314785 -0.08951151
0.047539864 -0.083715305 -0.056019448 0.016455073 -0.0704729 -0.0388949 -0.08703423 -0.014810128
-0.052216545 -0.0807624 -0.06060335 0.10079434 0.069242716 0.06713743 0.027289368 0.04140938
-0.0746404 0.06289323 -0.051271554 -0.119932786 0.028821616 0.04262785 -0.08531444 -0.08933919
-0.04100044 -0.11651588 -0.04559423 -0.0312801 -0.04764489 0.09958726 -0.11453156 -0.083199956
