grasp_placement/models/run_seed_7265/stability_net.pth (torch, 80580 bytes, 5 tensors)

fc1.weight f4 [128, 21]
-0.071019515 -0.2385979 -0.3725604 0.0054985145 -0.025310725 0.22671673 -0.3047646 0.13864242
0.057404544 -0.23156509 -0.21378805 0.035036627 0.06910366 0.070880935 0.24483187 -0.055790454
-0.13392098 -0.26098537 -0.14221738 -0.22953743 -0.043648314 -0.05376358 0.05763657 -0.14968845
0.16984786 -0.11675375 -0.20243555 0.026196826 0.17581087 -0.12768446 -0.03548881 0.014063684
0.008331948 0.003546062 0.16997154 -0.17468728 -0.30089477 -0.06530383 0.1631238 -0.03410988
-0.05477446 0.034855798 0.056719523 -0.17951001 -0.18803501 0.33611864 0.05310294 0.07596484
-0.10681084 0.025172317 0.10370416 0.005702684 -0.15360594 -0.27077615 -0.17735043 0.08860962
0.182612 0.18083392 0.013498319 -0.0009943586 -0.20322338 0.0079132365 -0.100335434 0.1421223
0.12644324 -0.21201445 0.010894363 0.11961496 -0.15057957 0.054516323 0.1524475 -0.034020584
0.02885136 -0.02111287 -0.016896138 0.15862198 -0.32162666 -0.027866717 -0.11276833 0.007894139
0.004927891 -0.07922083 0.04252384 0.00076660124 0.13472687 -0.07115379 0.08916574 0.09933059
0.0016793743 -0.08409172 -0.026616853 -0.1388477 0.104198664 -0.024465408 -0.16871016 0.3818526
-0.10241946 -0.13793185 -0.019272497 0.048486028 -0.10556768 0.06608055 -0.39143172 0.033710387
0.00074130856 0.23810962 0.13549177 -0.10879173 0.031037256 0.0069943136 0.111246586 -0.2572243
-0.19266944 0.0036276889 -0.14466932 0.10033787 0.017836258 0.0023993426 -0.38468412 0.11441474
-0.14488208 0.029331848 0.1500263 -0.0166837 -0.015115596 0.17266577 -0.015958074 -0.111789316
-0.075663455 0.21576265 -0.09583308 -0.07689712 0.294492 0.008631285 0.1511988 -0.016295701
-0.17523062 0.11738649 0.07382511 -0.18893158 -0.067925714 -0.090901904 -0.15425116 -0.29365087
-0.08932015 -0.1455844 -0.15847036 0.24079107 0.10672696 -0.4134853 -0.1428381 -0.0061565735
-0.06418137 0.20046562 -0.13487194 0.03228834 -0.24443424 0.060877185 -0.18153565 0.07144392
-0.021258324 -0.20171316 0.11490428 -0.017604515 -0.0039634723 -0.047367323 -0.021769552 -0.12294465
0.13272652 -0.1482142 -0.18615502 -0.029750783 -0.18646619 0.19585085 0.22436836 -0.11576895
-0.04986792 -0.20966852 0.12470279 0.27908623 0.18718451 0.0076974523 0.28163713 0.10018071
-0.088517435 0.014772211 -0.002168314 -0.036093034 -0.05027738 0.18063763 0.004125427 -0.30205142
-0.2102648 0.26527482 0.01295847 0.013635499 0.012181062 -0.08507059 0.061145324 0.08493833
-0.17583816 -0.0075103547 0.12166298 0.0036315098 -0.119122855 0.23556742 -0.25749326 -0.12218686
-0.031220375 -0.23657927 0.18911028 -0.19984531 -0.22197275 -0.11909129 0.07378444 -0.08326582
0.007866413 -0.076235965 0.06472699 0.10193419 0.04288151 0.015737316 -0.17802954 0.092467025
0.07767984 -0.14358453 -0.24479702 0.1777156 -0.00047013783 -0.09605097 0.12474243 0.033674277
-0.011895905 -0.27243713 0.14122018 0.19088732 -0.089139365 0.06531396 -0.07548182 0.054760475
-0.16493832 0.18851213 0.052831125 0.025682112 -0.06630391 0.060044814 0.23371798 0.07012304
0.16022821 -0.1341194 -0.18170686 0.13353157 0.06446004 0.0985167 0.14855586 -0.12991707
00000000: ae72 91bd 0253 74be 3dc0 bebe e22c b43b
00000010: 7058 cfbc 6e28 683e 1b0a 9cbe 47f8 0d3e
00000020: 0721 6b3d 661f 6dbe 41eb 5abe 9182 0f3d
00000030: 3886 8d3d 062a 913d 35b5 7a3e 8884 64bd
00000040: 9522 09be e09f 85be 6fa1 11be dc0b 6bbe
00000050: 93c8 32bd 3337 5cbd 5314 6c3d ee47 19be
00000060: 99ec 2d3e 971c efbd 444b 4fbe ba9a d63c
00000070: c407 343e b7bf 02be b75c 11bd 5e6b 663c
00000080: b982 083c 0c65 683b 050d 2e3e 39e1 32be
00000090: e10e 9abe 04be 85bd ed09 273e cdb6 0bbd
000000a0: 2f5b 60bd f4c4 0e3d bb52 683d 79d1 37be
000000b0: 408c 40be be17 ac3e 7882 593d 7493 9b3d
000000c0: a4bf dabd 2d36 ce3c d962 d43d 95dd ba3b
000000d0: e04a 1dbe 2ca3 8abe 5a9b 35be f678 b53d
000000e0: a4fe 3a3e 872c 393e 0e28 5d3c 2355 82ba
000000f0: ca19 50be 85a6 013c aa7c cdbd 8288 113e
00000100: 567a 013e 511a 59be 457e 323c b0f8 f43d
00000110: 8831 1abe 824c 5f3d 331b 1c3e 2b59 0bbd
00000120: b059 ec3c e6f4 acbc c569 8abc cd6d 223e
00000130: 40ac a4be be48 e4bc 15f3 e6bd 6b56 013c
00000140: 257a a13b 883e a2bd 7a2d 2e3d bdf5 483a
00000150: d7f5 093e 14b9 91bd 879c b63d d66d cb3d
00000160: 731e dc3a 4838 acbd 960b dabc 172e 0ebe
00000170: 1c66 d53d ae6b c8bc 5bc2 2cbe 2f82 c33e
00000180: 4bc1 d1bd 023e 0dbe 5be1 9dbc 4999 463d
00000190: de33 d8bd 3d55 873d bd69 c8be e713 0a3d
000001a0: 6054 423a 02d3 733e 5bbe 0a3e 33ce debd
000001b0: d841 fe3c 8e30 e53b 40d5 e33d e7b2 83be
000001c0: 234b 45be 85be 6d3b 3224 14be f17d cd3d
000001d0: 581d 923c 4a3e 1d3b 51f5 c4be 4652 ea3d
000001e0: f85b 14be 5849 f03c 7fa0 193e 41ac 88bc
000001f0: 68a7 77bc 4ccf 303e 82ba 82bc ccf1 e4bd
00000200: 71f5 9abd e2f0 5c3e 2244 c4bd 3d7c 9dbd
00000210: a8c7 963e 3c6a 0d3c dcd3 1a3e 907e 85bc
00000220: a86f 33be 5468 f03d 9f31 973d 4877 41be
00000230: a31c 8bbd c72a babd 04f4 1dbe 6859 96be
00000240: 7ced b6bd 1414 15be 0e46 22be ef91 763e
00000250: aa93 da3d 58b4 d3be 2744 12be 15bd c9bb
00000260: 8671 83bd dc46 4d3e df1b 0abe c740 043d
00000270: f84c 7abe 5b5a 793d 7be4 39be 3151 923d
00000280: f025 aebc e58d 4ebe ef52 eb3d 5837 90bc
00000290: 04e0 81bb 3d04 42bd 0f56 b2bc 68ca fbbd
000002a0: 76e9 073e 77c5 17be 6c9f 3ebe eab7 f3bc
000002b0: fef0 3ebe 208d 483e d2c0 653e 4518 edbd
000002c0: 4e42 4cbd 58b3 56be 2d64 ff3d 64e4 8e3e
000002d0: 4cad 3f3e e93a fc3b be32 903e 8b2b cd3d
000002e0: a148 b5bd 2507 723c 461a 0ebb 4ad6 13bd
000002f0: a7ef 4dbd 12f9 383e 972e 873b 7ca6 9abe
00000300: a84f 57be 1ad2 873e c34f 543c 6e67 5f3c
00000310: 1493 473c 7d39 aebd 8573 7a3d 26f4 ad3d
00000320: eb0e 34be 6c19 f6bb 712a f93d a0fe 6d3b
00000330: aff6 f3bd 9638 713e 28d6 83be 1b3d fabd
00000340: dfc1 ffbc d641 72be 20a6 413e 40a4 4cbe
00000350: d34c 63be 22e6 f3bd 4c1c 973d 4587 aabd
00000360: 21e2 003c 9a21 9cbd 968f 843d dfc2 d03d
00000370: 86a4 2f3d 8beb 803c 604d 36be 5a5f bd3d
00000380: 9c16 9f3d d307 13be 12ac 7abe 14fb 353e
00000390: d57c f6b9 5fb6 c4bd f678 ff3d 0aee 093d
000003a0: 0be7 42bc e17c 8bbe 069c 103e f777 433e
000003b0: b38e b6bd 53c3 853d 3696 9abd 854c 603d
000003c0: 97e5 28be 5309 413e 7365 583d 4b63 d23c
000003d0: 58ca 87bd 8df1 753d c453 6f3e ab9c 8f3d
000003e0: dd12 243e 9956 09be 5d11 3abe 80bc 083e
000003f0: a003 843d 20c3 c93d 071f 183e fb08 05be

fc1.bias f4 [128]
-0.0096123135 0.03357691 -0.10598749 0.085926056 0.104339354 -0.035952136 0.02798654 0.038267143
-0.010524533 -0.14481953 0.024764054 -0.21916886 -0.09872141 -0.0993085 -0.26307175 -0.18331622
-0.097554184 0.14478955 -0.12731631 -0.06320825 -0.12260832 -0.21098167 -0.060044255 -0.14985225
-0.058427244 -0.050941084 -0.06637839 0.009525907 -0.21995588 0.041156687 0.16637033 -0.021680024
0.043755557 -0.1599082 0.17449172 0.1391261 0.015129411 -0.07629866 -0.057822447 -0.03719679
-0.17750661 0.019572431 0.1183672 0.10881129 -0.10748942 -0.07063747 -0.031645317 -0.072637685
-0.07242436 0.06317771 0.11890371 -0.003564035 0.06689832 -0.11722432 -0.20229308 -0.03675337
-0.0812262 0.11051827 0.13857947 0.10748635 0.1325394 -0.19688548 0.1732867 0.027178032
0.10807315 -0.1254746 -0.09041193 0.12781806 0.12040452 0.043106083 -0.045062073 -0.14918111
-0.17490503 -0.19482748 0.13886487 0.020409793 0.05130564 -0.13506554 -0.14565818 0.09959062
-0.16359109 0.09916156 0.042017885 -0.07921726 0.11656565 -0.14049314 0.14113393 -0.013214356
-0.1837962 -0.0033331276 0.12505315 0.09873746 -0.07810484 -0.074093245 -0.01096724 -0.16334195
-0.11243438 -0.15060622 -0.009454745 0.17032382 -0.12942736 -0.14488971 0.12777509 -0.065355055
0.07346843 0.12176257 -0.1845353 -0.10693727 0.05833348 -0.15522622 0.229945 -0.04044092
0.025438854 -0.22003834 0.15817827 -0.0964103 -0.18697955 -0.2173267 -0.04722025 -0.13912648
-0.020660464 0.112271436 -0.14564946 0.15517844 -0.01701016 -0.22410627 -0.17680582 0.19660892
00000000: f77c 1dbc f187 093d f80f d9bd 00fa af3d
00000010: dfaf d53d 8c42 13bd 0744 e53c 02be 1c3d
00000020: 176f 2cbc 924b 14be fcdd ca3c cd6d 60be
00000030: 732e cabd 4162 cbbd 57b1 86be 3fb7 3bbe
00000040: 7dca c7bd b643 143e 355f 02be 5473 81bd
00000050: 121a fbbd 940b 58be f7f0 75bd de72 19be
00000060: 6851 6fbd 99a7 50bd 65f1 87bd 8d12 1c3c
00000070: 1d3c 61be ea93 283d fc5c 2a3e 4e9a b1bc
00000080: 0739 333d fabe 23be f5ad 323e 1377 0e3e
00000090: 59e1 773c 7942 9cbd 3bd7 6cbd a95b 18bd
000000a0: 4bc4 35be 5d56 a03c 816a f23d 74d8 de3d
000000b0: 6a23 dcbd 61aa 90bd 859e 01bd 11c3 94bd
000000c0: 3953 94bd 5163 813d ca83 f33d 9692 69bb
000000d0: fd01 893d 4e13 f0bd eb25 4fbe b48a 16bd
000000e0: ec59 a6bd 6757 e23d c7e7 0d3e ce21 dc3d
000000f0: 69b8 073e 599c 49be 1272 313e 77a4 de3c
00000100: 7555 dd3d 6a7c 00be e429 b9bd bde2 023e
00000110: a596 f63d 0190 303d 0293 38bd efc2 18be
00000120: 4e1a 33be db80 47be 9832 0e3e 7032 a73c
00000130: dd25 523d 9f4e 0abe 6b27 15be 2bf6 cb3d
00000140: 6c84 27be 3715 cb3d f21a 2c3d a93c a2bd
00000150: f9b9 ee3d 6fdd 0fbe 6a85 103e 0781 58bc
00000160: 1235 3cbe 9a70 5abb ef0d 003e de36 ca3d
00000170: 6ef5 9fbd 33be 97bd f0af 33bc 1d43 27be
00000180: ff43 e6bd 8438 1abe 13e8 1abc 5e69 2e3e
00000190: 9b88 04be f85d 14be 79d7 023e dfd8 85bd
000001a0: 9e76 963d a85e f93d d2f6 3cbe ed01 dbbd
000001b0: 16ef 6e3d 9ff3 1ebe b476 6b3e 61a5 25bd
000001c0: 2565 d03c bb51 61be 7cf9 213e c372 c5bd
000001d0: 9177 3fbe e48a 5ebe 056a 41bd 2c77 0ebe
000001e0: 2240 a9bc 91ee e53d 2225 15be 19e7 1e3e
000001f0: e458 8bbc 1d7c 65be 960c 35be d953 493e

fc2.weight f4 [128, 128]
0.14307077 -0.002513896 0.03611111 0.09500309 -0.021117494 0.08101071 0.046463437 0.010061555
0.091639504 0.07389507 -0.008556735 0.06693543 0.089976236 -0.0057360907 0.020489058 0.15377477
0.18744232 0.04956234 -0.2349955 0.08589359 -0.12459116 0.16394098 0.046568066 -0.107506156
0.11250629 0.10028065 0.0072264387 -0.04239779 0.06686978 0.08679894 0.03404257 -0.02223588
0.109992534 0.0521444 0.034845103 -0.006333808 -0.0062834364 -0.025955131 0.038616873 -0.04117224
0.03913383 0.092310555 0.021380471 -0.0041715372 -0.015901953 0.030244026 -0.0019089825 -0.037906192
0.07804396 -0.022780698 0.088351496 0.07519575 0.077883914 -0.05622111 0.24721701 0.10143996
0.22348063 0.2695751 0.02227262 0.032984465 0.06496131 0.17899579 -0.06449791 0.07697574
0.017378032 0.15644716 -0.039252397 0.077831164 0.1039804 0.06749415 0.12416539 -0.03308286
0.05596926 0.11486694 0.08097298 0.04494241 0.10613354 0.09320508 0.020126417 0.10023643
0.1081385 0.06459285 -0.051143937 -0.065062605 0.07037432 0.1069596 0.018738419 -0.022315228
0.14612828 0.09138377 0.034620684 -0.048747305 0.038401093 -0.02019908 0.00897611 0.13984853
-0.03213006 0.067753896 -0.095288925 0.07572518 -0.03153445 -0.0582035 0.06692118 0.025518429
-0.007992386 0.00094854087 0.0038920648 0.069438875 -0.06799808 -0.043492597 0.020692658 0.05728175
0.083954774 -0.058346756 0.086273886 0.12566915 -0.13368897 -0.02460968 0.010914568 0.00086920755
0.13527496 0.033933505 -0.042623535 0.08635285 0.052978754 -0.1361854 -0.034407876 0.042223286
0.099502824 0.0028993513 0.056493845 -0.025264397 -0.15827121 0.10204658 0.012369321 -0.02825275
0.04601952 0.042810522 -0.030478835 0.014873432 0.100917675 0.019789673 0.03072942 0.15576291
0.16366266 -0.06409293 -0.21160942 0.03868661 -0.11867317 0.0797647 0.034607064 -0.13510197
0.10142538 0.08949411 0.11470957 0.027682595 0.17911318 -0.025300192 0.038304612 -0.090031296
0.023866143 0.21696077 -0.0072734077 0.034187566 -0.017058652 -0.05321702 0.04649543 0.093239345
0.004391692 0.13072728 0.08524224 0.06618817 -0.020788588 0.032491617 0.08721506 -0.0430299
0.05109217 0.06227942 0.086492 0.0010171335 -0.0112819495 -0.045913775 0.1297817 -0.032907993
0.1721839 0.1905141 0.06830591 -0.04967461 -0.021227501 0.25195348 0.010530009 0.07098402
-0.038865823 0.18895732 -0.100787744 0.052480552 -0.027623901 0.08489406 0.07975926 -0.045063283
-0.07440188 0.06791488 0.08177876 -0.034937125 0.077618815 0.09976729 -0.13065392 -0.04774717
0.07448764 0.065709844 0.07707216 0.017655889 0.00053506397 0.020855583 0.06951843 0.045611672
0.026204146 0.1147094 -0.017783133 0.06778532 -0.0050152675 0.0997421 0.015247748 0.26967263
0.03244331 0.07630676 -0.108160675 -0.030048586 -0.036995865 0.00087006326 0.08945057 0.03109206
0.11235503 0.10622543 0.09350436 0.056805607 0.05999214 -0.044083368 0.00091070845 -0.053001553
0.12670404 -0.021647006 0.042049155 0.030915042 -0.024352938 -0.08703814 0.10706852 -6.4195287e-06
0.18162969 -0.046747874 0.013935081 0.06376968 -0.024394516 -0.1092761 -0.15042767 -0.02291033
00000000: 2581 123e 2dc0 24bb 3ee9 133d fb90 c23d
00000010: 98fe acbc f1e8 a53d 7250 3e3d 38d9 243c
00000020: 7ead bb3d 4c56 973d 8c31 0cbc 7115 893d
00000030: 7645 b83d d1f5 bbbb abd8 a73c 2277 1d3e
00000040: e1f0 3f3e e101 4b3d a9a2 70be fae8 af3d
00000050: a629 ffbd 25e0 273e 28be 3e3d 302c dcbd
00000060: b369 e63d f15f cd3d c3cb ec3b 4ea9 2dbd
00000070: 06f3 883d a5c3 b13d 3970 0b3d 0528 b6bc
00000080: c443 e13d 5e95 553d bdb9 0e3d d58b cfbb
00000090: 49e5 cdbb db9f d4bc ba2c 1e3d 39a4 28bd
000000a0: cc4a 203d 510d bd3d 1926 af3c 64b1 88bb
000000b0: d044 82bc 52c2 f73c d336 faba 8643 1bbd
000000c0: 83d5 9f3d 969e babc a1f1 b43d 3b00 9a3d
000000d0: 9a81 9f3d 1b48 66bd 7526 7d3e c1bf cf3d
000000e0: 1bd8 643e bf05 8a3e 1275 b63c b81a 073d
000000f0: 6f0a 853d ac4a 373e 7b17 84bd 75a5 9d3d
00000100: 605c 8e3c af33 203e 1fc7 20bd f265 9f3d
00000110: adf3 d43d 5f3a 8a3d 6d4a fe3d e581 07bd
00000120: 0640 653d 5c3f eb3d 29d5 a53d 8815 383d
00000130: 8b5c d93d 4ee2 be3d 28e0 a43c c248 cd3d
00000140: b877 dd3d 4249 843d 4e7c 51bd 8b3f 85bd
00000150: 6920 903d a20d db3d 5081 993c 6dce b6bc
00000160: a7a2 153e 6a27 bb3d 6bce 0d3d 41ab 47bd
00000170: 774a 1d3d 8b78 a5bc 8910 133c 7434 0f3e
00000180: cf9a 03bd 8ec2 8a3d d726 c3bd ce15 9b3d
00000190: 442a 01bd cb66 6ebd f90d 893d 060c d13c
000001a0: 7ff2 02bc 80a7 783a 0312 7f3b f835 8e3d
000001b0: 9442 8bbd 4b25 32bd a683 a93c 45a0 6a3d
000001c0: 7bf0 ab3d 02fd 6ebd 5db0 b03d 6aaf 003e
000001d0: c3e5 08be 3d9a c9bc 04d3 323c 88db 633a
000001e0: 8585 0a3e dcfd 0a3d 0496 2ebd c3d9 b03d
000001f0: 4000 593d 2f74 0bbe 46ef 0cbd 53f2 2c3d
00000200: 23c8 cb3d 0b03 3e3b 1766 673d 48f7 cebc
00000210: d911 22be ccfd d03d b1a8 4a3c 5072 e7bc
00000220: f77e 3c3d 165a 2f3d c0ae f9bc b2af 733c
00000230: edad ce3d f41d a23c 44bc fb3c 5080 1f3e
00000240: 2f97 273e 2743 83bd 24b0 58be da75 1e3d
00000250: eb0a f3bd ad5b a33d 23c0 0d3d 2c58 0abe
00000260: 1cb8 cf3d b048 b73d daec ea3d 9cc6 e23c
00000270: 7269 373e 5942 cfbc 4ce5 1c3d 5462 b8bd
00000280: ee82 c33c f72a 5e3e c455 eebb 4308 0c3d
00000290: 96be 8bbc 17fa 59bd fe71 3e3d 45f4 be3d
000002a0: 2fe8 8f3b 5fdd 053e 7c93 ae3d aa8d 873d
000002b0: d44c aabc ee15 053d cf9d b23d 1f40 30bd
000002c0: 0646 513d b518 7f3d b822 b13d 5651 853a
000002d0: edd7 38bc 1510 3cbd 7ee5 043e 88ca 06bd
000002e0: fa50 303e 2116 433e f8e3 8b3d 9b77 4bbd
000002f0: 4ce5 adbc 0c00 813e 0f86 2c3c 1260 913d
00000300: c531 1fbd 077e 413e ce69 cebd d9f5 563d
00000310: 854b e2bc f0dc ad3d d358 a33d 4794 38bd
00000320: 0360 98bd f516 8b3d 9f7b a73d 3b1a 0fbd
00000330: 9df6 9e3d cb52 cc3d 24ca 05be 8992 43bd
00000340: fa8c 983d e292 863d 02d8 9d3d 15a3 903c
00000350: 8943 0c3a 54d9 aa3c ae5f 8e3d 4ed3 3a3d
00000360: 14aa d63c c3ec ea3d efad 91bc 08d3 8a3d
00000370: 1d57 a4bb 9645 cc3d b1d1 793c 8812 8a3e
00000380: 47e3 043d b846 9c3d 5883 ddbd 7428 f6bc
00000390: fa88 17bd f514 643a dc31 b73d c7b4 fe3c
000003a0: 651a e63d b88c d93d 377f bf3d ffac 683d
000003b0: 51ba 753d c390 34bd 9cbc 6e3a 2818 59bd
000003c0: b4be 013e 1055 b1bc bc3b 2c3d 8b41 fd3c
000003d0: d07f c7bc 0d41 b2bd bd46 db3d 5567 d7b6
000003e0: 22fd 393e b37a 3fbd f74f 643c ae99 823d
000003f0: 02d7 c7bc 26cc dfbd b609 1abe 72ae bbbc

fc2.bias f4 [128]
-0.04179434 0.09386785 0.02933867 -0.033832025 0.013825221 0.0460988 0.027493188 -0.04965782
0.0695517 0.015359419 -0.047881804 -0.05927873 -0.016539777 -0.026080739 -0.005905453 -0.058878023
0.0472921 -0.006524799 0.02254694 -0.07411581 0.034606136 -0.093748376 0.04195003 -0.016839093
0.051076107 0.06885513 0.09547146 -0.06724936 -0.06720253 -0.044857826 -0.0765369 0.0044507985
0.008191303 0.06758301 0.081060156 -0.030273642 -0.097174875 0.0008201057 0.048407525 0.045484714
0.036546703 0.07743399 0.03718945 0.016920637 0.02012795 -0.06962245 -0.020832023 0.064005405
0.022059808 0.005516095 -0.0054220357 -0.0071229404 -0.06582097 0.047059253 -0.08923137 0.043514516
0.019820077 -0.050541114 -0.01504234 -0.011114735 0.041529074 0.04316009 0.027782379 0.08428957
-0.08895336 -0.08186549 0.05997803 -0.07672804 -0.07704861 0.06478487 -0.07242161 -0.052289795
-0.049069386 0.0693757 0.0024439702 -0.028515661 -0.062472034 0.085042484 0.032411613 0.056569193
-0.0031207905 -0.049140517 -0.012699857 0.007028619 -0.009191252 -0.03692616 -0.042078182 0.072463684
-0.05312586 -0.09787426 -0.033460967 0.029876463 -0.0066642873 0.039154865 0.011623382 -0.0043085925
-0.08535212 -0.034815773 0.06756883 0.10116343 0.022560814 0.055392314 0.07717016 0.04858211
0.025578056 0.069917805 0.066268094 -0.02079861 0.03430479 0.03301904 -0.0101837 0.030818895
-0.013075431 -0.05417301 -0.06596616 -0.020016555 -0.04524729 -0.03438599 0.028810253 0.04371814
0.10881633 0.0315226 -0.05700223 -0.031306766 0.041587677 -0.073007055 0.03022422 -0.08379113
00000000: 8b30 2bbd ca3d c03d a757 f03c 7393 0abd
00000010: 2e83 623c 18d2 3c3d 6539 e13c 0066 4bbd
00000020: 1f71 8e3d 13a6 7b3c b61f 44bd 41ce 72bd
00000030: 6d7e 87bc 46a7 d5bc 8882 c1bb 152a 71bd
00000040: 5cb5 413d fbcd d5bb 5cb4 b83c 08ca 97bd
00000050: 2abf 0d3d 26ff bfbd cbd3 2b3d 23f2 89bc
00000060: 2e35 513d eb03 8d3d 8a86 c33d 08ba 89bd
00000070: 7ba1 89bd d7bc 37bd 61bf 9cbd 01d8 913b
00000080: d134 063c f668 8a3d de02 a63d 6e00 f8bc
00000090: 9f03 c7bd 5dfc 563a f846 463d 2e4e 3a3d
000000a0: ffb1 153d b695 9e3d f753 183d 269d 8a3c
000000b0: 5fe3 a43c 3796 8ebd eba7 aabc 4415 833d
000000c0: c5b6 b43c 5cc0 b43b 55ab b1bb 8e67 e9bb
000000d0: 25cd 86bd 34c1 403d f0be b6bd 473c 323d
000000e0: b75d a23c 3304 4fbd 2674 76bc 941a 36bc
000000f0: 641a 2a3d a2c8 303d df97 e33c 03a0 ac3d
00000100: 2e2d b6bd 18a9 a7bd 86ab 753d 9723 9dbd
00000110: a9cb 9dbd eead 843d c851 94bd d32d 56bd
00000120: fbfc 48bd d914 8e3d 042b 203b ad99 e9bc
00000130: ade2 7fbd c12a ae3d 0ac2 043d 19b5 673d
00000140: 2d86 4cbb 9147 49bd 1013 50bc 5450 e63b
00000150: e896 16bc e33f 17bd 2c5a 2cbd d767 943d
00000160: 809a 59bd 4d72 c8bd 5e0e 09bd 7cbf f43c
00000170: 1860 dabb da60 203d ff6f 3e3c 182f 8dbb
00000180: 18cd aebd fc9a 0ebd 8761 8a3d c62e cf3d
00000190: 75d1 b83c 0de3 623d 640b 9e3d 09fe 463d
000001a0: 1289 d13c 1131 8f3d 91b7 873d d961 aabc
000001b0: 2e83 0c3d f93e 073d 89d9 26bc e877 fc3c
000001c0: 553a 56bc 85e4 5dbd 4419 87bd c2f9 a3bc
000001d0: 3955 39bd 53d8 0cbd 7b03 ec3c cb11 333d
000001e0: 19db de3d d81d 013d 2c7b 69bd 863b 00bd
000001f0: d757 2a3d b984 95bd c998 f73c af9a abbd

reg_head.weight f4 [1, 128]
0.07044623 0.10070506 0.096405864 0.075560704 -0.03824172 -0.31002468 0.016091807 -0.28269055
0.011595394 0.02508804 -0.3813655 -0.00093075214 -0.111719325 0.19466706 -0.10457062 0.06925073
0.03567788 -0.032470733 -0.15135968 -0.07950235 0.03643711 0.009861369 0.07203639 0.03755884
-0.14217068 0.025958667 0.028811453 -0.044573497 -0.31884953 0.028551852 -0.003088125 -0.28123698
-0.069654986 -0.15125103 -0.16783097 0.031010551 -0.012387834 0.038040567 -0.14722872 -0.3044371
0.09019074 0.07374084 0.25709113 0.019505389 -0.025485605 0.04695668 0.12102342 -0.24707446
0.014192419 0.059944384 -0.37957203 0.24320062 0.3107687 -0.3428491 -0.08398809 0.021032833
-0.121693246 0.08711541 -0.0067268666 -0.049891 0.09708965 -0.23839273 -0.046487167 0.05997485
0.013669569 -0.0255243 0.029912917 -0.29339272 -0.013607983 0.03440402 -0.023310903 -0.3621581
-0.07736551 -0.1366492 0.07096741 0.08669775 -0.17249542 -0.25817996 -0.0654295 0.0026903453
-0.14118609 -0.17325014 -0.18594158 0.09316059 -0.057966962 0.103122436 -0.10814604 0.09508813
0.14349388 -0.056277152 -0.46308312 -0.054939054 -0.07812832 -0.03481927 0.074949734 -0.3465483
-0.021451589 0.05338525 -0.14617698 0.055698078 0.071097314 0.07404209 -0.32622847 -0.06671968
-0.037133943 0.018663507 0.009670987 0.21354152 0.020233037 0.050123677 -0.24648462 -0.2825921
0.14735378 0.0049170046 -0.046164468 -0.09803495 0.010427618 0.16608378 -0.21278305 -0.12645815
0.08873917 0.069337256 0.1624456 0.03621582 0.091243714 -0.16564457 0.0030998748 0.22036375
00000000: 1d46 903d 743e ce3d 7070 c53d 92bf 9a3d
00000010: 5aa3 1cbd 8ebb 9ebe f7d2 833c d1bc 90be
00000020: 9cfa 3d3c 6f85 cd3c 5742 c3be b8fd 73ba
00000030: 1acd e4bd cd56 473e 1f29 d6bd 54d3 8d3d
00000040: f822 123d 0800 05bd 08fe 1abe 21d2 a2bd
00000050: 143f 153d 9491 213c d187 933d 4cd7 193d
00000060: 3195 11be 45a7 d43c ff05 ec3c b392 36bd
00000070: 3f40 a3be 93e5 e93c 2462 4abb 4bfe 8fbe
00000080: 46a7 8ebd 8de1 1abe e2db 2bbe d709 fe3c
00000090: 57f6 4abc 6dd0 1b3d 20c3 16be 2edf 9bbe
000000a0: ecb5 b83d 7005 973d 73a1 833e c4c9 9f3c
000000b0: 30c7 d0bc a655 403d 20db f73d 1601 7dbe
000000c0: 5287 683c 3e88 753d 4457 c2be 9509 793e
000000d0: 131d 9f3e eb89 afbe f301 acbd 0c4d ac3c
000000e0: 4f3a f9bd 9069 b23d 0c6d dcbb 815a 4cbd
000000f0: f0d6 c63d 391d 74be 5469 3ebd 30a8 753d
00000100: 54f6 5f3c 5618 d1bc ef0b f53c 9237 96be
00000110: 04f4 5ebc 3beb 0c3d 82f6 bebc c96c b9be
00000120: cf71 9ebd c5ed 0bbe 5d57 913d 978e b13d
00000130: a4a2 30be 2a30 84be e7ff 85bd 8150 303b
00000140: 1693 10be 7c68 31be 7867 3ebe fbca be3d
00000150: c46e 6dbd db31 d33d ac7b ddbd 91bd c23d
00000160: 0ff0 123e df82 66bd 3b19 edbe c607 61bd
00000170: be01 a0bd a79e 0ebd 3f7f 993d c76e b1be
00000180: 3ebb afbc 7eaa 5a3d 6baf 15be ab23 643d
00000190: 789b 913d 61a3 973d 6b07 a7be 54a4 88bd
000001a0: c319 18bd 36e4 983c 0f73 1e3c a1aa 5a3e
000001b0: c1bf a53c 7c4e 4d3d 7766 7cbe e9af 90be
000001c0: e9e3 163e d31e a13b f416 3dbd 8cc6 c8bd
000001d0: 9ad8 2a3c de11 2a3e cde3 59be 3f7e 01be
000001e0: e2bc b53d b100 8e3d 2458 263e 0a57 143d
000001f0: fcdd ba3d bb9e 29be 4527 4b3b 09a7 613e
