grasp_placement/models/run_seed_5977/stability_net.pth (torch, 816972 bytes, 9 tensors)

fc1.weight f4 [256, 21]
00000000: fb39 143d 516b 0ebe d156 46be d822 a2bd
00000010: 3b2d 4b3d 9dbc 513e 1465 33be 74a0 d1bb
00000020: 207f 6b3d c259 69bd e499 46be a0fd 393e
00000030: 0817 313e a47a 043e 61d7 02be beac 9c3d
00000040: 2228 a6bd d5ea e2bd 408e a7bc 9558 673e
00000050: 73da 4d3e 2ce3 e0bd f31a b7bd 2cde 413d
00000060: 9d1e 1c3c 83d7 f6bc aa7a a23e 7316 3fbd
00000070: d777 a8bb e42b fe3d 1f6b 69bc ed69 58bd
00000080: d8af d33e 35f3 893c 484b 583d 5f54 26be
00000090: 0f13 d33c 3122 e33b e188 24be f650 253e
000000a0: 302f 4a3e 5682 0a3e 0b43 7e3d df3c 7bbe
000000b0: 2719 1fbe 9f0a 643e eead 323c c85d 96bd
000000c0: 5520 873b 477f 64be bffb a6bc 617a 9bbe
000000d0: 07aa c43d b2e8 5d3e 123d 0c3d a98a be3e
000000e0: 641f 72be 6d08 dbbd 93b2 c8bd bffd a5bd
000000f0: 7e32 253c 6e19 89be 375b 513e 314d 2f3e
00000100: f756 37be ae32 cbbd 4bf6 61bd 767c 11bd
00000110: 50a9 c73d 2a7b 2cbe ce38 0e3e c9f6 4bbe
00000120: f7b4 d83d 40e9 f2bd 8601 84bd 0ea1 2c3e
00000130: d5ba 8e3d b7c2 5a3e d5dc 653e 1e70 1bbd
00000140: 6dc5 81bd 9c7a ea3d d8c2 923d a531 b9bd
00000150: a5ea 3bbe b924 423d b4d7 a3bd e92d 473e
00000160: 61e7 ee3c 7234 fe3d 8c9f d13c 8519 0bbd
00000170: 6abe 7839 1c4c 85be 3eff 183e e9d7 31be
00000180: 22c1 3d3e 0b10 a13c 5c2e 993e e931 c6bc
00000190: 1427 42be 81d4 013e 3827 bdbc d993 f1bb
000001a0: ce6e 6abe da06 89be 8564 0e3e f25c 6cbc
000001b0: 0b7a a83c ee1a 81bd a643 823c 492e 0b3e
000001c0: 9a28 43be 9dd6 6e3e 9138 4dbd 22e6 e23c
000001d0: 8a9c 1fbe 98e9 22be 60e9 febd 7b7a 38bd
000001e0: a537 043e 169e 88bd 0666 813d 860d ccbd
000001f0: bb10 a13d 86df d5bd de48 27be c926 f83d
00000200: 0dc9 88bb 91a3 b03d 5972 573e 4fd7 0abe
00000210: 1e70 7b3e 2072 2ebe 40e3 76bd 1264 983d
00000220: b886 113b e9b6 8c3e ab55 9f3d f5e4 3dbe
00000230: ddc3 1bbd 70b2 8fbd 40e2 0b3d d02b 193e
00000240: 04a2 9b3c 5f17 0dbd d521 76be 0601 27be
00000250: 8657 2ebe d6f3 1fbe 9645 e93d 9d8a 2dbe
00000260: cf79 d3bd fe7e 133e d6a9 e1bd 2bd7 8dbe
00000270: e706 983d bc6e 4abd 5dfa 183e 61ed 993e
00000280: 2aea 08be d9e2 18be cbec 90be 5660 a03d
00000290: 509d e43b 77b9 34be 37e2 c9bd 1b44 863e
000002a0: c1b7 bb3d e815 febd 649b 0ebe d543 40be
000002b0: e6c5 8dbe a8f6 553d 33f2 97be fea0 083e
000002c0: d916 06be f6b0 22be 1065 34bd da15 973e
000002d0: 69b3 d53c 73a5 40be 25c6 0dbb 2399 19be
000002e0: 503e 04be 4994 b73d 7ec1 abbe 3da1 ccbd
000002f0: 01f1 2a3d 29f0 f8bd 3713 0b3e fd2a 223e
00000300: 467d 853e 11f1 a7bd a1bc 193e 1a5a 00be
00000310: c0c0 6cbc 30d0 a7bd afc8 94bd b7c0 9f3d
00000320: 296b 8d3d 4e09 ff3d 2d18 4bbe 15f2 ec3e
00000330: 1b18 033e c6c2 753d bb83 95bd ce4e 223d
00000340: c065 97bd be7c 3fbe bbdb ec3d 8991 973d
00000350: 1924 033e a7f9 8b3e 492c f03d 93f4 42bc
00000360: b57e 953d 8cfc efbd a6a7 2f3d afe6 f43d
00000370: c0db 313e 2f00 603c 7f16 313d c275 b0be
00000380: c165 8bbd e74c 50be 8518 75be e18c c9bd
00000390: bada 04be ef17 093e ecc0 1e3e ebf0 7cbe
000003a0: e426 59be 14fc 29be 459c 44be 85fb b33d
000003b0: f663 123e 9bda 703e 345c ba3d a65b 8bbe
000003c0: a72d 16be 4209 f53d ea5e f5be 414f a33c
000003d0: e1a6 93be b782 363e 03fb 6a3e 087d 37be
000003e0: 6e3c b6bd 96ba 1c3c cd46 b33d d6ef b53d
000003f0: 485c 37be 3cda d93d 6c7a ad3d d309 0bbe
0.036188107 -0.13908125 -0.19369055 -0.07916802 0.049603682 0.20482107 -0.17519027 -0.0063973013
0.057494283 -0.056970365 -0.19394642 0.18163157 0.17293942 0.12937409 -0.12777473 0.076501355
-0.081131235 -0.11079947 -0.020453572 0.22592385 0.20102863 -0.109808296 -0.08940687 0.04733102
0.009528783 -0.03013206 0.3173421 -0.04665227 -0.005141239 0.12410715 -0.014246731 -0.052835394
0.41345096 0.016839603 0.05280617 -0.16243123 0.025765924 0.006931566 -0.1606784 0.16144165
0.19744563 0.13526282 0.062075656 -0.24534939 -0.15536939 0.22269677 0.010905726 -0.07342106
0.0041237273 -0.22314177 -0.020383714 -0.30366805 0.09602743 0.21670797 0.03423793 0.37215164
-0.23644787 -0.106949665 -0.09799685 -0.08105039 0.010082839 -0.26777214 0.20444952 0.1711929
-0.17904268 -0.09921776 -0.055166524 -0.035519086 0.09749091 -0.16843858 0.13888857 -0.1991836
0.10581391 -0.11860895 -0.06445603 0.16858312 0.06969229 0.2136334 0.22447522 -0.03794872
-0.06336484 0.11449167 0.0716607 -0.09042672 -0.18351229 0.047398303 -0.080001265 0.19451107
0.029163064 0.12412347 0.025588773 -0.033959884 0.00023722058 -0.2603463 0.14941117 -0.1736752
0.18530706 0.01966097 0.29918182 -0.02419372 -0.1896022 0.1267872 -0.02308999 -0.007372361
-0.22893831 -0.2676304 0.13905533 -0.014426457 0.020566007 -0.063039646 0.015901398 0.13591875
-0.19058457 0.23324056 -0.050102774 0.027697627 -0.15587059 -0.15909421 -0.124468565 -0.04503868
0.12911852 -0.066707775 0.063182876 -0.09963517 0.07864519 -0.10443024 -0.1633639 0.12116773
-0.0041743577 0.08624948 0.21039714 -0.13558696 0.24554488 -0.17035723 -0.060275316 0.07440962
0.0022205543 0.274833 0.07780012 -0.18544371 -0.038028587 -0.07016456 0.034151316 0.1495812
0.018998154 -0.034446117 -0.24036343 -0.16308984 -0.17025575 -0.1562036 0.113902256 -0.16947408
-0.103259675 0.14403912 -0.11018722 -0.27703223 0.074231915 -0.04942201 0.14939256 0.30063918
-0.13370577 -0.14930286 -0.2830566 0.078308746 0.006976761 -0.17648874 -0.098576 0.26223835
0.09165908 -0.12406522 -0.13926464 -0.18775876 -0.27690047 0.052237183 -0.2967697 0.13342664
-0.13094653 -0.15887818 -0.044041693 0.2950886 0.026086526 -0.18813114 -0.0021632996 -0.14999823
-0.12914395 0.0896383 -0.3354606 -0.09991691 0.041733745 -0.12155182 0.13581549 0.15836711
0.2607214 -0.08200277 0.15013362 -0.12534371 -0.014450252 -0.081940055 -0.0726484 0.07800429
0.06905205 0.124529466 -0.19833441 0.46278444 0.12802164 0.060000204 -0.07300516 0.039625935
-0.07392454 -0.18699929 0.11565348 0.074008055 0.12806739 0.27338907 0.11727197 -0.011899131
0.07299558 -0.11718091 0.04288449 0.11958062 0.17368984 0.013671919 0.043234345 -0.34464842
-0.068065174 -0.20341836 -0.23935135 -0.09841324 -0.12974063 0.13388036 0.15503281 -0.24701278
-0.21206242 -0.16600066 -0.19200237 0.08788208 0.14295945 0.23520891 0.090996176 -0.2721836
-0.14665852 0.119646564 -0.47923976 0.019935252 -0.28838256 0.17823301 0.22947316 -0.1791879
-0.08898245 0.00956597 0.087537386 0.08883636 -0.17906296 0.10637328 0.08470616 -0.13577966

fc1.bias f4 [256]
00000000: 26ba 97bc 8f7d 2ebe b793 28bd 49af 113e
00000010: cd80 0bbe 4473 a43d 56bc 26be 14f0 d5bd
00000020: 530b a7bd aa19 41be b91b 3cbe d44f 39bd
00000030: 325a 53be 8fa6 f6bd 43e9 5dbd 16d6 31be
00000040: 6b81 ecbd 48c2 953d b8b4 07be 72a3 123e
00000050: ee4c e4bc a747 09be f160 3abe b917 003d
00000060: 5e99 223e 69a4 993d 2418 1fbd 27d7 2b3d
00000070: 60bb 103d 6e81 e9bd e687 a4bd 7e23 e73c
00000080: 4a8b c3bd 666a 4cbe 7248 8ebc 647d 11bd
00000090: d621 0a3e 4e62 adbd 406f 92bb ff08 723d
000000a0: ba97 49be d238 92ba bd4d dbbd 9b89 1bbe
000000b0: 964f 48be 0e14 80bd 2ffa c0bd 3b83 5dbe
000000c0: f831 f8bd d305 e2bd 8b38 29be e53c 12be
000000d0: 3834 49be 3a58 73be ebc7 e5bd 5ed5 1abe
000000e0: c843 19bc 4af8 8bbd e7d7 1abe 1012 973d
000000f0: 74d3 923d 9466 b93d 88f4 b33d 0f57 6b3d
00000100: 51ec ffbc 92f7 22be 4c54 f83c 7901 80be
00000110: 7dac 17be 42c8 a5bd 6606 14be fa67 d7bd
00000120: caad a03b e701 1abe f017 00be e549 5f3d
00000130: bfc3 6a3c ed26 923d 7f2b 423d f864 3dbd
00000140: 81c9 463d cb3d 4cbd a07d 693b a568 923d
00000150: f424 1b3d ceaa a23d d861 07be 7e3c 883d
00000160: 07ad 8bbe 46d3 153d 02b8 a1bd 1b19 94bc
00000170: d886 56be db70 433c 52bf 4abe b21e d5bd
00000180: 0935 b63d e2fc 12be 6077 113c ff45 02bd
00000190: bd6c 45be 82a7 ff3d ce29 dc3d f18f c5bc
000001a0: a608 cf3d def2 b2bd 62fe 73bd 1824 7abc
000001b0: ca35 16be 3893 273e adc4 4bbe ebac f8bd
000001c0: 1ab0 d43d 4ca6 51be bccc 05be d17e ffbd
000001d0: cb65 84be 4248 a23d a3a6 48be d745 84be
000001e0: 3f28 ebbd 171c 693e 2f9c a2bd b910 4fbe
000001f0: 63a6 f2bd 93d1 d33d 1456 66be 8bf7 4fbe
00000200: 03f0 c23c 7405 c83d 74b5 6abd 4f59 a43c
00000210: 9a14 553c 1e32 24be 43be 3dbe 1538 463d
00000220: c339 d0bb 150d 03bd 7bc4 eb3d 5dcf b5bc
00000230: 00e9 b83d a760 a3bd 71a3 1ebe eee0 b93d
00000240: 585e b3bd b5c0 19bd 2828 073c 86c3 283d
00000250: 06a9 353c c35e 60bd 279f 2bbc c96b 03be
00000260: 9db7 2abe a68e 13be 8d60 edbc 905f 003e
00000270: 4056 fdbd 917a 1c3c 2ce6 51bc 8742 683c
00000280: c7e5 c13d 3b32 12bd 2050 c8bd 9e0f 013e
00000290: 08ce f1bd 54f8 3d3e 18b4 913d e654 7f3d
000002a0: b42c b7bd 2ee4 43be b755 2f3e f850 82bc
000002b0: 672b 373e c95d 7a3d ccc8 ec3d 09e2 59bd
000002c0: dea0 21be e60a 8ebd 4454 54be 4097 19bd
000002d0: 1cee c5bd 26fd 95bb 0594 8ebd 2dc0 9b3d
000002e0: 565e bcbd 5f52 53be 741f 49be 9ddf 0dbe
000002f0: cad5 023e d1a9 523d 1a01 1abd ed94 87bd
00000300: e723 7bbd 017d 9ebd d6f7 64be d1bd 2abd
00000310: 37f2 25be b079 973d 58cf 33be 823d 093e
00000320: 897b 8cbd e3c4 743c 04d7 253e 1f1e d83d
00000330: b832 57be c054 f13d 408a c83b bc2e 9dbd
00000340: a7e2 4d3d 4b2a b6bd 9c82 21be dde0 c03b
00000350: 58c7 5abe 2bcb e03c c8b2 3fbe d825 f53d
00000360: 79dc d7bd 49eb 53be 7a9e f6bd 4463 2e3d
00000370: 23ee 25be d980 11be 96aa 0bbe bf9a 13bd
00000380: 4266 05be 08af 393d 608c 0dbe 1d37 b13d
00000390: f2eb 933d 33ab 053d ce57 0ebe 1dfa 6e3c
000003a0: 0681 f23d eef5 73be 38dd 603d 8a90 c2bd
000003b0: 25ae 3c3d d81c a3bd 7e66 a7bc 9b0d 013e
000003c0: 77a8 b1bc 96dc b63d 4bb0 29be 2525 0c3e
000003d0: 715a fa3c 512b 35be c9c5 86bd 99fe 4ebe
000003e0: 3317 2dbe 8f3a 9c3d 276c 3cbe d61b 8b3d
000003f0: eb78 79bd 2006 d1bd f5d4 01be df4a 4c3d
-0.01852138 -0.17040084 -0.041156497 0.14227022 -0.13623352 0.08029798 -0.16282782 -0.10446182
-0.08156457 -0.18857446 -0.1836995 -0.045242146 -0.20639876 -0.12043487 -0.054177534 -0.17366824
-0.11548122 0.07312447 -0.13252532 0.14320162 -0.027868714 -0.1340624 -0.18201043 0.031272624
0.15878817 0.07502062 -0.03884138 0.041953232 0.035334945 -0.1140164 -0.08033733 0.028215166
-0.09548052 -0.19962463 -0.017368529 -0.035519972 0.1348947 -0.08466016 -0.0044688284 0.05909061
-0.19686785 -0.001115585 -0.10708187 -0.15189211 -0.1956161 -0.06253825 -0.09422719 -0.21632092
-0.12118906 -0.11036267 -0.16525476 -0.14281042 -0.19648826 -0.23764125 -0.11219772 -0.15120456
-0.009354539 -0.06834467 -0.15121423 0.07376492 0.07169238 0.09052768 0.08786875 0.057456072
-0.031240614 -0.15914753 0.030313633 -0.25001124 -0.14811893 -0.08094837 -0.14455566 -0.10517879
0.00490353 -0.15039788 -0.12509131 0.05451383 0.014328896 0.07136331 0.047404762 -0.04623887
0.048532013 -0.049863618 0.0035627857 0.071488656 0.037877038 0.07942735 -0.13220918 0.06652163
-0.27280447 0.03657844 -0.07896425 -0.018078377 -0.20949876 0.011928762 -0.19799545 -0.10406245
0.088968344 -0.1435428 0.008878559 -0.031805035 -0.19279762 0.124831215 0.10750161 -0.024116488
0.101090714 -0.087377295 -0.05956877 -0.0152673945 -0.14668956 0.16364753 -0.19899245 -0.121423565
0.10385151 -0.20473593 -0.13066381 -0.1247536 -0.25858912 0.07923938 -0.19594817 -0.25834534
-0.11482286 0.22764622 -0.07939946 -0.20221223 -0.11848142 0.103427075 -0.22493774 -0.20309274
0.023796087 0.09766665 -0.057301953 0.020062117 0.0130054 -0.16034743 -0.1852961 0.048393328
-0.006354542 -0.031994898 0.11512085 -0.022193605 0.09028816 -0.07977419 -0.15492035 0.09076105
-0.08758229 -0.037537295 0.00824932 0.04120209 0.011087662 -0.05477787 -0.010474957 -0.12834086
-0.16671605 -0.14409885 -0.028976703 0.12536454 -0.123699665 0.0095507065 -0.012811225 0.014176018
0.09467655 -0.035692435 -0.09780908 0.12603614 -0.118068755 0.18551761 0.07114428 0.062336825
-0.08944073 -0.19130012 0.17122541 -0.01590775 0.1788765 0.061124597 0.115617365 -0.05319408
-0.15784022 -0.069356725 -0.2073527 -0.03749776 -0.096645564 -0.004577297 -0.06961826 0.07605014
-0.09197681 -0.20636891 -0.19640905 -0.13854833 0.12776867 0.05143148 -0.037598707 -0.06620202
-0.061313536 -0.07738686 -0.22360167 -0.04168493 -0.16205679 0.07396257 -0.17559564 0.1340237
-0.068595 0.01493952 0.16195303 0.1055262 -0.21015441 0.11783743 0.0061199963 -0.076749295
0.05026498 -0.088947855 -0.1577248 0.005886181 -0.21365106 0.027440628 -0.18720543 0.11970109
-0.10540099 -0.20695223 -0.12041946 0.042575136 -0.16204123 -0.14209308 -0.13639292 -0.03603625
-0.1302729 0.04533294 -0.1382308 0.0865309 0.07222737 0.03263397 -0.13900682 0.014585999
0.118410155 -0.23824283 0.05489847 -0.09500225 0.046064515 -0.07964486 -0.020434614 0.12602846
-0.021686776 0.08928792 -0.16571157 0.13686045 0.030560704 -0.17692305 -0.06580693 -0.20214309
-0.16903381 0.07628357 -0.18400632 0.06792419 -0.060906332 -0.102062464 -0.12678893 0.04987609

fc2.weight f4 [256, 256]
00000000: 6180 83ba 3917 a23c 4246 133d e8a5 3b3c
00000010: 13a9 5bbd c4a4 76bd 3ad9 66bd a232 c93c
00000020: d5cd db3b 0aa4 59bd 7b1a 2f3d d5c6 2abd
00000030: f57f 64bd c3a7 91bb 7cac fcbc 7126 31bd
00000040: 3044 eebc 9182 e23c 7305 9fbd 69d3 793d
00000050: 81b0 9ebd 8335 7f3d fd7f bdbb e633 b1bc
00000060: 8d0a 783c 1c64 f2bb f541 b93a 0e0c e63c
00000070: 7e6b b0bc ad66 46bc e235 c0bd 06a9 ea3c
00000080: 713f 87bc 18e6 e2bc 20b0 55bd b23d 1c3c
00000090: 1b86 36bd 0c8c 503d 7426 e7bd 1388 52bd
000000a0: ba00 c2bd 1be8 d1bc 9c06 b43b 8a3c 3a3d
000000b0: addd 2f3d 0460 20bd 1f69 ca3d 1d44 173d
000000c0: b0ec 48bd 58eb d8bc d13e 54bd b6f2 cc3c
000000d0: b761 253d 091a 0b3d 4d9b 093e ac17 783d
000000e0: d28f ffbc 66f8 37bd 5f6e bcbb b679 c63c
000000f0: 60bb 3fbd 4303 40bd f9ad eabb efc5 b73c
00000100: 5f1f 24bd 7907 22b8 d13c 8abd fa61 0fbd
00000110: 424b 1fbd b862 59bd c870 fbba 87fb 89bc
00000120: 4efc 213b 19a0 fabd 4d1d 17ba e760 0dbd
00000130: e088 c7bd f5a0 94bc 8bff 89bd 86e8 023d
00000140: 923c cbbb 8dac 1d3d b1ac 71bd 19c0 04bc
00000150: 67db a5bd e3e1 823d 2899 1cbc d8fd 573d
00000160: 1ef8 9fbc 5c3a de3b 655d 9d3c a117 0ebd
00000170: 5825 973d 4d4f 0b3c e668 bcbc 3d5b 1cbd
00000180: 4311 bbbc 7938 333d cdd3 a03d 43f8 033e
00000190: 66c2 5f3c a7d3 d0bb 8600 1c3d 850a a6bd
000001a0: 29f1 613c 36f2 ac3d 4fd1 cabb a922 343d
000001b0: f904 d7bc fc00 a5bc 3e2e 94bd 6f40 c3bd
000001c0: 425c 7ebc 13e1 ebbc eed9 70bd c831 b83d
000001d0: 9491 8abd 7312 0abd 1b85 2ebe 5c68 c8bd
000001e0: ee01 0f3d 7fa7 3dbd 7656 2bbd 36ee 2dbd
000001f0: c6e2 90bc 933f 57bd 828f b2bd fa4a 81bd
00000200: 60a4 8cbc 5b1d 79bd 08b1 0bbe d008 963c
00000210: 1657 933c 4e0a 33bd c844 be3c 6dfb 553d
00000220: 971e 80bd 1652 f13c 07c3 ad3b bfe2 d23c
00000230: 1425 95bb c392 85bd 4179 3d3d 4438 513d
00000240: 4737 6e3d 2cf7 abbd ed9d 293d 6de4 86bc
00000250: 2da8 a9bc 03f5 4f3d 8568 ce3c c6b8 bc3d
00000260: d13d 87bc 9810 483d fca3 553b 03c7 003d
00000270: e1aa c7bd 5226 513c dd95 ecbc dbae 32bd
00000280: 82c3 2dbb 9cbb e2bc 8b8f 9a3b 0aba d13c
00000290: 7acb 5dbd 9a6f 0a3c 3cac b4bc b0b5 2c3d
000002a0: 8801 0b3c 09bf 95bb 0486 42bd 50ae acbd
000002b0: d260 81bd 50de c93c 705a 833d 7c21 a63c
000002c0: 9643 a4bc 1526 fbbc 9205 97bd ba9b d1bb
000002d0: c93c 89bd 0c1d 97bd 55f6 443c 0d10 b43b
000002e0: 1827 403b aaed 0a3d 624e ce3d f158 afbd
000002f0: 868d 093d 6ae7 983a 210c c6bb 1e14 8dbc
00000300: eee6 473d 534f 9c3b 184a e23c 39d3 603c
00000310: 32e0 bd3c 039e 6dbd 28f7 60bc d907 8dbd
00000320: b600 ca3c b18b 93bb 791f cf3c ea85 60bd
00000330: 1742 3c3d 23af 8dbd b030 a7bd a100 aebd
00000340: e029 f33b a1af da3c cde1 d6bc e69f 88bd
00000350: b298 8b3c 010a 113d 86f1 65bd 183c 7e3d
00000360: cd10 18bd a4dc a9bb 3d2b 293d 1b02 90bb
00000370: d3e4 ebbc 43d3 9b3b bcec 98bc 3161 243d
00000380: 6bbc 0bbc fae7 0ebd 5d9d 6ebd 39be 95bc
00000390: 1884 e2bc 5f2c 30bd 9a74 013c 8c77 fa3c
000003a0: c90e 193d 9926 36bc 4b38 303c 1443 fe3b
000003b0: 4e3d 87bc f6f6 28bc a785 75bc 7d8b 68bd
000003c0: e2f5 a23b 3fab 203c da59 873d bfff 5ebd
000003d0: 4793 28bd 30a9 21bd fac4 41bb d876 c83c
000003e0: 6e21 973d f5ef 1bbd 317d e13c df08 903c
000003f0: f5f0 e9bd 6134 9a3d 725e 94bd 6b5a 9cbd
-0.0010032767 0.019786464 0.035955675 0.011453129 -0.05362804 -0.060215726 -0.056359507 0.024560276
0.0067078867 -0.053134955 0.042749863 -0.041693527 -0.05578609 -0.0044450476 -0.030843966 -0.04324955
-0.029085249 0.02765015 -0.07764711 0.060992632 -0.07748509 0.062306892 -0.0057830797 -0.021631192
0.015139234 -0.007397188 0.0014134037 0.02808192 -0.021535631 -0.012109441 -0.09385277 0.02864505
-0.016509743 -0.027697608 -0.05216992 0.009536194 -0.044561487 0.05091481 -0.11286631 -0.0513993
-0.09472795 -0.025623372 0.005493952 0.04546789 0.042936016 -0.039154068 0.098833315 0.036930192
-0.049053848 -0.026479408 -0.05181772 0.025018077 0.04037639 0.033960376 0.13438149 0.06056945
-0.031196509 -0.044914626 -0.005750462 0.024227958 -0.046809554 -0.04687811 -0.0071618524 0.02243325
-0.04006898 -3.863077e-05 -0.06749881 -0.035005547 -0.03889013 -0.05307266 -0.0019183392 -0.01684357
0.0024717036 -0.122375675 -0.0005764559 -0.03451624 -0.09742904 -0.018143157 -0.06738194 0.031960033
-0.006202289 0.038494635 -0.059002582 -0.00810244 -0.08098488 0.06390741 -0.009558 0.05273232
-0.019527491 0.0067818593 0.019209573 -0.034690503 0.0738017 0.0085027935 -0.022999238 -0.03817295
-0.02283538 0.04375503 0.07852898 0.12887673 0.013657188 -0.006372887 0.038086437 -0.08107475
0.013790407 0.084446356 -0.0061895023 0.043978367 -0.026247488 -0.020142071 -0.072353825 -0.09533774
-0.015524926 -0.028793847 -0.058801584 0.0899387 -0.06766048 -0.033709 -0.17042963 -0.0978553
0.03491395 -0.046302315 -0.041830502 -0.042463504 -0.017686259 -0.052550863 -0.08718778 -0.06313129
-0.017168224 -0.06081901 -0.13641751 0.018314749 0.017985862 -0.043711 0.023226157 0.05224173
-0.062558345 0.029458087 0.00530279 0.025742887 -0.004551539 -0.06522133 0.046258215 0.05107905
0.058158185 -0.08396754 0.041410375 -0.016466344 -0.020710075 0.05077077 0.025196323 0.0921493
-0.016508969 0.04884395 0.0032598963 0.031439792 -0.097493894 0.012765484 -0.028880054 -0.043623786
-0.0026514237 -0.02767735 0.0047168187 0.025601406 -0.05414913 0.008449459 -0.022054784 0.04216546
0.008484252 -0.0045698923 -0.04749109 -0.08431685 -0.06317295 0.02464214 0.06413734 0.020279638
-0.020051759 -0.030657807 -0.07374109 -0.006396738 -0.06701047 -0.07378587 0.012021621 0.0054950775
0.0029320177 0.03391806 0.10073544 -0.08561886 0.033582233 0.0011665646 -0.0060439263 -0.017221507
0.048804216 0.0047701984 0.027623221 0.013722234 0.023178194 -0.05801202 -0.013730802 -0.068862624
0.024658542 -0.0045027365 0.025283562 -0.05481521 0.045961466 -0.0691817 -0.08163583 -0.08496214
0.0074207634 0.026695075 -0.026230717 -0.06671123 0.017040584 0.03540993 -0.056138538 0.06206903
-0.037125397 -0.005183773 0.041301 -0.0043947822 -0.028795635 0.004755409 -0.018667571 0.04013175
-0.008528809 -0.0348892 -0.058255542 -0.018279182 -0.027650878 -0.043011066 0.007901335 0.030574583
0.037367616 -0.011117601 0.010755609 0.007759461 -0.016508725 -0.010312786 -0.0149854785 -0.05677365
0.004973159 0.009806453 0.06608935 -0.054443117 -0.04115608 -0.03946799 -0.002956687 0.024470732
0.07379423 -0.038070638 0.027525516 0.017582355 -0.11422912 0.07529522 -0.072445765 -0.07634433

fc2.bias f4 [256]
00000000: c030 a2bd e71c 14bc 47d3 10bd 8a56 87bb
00000010: 1487 1f3c a33f 033d cdc4 25bd 4ac3 d43c
00000020: c5ee 47bd 60e5 e5bc e61d 8cbd ec16 8bbd
00000030: 75f8 64bc cbaa 6bbc 4da0 70bd 5158 0c3c
00000040: 6319 84bc 48bf 433d e74c c43c 8002 44bd
00000050: 97e4 933b 4371 103c 21ea 1bbd 7e29 1a3d
00000060: 8bf1 1ebd a4fb 233b da12 e3bd ce33 6e3c
00000070: f025 87bd 152b 80bd d5c9 35bd e0e7 5ebd
00000080: 5bff a7bb f685 f2bb 94c1 d1bc 68f1 49bc
00000090: e9a6 82bc e29e 68bd bdb3 a03a 7b8e bf3b
000000a0: e6c1 13bd 9008 b23c 0679 b1bc ca23 4cbd
000000b0: 681e a03c 2f4e 53bd 8a66 a739 af9d 85bc
000000c0: b0ce c33c efe8 2ebd 362e f2bc e9a6 8f3d
000000d0: 5439 043d 1794 233d a8d1 55bc f5ff cc3c
000000e0: 9dab 09bd f274 3cbd 2a1e 2fbd 2d1d 313d
000000f0: 39fb 74bd 4e95 45bd 0e67 44bd c55e 2d3a
00000100: 4dfb b7bd 9dba 52bc eb76 8ebd bdfc 793c
00000110: d716 bbbd 9890 c2bd 0eaf 133d 5397 34bd
00000120: 6984 babc 7f12 efbc af6e 19bd 46e9 c0bc
00000130: 8b0e 263d 2a7f 9dbc 6a8f 6abd 357a 67bd
00000140: 5b59 92b9 925e a6bc 923a 1cbd 3c75 97bd
00000150: c6c0 89bd 9363 a9bb c23c 713c b86e 81bd
00000160: 7da1 93bc 11e2 02bd c292 78bd fcf3 71bd
00000170: b71b 76bd c35b 9bbd 257e 703d bf24 863b
00000180: 0bfb 18bd 3cca 55bd 6f16 adbc 5e33 18bc
00000190: 195f 82bc 044b a6bd ba9d a23c 72ad 8ebd
000001a0: 0984 2fbb d18f 353c be24 543c e303 c33c
000001b0: d487 963c 4d7f 5abd 7696 e43c 67d6 4ebc
000001c0: ff2e 8fbc 32d0 43bd acca e43a 90f6 ec3b
000001d0: 7f9d 2abd 58d8 af3b 9d25 34bd 36b9 c53c
000001e0: e9ab c63c 1c69 a3bd 7420 e33c d8ff 0fbd
000001f0: bbd9 98bd d106 2c3a 5607 a8bd 943e 5abd
00000200: 25ad f0bc ba67 103d 3484 80bd 50c7 c73c
00000210: ce53 403c b4a5 c0bc 6248 21bd 853e 99bc
00000220: 4c84 c3bd 2648 7a3b b643 3cbc 9645 10bd
00000230: 5644 52bc cdf6 693c 834f b8bc a071 233d
00000240: d1ab 213c 7e28 97bc 1058 873c 1531 163b
00000250: 14e3 a2bd a857 0a3c 7ac9 9ebc 8e40 c7bc
00000260: 1fce 383c d816 34bd eaba 73bd dc37 e33c
00000270: 0af1 f33c 8189 a6bd 7d16 50bd 8cfc 01bd
00000280: fa07 69bd 3560 113b ce9d 053c 8f15 02bd
00000290: 7089 ad3a e67e 2e3d f65f 6bbc e2b1 9cbd
000002a0: 186f debb 3dd4 b6bc f092 183c 3d5e 953c
000002b0: 14dc a8bc 64ce 7b3c b4cb a33c 2750 cebc
000002c0: bdff a0bb f4f2 e63c f87f 9ebd 3e42 b43c
000002d0: 2273 32bd 8197 2dbd 831b 5bbd 7beb 943c
000002e0: 19e6 8cbd 2e7e 9c3c 2d6a 303d 62d0 043d
000002f0: fc73 7dbd 2d6f f1bc 981c a43b 066f 89bd
00000300: 3b76 f03c b17a 01bd caf2 063d 241f 7e3d
00000310: b6ca b03c e6fb 93bd 2ee7 c13c 59ee 4c3b
00000320: 67f8 a5bd 4cd5 26bd fade 0ebd 45b0 d63c
00000330: 1107 6c3c 71b3 3fbd 76fa 423d e02d a4bb
00000340: 5279 8a3c d83a 8fbd 0e91 80bd 8599 a6bc
00000350: 3cb0 f3bc 11f3 81bd 5a82 15bd 4f84 863c
00000360: 954a 79bd 69dd 7ebc 740c 033c 7e9d 263c
00000370: f722 8c3c 2bdf babc 3265 2c3d 146f 11bc
00000380: a49a b4bd dfd5 b6bc f82c 733c 348c 6cbd
00000390: fc11 1b3d 60ef 32bd fb30 8e3d f4d9 81bc
000003a0: faaf 203c 1f70 8ebd c26e 87bd 09e8 873c
000003b0: 4b93 95bb 7a76 3cbd 1d83 9dbd ad5e 1abd
000003c0: 8c22 ea3c b494 10bd 2d28 47bd bb77 17bd
000003d0: e181 dc3c ad49 d43c aa69 2a3c 3eb2 20bc
000003e0: 54ba 70bc 1b4b a1bd 2b9f 193c 5703 d4bc
000003f0: 1666 2fbd 459b 3dbd 5f51 9c3c 95a5 14bc
-0.079194546 -0.009040094 -0.03535774 -0.0041301893 0.009736795 0.03204311 -0.040470887 0.025972027
-0.048811693 -0.028063476 -0.0684164 -0.067914814 -0.013975252 -0.014383982 -0.058746625 0.008565978
-0.016125387 0.047789842 0.023962451 -0.047853947 0.004513334 0.008816066 -0.03806508 0.037637226
-0.038804572 0.0025021816 -0.1108758 0.014538718 -0.06599033 -0.06258217 -0.044381935 -0.054420352
-0.0051268763 -0.0074012233 -0.025605 -0.012325622 -0.01594873 -0.056792147 0.0012260597 0.0058458424
-0.036073588 0.021732599 -0.021664154 -0.04983882 0.019545749 -0.051588234 0.0003192912 -0.016310541
0.023902267 -0.04270261 -0.02956305 0.070142575 0.032281235 0.03993615 -0.013050474 0.025024394
-0.03361093 -0.046009965 -0.042753376 0.043240715 -0.059809897 -0.04823809 -0.047949843 0.0006613548
-0.08983479 -0.012861875 -0.069562756 0.015258011 -0.09135216 -0.09500235 0.036055617 -0.044089627
-0.022768216 -0.029183624 -0.03745907 -0.023548733 0.040541213 -0.019225676 -0.057265677 -0.05651303
-0.00027913865 -0.020308767 -0.038141795 -0.073954076 -0.06726222 -0.005169341 0.014723958 -0.06319946
-0.01802134 -0.031953875 -0.060686834 -0.059070572 -0.060085025 -0.075858615 0.05871405 0.004093736
-0.03734879 -0.05219482 -0.021128861 -0.009289591 -0.015914487 -0.08119777 0.0198506 -0.06966676
-0.002678158 0.011081652 0.012948213 0.023805564 0.018375315 -0.05334406 0.027903777 -0.01262436
-0.017478464 -0.047805972 0.001745542 0.007231541 -0.041654106 0.0053663664 -0.043981183 0.024136167
0.024251895 -0.079790324 0.027725436 -0.0351561 -0.07463404 0.0006562295 -0.08204524 -0.053282335
-0.029379437 0.03525517 -0.06275216 0.024387032 0.011738731 -0.023516513 -0.03937567 -0.01870657
-0.09546718 0.0038189976 -0.011490753 -0.035222612 -0.012833675 0.014280033 -0.022498852 0.039903283
0.009867624 -0.018451925 0.016521484 0.0022917439 -0.07953468 0.00844375 -0.01938318 -0.024322774
0.011279612 -0.043967098 -0.059504427 0.027736597 0.029778022 -0.081316955 -0.050802696 -0.031734988
-0.056892373 0.0022182588 0.008155299 -0.03175884 0.0013239812 0.04260149 -0.014366141 -0.07651116
-0.0067881458 -0.022318 0.009312376 0.018233413 -0.020612754 0.015369032 0.019994594 -0.025184704
-0.004913299 0.028192021 -0.07739252 0.022004243 -0.04356683 -0.042380814 -0.053493034 0.018178692
-0.06879825 0.019103136 0.043070007 0.03242529 -0.06187819 -0.029471958 0.0050082915 -0.06710629
0.029353252 -0.03161115 0.032946385 0.062041417 0.021581035 -0.0722578 0.023669805 0.0031269996
-0.081040196 -0.04073076 -0.034880616 0.026207099 0.014405982 -0.046801988 0.04760214 -0.0050103515
0.016903553 -0.069936454 -0.06277667 -0.020336876 -0.029747121 -0.06345189 -0.036501266 0.016420512
-0.060862143 -0.015555718 0.0079985745 0.010169385 0.017106516 -0.022811493 0.042088695 -0.008876581
-0.08818558 -0.022318779 0.014842264 -0.057750896 0.037858948 -0.043685317 0.06942936 -0.015850998
0.009807581 -0.06954979 -0.06612922 0.016590135 -0.004564678 -0.046011426 -0.076910235 -0.037687946
0.028580926 -0.035298064 -0.0486223 -0.03697942 0.0269174 0.025914038 0.010401169 -0.009808121
-0.014692862 -0.07875653 0.0093763275 -0.025880499 -0.042821966 -0.046290655 0.01908177 -0.009072681

fc3.weight f4 [256, 256]
00000000: 62ac 503d beb4 73bd b314 fabb 9a3c 0cbc
00000010: c359 233d 6219 dcbc 8a58 43bd 0494 68bd
00000020: c475 993c 7391 243d 635b a4bc 7aa2 e5bb
00000030: f52b 323c b4ce aa3c 41b9 33bb d316 88bd
00000040: d1a0 1cbd 3000 34bd caa0 59bc a991 66bb
00000050: 4ba1 d03c 7150 973c 477e 24bd fc3b 88bd
00000060: c07f aa3a 67d3 5ebd bacf de3b eb10 05bb
00000070: 50d6 e03b 121a 5f3d 38f9 b63c 5879 36bd
00000080: b23f a2bd a7c6 443d 1212 8fbd 4e0e 673d
00000090: 6b08 663c d23c 5bbd aecb a5bc ad67 c3bc
000000a0: 37dc fc3c 353a 03bd 199b 2b3c b2d8 1a3c
000000b0: 3333 413d 6683 613c 7ce1 a63c 05e4 553c
000000c0: 156a 5ebd 9bca 5cbc 6e41 183d 7dc3 58bd
000000d0: c2c0 31bd a96c 15bd 7296 d2bc 1b9c 02bd
000000e0: 671f 2bbd 932a 403d b95c 19bd a0c8 c5bc
000000f0: e91f 1dbd 130e 233d d7a3 8ebc 5992 8abc
00000100: 93d1 56bd dc52 d3bc 7d8e e53b 471f e0ba
00000110: 1467 51bd dd79 e83b 95f1 71bc 6d60 87bd
00000120: 32df dbbc 7467 eb3c 8cce c33c d560 53bd
00000130: 4ae4 403d 2a5e 1c3d ea26 1bbd a2a6 03bd
00000140: 4993 1ebd a2c3 7b3d 3946 b6bd 6e96 5a3d
00000150: 2a01 3f3c ffa7 cd3c 5bca 043d c3c6 9dbc
00000160: d37e 59bc e6b2 4bbc c878 01bc c585 20bd
00000170: fa29 3d3d ad0f a9bc 8216 fcbc 5407 7bbb
00000180: ace1 3b3d e271 3dbc 950c bebb 2120 3c3d
00000190: 6447 3ebd 1ff7 f43b 2862 86bc 349c 33bd
000001a0: 2d9c c73c e845 1d3d fa0f 4dbd e62e 83bd
000001b0: 0c40 5b3d 0c5b 4d3d d302 453d fb18 333d
000001c0: caf2 a23c bb82 233d cab0 4dbd 5e09 9cbc
000001d0: 52f5 cabc 7ad1 3dbd 51bd 92bc 6387 acbb
000001e0: 38d7 6d3c b380 efbc c259 083d 3bdb 6ebc
000001f0: ee27 fe3c 9d5d a8bc 28d0 183d 54fe 683d
00000200: 29ff b8bc e8be ac3c 6649 f63c 9f87 12bc
00000210: 23ec 9d3b 0ca4 54bd 30ea 51bc 6da9 98bd
00000220: f5f5 8cbc 6a27 82bd 0944 2d3d e34d 903c
00000230: 6155 85bd 6a5d 33bd af19 8c3c 1d15 6bbc
00000240: 4cb6 a1bb 61de 133b da42 81bd 33e1 98bd
00000250: c0a3 20bb 0637 81bb 07ee 23bd f67e 8cbd
00000260: 5c75 5e3d 943f 8f3c d2a1 7fbd 12d2 133d
00000270: 5e5f e9bb 1bd8 e6bc f24b b63c 416c 4b3d
00000280: b7bc 4b3d 9a2a 85bc 45b8 61bd 36cd 9abc
00000290: ba15 8dbc 2934 713d 1be0 8c3c 9a0a 42bd
000002a0: fc05 363d bbb9 343d 61b0 ee3c 3072 41bd
000002b0: 00da cdba 77bc 2c3d 347b e93c 6e27 433d
000002c0: f493 68bd 5024 63bb dfc6 4abd e982 87bd
000002d0: 7b01 00ba 0099 9c3c 6a7d 2abd 5007 79bd
000002e0: 8224 1a3d 5a02 a4bd e56d 9fbd 42a2 04bd
000002f0: 48bd 5dbd edd5 093d d9ec 03bd b5ec 2ebd
00000300: 59d0 a5bc 60ea 513d 1d91 863c 6917 7cbd
00000310: 7807 8ebc c88d 9cbd 074a 173d 7fa6 5cbc
00000320: 326d 193d fc70 2fbd a097 a3bc 3978 ce3c
00000330: 94c7 143d 1eca d83b 368f 0d3d a30b dbbc
00000340: f31d 133d ec0c b13c 8a80 6abd 2b47 1ebc
00000350: 5d39 65bd d83f 4bbc 64df 37bd 7ea2 0d3b
00000360: 3035 8bbc d9a8 1dbd 3729 e43c 6fbe 26bd
00000370: 287a 7dbd bc24 3d3d ff86 033d 2aa5 32bd
00000380: c788 16bd 8eee 1cbc 74c7 7dbd 979b 37bd
00000390: 1d62 9dbc 999a 593d 004c 75bd 944d 713d
000003a0: ba8e de3c 45ee 3e3d 3db0 75bd 2084 1abd
000003b0: b387 c7bc 9e25 87bc 57ba 36bd e836 c9bc
000003c0: 4fa9 693d 95e5 02bd 4ce9 96bd 0e6c 29bd
000003d0: 8c67 9dbd 5ac4 ffbc 474a be3a 3817 3dbd
000003e0: c979 f93b d9a1 153d 7bc0 013d 5df8 ac3c
000003f0: 0499 4cbd d81e 193d 0892 793c 2058 353d
0.050945647 -0.05949854 -0.007631862 -0.00855937 0.039880525 -0.026867572 -0.04769186 -0.056781784
0.018732913 0.040177774 -0.020063108 -0.007007894 0.010874738 0.020850517 -0.0027423652 -0.066449784
-0.038239304 -0.04394549 -0.013282964 -0.0035182035 0.025467535 0.018470975 -0.04015949 -0.06652066
0.0013008043 -0.054400828 0.0067996653 -0.0020304273 0.0068614855 0.054468222 0.022335634 -0.044549316
-0.07922305 0.048041012 -0.069858685 0.056410126 0.014040093 -0.0535248 -0.020238724 -0.023853147
0.030866725 -0.032037932 0.01047399 0.009451078 0.047167968 0.013764238 0.020371191 0.013054852
-0.054300386 -0.013476039 0.037171774 -0.052920807 -0.04339672 -0.03648058 -0.025706504 -0.031887155
-0.041777994 0.046915602 -0.037441943 -0.024143517 -0.03836051 0.039808344 -0.01741211 -0.016915487
-0.05244596 -0.025796346 0.0070055113 -0.0017099165 -0.051123694 0.0070946054 -0.01476707 -0.06610189
-0.026839826 0.028735854 0.0239022 -0.051606018 0.047092713 0.03817574 -0.03787891 -0.032141335
-0.03871468 0.061465867 -0.08900113 0.053366117 0.011657992 0.02510452 0.032419544 -0.019259816
-0.013274866 -0.012432789 -0.007902332 -0.039190073 0.04618261 -0.020637358 -0.030772451 -0.0038303928
0.045869514 -0.011562796 -0.0057998397 0.045929078 -0.046454802 0.007475748 -0.016404226 -0.04385014
0.024366463 0.038396746 -0.050064065 -0.064054295 0.053527877 0.050135657 0.048098397 0.043724995
0.019891161 0.039919596 -0.050217427 -0.019047435 -0.024775181 -0.04634235 -0.017912539 -0.005265163
0.014516644 -0.029236173 0.033288725 -0.014578636 0.0310249 -0.02055245 0.03730789 0.05688317
-0.022582607 0.021087125 0.030064296 -0.008943467 0.0048194095 -0.05191426 -0.012812182 -0.074541904
-0.017207125 -0.06355174 0.04230121 0.017615264 -0.06510425 -0.04379026 0.01710209 -0.0143482955
-0.0049350616 0.0022562968 -0.06311579 -0.07464828 -0.0024511665 -0.003943327 -0.040021922 -0.068601534
0.05431114 0.017486371 -0.062410183 0.03608901 -0.0071219644 -0.028179219 0.02225301 0.049663786
0.04974052 -0.016255666 -0.055107374 -0.01889668 -0.017222274 0.058887634 0.017196706 -0.04737339
0.0444393 0.04412244 0.029136838 -0.04722804 -0.0015705228 0.04217192 0.02850113 0.047645025
-0.056781724 -0.0034659095 -0.049506065 -0.06616766 -0.0004883033 0.019115925 -0.04162351 -0.06079799
0.037632473 -0.08008261 -0.077846326 -0.032381304 -0.05413559 0.03365128 -0.032208297 -0.04270621
-0.02024095 0.051248908 0.016426617 -0.061545763 -0.017337546 -0.0764423 0.036935832 -0.01346743
0.037457652 -0.04283236 -0.019969761 0.025203811 0.036323145 0.006615891 0.034560405 -0.026738947
0.035917234 0.021612607 -0.05725149 -0.009660522 -0.05596291 -0.012405358 -0.044890776 0.0021611745
-0.016993135 -0.038491104 0.027851684 -0.040708955 -0.061884075 0.04617761 0.032111164 -0.043614544
-0.036751535 -0.00957836 -0.06195779 -0.044826116 -0.019211823 0.05312595 -0.059886932 0.058911875
0.027167667 0.04661395 -0.059982527 -0.03772366 -0.024356699 -0.01649743 -0.0446113 -0.024562314
0.05704623 -0.031957228 -0.073687166 -0.041362815 -0.076857656 -0.031221557 0.0014517986 -0.04616472
0.007613395 0.036531303 0.031677704 0.021114523 -0.049950615 0.03738293 0.0152325705 0.044273496

fc3.bias f4 [256]
00000000: 44cd 3ebd 74b5 4cbd 0386 9dbc 2535 7abc
00000010: 7913 95bc 5f3b 83bd d622 a7bd 6808 77bc
00000020: 045f c1bc 7302 7a3d 3692 913c 610d 92bd
00000030: 2fa3 eebc 7e9b 363c 7caa 73bd dae8 3ebc
00000040: e87b 963c ac19 2dbd f4e5 3f3d 1ec1 48bd
00000050: c137 13bd 08a6 b43d d05a eabc ae22 8ebc
00000060: 73fc 023c 797d 9dbd 9826 903c 098b 01bd
00000070: f175 07bd c052 27bd dbf6 a6bd 9c6e 513d
00000080: e430 15bc 7e3a 44bd 3137 91bc fd9f 53bc
00000090: 4a9f a0bd e726 a4bd 6860 e93c ff03 b8bc
000000a0: 8e72 a23b ec77 2bbb 386a d2bc ac52 633c
000000b0: 24d7 383d 892a 8dbd 06df d5bc 36d9 5cbd
000000c0: eda7 1ebc d677 5cbd 72f8 3a3d bc8c 8ebc
000000d0: 101c 69bd df85 96bd 191a 92bd 7354 a73d
000000e0: e2a8 583c 9c04 9fbc 88be 28bd e28a 12bd
000000f0: 1739 38bd 3b43 1f3d 5fd0 d539 984f a8bd
00000100: 56a1 553d 6ab5 68bd 9e13 90bd 6b37 4ebd
00000110: eee0 a53d b15b 4cbc 2af0 163d 9164 3fbd
00000120: b412 2bbc 6d04 003d 68ce 87bc cd44 ccba
00000130: c420 573c 692e 21bd c952 66bd 60d5 15bd
00000140: d80a 4dbd 4ef7 8dbd 4a5d 88bd 7a23 ad3c
00000150: 6422 563c 3157 083e 54c8 06bc cc1d ffbc
00000160: 213a 0ebd 14dd a6bd 9945 fe3c ff93 35bd
00000170: 0a84 4fbc a959 833d a007 ccbc b479 f63b
00000180: 41ec 48bd fb1b c9bc 5548 9ebc 3cd6 3f3d
00000190: 7094 b83c 5565 d0bc 0d7b 6abd 1e70 5d3d
000001a0: 35a5 26bd 6183 293b d08e fcbb e807 d0bc
000001b0: d904 3c3d ca24 b9bc fa7a 8cbd 8bc8 d7bc
000001c0: 8238 993d fc86 b7bd 6cc2 99bd 5ca5 41bc
000001d0: 7f20 89bd 7429 2aba cf59 433d a250 ac3d
000001e0: d5f5 9a3c b76c f3bc 5f64 643d cb2a 57bc
000001f0: d920 79bd 8f0b 84bd d08a a4bc 743f b73c
00000200: 4e3e 78bd bc72 b3bc 9681 393d 37a4 a4bc
00000210: 37d8 19bd 2248 c6bc 649e 15bc 92e2 93bd
00000220: b30c 3fbd 6da9 91bc abe2 41bc e565 67bd
00000230: 183a 0c3c b317 aebc 547e 813c 4b2d a0bd
00000240: 2d2b e8bc 6b44 88bd f9ea 61bc 0191 53bd
00000250: 53f6 7d3d ee26 63bd da0c 8fbc 0897 46bd
00000260: bea3 903d 94d1 cbbc 2439 b8bd 1be0 2dbd
00000270: 8e05 aa3c 88a2 843d 8cb1 ca3c 8322 c539
00000280: 41f6 d53a c34b aebc 863e 1abc c2b9 95bd
00000290: 7a5c d1bc db17 fbbc dd2b abbd 245a 60bd
000002a0: 1b9b 78bd 3acf 1abd dd3f 25bd 2dc4 d2bb
000002b0: e4de f0bc 8426 efbb 07c9 8a3d afb7 50bc
000002c0: 370f 273d e07c b0bc 4f12 a4bc a9a7 0fbd
000002d0: b28b d93b 10c0 a33c 0a7b 39bd 8a5f 333c
000002e0: fb8d 64bc 47fc 953c 2362 01bd 164c 77bb
000002f0: 001e 133d 6547 9b3c b013 73bd 3caf 1cbd
00000300: 5250 0abd 9763 813d 9836 bebd 935c 84bc
00000310: f03e 3ebd dbe8 34bc 0dc7 3abd ade3 0a3d
00000320: e2a0 6dbd dcc6 69bd 762f 8cbd 9b55 773c
00000330: 651a d03b 35c3 ca3d df58 23bd 72c3 96bc
00000340: ad55 9fbd 9763 30bb 3562 4dbd 709b 8abc
00000350: 2705 04bc c083 41bd 848a 663c 0065 8cbd
00000360: 94af 63bd a64f f0bc 50b9 cabb a314 9d3b
00000370: 179a a2bd 7be4 553d 8be5 8e3c 7271 33bd
00000380: 4fed 8a3d e481 cabc f866 6cbd 4c9f 36bd
00000390: 5fbe e1bc b1fc 54bd f832 333c 7abc 8f3d
000003a0: 8ff0 99bb 3cb6 05bd e652 97bd 0c89 463a
000003b0: 57ac 67bd 41b9 073e 3f33 73bc cf2d 70bd
000003c0: be27 8abd 221c 9abb 7a91 a0bc df0a 30bd
000003d0: c9a2 37bd 6315 c6bc 21e5 90bd a157 02bd
000003e0: c358 05bc 4053 53bd 3dc2 c73b 6ef3 8abd
000003f0: 7bf5 853c 2a5c 0bbd 7214 bfbd fb9b 05bd
-0.046582475 -0.049977735 -0.01922894 -0.01527146 -0.018197762 -0.064078085 -0.08160941 -0.015077688
-0.023604877 0.061037492 0.017769914 -0.07131458 -0.029130546 0.011145471 -0.05948876 -0.011652196
0.01836963 -0.04226081 0.04685016 -0.049012296 -0.035941843 0.088207304 -0.028607756 -0.017350521
0.007994759 -0.07689948 0.017596528 -0.031626735 -0.033071462 -0.0408504 -0.08152553 0.051130876
-0.009105895 -0.047907345 -0.017726513 -0.012916562 -0.07842882 -0.080152325 0.028488353 -0.022462843
0.0049575036 -0.0026164008 -0.025685415 0.013874691 0.04512705 -0.068928786 -0.026107322 -0.053918086
-0.009683591 -0.053825222 0.045647092 -0.017401092 -0.056911528 -0.07349753 -0.07133884 0.08170404
0.013223859 -0.019411378 -0.04119733 -0.03577698 -0.04497632 0.038882475 0.00040781774 -0.08218306
0.052155815 -0.056813635 -0.07034992 -0.05034582 0.080995426 -0.012473033 0.036850132 -0.046726767
-0.010441471 0.03125422 -0.016577914 -0.0015584469 0.0131303705 -0.0393509 -0.056231294 -0.036580443
-0.05005917 -0.06931935 -0.066584185 0.02113508 0.013069723 0.13314511 -0.008226473 -0.031142138
-0.034723405 -0.08147636 0.031039046 -0.044330593 -0.012665758 0.06413586 -0.02490598 0.0075218324
-0.049053434 -0.024549475 -0.0193216 0.04683517 0.022531718 -0.025438944 -0.057246257 0.054062
-0.040684897 0.0025865661 -0.0077074543 -0.025394395 0.04590306 -0.02260055 -0.068593934 -0.026340744
0.07481481 -0.08961293 -0.07507786 -0.01181921 -0.06695651 -0.00064911623 0.04769307 0.08413817
0.01891605 -0.029714925 0.055759784 -0.013132761 -0.06082234 -0.06447517 -0.020085722 0.022369124
-0.060606293 -0.021905296 0.0452896 -0.020097835 -0.037559714 -0.024204317 -0.009132002 -0.07220949
-0.04664297 -0.017780984 -0.011833827 -0.05649366 0.0085587725 -0.021251535 0.015807308 -0.07821139
-0.0283409 -0.06653675 -0.013788932 -0.05165196 0.06200249 -0.055457048 -0.017462183 -0.04848388
0.07062481 -0.024880208 -0.08995274 -0.04245005 0.020754602 0.06476313 0.024742864 0.0003760048
0.0016324 -0.02127636 -0.009414321 -0.07310821 -0.025556792 -0.030651024 -0.08357976 -0.054773465
-0.060694795 -0.037795283 -0.040344108 -0.0064320774 -0.029403158 -0.0072982926 0.06776624 -0.012739106
0.040785994 -0.02154392 -0.020028261 -0.035072003 0.0066389674 0.019989043 -0.045283355 0.010948071
-0.013949866 0.018308772 -0.03158773 -0.003773456 0.035917282 0.018954942 -0.059344947 -0.038253054
-0.033768006 0.063178234 -0.09287757 -0.016157424 -0.04644674 -0.011041845 -0.045599986 0.033908535
-0.058014758 -0.057074413 -0.0684499 0.0150960935 0.0063508027 0.09900514 -0.039879676 -0.018403742
-0.07780013 -0.002691483 -0.050142486 -0.016919822 -0.008057869 -0.047244787 0.014071111 -0.06855202
-0.055587366 -0.029334854 -0.0061866418 0.00479372 -0.079395466 0.05221985 0.017443439 -0.04380936
0.06783544 -0.02472014 -0.057715386 -0.04458551 -0.027556596 -0.051998798 0.010937445 0.07018371
-0.0046978663 -0.032644495 -0.073888585 0.0007573522 -0.05656084 0.13254263 -0.014843761 -0.058637436
-0.067458615 -0.0047030607 -0.019600619 -0.042979117 -0.04483298 -0.02418012 -0.07074953 -0.03182185
-0.008138838 -0.051593065 0.006096153 -0.06784712 0.016352406 -0.03402344 -0.093300715 -0.032619458

fc4.weight f4 [256, 256]
00000000: b7ae 83bb d5ac df3c 02fd adbb 7235 b2bc
00000010: 402a 49bd e9ce 49bd 1806 90bc 3881 24ba
00000020: 2460 27bd ce88 68bd c6a5 25bc 5420 02bd
00000030: 8aa4 db3b a551 2d3d 4065 c3ba 046d ecbb
00000040: c7c0 3b3c 68e3 26bb 2d67 e4bc 08c0 06bd
00000050: 1ed1 793d 7e87 8fbd 3649 5bbc d542 adba
00000060: 2e57 8fbd a0e9 113c aedf 083d 9ab1 0dbd
00000070: 46ef 363d c33f 1a3c 2034 06bc 158e 28bd
00000080: 60de a4bb 75d0 72bc 752f 72bd 66c0 5c3d
00000090: 4686 6c3d 63ef 6bbd 6754 823b 6bc2 b5bc
000000a0: 9a47 4a3d ec09 b33c afc6 de3c f189 91bd
000000b0: 1926 f1bc d0ac 453d a831 bcbb 06db 16bd
000000c0: 23fd 7a3b a0b0 3e3d 6e34 47bd ba62 2b3c
000000d0: a944 ce3c 4343 63bd e461 8abc 0c26 20bc
000000e0: 7b61 e6bb 1d43 e53c 528c 063d 2089 fc3b
000000f0: 2383 86bc 29da a6bb b59b f93c 20ef dc3c
00000100: de80 d73b 9aab 7e3d c809 59bd 4ced f0b8
00000110: b68d 91bd f330 3fbc 17b6 20bd 8819 3b3d
00000120: 4875 2c3d 0c79 e03c 16d8 5c3d b7c6 173d
00000130: d68e 4ebd d6fb 543c e005 a03c 00d5 88bd
00000140: 84d7 85bd 28bb ba3c b6dd 5f3d a8a5 d53c
00000150: fb9a 8bbd 882a a439 36e0 32bc b4b0 03bd
00000160: a871 303d 1582 50bc 410a 95bd 5307 f3bc
00000170: ce17 4d3d 1a45 2d3d 28f7 c23b 2767 7c3c
00000180: 239f 373d f9c3 86bd 974f 88bc ba54 4e3d
00000190: ba23 92bd 0aed 15bd bfb5 533d 87f4 543b
000001a0: 5c44 68bd c4bd 363d cd68 f8bc 2945 14bd
000001b0: 10b2 d43c 432d 26bd fccf a9bc c4e2 0c3b
000001c0: cb31 34bb d66f 2a3d 46a4 a83c 7d07 223c
000001d0: 742b ca3b af5c a13c 05a4 4abd 5730 a63c
000001e0: 916b 14bd 5597 333d 3970 4c3d 18ba 66bd
000001f0: 0984 093d 9443 863c 1f5b c5bc 4d43 c8bc
00000200: 1b39 7bbc 56db 16bd c819 72bd 85d0 943c
00000210: 5cb8 463d 24b2 56bd 7f76 34bd 0021 3d3b
00000220: d110 5dbd e276 c6bc 04b8 343d 023a 203d
00000230: ef01 8a3b bdc5 8bbd bbbd b239 6eae 7abd
00000240: 1a8c d33c 75ee 463d 3b68 6a3c ad73 1fbd
00000250: 9d0d 2fbd ec8f 9e3c 4b44 86bd 27c8 c9bb
00000260: 67a7 f1ba 2d84 eb3a abff 33bd 74e5 a63c
00000270: 6cde 133d e48b c8bc 32bb 1abd c66f 60bc
00000280: 29d1 24bc 8dd8 d43b a9b5 99bb f8a3 573d
00000290: 1c75 04bd 5c69 363d 4f13 26bb be4c 54bd
000002a0: d054 4ebd 72da 043d 784f 123d 6d06 6fbd
000002b0: 7916 48bb ca09 2d3d 4559 073d 4518 963c
000002c0: 8b40 6cbd 56c8 49bc 0a71 693b d52f 2fbd
000002d0: 59a5 113d 5add 8cbd 1454 6bbd b2e7 07ba
000002e0: 4332 d83a cd28 493d bc0b 3abd 8e64 bdbb
000002f0: a219 073d 0e12 853c de71 9e3c f9b2 d0bc
00000300: c032 5b3d 466f 81bd eccc 2cbd 7060 26bd
00000310: f32e 1a3d 58e9 1cbd f015 16bd e1c5 80bd
00000320: 9eab 42bd 7fa5 cdbb dda0 913c ec31 aabb
00000330: 511d b5bb c3a8 103d db7d babc ca38 2ebd
00000340: 2c2d a9bc 842c 2d3c 5204 5ebd 3271 afbc
00000350: c65d 4b3d 2ba6 c0bc a16c b3bc e023 083d
00000360: 8074 4fbb 7b8e c93b e919 d73c cb51 91bd
00000370: 3a0a afba de70 7fbd d5c3 17bd 8063 873c
00000380: 9605 4e3d 4771 5cbd ae8c 48bd 3c6e a9bc
00000390: a0e9 d13c 00b1 1abb 0286 673c 2a8e f8bc
000003a0: 14a0 13bd f5cd 50bd 72a5 89bb 5840 153c
000003b0: ed40 ccbc dfee 43bc 74f2 9fbc 5ee1 103d
000003c0: dd95 f239 1725 a7bc f6e4 c03c a1e1 1c3d
000003d0: 745d 4c3d f4ae e23c 2837 833c e3b8 663c
000003e0: e5a7 1ebd 05d5 383d 7e50 0c3d 4ac8 1b3d
000003f0: 3153 ff3c 6eeb 2e3d 62c1 abbc 139d d33c
-0.0040186304 0.027304092 -0.005309702 -0.021754 -0.04911256 -0.04926959 -0.01758103 -0.00062753586
-0.04086317 -0.056771092 -0.010110324 -0.03176911 0.006702964 0.04231419 -0.0014907494 -0.007215144
0.011459536 -0.0025465135 -0.02788123 -0.03289798 0.060990445 -0.07008265 -0.013384154 -0.001321877
-0.0699905 0.008905798 0.033416443 -0.034593202 0.044661783 0.009414616 -0.0081911385 -0.041151125
-0.005031392 -0.014820208 -0.05912729 0.053894423 0.05774524 -0.057601344 0.0039773467 -0.022187432
0.04938469 0.021855317 0.02719435 -0.07106388 -0.029437112 0.04826051 -0.005743224 -0.03682997
0.0038297854 0.04655516 -0.048633985 0.01046055 0.025179224 -0.055484068 -0.016892381 -0.009774696
-0.0070306635 0.027986104 0.032848664 0.0077067763 -0.016419953 -0.0050919247 0.030469755 0.026969492
0.0065766415 0.06217537 -0.052987844 -0.00011488292 -0.07107107 -0.011669385 -0.039236154 0.045678645
0.042104036 0.02740147 0.053917013 0.037054744 -0.050429188 0.0129994955 0.019534051 -0.066812515
-0.06535247 0.022794321 0.0546548 0.026079968 -0.068166696 0.00031312206 -0.010917714 -0.03215094
0.04307714 -0.0127263265 -0.072773464 -0.029666578 0.05007153 0.04230223 0.0059498735 0.015405453
0.0448295 -0.065803476 -0.016639514 0.05037377 -0.071357206 -0.03660301 0.051687 0.0032494382
-0.056705818 0.04461457 -0.03032341 -0.03619877 0.025963813 -0.04057051 -0.020729057 0.0021497468
-0.00274955 0.04161056 0.020586144 0.009889481 0.006169731 0.019697515 -0.049472827 0.020286722
-0.036235396 0.043845493 0.04991171 -0.056329817 0.033573184 0.016389646 -0.024091301 -0.024446154
-0.015333439 -0.03683027 -0.05910662 0.018165836 0.048515663 -0.052415982 -0.04405832 0.002885878
-0.053971115 -0.02422661 0.044120803 0.03911782 0.0042116563 -0.06824825 0.00034092166 -0.061201505
0.025823642 0.048567254 0.014307077 -0.038928676 -0.042737592 0.019355737 -0.065559946 -0.006157893
-0.0018436731 0.0017968469 -0.043944996 0.020373084 0.03610079 -0.024480768 -0.03777618 -0.013698524
-0.010059633 0.0064955414 -0.004690845 0.052646607 -0.032338247 0.044534072 -0.0025341099 -0.051831
-0.050373852 0.03243489 0.03572032 -0.058355737 -0.0030530973 0.042245664 0.03304412 0.01832212
-0.05767874 -0.01231583 0.0035620355 -0.042770226 0.03555808 -0.06878157 -0.05745323 -0.00051843666
0.0016494471 0.049111176 -0.045421347 -0.0057798093 0.03298343 0.01624396 0.019341405 -0.025475966
0.053515196 -0.06320052 -0.042187616 -0.040619314 0.03764243 -0.03830847 -0.036642015 -0.062877424
-0.04752695 -0.006275832 0.0177769 -0.0051939394 -0.0055271764 0.035317194 -0.02276509 -0.042534627
-0.020651422 0.010569695 -0.05420334 -0.02141628 0.049649976 -0.023516735 -0.021902384 0.033237338
-0.0031655133 0.006151018 0.026257472 -0.07095679 -0.0013354488 -0.062363498 -0.037051994 0.016526937
0.050298296 -0.053818967 -0.048962288 -0.020682447 0.025624096 -0.0023604035 0.014131071 -0.030341227
-0.036041334 -0.050977666 -0.004200631 0.009109579 -0.024933303 -0.011958807 -0.01952479 0.035371177
0.00046269494 -0.020403428 0.023546677 0.038301114 0.04989381 0.027671315 0.016017511 0.014082166
-0.038734335 0.045125026 0.03425645 0.038032807 0.031167598 0.042704992 -0.020966236 0.025831735
