grasp_placement/models/run_seed_2792/stability_net.pth (torch, 42504 bytes, 7 tensors)

fc1.weight f4 [64, 21]
000000 1d 6a 8d bd 2c 67 34 bc c2 f7 cc 3d 75 ea 57 be
       -0.06905005 -0.011010926 0.100081936 -0.21085532
000010 d2 6a 35 bd 37 02 71 3d 45 cc cb 3d 4c 33 68 be
       -0.044291325 0.058840003 0.09951071 -0.22675818
000020 c9 79 90 3c 8e 3b 9b 3c 9c d6 38 3e a1 af cc 3b
       0.017636197 0.018949296 0.18050617 0.0062465225
000030 62 83 07 3e d7 d0 94 3a 68 ba 62 be 92 01 8f 3c
       0.13233712 0.0011353743 -0.22141421 0.017456803
000040 e5 74 f0 bc 57 e6 07 3e ed cc 88 be 1e fc 2a be
       -0.029352615 0.13271461 -0.26718846 -0.16697738
000050 49 7f 80 be b1 b5 85 bd f7 31 32 be 0e 8f 3d 3e
       -0.2509711 -0.065287955 -0.17401873 0.18511602
000060 02 c9 0e be be e4 37 be d6 a6 20 be e3 8a 31 3e
       -0.13943866 -0.17958352 -0.15688643 0.17338137
000070 6e 12 15 bd 60 bc 90 3c 99 e5 66 bc da 42 45 be
       -0.03639453 0.01766795 -0.014092826 -0.19263783
000080 5b a9 01 be cf d1 c6 bd 67 da 30 bd 24 b1 20 3e
       -0.1266226 -0.097079866 -0.043177035 0.15692574
000090 d4 a4 5f bd 1a 48 1d 3e 3e 85 24 3e bb 17 aa 3d
       -0.05460055 0.15359536 0.16066453 0.083053075
0000a0 34 8e db bd ea 36 56 3d 0f 86 8a 3c 6c 32 39 3e
       -0.107204825 0.052298464 0.016909627 0.1808564
0000b0 fa ef 45 3e 5b dc b2 bd f1 31 0e be 1e b3 14 be
       0.19329825 -0.08733436 -0.13886239 -0.14521453
0000c0 51 0f e7 bd d1 01 85 bd a9 47 df bd 43 80 2f be
       -0.11282218 -0.06494487 -0.1090234 -0.17138772
0000d0 3f 26 05 be 12 e8 05 3e 8c b6 57 3e ed 8f 70 bd
       -0.13002871 0.13076809 0.2106573 -0.05873101
0000e0 9f 4e 29 3e 5b b7 6c 3e 33 ec 12 3e 3f 64 e5 3d
       0.16533898 0.2311682 0.14347915 0.11200761
0000f0 11 22 60 be 28 fe fe 3d 83 6b aa bc b2 ef b9 3d
       -0.21887995 0.1245082 -0.020803219 0.090789214
000100 3f 24 31 be 28 2f 83 3e 77 06 aa 3d 98 74 43 3e
       -0.17298983 0.25621915 0.08302014 0.19087446
000110 cf 60 8e bd bc 51 0a 3d 40 5f fd bd 99 64 01 3e
       -0.069520585 0.033769354 -0.12371683 0.12636031
000120 c6 11 11 bd 67 72 fa bd 12 79 31 3e 72 0c 04 be
       -0.03541734 -0.12228852 0.17331341 -0.12895373
000130 b7 07 6d 3e f5 c2 39 3c 89 f9 3c be bc 22 5d 3e
       0.23147474 0.011337985 -0.18454565 0.21595281
000140 a0 97 03 be 2b a2 5b 3e 24 44 5b 3e fa e6 72 be
       -0.12850809 0.21448581 0.21412712 -0.23720923
000150 22 d0 b4 3d 98 fe 27 be b2 10 86 bd 54 65 b1 3e
       0.08828761 -0.16405714 -0.06546153 0.3464762
000160 25 0a 58 be 10 ac c9 3d 3b f6 2a 3e 8e c2 b9 bd
       -0.2109762 0.098472714 0.16695492 -0.090703115
000170 ca 18 00 be cf 5c 10 be 79 40 5e 3e ed 9f 14 bd
       -0.12509456 -0.14097904 0.21704282 -0.03628533
000180 bc 2a fc bd 49 c6 e9 3d b0 de 0c 3e 22 9f b2 3b
       -0.123128384 0.11414773 0.13756824 0.005451099
000190 36 b2 ce bd c0 fc 4e be 2a a6 7b bd 1f 79 5c 3d
       -0.10092585 -0.20213604 -0.061437763 0.053826448
0001a0 b7 72 67 bc 97 86 4a be 64 48 26 3e 94 97 4b 3e
       -0.014126471 -0.19777904 0.16238552 0.19882041
0001b0 a0 98 b0 bd 7e 76 7f 3d 7e ba 56 bb a3 4a e0 3d
       -0.08622861 0.062368862 -0.0032764967 0.10951736
0001c0 ed 8d 3d 3e 5e db 9e bd fe 56 1e 3e 0b fa 97 bd
       0.18511172 -0.07756685 0.15462872 -0.07420739
0001d0 f7 fc d3 3c a1 68 57 3d 1a 78 8b bd f1 3f 3b be
       0.025877459 0.052590016 -0.06810017 -0.1828611
0001e0 18 cc 59 3e bf 5b 13 bd 57 f4 1d be b7 eb 4f be
       0.21269262 -0.035976168 -0.1542524 -0.20304762
0001f0 46 f6 18 3e 0e c8 17 3e 32 48 ec 3c 8d 7f c2 bd
       0.14937696 0.14822409 0.02884302 -0.09496985
000200 06 cd 37 be 3b 1f 30 bd a1 b1 38 3e 9c 1a be bd
       -0.17949304 -0.042998534 0.1803651 -0.09282419
000210 5f 14 18 be bd 64 e0 bd eb c7 01 be 04 11 2a 3e
       -0.14851521 -0.10956714 -0.12673919 0.16608053
000220 11 bd 36 3d 34 97 32 3e 88 ed 33 be f0 33 16 3c
       0.0446139 0.17440492 -0.1757108 0.009167656
000230 7a 67 c2 bd b5 b6 1d 3e 43 25 4c 3e bd 98 15 3e
       -0.09492393 0.15401728 0.19936089 0.14609046
000240 35 72 11 bd 10 ec 2e be 07 39 71 3e 9d 30 dc bd
       -0.035509307 -0.17082238 0.2355691 -0.1075146
000250 54 63 1b be 7f c9 91 bd 93 1c 8a 3c 64 e6 bf bd
       -0.1517461 -0.071185105 0.016859328 -0.093701154
000260 4a 44 02 3e ed e4 c9 bd 10 ae 44 3e 9d 82 1b bd
       0.12721363 -0.09858117 0.19207025 -0.03796636
000270 94 77 10 3d 34 cf f1 3d 82 ed 98 3d 28 c5 99 3b
       0.03527029 0.11807099 0.07467176 0.0046926923
000280 e2 6e 37 3d 04 20 14 3e b1 2e 83 bd 2f 57 37 be
       0.04478348 0.14465338 -0.0640539 -0.17904352
000290 38 ee 33 3e d1 d7 25 bd fd 17 3b bd 9b ff 39 be
       0.17571342 -0.04048902 -0.045677174 -0.18163912
0002a0 06 a7 06 3e 81 94 3d 3e ae 1d b0 bd 1b a6 2c 3e
       0.13149652 0.18513681 -0.08599411 0.16860239
0002b0 09 d4 09 3d b9 10 8a bd 84 69 22 be 64 35 a9 bc
       0.033649478 -0.06741471 -0.15860564 -0.020655341
0002c0 91 21 06 3e 06 9f 08 3d 70 59 b2 3d 98 c0 f3 bd
       0.13098742 0.03335478 0.08708465 -0.11901969
0002d0 a8 f7 80 bd 5e b2 55 3d d7 c6 cd 3c c7 29 3f 3e
       -0.06297237 0.052172057 0.025119228 0.1866828
0002e0 31 d2 b8 3d c0 0e 45 be ed 7d ee bd 8a bb be bc
       0.09024466 -0.19243908 -0.11645112 -0.023282785
0002f0 02 4c 5b be b4 f6 ed 3d 8f 4f 16 3e 9e 01 5b 3e
       -0.21415713 0.116193205 0.14678787 0.21387336
000300 05 39 29 be a9 55 0e 3e 8b 1c 59 be 33 1b 20 be
       -0.16525657 0.13899864 -0.21202295 -0.15635376
000310 5c af 40 3e b5 17 2d bd 9e 4a 22 be bb 78 7a bd
       0.18816894 -0.042258937 -0.15848777 -0.061150294
000320 4a 8c fa bc 2e e6 4a 3e e8 eb 38 be a6 9a 54 be
       -0.030584473 0.19814369 -0.18058741 -0.20762119
000330 a9 1e dc 3d be f5 23 3e 7a 5a 13 bd a2 f0 62 3e
       0.107480355 0.16011712 -0.035974957 0.22162107
000340 01 58 93 3e c5 41 51 bd b9 ce 23 3e 99 45 cc bd
       0.2877808 -0.051088113 0.15996827 -0.09974212
000350 4a e8 5d 3e 2b 9e 81 3e e7 d0 38 bd b8 84 e7 3d
       0.21670642 0.25315985 -0.0451211 0.11304611
000360 02 01 b5 3d 64 14 0a 3e c7 91 4a 3d 89 75 80 bd
       0.08838083 0.13484341 0.04945543 -0.06272418
000370 14 4c 9f bd 70 f6 ed 3c ce 21 30 be ef 13 36 3c
       -0.077781826 0.029048175 -0.17200395 0.011113151
000380 be 2a 07 be e4 73 77 3d 2b 1a cf 3d 79 bb 53 3d
       -0.13199899 0.060413256 0.10112413 0.05169246
000390 90 7a 67 3d 1a f7 14 3e fc a2 6f be e5 f9 2c 3d
       0.05651337 0.14547387 -0.23402017 0.042230505
0003a0 3a 99 3f 3c db 62 67 3d 16 d8 88 3e 53 e8 c5 3d
       0.011694247 0.05649076 0.2672736 0.09663453
0003b0 33 18 9d 3c b5 72 5b be 03 29 c4 3d e8 0e 72 be
       0.019176578 -0.21430476 0.09578135 -0.23638499
0003c0 5a bf 1a be 8c 0e 62 bd 2d d6 b7 bd 92 b3 fe bd
       -0.15112057 -0.055189654 -0.08976398 -0.12436594
0003d0 7e 34 2b be d1 d7 26 bd 9f 15 09 be 24 db 50 3e
       -0.16719243 -0.040733162 -0.13387154 0.20396096
0003e0 12 12 a6 3d 70 12 a3 bd 87 10 6f bc db 39 1c 3e
       0.081089154 -0.07962501 -0.014591343 0.15256445
0003f0 dd 65 f2 3c b3 d9 13 3e 17 ed 30 3e bb f0 f0 3d
       0.029589588 0.14438514 0.17277943 0.11764666

fc1.bias f4 [64]
000000 5b ee 96 bd ea 00 32 3d cd 1c ba bd a8 2c 1f be
       -0.073696814 0.043457903 -0.090875246 -0.15544379
000010 67 43 0b be 4d 0e 72 bc 3d 7c 3b 3e b1 33 45 3e
       -0.1359993 -0.014773917 0.18309112 0.19258
000020 bd 58 56 3d 7d 38 14 be b8 1c 34 bd c5 09 c8 3c
       0.05233072 -0.14474674 -0.0439727 0.024418721
000030 99 ff 86 3e 18 2c 1c 3e 1c 5c 22 bd 51 6d 71 3d
       0.2636688 0.15251195 -0.039638624 0.058942143
000040 30 80 bd bd d6 1d 27 3e ec 4d 21 3b 2c b8 f2 bd
       -0.092529655 0.16319975 0.0024613095 -0.11851534
000050 47 10 a5 bd ea fe 72 3e 5d 15 d1 3d 3e 0d 2c 3e
       -0.08059745 0.23730054 0.10209153 0.16801926
000060 dc 8a 30 bc 38 9d d5 3d 37 13 e3 3d e7 42 02 bd
       -0.010775294 0.10430378 0.11087649 -0.031802084
000070 9e 55 5c bd c4 77 24 3c 00 77 68 3e e3 2f 0f be
       -0.05379259 0.01003832 0.22701645 -0.13983111
000080 4e 28 c4 bd e4 46 1b be 0f d9 52 3e f4 ed 32 3d
       -0.09578 -0.15163761 0.20590614 0.04368396
000090 d0 57 68 3e ca 02 90 bc 1a 92 f1 ba f8 88 f1 3d
       0.22689748 -0.017579455 -0.0018430382 0.11793703
0000a0 0f b5 9d 3d aa 3a 1d bd 7c e9 54 bd 22 ab 1d 3e
       0.0770055 -0.038386025 -0.05198048 0.15397313
0000b0 c3 53 c7 bd 87 56 32 3e af 11 06 3d e2 25 31 3e
       -0.09732773 0.1741582 0.03273171 0.17299607
0000c0 ed a8 40 3d df 2d 86 bd 2d 76 05 3d 68 63 e9 bc
       0.0470361 -0.06551718 0.032583404 -0.028489783
0000d0 23 2a 2a be c1 2e bb bc 16 a0 df bd 7e ec 51 3e
       -0.16617636 -0.022849442 -0.10919206 0.20500371
0000e0 3c f7 2e 3e 0b 4c 2a bd e8 cd 19 3d 36 ad d9 bd
       0.170865 -0.041576426 0.037549883 -0.106287405
0000f0 69 21 f2 3d b3 b4 7a 3d 8d 32 da bd 06 a4 44 bd
       0.11822779 0.061207484 -0.10654173 -0.048007987

fc2.weight f4 [64, 64]
000000 46 f1 31 be 6c 54 25 be f1 ab 93 3d 24 44 d6 bd
       -0.17377195 -0.16145486 0.072105296 -0.104622155
000010 1d c7 10 be 84 50 9f bd 00 e7 e9 bd de fb b3 bd
       -0.14138456 -0.07779029 -0.11421013 -0.08788274
000020 c6 b6 2f 3d ce 37 52 3c a0 4c 95 bd 39 c1 b4 3d
       0.042898916 0.012830688 -0.07290006 0.08825917
000030 e9 3e 80 bc 77 9f a0 3d 68 10 c1 bd 77 b4 11 bd
       -0.015654998 0.078429155 -0.09426957 -0.035572495
000040 95 8f be bd fb 3c 0a bd b0 97 c4 3d 67 55 fa bd
       -0.0930473 -0.03374956 0.095992446 -0.122233205
000050 97 af d5 3a f7 66 8b bd 97 f6 a0 3d 3d 0d 16 3d
       0.001630294 -0.06806748 0.07859533 0.03663372
000060 fe 30 d5 3d f7 2f 4b bd 02 5a dd 3d f0 07 22 be
       0.10409735 -0.04960629 0.10808183 -0.1582334
000070 30 79 0a bd 7b 30 c1 bc dd 4b 70 3d d8 c6 ef bd
       -0.03380698 -0.023582688 0.0586661 -0.11707848
000080 61 0f b3 bd a2 4c fc bd 45 a7 db bd 82 aa cc 3c
       -0.08743168 -0.12319304 -0.107252635 0.024983648
000090 7a 9a ee 3c 21 dc 94 3d 72 11 1e bc 08 7a c7 3b
       0.029126395 0.07268549 -0.009647714 0.0060875453
0000a0 e1 8f 17 3e 6f 47 dd 3d ff 77 0a bd af 52 a9 3d
       0.14800979 0.108046405 -0.033805843 0.08267724
0000b0 b7 81 b3 3c 0f cd c5 bd 29 97 66 bc 67 ed ef bd
       0.021912439 -0.096582524 -0.014074125 -0.11715203
0000c0 0f b0 b2 bd 20 a8 48 bd b7 ca f9 bd 04 e7 89 3d
       -0.08724987 -0.04898846 -0.12196868 0.06733516
0000d0 a4 0c 47 3d 2b 22 1e 3e be 04 f0 3d 60 db 26 3d
       0.04859604 0.15442722 0.117196545 0.040736556
0000e0 67 0a 32 3d ea 69 8a bc 00 09 82 3d 85 7d b0 bb
       0.04346695 -0.016896207 0.06349373 -0.005386057
0000f0 32 36 06 3e fa 23 95 3c 2e 70 13 3d cd d9 c8 bd
       0.13106611 0.018205632 0.035995655 -0.09807167
000100 09 b1 e0 3d e6 01 c4 3d 03 da 3f 3c ca dd 99 3d
       0.10971267 0.095706746 0.011709693 0.07513006
000110 c1 c5 85 3d c9 d9 fe bc 72 a8 6e 3d b1 8c 37 3d
       0.06531859 -0.031109707 0.05826611 0.04481191
000120 2d d2 6a 3c d1 f2 70 bb cd ae f4 3b bb 82 a8 3d
       0.014332336 -0.0036765824 0.007467127 0.0822806
000130 bf e2 d3 bc 59 8d 80 3d bd 6e 0a 3e a4 4c 7f 3d
       -0.025864957 0.0627696 0.13518806 0.06232895
000140 d5 92 32 bd e2 d3 b4 3d 14 77 e2 bd 74 f9 14 3e
       -0.04359706 0.08829476 -0.110578686 0.14548284
000150 17 4d 27 3d 6d df a6 3b 7a fd dd 3c 04 89 46 bd
       0.040845003 0.0050925524 0.027098406 -0.048470512
000160 50 a0 7b bd 05 4b 53 3b cd 49 5d 3d 04 fd 15 3e
       -0.061432183 0.003224076 0.05402546 0.14647299
000170 31 8b 66 bd e7 46 3c bd c5 3b 72 3c 29 91 17 3d
       -0.056285087 -0.045966055 0.014784758 0.03700367
000180 ea 58 b4 3d bb 41 5e 3d 5f 4f 15 3e 7c cc 25 3d
       0.088060215 0.054261904 0.14581059 0.040478215
000190 83 1d 3f 3d a3 a7 59 bd 48 c5 8b bd 00 7b 98 bd
       0.046659004 -0.053138386 -0.06824738 -0.074453354
0001a0 df 1e 59 bd 8c 60 56 3d 0d b8 83 3d 23 6a 71 3d
       -0.053007957 0.052338168 0.06431589 0.05893911
0001b0 7c 76 54 3d 4a b4 88 3d e7 a7 f9 3c 83 85 8e 3c
       0.051870808 0.066750124 0.03047557 0.017397648
0001c0 92 d4 8a 3d e4 6e d3 bd a5 ce a5 bd ee 56 19 bd
       0.06778826 -0.10323885 -0.08096055 -0.03743642
0001d0 2d 83 63 bd eb dc 24 bd c3 70 c1 bd 31 90 21 3d
       -0.05554502 -0.040249746 -0.09445336 0.039444152
0001e0 e4 80 6a 3d 3e 23 cb bd 6a 3d 40 3d 36 20 09 3e
       0.057251826 -0.09918831 0.04693357 0.13391194
0001f0 00 b6 d6 3d ca 6f a5 3d f3 d5 4f 3d 9d 57 9c 3d
       0.104839325 0.08077963 0.050741147 0.076338984
000200 81 5b ee 3d 01 6e 9e 3d 7d 0d 90 bd 67 d2 18 3e
       0.11638547 0.07735825 -0.07033823 0.14924012
000210 3c 25 94 bc 72 b3 32 3d 7c 20 01 be cf a5 be bc
       -0.018084161 0.043628164 -0.12610048 -0.023272423
000220 08 41 d5 3b 0c 30 9b 3c 55 f2 48 3d 06 24 8b 3d
       0.0065079965 0.018943809 0.04905923 0.0679398
000230 81 50 c0 bc e8 c1 1b 3d c6 4f e8 bc b8 81 2e 3c
       -0.023475887 0.03802672 -0.028358351 0.010651045
000240 5d 01 25 be 00 96 94 bd 36 8e 16 3c 2a 96 8f bd
       -0.16113801 -0.07255173 0.009189179 -0.070110634
000250 8c 47 b2 3c d3 c4 26 bd 11 45 02 be 7c 24 b0 bd
       0.021762632 -0.04071505 -0.12721659 -0.08600709
000260 a0 7d ea 3b 5b 5f 54 bd 91 33 bf 3d 9a fb c4 3d
       0.007156089 -0.05184875 0.093360074 0.09618302
000270 99 e3 c0 3d 18 2a e6 bc ce 5e ae 3c f3 e7 f7 bd
       0.09418411 -0.028096244 0.02128544 -0.12104788
000280 85 af ca 3d ee 5f cd bd 05 f1 f5 3d 74 06 04 3d
       0.09896759 -0.10028063 0.120088615 0.032232717
000290 48 05 e1 bb 23 ca c5 3c 5e 28 f6 bc d8 1a 79 bd
       -0.0068670847 0.024144238 -0.030048545 -0.060816616
0002a0 5e e1 fa bb 98 f5 8b 3d 81 2c 2a 3d 24 f2 f1 bb
       -0.0076562604 0.06833953 0.04154635 -0.0073836017
0002b0 d2 8f a7 bd a0 1e da 3d 68 70 8d 3d dc dc 35 bd
       -0.081817284 0.106503725 0.069062054 -0.04440008
0002c0 f2 db 0c be d9 df 71 bc 14 bc 76 3c 03 a8 89 3d
       -0.13755777 -0.014762842 0.01505949 0.06721499
0002d0 43 76 a9 bd 4e 17 f5 bc 91 62 bd 3d 43 e6 e8 3d
       -0.0827451 -0.02991834 0.09247316 0.11372044
0002e0 0f 85 12 3e 01 ed ab 3c 73 70 16 3d 77 aa ff 3d
       0.1430857 0.020987036 0.036728334 0.124836855
0002f0 fa 3f 77 bc c5 ed 00 3d 34 d0 d6 3d 7e 43 0d 3c
       -0.015090937 0.031476755 0.1048893 0.008622048
000300 3a fb 00 3e 75 e4 4d 3d 80 2b bf ba 82 ee df 3d
       0.12595835 0.0502667 -0.0014585108 0.10934164
000310 f7 4a 05 3d 8b 17 ca bd 88 44 1c 3b 8b 25 2e bd
       0.032542195 -0.09867772 0.0023844559 -0.042516273
000320 28 7a ab bd b7 d8 a2 3c 0f b4 51 be 92 e2 23 3a
       -0.08372909 0.019878728 -0.20478843 0.0006251718
000330 9b 82 bc bb 8f f1 75 3d 5d 53 be 3c 08 79 c3 bc
       -0.005752874 0.06004482 0.02323311 -0.023861423
000340 6e 87 a8 bc f6 65 db bd 89 c3 72 bc c6 e7 46 bd
       -0.02057239 -0.10712807 -0.014817127 -0.04856088
000350 7b 64 c5 3b ca ab a6 bd c6 c8 86 3d 24 4c 0b bc
       0.006023941 -0.08138235 0.06581263 -0.00850204
000360 e4 1b 08 be 7c 49 3e 3d 50 b1 22 be b6 ae 16 3c
       -0.1329189 0.0464568 -0.15887952 0.009196928
000370 79 bc e6 3c ff 58 ce bd f7 6a 16 3e 9b 8d 3b bd
       0.028166043 -0.100755684 0.14689241 -0.045789342
000380 3b ba b4 bd ff b5 c8 bd a0 58 f0 bd fc f6 5a 3c
       -0.08824583 -0.09800338 -0.11735654 0.01336455
000390 90 74 58 3d cb 88 45 be fc 51 99 bd f0 ec 95 3d
       0.052845538 -0.19290464 -0.074863404 0.07320583
0003a0 0e 65 04 be 92 23 dd bd e0 f4 1d 3d 54 35 16 bd
       -0.12929174 -0.107978 0.03856361 -0.03667195
0003b0 66 d3 69 be 57 0b 88 bd ed 8e 23 bd d6 82 16 3e
       -0.22834548 -0.06642788 -0.039931227 0.14698347
0003c0 cf bb 24 bd 4f 40 d2 3d e8 1d bf 3d 43 53 11 be
       -0.04021817 0.10266172 0.09331876 -0.14191918
0003d0 1e 45 13 be 05 3f 58 3d ef 22 da 3d 9d ef a7 bc
       -0.14381835 0.052794475 0.10651194 -0.020499999
0003e0 ae 35 b9 39 1e 3a 26 3c d2 41 2f 3d 84 fc 02 3e
       0.00035325944 0.010145692 0.04278738 0.1279164
0003f0 6d 28 2b bd a3 7c 50 bd 9e 49 ae bc 5e c2 9f bd
       -0.0417866 -0.050900113 -0.021275338 -0.078007445

fc2.bias f4 [64]
000000 07 28 aa 3d 62 d5 03 3e 1a f9 12 bd f0 ab 8c 3d
       0.08308416 0.12874368 -0.035882093 0.06868732
000010 f4 6a 2c bd 9c 5b b1 bd 71 1d 02 3e 89 cd b1 bd
       -0.042094186 -0.08660051 0.12706544 -0.08681781
000020 f3 b6 e7 bc d9 27 90 bd 74 f3 b7 3c 30 c1 89 3d
       -0.02828548 -0.0703885 0.022454955 0.06726301
000030 e4 b0 0f bd d0 01 31 3d b8 60 af 3d 82 42 c3 3d
       -0.035080805 0.04321462 0.085633695 0.0953417
000040 92 30 8a 3d bc 83 8d 3d ad 19 04 bd 17 46 dd 3b
       0.06747545 0.06909892 -0.03225105 0.00675274
000050 5d 74 e3 bc 9c ab 82 3d 05 a8 01 3e 6b 07 06 bd
       -0.027765447 0.06380388 0.1266175 -0.032721918
000060 6d bc ad bd 88 bc a9 3d fe d9 a8 3d 21 14 e0 3d
       -0.08483205 0.082879126 0.08244704 0.10941339
000070 3a ad 64 3d 97 60 a7 3d 85 31 05 3e 34 67 6b 3d
       0.055829264 0.0817272 0.13007171 0.05747147
000080 26 b0 66 bd 0e a9 ab bd ed 2e 0d bd 56 4f ee 3d
       -0.056320332 -0.08381854 -0.03446858 0.11636226
000090 2e 4b 25 bd 02 40 8c 3c 81 4e 2c 3d 51 ad d6 bd
       -0.0403549 0.017120365 0.042067055 -0.10482276
0000a0 23 77 81 bd 46 7a 19 3c b5 db a3 3a f3 e3 9e 39
       -0.06321552 0.009367531 0.0012501391 0.00030305944
0000b0 eb 01 e0 3d c5 1a ce bd 4c 47 66 3d 00 04 b0 3d
       0.10937866 -0.100637 0.056220338 0.08594513
0000c0 0b dc b4 bd bf 00 9e 3d 91 90 39 bd 14 f0 16 bc
       -0.08831032 0.07714986 -0.045303885 -0.0092125125
0000d0 39 0e 18 bb 78 51 e1 3d a1 f8 f2 3c e3 b7 42 b9
       -0.0023201837 0.11001867 0.029659571 -0.00018569785
0000e0 55 5f 60 3d 70 bf f7 3b fd 09 c4 bd 1a 3a 74 3d
       0.054778416 0.007560663 -0.095722176 0.059625722
0000f0 2f 29 dd bb 7d 08 9c 3d 9f ff 92 3d 16 b9 9b 3d
       -0.006749294 0.076188065 0.07177662 0.07603662

fc3.weight f4 [64, 64]
000000 28 1b ef 3b 98 e5 82 3d 0e 04 dc 3d 15 55 c3 3d
       0.0072969384 0.06391448 0.10742961 0.095377125
000010 f3 8b fd 3d 39 63 85 bc 45 f6 7e 3d 4e a6 08 3d
       0.12380209 -0.016282665 0.06224658 0.033361726
000020 71 65 a3 3d cc 53 0a 3e 4b ce 34 3d 5f 8b de 3d
       0.07978333 0.13508528 0.04414205 0.10866427
000030 48 ee 2f 3d 90 0b 82 bc b7 66 a3 bc 2d e3 71 3d
       0.042951852 -0.015874654 -0.01994644 0.059054542
000040 bf 9e 35 bd 72 c5 81 bc 9c 45 c3 3d 17 5a fa 3d
       -0.044340845 -0.01584122 0.09534761 0.122242145
000050 91 a0 d5 3d ed 33 bb bc 16 e9 e2 bd 3e 9c b9 3d
       0.10431016 -0.022851909 -0.11079614 0.09063004
000060 97 66 d0 bd 6f 0d 01 bd cc b7 af bd 00 6c 8e bd
       -0.101758175 -0.031506952 -0.08579978 -0.06954193
000070 42 c7 10 3e a6 2d 96 bd b2 86 00 3e c2 eb e7 3c
       0.14138511 -0.073329255 0.12551382 0.02831066
000080 26 45 a0 bc 3a b7 83 bd e3 8d a2 bd 75 ab c9 bd
       -0.019564223 -0.06431432 -0.07937219 -0.09847156
000090 90 a1 0f 3d df fa bf 3d 62 e8 be 3d 44 d0 15 3d
       0.035066187 0.09374022 0.09321667 0.03657557
0000a0 cc 14 17 3d 45 9c f8 bd 10 4a 45 3d d4 87 22 39
       0.036885068 -0.12139181 0.048166335 0.00015500124
0000b0 ab 4b b9 bc 24 92 c8 bd 40 50 2f bc 94 f0 8e 3d
       -0.02261909 -0.09793499 -0.010700285 0.069794804
0000c0 5e 6b dc 3c 9f 2e 29 bd c2 8a ba 3d 13 ee aa 3d
       0.026906665 -0.041304227 0.09108497 0.0834619
0000d0 bd 69 74 bd b0 42 c6 3c 8c bc e2 bd a2 da c0 bd
       -0.059671152 0.024201721 -0.11071119 -0.09416701
0000e0 1f c8 ae 3d 95 48 ff 3d 49 80 2a 3e 5e 60 f6 bb
       0.08534264 0.12465016 0.166505 -0.007518812
0000f0 ad 80 f2 3d a9 eb 6c bd 42 ed 5a 3d ac e6 19 bc
       0.11840949 -0.05784193 0.053448923 -0.009393375
000100 4e f0 a3 bd 49 bc 0d 3e de 05 0e 3e 62 f0 eb bd
       -0.08004819 0.13841356 0.13869426 -0.11520459
000110 57 9d 13 3e 48 fe 00 3e a2 65 47 3d 3f 0e be 3d
       0.14415489 0.12597 0.04868091 0.09280061
000120 f9 fc e9 bd a7 89 37 be 7f a2 a0 bd 45 f6 68 3c
       -0.11425204 -0.17923604 -0.07843494 0.0142188715
000130 b8 41 d1 bc 76 98 43 bc 37 45 b5 3d 85 ed 24 bd
       -0.025544032 -0.011938205 0.08851092 -0.04026558
000140 ea e0 c8 3d dc 82 ff 3d ca b8 31 be f3 cf 1e bd
       0.09808524 0.12476131 -0.17355648 -0.038772535
000150 5a 2e dc 3d 89 0d 8a bd 51 25 f1 3d 63 4f 1d be
       0.10751028 -0.06740863 0.11774696 -0.15362315
000160 66 bc 82 bb e0 89 0d 3d 25 f6 d8 3d 49 d7 c2 3d
       -0.003989744 0.034555316 0.10593823 0.09513719
000170 3d b7 35 be 0c 01 9f 3d 9a b0 0d 3e ea 52 c7 3d
       -0.17745681 0.077638716 0.138369 0.097326115
000180 c9 38 5d 3d ec 3b 96 bd cb 0b 08 3e c2 8f 5f 3d
       0.054009233 -0.07335648 0.13285749 0.054580458
000190 3c 54 a6 3c c0 e9 61 3d d3 fd 61 3d bf ba a8 3d
       0.020303838 0.055154562 0.055173706 0.08238744
0001a0 0b 91 00 3e 83 70 23 bc 5a 07 28 be fa 24 2b 3e
       0.1255533 -0.009975555 -0.16409054 0.16713324
0001b0 c8 7b f7 3c cf 90 de 3c 89 23 4e be 79 70 d9 3d
       0.03021039 0.02716866 -0.20130743 0.106171556
0001c0 a4 d1 e9 3d 41 0b 96 bd 6c 58 7f 3d 19 3c 56 bd
       0.11416939 -0.07326365 0.062340185 -0.052303407
0001d0 c7 29 a1 3d 92 45 12 3e b5 57 ed bc 02 44 aa 3d
       0.078692965 0.14284351 -0.028972486 0.08313753
0001e0 01 cc fa 3d bb 17 88 3d d8 d6 42 be e3 10 82 bc
       0.12245942 0.06645151 -0.19027269 -0.015877193
0001f0 61 7f ef 3d ed 36 bb 3d 40 a7 e7 3d 3d ef a6 3d
       0.116942175 0.09141336 0.11311197 0.081511
000200 05 cd 06 3c 07 fe e3 bc 49 ef 90 3c d3 d6 30 3e
       0.008227591 -0.02783109 0.017692225 0.17269449
000210 37 6a b8 bc ea c4 f0 3d 22 bf 77 bd 26 8f 1f bd
       -0.022511585 0.117563084 -0.060485013 -0.038954876
000220 a5 d4 f1 bd 01 e1 8f 3c 91 3d c5 bd 37 00 74 3d
       -0.11808137 0.017563345 -0.096308835 0.059570517
000230 b1 19 ba bd 2b 72 fb bc d0 cd db bd 07 4c 0c be
       -0.090869315 -0.030694088 -0.10732615 -0.13700877
000240 98 c4 00 3e e4 9f 7e bd a2 fc c5 3d c2 03 ee bc
       0.12574995 -0.062164202 0.096673265 -0.029054526
000250 87 b5 c6 bd 6f c0 c1 3d 73 a2 3e 3c c9 ad a8 3d
       -0.09702592 0.09460532 0.011635411 0.08236272
000260 95 99 1e 3e 8a 71 02 3d 2c e1 21 bc 06 9b ba 3d
       0.15488274 0.03184656 -0.009880345 0.091115996
000270 f8 38 48 3e 62 0f d5 bc 9c 3f 08 3e d8 c3 0c bd
       0.19552982 -0.026008312 0.13305515 -0.03436646
000280 fb 81 38 3e 2a 79 b3 bd aa 9b 99 3d 8b bb 9c bc
       0.18018334 -0.087633446 0.07500394 -0.019132396
000290 1f 9c d1 3c c6 a7 2e bd cc 83 06 3e a8 b3 fb bd
       0.02558714 -0.04264047 0.13136214 -0.12290126
0002a0 6e f3 8e bd 12 32 08 be 6a 99 b1 3d d4 aa f9 3c
       -0.06980024 -0.1330035 0.086718395 0.030476965
0002b0 f2 7c d5 bd dd 17 a3 bc 04 27 20 3b 8b 21 8e 3a
       -0.10424222 -0.01990884 0.0024437318 0.0010843737
0002c0 de af 86 bd 45 0e bf 3d 7a 30 2e 3d d7 fe 90 bc
       -0.06576513 0.093288936 0.0425267 -0.017699642
0002d0 ba 92 ed 3c 65 09 e5 bd f9 e3 0b bd 0f 47 e9 3d
       0.029000629 -0.111834325 -0.03415296 0.113905065
0002e0 49 93 dd bc fc f4 75 bc 49 88 37 3e 99 25 a3 ba
       -0.02704777 -0.015012022 0.17923082 -0.0012447118
0002f0 06 37 3b 3a 8e 42 14 bc ef c0 60 3c d0 c5 0f be
       0.0007141683 -0.009049071 0.013717874 -0.14040303
000300 eb a2 aa 3c bb d2 6e bd 6b 4a 7f 3d 70 8b 17 3e
       0.020829638 -0.058306437 0.06232683 0.14799285
000310 b3 67 aa 3d 36 64 bc 3d 34 3c 8a bd 49 e7 d5 bd
       0.0832056 0.09198801 -0.06749764 -0.10444505
000320 7e 68 ae bc 1d a0 ec 3d fc 19 ba 3d a0 16 84 3d
       -0.02129006 0.11553977 0.090869874 0.06449628
000330 d2 61 ec 3d b4 cd 00 3c 6d 45 ba bd e0 b6 07 3a
       0.11542095 0.007861543 -0.09095273 0.0005177092
000340 5d 38 d4 bc cb e8 5e 3d 8d be 0f 3e 7e b5 cb 3d
       -0.025905782 0.054421227 0.14037533 0.09946726
000350 44 61 9b 3d 52 a5 1e 3c 1b 52 86 3d 21 ca 92 bb
       0.07586911 0.00968297 0.06558629 -0.004479662
000360 fa 53 76 bd 9d 87 27 bd 52 6b 22 bd 32 5d b7 3d
       -0.06013868 -0.040900815 -0.03965313 0.089533225
000370 fd 50 24 3e a5 2c 8b 39 0b 89 e4 bd 6e 7c a4 bc
       0.1604652 0.0002654541 -0.11158951 -0.020078864
000380 a1 d1 21 3e ac 9a 8d bd 75 a6 ee bd 32 58 88 3d
       0.15802623 -0.06914267 -0.11652843 0.06657447
000390 f7 e0 00 bd 90 67 a0 bd 2d d0 be bc 2a b6 db bd
       -0.031464543 -0.07832253 -0.023292625 -0.107281044
0003a0 37 13 b0 bb a0 7d 5e bd 57 b1 87 bd e7 15 4f 3d
       -0.0053733843 -0.054319024 -0.06625622 0.050557997
0003b0 45 44 7a bd 6b 95 7a bd ea 99 e6 bc 1d 09 cc 3d
       -0.061100263 -0.061177652 -0.028149564 0.09962676
0003c0 ac d9 b8 bd f8 e7 ac 3d f4 88 23 bd 12 c7 97 3c
       -0.090258926 0.08442682 -0.03992553 0.018527541
0003d0 3b a1 d7 bd 95 bc b2 3d aa b2 90 bc 5c 09 a4 bd
       -0.10528799 0.087273754 -0.017663319 -0.08009598
0003e0 b0 e9 67 3d 1c d9 ba 3d 1e 0e 07 3e e8 14 08 3e
       0.056619346 0.091234416 0.13188979 0.13289225
0003f0 49 0b 06 bd 1b 7c 71 3c 42 a3 c9 bd f8 51 f1 bd
       -0.032725606 0.014739062 -0.09845592 -0.117832124

fc3.bias f4 [64]
000000 71 dd d4 bd 3f 73 80 3d 9f 2b b9 bd 71 0e cf bc
       -0.10393799 0.062719814 -0.09041523 -0.02527544
000010 70 1e f9 bd d5 93 04 3e 1c 3a 55 bd 60 00 52 bc
       -0.121640086 0.12947018 -0.05205737 -0.012817472
000020 cb 69 49 bd b0 3b b7 3c 5f 50 5e 3b c6 57 ee 3d
       -0.049173158 0.022367328 0.0033922417 0.11637835
000030 40 88 d0 bc a8 62 e3 bc 1b 40 bc 3d 0f c2 74 3d
       -0.025455594 -0.027757004 0.09191915 0.05975538
000040 f5 98 16 3c ca 9f 87 bd dc c8 21 bd c7 92 be 3d
       0.009191741 -0.06622274 -0.039498195 0.09305339
000050 a5 69 74 3d 68 39 c3 3d ce 24 c8 3d e0 05 1c bc
       0.059671063 0.09532434 0.09772645 -0.009522885
000060 02 75 a5 3d b6 24 37 3d 78 66 75 3d 9b 86 f4 bd
       0.08078958 0.044712745 0.059912175 -0.119397365
000070 b4 fe f4 bd dc 27 13 bd 15 0a 5a bc 0b 6c 8d 3d
       -0.11962643 -0.035926685 -0.013308068 0.06905373
000080 c9 38 92 3d 37 43 30 3d 4d d4 cc bb 88 57 8e 3d
       0.07139737 0.04303285 -0.006250894 0.06950289
000090 7c d1 e8 bd d4 d3 96 3d a9 8e 56 3c b9 5b e8 3c
       -0.11368081 0.07364622 0.013095536 0.02836405
0000a0 a2 d0 9d 3c 45 68 36 bd 26 c1 e0 bd 4c f5 c9 bc
       0.019264523 -0.044533033 -0.1097434 -0.0246531
0000b0 a2 0d 9d 3d ac d8 30 bd 75 ee 55 3d fb e9 c6 3d
       0.07668616 -0.043175384 0.052229363 0.09712597
0000c0 09 20 ae bc fe 36 ac bd a5 00 59 bd 7c e9 c2 bd
       -0.02125551 -0.084089264 -0.05297913 -0.0951719
0000d0 97 33 35 bd 6e 12 8b 3c b8 4d cd bd 40 3e 84 bd
       -0.044238653 0.016976561 -0.10024589 -0.06457186
0000e0 aa 03 fb bd 2f b8 f6 3c 83 4e 33 3d 20 fa f0 bd
       -0.12256558 0.030117122 0.043776046 -0.117664576
0000f0 98 b5 ee bd ab 35 b6 bc 1e e2 22 bc 01 01 36 bd
       -0.1165573 -0.022242388 -0.009941606 -0.04443455

reg_head.weight f4 [1, 64]
000000 26 d4 4c be 8e 92 0e 3e d9 1b e9 bd 26 fb 10 be
       -0.20002803 0.13923094 -0.11382265 -0.14158306
000010 20 bf 72 3c e0 6f c6 bd de 56 b7 bc c8 07 98 3c
       0.014816076 -0.09689307 -0.022380289 0.018558398
000020 4e 6d 54 be 80 09 49 bb 52 63 31 3e 98 e6 aa bd
       -0.20744821 -0.0030675828 0.17323044 -0.083447635
000030 9b f2 b2 3d aa b2 8b bd 78 51 02 3d a0 43 1f 3e
       0.087376796 -0.06821187 0.031815976 0.1555314
000040 0c 58 e8 bb 2a 76 c1 3d 90 8f 22 be 4b 1d 5b 3d
       -0.007090574 0.09446366 -0.15875077 0.053494733
000050 c4 32 a6 3d ef 5b b9 bd ce 8b 2c be d0 c8 c0 3c
       0.081151515 -0.09050738 -0.16850206 0.023533255
000060 d5 b5 44 be 4d 1f 44 3d 0a 6b 01 3e 86 e9 e5 3c
       -0.19209988 0.047881413 0.12638488 0.028065454
000070 9a 8c 8d bd de 71 b4 bd 29 f0 ff bd 28 a0 34 be
       -0.06911583 -0.08810781 -0.12496979 -0.1763922
000080 87 88 c4 3d d4 ff 0c 3d 63 12 20 3e db e5 d6 3d
       0.09596353 0.034423664 0.15632014 0.1049306
000090 c0 96 79 3b b1 a4 f2 bd 94 53 91 bd 63 69 9d 3d
       0.0038084239 -0.11847819 -0.070960194 0.076861165
0000a0 d3 5e 6f be 73 ce 73 3d 48 c0 fd bb dc f5 9f bd
       -0.23376016 0.059523057 -0.007743869 -0.07810566
0000b0 ae 58 02 be 4e 72 88 bd e4 ea 74 be 03 66 f4 3d
       -0.12729141 -0.06662427 -0.23917729 0.1193352
0000c0 0d 12 3d 3d 9e 7a f3 3d 58 8d e1 bd e6 26 47 be
       0.046159793 0.11888622 -0.11013287 -0.19448432
0000d0 7a 80 3a be 7f e8 a3 3d b2 22 33 3e cb f7 64 39
       -0.18213072 0.080033295 0.17493704 0.00021836084
0000e0 f3 d0 6f bd b8 1b 4c be 6e dc 15 be 6e 6b c1 3d
       -0.05854888 -0.19932449 -0.14634869 0.09444319
0000f0 a0 98 f4 bb e6 3f d2 bd 94 9d f3 bd aa d7 e5 3c
       -0.0074644834 -0.10266094 -0.1189529 0.028056938
