grasp_placement/models/run_seed_1795/stability_net.pth (torch, 25284 bytes, 5 tensors)

fc1.weight f4 [64, 21]
0	0x3e64d73b	0.22347729
1	0x3e1c891e	0.15286681
2	0xbda14ed7	-0.07876366
3	0xbe47c787	-0.19509707
4	0x3dcd6263	0.100285314
5	0x3c9af427	0.018915249
6	0x3e1415bc	0.14461416
7	0x3e65c6c0	0.22439098
8	0xbcafde22	-0.021468226
9	0x3dbef531	0.0932411
10	0x3e0c5240	0.13703251
11	0x3e5c139c	0.21491855
12	0xbd141d88	-0.036160976
13	0xbdfebfb2	-0.12438907
14	0xbe22ebc8	-0.15910256
15	0x3dc1ce62	0.094631925
16	0xbdbee60b	-0.09321221
17	0x3e53de70	0.20690322
18	0x3d894f21	0.06704546
19	0xbe1e464d	-0.15456505
20	0x3d690c3d	0.056896437
21	0x3e2e88bd	0.17044349
22	0x3d8b6fe9	0.068084545
23	0x3e2a1f1c	0.1661343
24	0xbe842321	-0.2580805
25	0x3e13ef61	0.14446785
26	0xbe36ccfa	-0.1785163
27	0x3d2dba9c	0.042414293
28	0xbd0c0677	-0.034185853
29	0xbe3566f0	-0.17715049
30	0x3e21a306	0.15784845
31	0xbd1f334c	-0.03886728
32	0xbd9471fd	-0.07248304
33	0xbe198763	-0.14993052
34	0x3df5fe7c	0.1201143
35	0x3c9ef3a1	0.01940328
36	0xbe65c2d4	-0.22437602
37	0xbe19c582	-0.1501675
38	0xbdb605f2	-0.08887853
39	0x3e3afaa0	0.18259668
40	0xbe066c4e	-0.13127252
41	0x3dd9d8d2	0.10637058
42	0x3df365fa	0.11884685
43	0xbdb85ca7	-0.09002047
44	0x3e3254ff	0.17415236
45	0xbe020196	-0.12695917
46	0xbd8acb78	-0.0677709
47	0x3cf47dc8	0.029845133
48	0xbe04de45	-0.12975414
49	0xbdf18a7c	-0.11793992
50	0x3e16c7d8	0.14724672
51	0xbe1a15b6	-0.15047345
52	0x3e1cfeb3	0.15331535
53	0x3d2351db	0.039872985
54	0x3dece869	0.11567766
55	0xbd850900	-0.06495857
56	0xbe32f0b7	-0.17474638
57	0x3e252cc6	0.16130361
58	0xbd932d20	-0.07186341
59	0xbdc94878	-0.098282754
60	0xbc126675	-0.0089355605
61	0x3dda6b4f	0.10664999
62	0xbdb301dd	-0.0874059
63	0x3c8d021a	0.017212916
64	0x3da621d5	0.08111922
65	0xbd870502	-0.06592752
66	0x3e44b5d7	0.19209991
67	0x3d4a031d	0.049319375
68	0xbe5d3f22	-0.21606115
69	0xbd2232c4	-0.039599195
70	0xbe0798d3	-0.13241892
71	0xbdbd12d0	-0.09232104
72	0x3da31c8f	0.079644315
73	0x3d7715c9	0.06032351
74	0x3d262305	0.04056074
75	0xbd81293b	-0.06306692
76	0xbd1dd944	-0.03853728
77	0x3d44b8b1	0.048027698
78	0xbdb38e9b	-0.08767434
79	0xbe30d40d	-0.17268391
80	0x3e115e53	0.14196138
81	0xbc7f0bcf	-0.01556678
82	0xbe02b37e	-0.12763783
83	0xbda9515e	-0.08267473
84	0x3dd6c584	0.10486892
85	0xbdf59d9f	-0.119929545
86	0xbd13236a	-0.035922445
87	0x3e445bbe	0.19175622
88	0x3c553f58	0.013015591
89	0xbd61790c	-0.05504708
90	0xbc6cf164	-0.014461849
91	0x3e27787b	0.16354553
92	0xbe4a3ef8	-0.19750583
93	0xbd8b004f	-0.06787168
94	0x3e626764	0.22109753
95	0xbdabbb01	-0.083852775
96	0xbdcef98b	-0.1010619
97	0xbe46765e	-0.19381091
98	0x3a578e66	0.0008222818
99	0xbe0dd699	-0.13851394
100	0x3df66c0a	0.120323256
101	0xbe661ac2	-0.22471145
102	0x3d9845eb	0.07435211
103	0x3e01076a	0.12600484
104	0xbdbd6f7f	-0.09249782
105	0x3e26d0f7	0.16290651
106	0x3e1345d1	0.14382102
107	0xbd05f15c	-0.03270088
108	0x3c294664	0.010331724
109	0xbd042d29	-0.03226963
110	0x3d4f5042	0.05061365
111	0xbd97bce5	-0.07409076
112	0x3ddd3bba	0.108024076
113	0x3da013e4	0.07816294
114	0x3e2233cf	0.15840076
115	0xbdccd661	-0.10001827
116	0x3e019f26	0.12658367
117	0x3e393755	0.18087514
118	0x3dc320a3	0.09527709
119	0x3e2e39d9	0.17014255
120	0x3e4c17fa	0.19931021
121	0xbc4d9eef	-0.0125501
122	0x3d0d2991	0.03446347
123	0x3dbe92dd	0.09305356
124	0xbe4e80a3	-0.20166259
125	0x3e862d37	0.2620637
126	0xbe64745b	-0.22310011
127	0xbd86b362	-0.06577183
128	0x3e215747	0.1575595
129	0x3e3c21f2	0.18372324
130	0xbcbbdf66	-0.022933673
131	0x3d6a7625	0.057241578
132	0xbde192b1	-0.11014307
133	0x3e16da28	0.14731658
134	0x3d96ddd8	0.07366532
135	0xbc9deca3	-0.019277876
136	0xbdb35f06	-0.08758359
137	0x3d495fa5	0.04916348
138	0xbd9ebcc3	-0.07750847
139	0xbe410ac8	-0.18851769
140	0x3dca169e	0.09867595
141	0xbe2065c8	-0.15663826
142	0x3d1fd864	0.039024726
143	0xbe275a40	-0.16343021
144	0xbdefb89d	-0.11705134
145	0x3db1233b	0.08649298
146	0xbcfd6a86	-0.030934583
147	0x3dc5c8ab	0.09657415
148	0xbdea1e32	-0.114315405
149	0x3c7314b2	0.014836477
150	0x3e4c2f91	0.1994002
151	0x3df8893a	0.12135549
152	0x3d4173e3	0.04722966
153	0xbe12bb3f	-0.14329241
154	0xbda98cb0	-0.08278787
155	0x3df38926	0.11891393
156	0x3da57097	0.080781154
157	0x3d84fc4d	0.06493435
158	0x3ab4b953	0.0013788141
159	0xbe3b3228	-0.18280852
160	0x3c174342	0.009232344
161	0xbd26f3c4	-0.040759817
162	0x3d06339c	0.032764062
163	0x3dda4322	0.10657336
164	0xbe28e8d2	-0.16495064
165	0xbdfa34c3	-0.12217095
166	0xbd7fb9de	-0.062433116
167	0x3e5387a1	0.20657207
168	0xbe6008e5	-0.21878393
169	0x3d87e5a9	0.06635601
170	0xbe0370da	-0.12836018
171	0x3e349a3d	0.17636962
172	0xbde43676	-0.111432
173	0x3d6355a2	0.055501588
174	0xbd8ee27d	-0.06976793
175	0xbd5b3107	-0.053513553
176	0x3cbb016a	0.022827823
177	0x3d54fc81	0.05199862
178	0x3e2082d6	0.1567491
179	0x3e38e8dd	0.1805758
180	0x3e25f58c	0.1620695
181	0x3e353878	0.17697322
182	0xbc49d0e7	-0.012317873
183	0x3d0335e6	0.032033823
184	0xbdf92589	-0.121653624
185	0xbdeba449	-0.11505944
186	0x3c8e3713	0.017360246
187	0x3e495768	0.19662249
188	0xbe2a6d06	-0.16643152
189	0x3d8faf38	0.07015842
190	0xbd1e370b	-0.03862671
191	0xbc6b24db	-0.014352049
192	0xbdfef493	-0.124489926
193	0xbd02970c	-0.03188233
194	0xbd5fe12f	-0.05465811
195	0x3df8c66f	0.12147223
196	0xbcbcd02f	-0.023048488
197	0xbdddc188	-0.10827929
198	0x3d85716f	0.06515776
199	0x3e24c2be	0.16089913
200	0xbe3322bd	-0.1749372
201	0x3cf83ccd	0.03030243
202	0xbba161ef	-0.0049250047
203	0xbe24c022	-0.16088918
204	0xbe25b1b7	-0.16181074
205	0x3d49fb4d	0.049311925
206	0xbdb66efd	-0.08907888
207	0xbd4b07e8	-0.049568087
208	0xbe4c2e83	-0.19939618
209	0x3e444ab0	0.19169116
210	0x3d94e49e	0.07270168
211	0xbd969ee2	-0.07354523
212	0xbdd1cfb0	-0.10244691
213	0x3e8cb6dc	0.2748326
214	0xbe5fde9f	-0.21862267
215	0x3e21603d	0.15759368
216	0x3e396e0f	0.1810839
217	0xbe195c46	-0.14976606
218	0xbde62f5b	-0.11239501
219	0xbc181526	-0.009282386
220	0x3da4d677	0.080487184
221	0x3ca80456	0.02050988
222	0xbd0e1bc1	-0.034694437
223	0x3c4f7a2a	0.0126634035
224	0x3e5dd25f	0.21662281
225	0x3e1128aa	0.14175668
226	0xbd775f00	-0.060393333
227	0xbe30d940	-0.17270374
228	0xbda2e9e3	-0.079547666
229	0x3daff2ca	0.0859123
230	0x3e193ccb	0.14964597
231	0x3de3d47e	0.11124514
232	0x3e68f339	0.22749032
233	0xbdb28076	-0.08715908
234	0x3e1b92e0	0.15192747
235	0xbd00bf90	-0.03143269
236	0x3d9449ce	0.072406396
237	0xbe07678a	-0.13223091
238	0xbc458f33	-0.012058067
239	0x3e5495d6	0.20760283
240	0xbe3b6a95	-0.18302377
241	0xbe28aac4	-0.16471392
242	0x3e24313e	0.1603441
243	0x3d7ca1f8	0.061677903
244	0xbd53c00b	-0.05169682
245	0x3d94e84c	0.072708696
246	0x3e322805	0.17398079
247	0x3e1b60cc	0.15173644
248	0x3e5bca11	0.21463801
249	0x3e2cf85b	0.16891615
250	0x3e015d1b	0.12633173
251	0xb9ae838b	-0.00033285873
252	0xbcfc4894	-0.030796327
253	0x3dab002f	0.083496444
254	0xbe1c7411	-0.15278651
255	0x3e62cf64	0.22149426

fc1.bias f4 [64]
0	0xbd843e07	-0.06457143
1	0x3e401224	0.1875692
2	0xbe288b6d	-0.16459437
3	0xbe34dbbf	-0.17661951
4	0xbbb40453	-0.0054936795
5	0x3d8a9aa1	0.067677744
6	0x3d2b9a15	0.04189499
7	0x3d2eb24b	0.042650502
8	0x3de76f2f	0.113005035
9	0xbe2567a2	-0.16152814
10	0x3c4b68e6	0.012415146
11	0x3df9632a	0.12177117
12	0xbd9fd530	-0.07804334
13	0xbe21a23a	-0.15784541
14	0x3d8ec126	0.06970434
15	0xbd4e0699	-0.05029926
16	0x3d924c8a	0.07143505
17	0x3e7260cf	0.23669742
18	0x3ddab8c6	0.10679774
19	0x3e3a9592	0.18221119
20	0x3ca7866e	0.020449843
21	0xbd7c9799	-0.061668012
22	0x3d4c968e	0.049948268
23	0xbe0b8322	-0.13624242
24	0x3d3b9b53	0.045802426
25	0x3db38dfb	0.08767315
26	0x3dfa3950	0.12217963
27	0xbcb548a5	-0.022129366
28	0xbc8d7cf9	-0.017271506
29	0x3e26cd62	0.16289285
30	0x3dcc0934	0.09962693
31	0xbd86e598	-0.0658676
32	0x3e51f1d5	0.20502408
33	0x3e1d9074	0.15387136
34	0x3df86063	0.12127759
35	0xbbf30d78	-0.007417377
36	0xbe1a720d	-0.1508257
37	0x3de4cda0	0.11172032
38	0x3dd61c4e	0.104546174
39	0x3e62f022	0.22161916
40	0x3d9346a2	0.071912065
41	0xbe066f08	-0.13128293
42	0xbe2b6454	-0.16737491
43	0xbda82b03	-0.08211329
44	0x3e3a2d2a	0.18181291
45	0xbd82607c	-0.06366059
46	0x3b0aa6a7	0.0021156461
47	0xbdf7bf4c	-0.12097034
48	0x3e5474ba	0.20747653
49	0xbdd19b11	-0.10234655
50	0xbda0e7bf	-0.07856702
51	0x3e415827	0.18881284
52	0x3ce11f58	0.027480766
53	0x3e5f8abc	0.21830267
54	0xbd21bb93	-0.039485525
55	0xbda47e9d	-0.08031962
56	0x39948834	0.0002833024
57	0x3d5186a4	0.051153794
58	0x3c33e0f3	0.010978925
59	0xbe0a472d	-0.13503714
60	0x3e06d868	0.1316849
61	0xbb529b6b	-0.0032136093
62	0xbdcc5ec8	-0.099790156
63	0x3de97b37	0.114004545

fc2.weight f4 [64, 64]
0	0x3d5c1a41	0.053735975
1	0xbd15a8dd	-0.036537994
2	0x3d505893	0.05086572
3	0xbc861011	-0.016365083
4	0x3decdc2b	0.11565431
5	0x3d5ce8e2	0.05393303
6	0xbd66e4dc	-0.0563706
7	0xbdba2232	-0.090885535
8	0x3db7aaa8	0.08968097
9	0xbc94ec69	-0.018179135
10	0x3da956fd	0.08268545
11	0xbd1fa8a4	-0.038979188
12	0xbb57422c	-0.0032845838
13	0x3db9e874	0.0907754
14	0x3dbebeec	0.09313759
15	0x3e107a0c	0.14109057
16	0x3e0871bc	0.13324636
17	0x3d6720ef	0.056427892
18	0x3d974703	0.07386591
19	0xbbf77487	-0.007551733
20	0xbdc50cac	-0.096215576
21	0x3c52c51a	0.0128643755
22	0x3d8a6b96	0.06758802
23	0x3caa7cf6	0.02081154
24	0x3c59fceb	0.013304929
25	0x3dc0e860	0.09419322
26	0x3dba6bd0	0.09102595
27	0x3e024a09	0.12723555
28	0x3c30ab92	0.010783093
29	0x3e14526b	0.14484565
30	0x3beacdfa	0.0071656676
31	0x3de37c0b	0.11107644
32	0x3d4bfaba	0.04979966
33	0x3db378b7	0.08763259
34	0x3cb59497	0.02216558
35	0x3d86b346	0.065771624
36	0x3c0f4b2c	0.00874595
37	0x3b99754f	0.0046831737
38	0x3ca2fc6e	0.019895758
39	0x3de5826e	0.11206518
40	0x3dbe3629	0.09287674
41	0x3d46c8e1	0.048531417
42	0xbd82499c	-0.06361696
43	0xbbf26310	-0.007397063
44	0x3db4fb22	0.08836962
45	0x3c965f7a	0.018356074
46	0xbd9dfd3d	-0.07714317
47	0xbd0f7bf2	-0.035030313
48	0xbd36c550	-0.044621766
49	0x3cbaee0e	0.022818591
50	0xbd62c613	-0.05536468
51	0x3dd9e80e	0.10639964
52	0x3cddfa96	0.027097028
53	0xbddb3eb8	-0.10705322
54	0xbcc6fe64	-0.024291225
55	0xbd80bef3	-0.06286421
56	0xbd8d5238	-0.069004476
57	0x3e013c39	0.1262063
58	0xbdccc13c	-0.09997794
59	0x3cf589d1	0.029972943
60	0x3d1d506b	0.03840677
61	0x3d2c9fe7	0.042144682
62	0x3da711c1	0.08157683
63	0x3d95dd2a	0.07317574
64	0xbdc184ff	-0.09449195
65	0xbd8881d0	-0.06665385
66	0xbd8bb632	-0.068218604
67	0x3daa7ee1	0.083249815
68	0x3d965475	0.07340328
69	0xbc8e4ba3	-0.01737005
70	0xbc1e9684	-0.00967944
71	0xbd250352	-0.04028637
72	0xbdf8c90e	-0.12147723
73	0x3cb90c4d	0.022588873
74	0xbd897a0d	-0.067127325
75	0x3dcf693a	0.10127492
76	0xbd2f08dd	-0.042733062
77	0xbd003de1	-0.031309012
78	0x3d205ff3	0.039154004
79	0x3d551973	0.052026223
80	0xbb0e9742	-0.0021757637
81	0xbda30277	-0.079594545
82	0x3c8a712f	0.016899673
83	0x3d6e2d42	0.05814863
84	0xbcc0ca14	-0.023533858
85	0x3dc82a4e	0.09773694
86	0x3d134de2	0.035962947
87	0x3d75054d	0.05981951
88	0xbdf75d2d	-0.12078319
89	0x3d1f3216	0.038866125
90	0xbd5f82b7	-0.05456802
91	0xbdfd148d	-0.123574354
92	0xbde15f51	-0.11004508
93	0x3dd050de	0.10171674
94	0xbdfc2c70	-0.12313163
95	0xbd36e16d	-0.044648577
96	0xbd07efd7	-0.033187713
97	0x3d883c85	0.06652168
98	0x3d333c2f	0.043758567
99	0xbcbeb4c9	-0.023279564
100	0x3c915224	0.017739363
101	0xbd806053	-0.062683724
102	0x3d1e48bf	0.038643595
103	0xbd853dec	-0.06505951
104	0xbc30a583	-0.010781649
105	0xbd9a3bc5	-0.075309314
106	0xbce0e11e	-0.027451094
107	0x3db996dc	0.09061977
108	0xbd5af299	-0.053454015
109	0x3d45eb5b	0.048320156
110	0xbdb0c8df	-0.08632063
111	0x3cb3b08c	0.02193477
112	0xbd9ef828	-0.07762176
113	0xbdf08024	-0.11743191
114	0x3d2f1d10	0.042752326
115	0x3dc3e544	0.09565213
116	0x396aa90e	0.00022378957
117	0x3da44898	0.08021659
118	0x3d11843b	0.035526495
119	0xbb34b34a	-0.0027572685
120	0x3dc573b7	0.096412115
121	0x3dad0620	0.08448434
122	0xbd93a024	-0.07208279
123	0x3df3d2e9	0.11905462
124	0xbdb350e1	-0.08755661
125	0x3cbb0aea	0.022832353
126	0xbdb7437e	-0.0894842
127	0xbd0ddc2f	-0.03463381
128	0x3db1173b	0.08647009
129	0xbe06a997	-0.13150631
130	0x3d039187	0.032121208
131	0xbdaf602d	-0.08563266
132	0x3d6fb386	0.058520816
133	0x3df0ca7b	0.1175737
134	0xbdda9b7a	-0.10674186
135	0xbcdca9fc	-0.026936524
136	0xbdfee816	-0.12446611
137	0x3ca78b37	0.020452125
138	0xbdb89a94	-0.090138584
139	0x3ce9d639	0.028544532
140	0xbd54deec	-0.051970407
141	0xbd51b5d1	-0.051198784
142	0x3cc46477	0.023973687
143	0xbcfa0eb2	-0.030524585
144	0x3ae733b5	0.0017639311
145	0x3d8b48c2	0.06800987
146	0x3c0a0e59	0.008426272
147	0x3d1cf407	0.03831866
148	0xbd6c869d	-0.057745565
149	0x3d9de56a	0.07709773
150	0x3de9d3d4	0.11417356
151	0x3cae70a6	0.02129395
152	0xbdcfa707	-0.1013928
153	0x3c174fe3	0.009235355
154	0xbd714766	-0.05890598
155	0x3d6de0ad	0.058075596
156	0x3cad4669	0.021151738
157	0xbde744ca	-0.11292417
158	0xbce8880a	-0.028385181
159	0xbb9577ee	-0.004561416
160	0xbdf06013	-0.11737075
161	0x3ce3f8bb	0.027828565
162	0xbd652c5e	-0.055950515
163	0x3d7c6c74	0.061626866
164	0xbdcc7f91	-0.09985269
165	0x3cc6c207	0.024262441
166	0x3d4f8e18	0.05067262
167	0xbc9958be	-0.018719073
168	0xbbd4da08	-0.006495718
169	0xbdd766b2	-0.105176345
170	0x3c9923eb	0.018693885
171	0x3dd20ca1	0.10256315
172	0xbdf46343	-0.11932995
173	0x3c8da3e5	0.017290065
174	0x3d5fa5be	0.054601423
175	0xbe080afd	-0.13285442
176	0x3d902df0	0.07040012
177	0x3df4ff10	0.11962712
178	0xbcd9e7ab	-0.026599726
179	0x3dd88c44	0.105736285
180	0xbd03c110	-0.03216654
181	0xbd1db327	-0.03850093
182	0xbdc963a1	-0.09833456
183	0x3d42ebf7	0.047588315
184	0x3dcf0799	0.10108871
185	0xbd9d5f72	-0.076842204
186	0xbdf10dec	-0.117702335
187	0x3d54bcba	0.051937796
188	0xba2af300	-0.0006521195
189	0xbd7b468d	-0.06134658
190	0x3c0f11cd	0.008732271
191	0xbd24b4bc	-0.040211424
192	0x3d386a96	0.045023523
193	0x3e0a41da	0.13501683
194	0x3e1a0101	0.15039445
195	0x3d10871e	0.035285108
196	0x3da441d6	0.0802037
197	0x3bd404ec	0.0064703133
198	0x3df9110e	0.12161456
199	0xbd9acf97	-0.07559126
200	0xbd67433e	-0.05646061
201	0x3d3ecdc6	0.04658296
202	0xbac1f3ac	-0.0014797351
203	0xbd7806f7	-0.060553517
204	0x3d6fddb1	0.05856103
205	0x3dfe4a8b	0.12416562
206	0xbd987a1e	-0.07445167
207	0x3e262a6f	0.16227125
208	0xbdcd46f6	-0.100233
209	0xbd50d6af	-0.05098599
210	0xbc357f6f	-0.011077746
211	0x3cc1f1bd	0.02367484
212	0x3e026200	0.12732697
213	0x3e08eb4e	0.13371012
214	0xbd9152be	-0.0709586
215	0x3d843a4c	0.06456432
216	0x3d974885	0.07386879
217	0xbd4445b9	-0.047918055
218	0xbd9247f3	-0.071426295
219	0xbbaf0aac	-0.0053418484
220	0x3d7bc80b	0.061470073
221	0xbc258a56	-0.010103783
222	0x3da5f90e	0.08104144
223	0x3db7acf9	0.08968539
224	0x3c96ae58	0.01839368
225	0xbdc8b3f2	-0.09799947
226	0x3cb9bd12	0.022673164
227	0x3dbdb039	0.092621274
228	0x394e985c	0.00019702449
229	0x3d7ef54a	0.062245645
230	0xbbf36d10	-0.0074287727
231	0xbdc6a446	-0.096993014
232	0xbd76373e	-0.060111277
233	0xbd69eb83	-0.057109367
234	0x3cbb253d	0.022844905
235	0xbd307b27	-0.043086197
236	0xbd310a08	-0.043222457
237	0x3dce477d	0.10072229
238	0x3bc890fb	0.0061207986
239	0x3dafac9c	0.085778445
240	0x3d7c3fd7	0.06158432
241	0xbd034a83	-0.03205348
242	0xbd52caad	-0.051462818
243	0x3d46147c	0.04835938
244	0x3d3328a9	0.04373995
245	0x3e054216	0.13013491
246	0xbd6ea84a	-0.05826596
247	0x3c32c548	0.010911293
248	0x3dbdb4e9	0.092630215
249	0x3d9d45af	0.07679307
250	0x3e004970	0.12528014
251	0x3d4555e2	0.048177607
252	0xbd766f4c	-0.060164735
253	0x3d819692	0.06327547
254	0x3d3e5e69	0.046476755
255	0x3e052a6f	0.13004468

fc2.bias f4 [64]
0	0x3dfe912b	0.12430032
1	0x3db11835	0.08647195
2	0x3dc583da	0.09644289
3	0x3db6e2dd	0.089299895
4	0x3d912a67	0.07088166
5	0xbc8494e6	-0.016184282
6	0x3d2d05f3	0.042242
7	0x3d8a79c6	0.06761508
8	0x3d0d2c10	0.03446585
9	0xbd3db252	-0.046312638
10	0xbdbe0728	-0.09278709
11	0x3dcb91ea	0.0993994
12	0xbd2e81b8	-0.04260418
13	0x3d2549d8	0.040353626
14	0x3dd530e8	0.10409719
15	0x3dab5009	0.08364875
16	0x3d288aa1	0.04114783
17	0xbd8e7c92	-0.06957354
18	0xbcfe9b6d	-0.031079972
19	0xbc60685b	-0.013696755
20	0x3b3c1fd9	0.0028705506
21	0xbd923d1f	-0.07140564
22	0xbc348c8d	-0.011019838
23	0xbcb705a3	-0.022341555
24	0x3da8dfa2	0.082457796
25	0x3de54673	0.11195078
26	0x3d24d5bd	0.0402429
27	0x3c9e8951	0.019352587
28	0x3bbc0fd9	0.005739194
29	0xbd6f55c0	-0.058431387
30	0xbc687ea1	-0.014190347
31	0x3dbcae9a	0.0921299
32	0xbd102274	-0.035189107
33	0xbcf0b5a5	-0.02938349
34	0x3dae921f	0.08523964
35	0xbdfca1a4	-0.12335518
36	0x3e028ff0	0.1275022
37	0x3d8fa31b	0.07013532
38	0x3cddc7e3	0.027072852
39	0x3d9c9ed3	0.07647481
40	0x3de2d827	0.11076384
41	0xbd68de58	-0.05685267
42	0xbdb6c17a	-0.089236215
43	0x3dd4e5a9	0.10395367
44	0xbd6610b9	-0.05616829
45	0xbd10ecfd	-0.03538226
46	0x3da8ebf9	0.08248133
47	0xbd8407ee	-0.06446825
48	0x3d9d9872	0.07695092
49	0xbc02f94b	-0.007994006
50	0xbe0103bb	-0.1259908
51	0xbd0ea257	-0.034822788
52	0xbdb3afb6	-0.087737486
53	0x3cbc844e	0.023012307
54	0xbd8addc2	-0.06780578
55	0xbcd86700	-0.026416302
56	0x3da9ba8f	0.08287536
57	0x3e0d11b4	0.13776284
58	0xbd94d861	-0.072678335
59	0x3e004e7b	0.12529938
60	0x3d8918cd	0.066941835
61	0xbd287085	-0.041122932
62	0x3da0a7a3	0.07844474
63	0xbb8acad1	-0.0042356034

reg_head.weight f4 [1, 64]
0	0x3d87abdc	0.066245764
1	0xbe00c80f	-0.12576316
2	0xbd5863d1	-0.052829567
3	0x3db42b8d	0.08797369
4	0x3db0ee75	0.08639232
5	0x3cfb19c7	0.03065194
6	0xbd811901	-0.06303597
7	0x3deec98b	0.11659535
8	0x3e04ebb2	0.12980536
9	0x3d9a5a34	0.07536736
10	0xbcc03cbb	-0.023466459
11	0xbd242948	-0.04007843
12	0xbe051a81	-0.12998392
13	0xbe136c14	-0.14396697
14	0xbd61079f	-0.05493891
15	0xbda27fe1	-0.07934547
16	0xbd8b4b87	-0.06801515
17	0xbdd3cce0	-0.10341811
18	0xbdfbe360	-0.12299228
19	0xbdab115a	-0.08352919
20	0xbe0f04cf	-0.13966678
21	0xbd8afc22	-0.06786372
22	0xbe09d9ed	-0.13462038
23	0x3d9539f5	0.07286445
24	0xbd676ae9	-0.05649844
25	0x3dd2a12a	0.10284646
26	0x3e010458	0.12599313
27	0xbd8dc377	-0.069220476
28	0x3daba917	0.08381861
29	0xbddace73	-0.10683908
30	0x3e10131a	0.14069787
31	0x3dc09482	0.094033256
32	0xbd5063e3	-0.05087651
33	0xbc92e497	-0.017931266
34	0xbd69a3ba	-0.057040907
35	0x3d30a304	0.043124214
36	0x3dc9b601	0.098491676
37	0x3d64f080	0.05589342
38	0x3d0fed73	0.03513856
39	0x3dbaa769	0.09113962
40	0x3dd47cc7	0.10375362
41	0x3d774b5a	0.060374595
42	0x3daf89e6	0.08571224
43	0xbc8be33b	-0.017076125
44	0xbc648b11	-0.013949172
45	0xbddac96c	-0.106829494
46	0xbddc7289	-0.10764033
47	0xbda5e2d7	-0.08099907
48	0x3dd17d1b	0.1022894
49	0xbcecc602	-0.028903011
50	0xbdb0cfdc	-0.08633396
51	0x3e1051e4	0.14093739
52	0x3df3b671	0.11900032
53	0xbd9dab50	-0.07698691
54	0x3d8858ce	0.06657563
55	0x3df91612	0.12162413
56	0x3d06a8e2	0.032875903
57	0x3d439cc9	0.047756944
58	0x3d710f15	0.058852274
59	0x3db34c71	0.087548144
60	0x3df934be	0.12168263
61	0xbd056900	-0.03257084
62	0x3cf39a35	0.029736618
63	0xbdfa653c	-0.1222634
